option_hedging/hyperparameters/dqn_hyperparameters/dueling_double/year/0.0/best_dqn_model.pth (torch, 324116 bytes, 7 tensors)

linear1.weight f4 [256, 3]
000000 b9 0a 03 3f 38 4a a0 be 7b 74 16 bf 1d dc ca 3e
       0.51188236 -0.31306624 -0.58771485 0.39621058
000010 a2 7d fe bc f6 db 2b bf fb 3b 03 3e 3d d6 f0 bd
       -0.031065766 -0.6713251 0.1281585 -0.11759613
000020 34 7e da be 4e f9 c7 3f 3c c6 68 bf c3 27 ea 3e
       -0.4267441 1.5622957 -0.9092748 0.4573346
000030 fb 85 1e 3f 5b 94 9d 3f b4 e5 7b bd b4 97 48 3f
       0.6192319 1.23109 -0.06149836 0.7835648
000040 e5 65 9d 3e 17 38 65 3e a5 49 0d 3f c6 9c 7d 3f
       0.30741802 0.22384678 0.551905 0.9906734
000050 aa 86 6c bd 4e 86 dc 3e d0 31 f1 be e7 c8 4e bf
       -0.057745613 0.43071216 -0.47108316 -0.807753
000060 ad bd 58 3f 9c 68 c6 3f 00 fe eb 3e f0 bc 26 3f
       0.8466442 1.5500674 0.46092224 0.65132046
000070 4c 16 55 bf 17 90 2a be 66 e0 22 3e 11 de 0b 3f
       -0.8323715 -0.16656528 0.15905914 0.5463572
000080 6d f1 c5 3e 3f c8 39 bf 2d 02 5c 3d cb 0d 8a bf
       0.38660756 -0.72571176 0.053713012 -1.0785459
000090 1d 65 d7 3e a6 af e5 bf 6d 8d 3c 3e 27 f6 15 3f
       0.4206933 -1.7944229 0.18413325 0.58578724
0000a0 a6 81 15 3f 14 43 14 bd 19 ab 22 3f 8c 86 65 3f
       0.5840095 -0.036196783 0.63542324 0.8965843
0000b0 09 b2 56 3f ec f3 13 3f 2d a5 04 c0 eb 7e 85 3e
       0.8386541 0.5779407 -2.0725815 0.26073393
0000c0 e6 92 03 bf fb 44 4d 40 e7 20 f8 be 3c 3a 2e 3f
       -0.51396024 3.2073352 -0.48462602 0.6805761
0000d0 da bb 1c bf 61 03 72 3e 39 0e 09 3f ec 54 90 be
       -0.6122414 0.23634101 0.5353733 -0.2818979
0000e0 ed 41 3c bf bf 53 16 bf 1f cb a7 3e 3a 95 ed 3e
       -0.73538095 -0.58721536 0.32772157 0.46402913
0000f0 d5 fe 9c bd 5c b8 72 3f 26 ff 5b 3e b4 ce c3 bf
       -0.07665793 0.9481256 0.2148405 -1.5297456
000100 ae 18 c4 be cf c0 a6 bd ec 2a 06 3f e5 f3 2c c0
       -0.3830008 -0.08142244 0.52409244 -2.7023861
000110 80 39 9b 3e e8 7d 1f 3f c0 d1 62 3e 1a f5 18 bf
       0.30317307 0.6230149 0.22150326 -0.59748995
000120 9d 92 4f bf bc 85 95 3e a2 9a 66 be 53 a0 0b be
       -0.8108309 0.29203594 -0.22519925 -0.13635378
000130 47 f6 f7 3c cb 62 e5 bb ea 34 d2 3c 04 92 25 c0
       0.030268801 -0.0070003024 0.025659997 -2.587037
000140 2f b8 8f 3e c4 85 11 3f dd fb e0 bf 49 89 b4 be
       0.28070208 0.56844735 -1.7576863 -0.3526099
000150 72 58 a8 be a3 1b b8 3f 63 47 4c be 18 4f 5c 3e
       -0.32879978 1.4383434 -0.19949107 0.21514547
000160 5c 06 fb 3e 86 3e de 3d c4 b5 ff be d2 1e a4 3f
       0.4902829 0.10851769 -0.49943364 1.2821906
000170 38 59 0e be e5 18 e3 bc ac 59 4d be 48 74 58 bf
       -0.13901222 -0.027721832 -0.20053738 -0.8455243
000180 63 19 27 3e 53 cf d0 bf 67 73 9e be 03 d9 22 bd
       0.16318278 -1.631327 -0.3094742 -0.03975774
000190 f9 32 13 3c c6 ef 54 b9 62 29 7e be 19 0e 89 3e
       0.008984321 -0.00020307218 -0.24820474 0.26768568
0001a0 a3 0e 35 bf 30 a1 60 be 10 43 5a 3e 8f 2c 74 bf
       -0.7072546 -0.21936488 0.21314645 -0.9538049
0001b0 f8 f4 44 3d a5 c6 6f be 97 e3 e3 be 28 1e cb be
       0.048085183 -0.2341562 -0.44509575 -0.39671445
0001c0 4d 51 ac 3f fb 22 f0 bd 45 64 cc 3b 2e f0 1c 3f
       1.3462311 -0.11725422 0.006237539 0.61303985
0001d0 aa a2 ea bd dc 06 01 bf 24 15 82 bf 9f 4f 9f be
       -0.11456807 -0.5040109 -1.0162702 -0.31115434
0001e0 34 d9 d6 3f 82 dd 66 3f 70 b2 3e 3e dd 3e d2 3d
       1.6785035 0.90181744 0.18622756 0.102658965
0001f0 02 8b 24 c0 5c d6 9b 3e 61 10 b0 3e 55 b1 d3 be
       -2.5709844 0.3043698 0.34387496 -0.4134623
000200 0d ba da be 59 c1 59 bf ee fc af 3f 83 39 08 bf
       -0.4272007 -0.8506065 1.3749063 -0.53212756
000210 85 e0 b8 3e 2e b6 5e be b4 bb 18 bf 7a 9b 08 3f
       0.36108795 -0.21749184 -0.5966141 0.5336224
000220 b7 b2 8b bf 08 2d a8 bf 44 31 c0 3e 57 e1 c0 bf
       -1.0913914 -1.3138742 0.37537587 -1.5068768
000230 a5 5f 41 3e 0d fa c9 bd 75 a7 e2 bd 5d 24 26 bf
       0.18884142 -0.098621465 -0.11067096 -0.64899236
000240 fc df 95 3e 48 4a 02 c0 e3 20 2c 3e 1f 2b 92 3e
       0.2927245 -2.0357838 0.1680942 0.28548524
000250 89 68 d8 3e e9 99 1f bd 54 4d 8a 3e 3d 11 f4 bf
       0.42267254 -0.03896514 0.27012122 -1.9067761
000260 a7 04 63 3e bd 26 89 bf 2d aa c3 bc d3 5e 77 be
       0.22169743 -1.0714947 -0.023884857 -0.24157266
000270 b7 ac 1e 3e 60 a7 00 40 4c d0 d3 3d c5 f1 70 bf
       0.15495573 2.0102158 0.10342464 -0.9411891
000280 05 81 51 bd d0 3c d0 bd 3a 70 0d bf 25 45 9c 3f
       -0.051148433 -0.10167849 -0.5524937 1.2208601
000290 bb f1 5b be d5 51 ec 3e 45 b9 b5 bf f7 b0 0f 3d
       -0.21478932 0.46156183 -1.4197165 0.035080876
0002a0 df cd 81 bd 52 7d 18 3d 30 65 36 bc 3c 56 b8 3f
       -0.06338095 0.03722889 -0.011132523 1.4401317
0002b0 e2 9f 9c bf 5c ce e2 3e 6e 8e 8c bd 1a 73 b6 bf
       -1.2236292 0.44298065 -0.06863104 -1.4253876
0002c0 7c 63 35 3e 1a e6 ae be 56 de 19 40 97 53 c8 be
       0.17713732 -0.3415993 2.4041953 -0.39126274
0002d0 3d 26 2f 3e 72 71 6d be 20 38 70 be 07 7c d9 be
       0.1710443 -0.23187807 -0.2345891 -0.42477438
0002e0 77 b1 ee 3e 84 c4 bd 3e 96 a1 49 bf d0 39 a9 3f
       0.4661977 0.37063992 -0.78762186 1.3220768
0002f0 97 4f 4c be e7 1e 38 be 90 d7 24 c0 4e c9 ae 3e
       -0.19952236 -0.17980538 -2.575657 0.34137958
000300 ae 59 e1 be 13 e2 2c 3f 8a f6 98 bf f7 bf 00 bf
       -0.44013733 0.6753246 -1.1950238 -0.50292915
000310 cf ca 86 3f a0 ae ef bd 60 51 27 bf 72 5e 3a be
       1.0530642 -0.11703229 -0.65358543 -0.1820009
000320 8e a3 a3 bd 4b 16 4d 3e a2 27 d8 bf 09 17 45 3e
       -0.0799018 0.20028035 -1.6887095 0.19247068
000330 a4 4c f1 3e c2 77 21 bf 2f 20 e9 bf 00 f0 7c be
       0.47128785 -0.6307336 -1.8212947 -0.24700928
000340 1e d6 9d 3f 22 a1 a1 bf 14 fa 8e bf 85 8c 3e 3f
       1.2330968 -1.2627299 -1.1170068 0.74433166
000350 64 d3 61 bf 9a 87 17 bf 26 7a e6 3f f7 da ea be
       -0.8821318 -0.59191287 1.8006027 -0.45870182
000360 9b 8b f5 be 2b 77 50 3e 50 02 06 be 78 de 99 bf
       -0.47958073 0.20357959 -0.1308682 -1.2021017
000370 1c d3 e7 3f 3b 21 e9 be 2e df 21 3f 45 9e 52 3e
       1.81113 -0.45533165 0.6323117 0.20568188
000380 ae ba d9 3d 0c 24 7d 3e 90 97 17 c0 c4 cf 31 bc
       0.106313094 0.24720782 -2.3686256 -0.010852758
000390 af f5 65 3f c7 66 ad 3f 6d e8 0e bf 74 96 f6 bd
       0.8982801 1.354699 -0.55823404 -0.120404154
0003a0 e7 d9 11 3f ee c9 15 bf 33 f6 35 3f ec fa a5 3f
       0.5697312 -0.58511245 0.71078795 1.29672
0003b0 52 c0 8d 3e 3f 86 c1 3e 94 2d 09 c0 51 f0 83 3e
       0.2768579 0.37797734 -2.1434069 0.25769284
0003c0 65 31 87 be 6f 65 a9 bf ef 95 87 be a7 d1 75 3e
       -0.26404873 -1.323408 -0.26481578 0.24005757
0003d0 54 83 ce bd 77 ca b8 be 1e 5e fb 3e 5c f8 ac bf
       -0.100836426 -0.36091968 0.49095243 -1.3513293
0003e0 bd d5 b1 3c e2 be 56 bf 9e 07 13 3f 50 6a b1 bf
       0.021708364 -0.83885014 0.574335 -1.3860569
0003f0 65 c7 31 3f c3 9c c1 3f 38 44 f5 3e 91 5a b1 3e
       0.69444877 1.5125965 0.4790361 0.3463941

linear1.bias f4 [256]
000000 b3 b5 88 bf a1 d1 35 bf fe ef 83 bf 07 85 10 3f
       -1.068045 -0.71022993 -1.0307615 0.56452984
000010 d5 58 8d 3e 76 d3 4c 3e 7c cc 99 3e dc c2 2e bf
       0.27606836 0.20002541 0.30038822 -0.6826608
000020 65 df 23 3e 54 fd 47 3f 59 ba e0 3e be d6 5f 3d
       0.16003187 0.78120923 0.43892172 0.054648153
000030 82 1c e5 3d 50 35 af 3e dc 52 1d bf af d3 3a be
       0.11187078 0.34220362 -0.6145456 -0.18244813
000040 10 e2 99 bd f5 49 25 3d 86 0e 09 bf f2 13 3f 3f
       -0.07513821 0.040353734 -0.53537786 0.7463981
000050 33 e5 5c 3d c4 d1 85 be f7 76 5c 3d 54 6f 9c 3f
       0.05392952 -0.261366 0.05382439 1.2221475
000060 3d ab ec 3e cf c9 4f bb 06 0d ef 3e 8b 6e f6 bc
       0.46224394 -0.003170598 0.46689624 -0.030082008
000070 e7 d7 05 be 4d ce 4f 3e 77 82 fd bd 63 d5 30 bf
       -0.13070641 0.20293541 -0.123784 -0.690756
000080 74 e3 ac 3e 78 bb 4f bb cd c4 6d bf 66 61 23 bf
       0.33767283 -0.0031697433 -0.9287842 -0.63820493
000090 03 67 74 bf d9 be 26 be 05 f6 ed 3e e3 17 5b 3c
       -0.95469683 -0.1628374 0.4647676 0.013372394
0000a0 95 ab f2 3e e6 88 83 3e 4b 8d 71 bf 8a 8b bb 3d
       0.47396532 0.25690383 -0.9435622 0.09157474
0000b0 b2 7b 5a bf db 5a de be 6a 53 b3 bd c6 4c 1c bf
       -0.85344994 -0.43428692 -0.08756144 -0.61054647
0000c0 cf bc fb 3d 3a e0 89 3e e4 be 1c 3d fb af e5 be
       0.12291872 0.26928884 0.038267985 -0.44860825
0000d0 d1 67 31 3d 5c cb 63 be 21 55 8e bc ef 13 3e 3f
       0.043311898 -0.22245544 -0.017374577 0.74249166
0000e0 a5 c9 55 bc 77 35 be 3e e3 50 60 3e 7c 04 69 be
       -0.013048564 0.37150165 0.21905856 -0.22755617
0000f0 75 f2 0e be 6d b1 03 3f f5 c4 46 bd 31 69 95 3e
       -0.13959678 0.51442605 -0.048527677 0.29181817
000100 4d ce 53 be a0 15 39 bd a4 70 c6 be d5 c7 77 3d
       -0.20684166 -0.04518664 -0.38757813 0.06049331
000110 2f 31 1d 3e ca 28 da 3e 16 11 b1 bd 7d 5d b6 be
       0.15350793 0.42609245 -0.08645837 -0.356182
000120 29 f3 a7 be 17 a6 a0 3c 38 05 61 3c c4 05 47 3e
       -0.32802704 0.019610448 0.013734154 0.19435793
000130 ed ff a4 3f 76 f2 60 bf 3f 88 2d bd 02 7d a8 bc
       1.2890602 -0.87869966 -0.042366263 -0.02056742
000140 ef a9 0a 3e 6b 4d 8c bf 24 27 20 3f 60 14 a2 be
       0.13541387 -1.0961126 0.62559724 -0.3165617
000150 4c 4e 89 3e 94 29 68 3f 2f e2 ae be 54 32 3e be
       0.26817548 0.90688443 -0.3415694 -0.18573886
000160 83 50 1e be 51 41 f0 3e a3 b0 f6 3d 01 60 0d 3c
       -0.154604 0.46924832 0.120454095 0.008628846
000170 48 f4 75 3e 17 a5 80 be ec 9e cc be 4c 6b 83 3e
       0.24018967 -0.25125954 -0.39964998 0.256678
000180 b0 3c ce 3d 29 ee ad be ef 10 aa 3e 33 57 d7 3e
       0.10070169 -0.33970764 0.33216044 0.42058715
000190 0a dd 52 bf 77 f5 90 bd 35 a1 8b 3e fb 35 37 3f
       -0.8236853 -0.07078069 0.2727143 0.7156674
0001a0 7c db 17 bd c1 d9 29 3e 1f e7 1f 3f 13 a9 ea 3c
       -0.03707455 0.16586973 0.6246204 0.028645074
0001b0 69 50 15 3f fc 06 b8 3d 1e 16 68 bf 33 b5 a6 3e
       0.5832582 0.08985707 -0.9065875 0.3256012
0001c0 c3 63 91 bb a8 1d b3 3e e4 0f ee be ba 17 4c 3e
       -0.0044369414 0.34983563 -0.464965 0.19930926
0001d0 54 a3 d3 3d 05 96 37 3e f0 17 33 3f 22 ad 95 3b
       0.10333887 0.17928322 0.699584 0.004567758
0001e0 e2 49 b7 be c0 79 51 bf 7f 2e 78 3e b7 45 84 3e
       -0.35798556 -0.818264 0.24236487 0.25834438
0001f0 89 e6 a5 bf d0 5f 44 bf 82 e2 5a be c5 77 57 3e
       -1.2960979 -0.767087 -0.21375468 0.21041782
000200 7b 67 96 be 61 55 9e be b3 6e b8 be d8 60 d9 3d
       -0.29375824 -0.30924514 -0.36021957 0.106141746
000210 27 e1 f8 bd 13 2d 53 bd a1 c9 7d bc 25 4e 83 bd
       -0.121523194 -0.051556658 -0.015489967 -0.06411389
000220 93 cc 89 3e 52 23 14 3f ba 84 b4 3e 8d f9 70 3f
       0.2691389 0.57866395 0.35257512 0.94130784
000230 31 e0 ed be 47 0e fc bd 0b 7f 6e bf b9 b1 37 bc
       -0.46460107 -0.12307411 -0.931626 -0.011211806
000240 0a 5e 4d 3f bb c4 89 3e d0 b0 9c 3e 55 54 07 3f
       0.8022162 0.26907906 0.30603647 0.52863055
000250 5e af 1c 3e ec ee 3e bf 0a 2a b0 3f 23 4d 36 bf
       0.15301272 -0.74583316 1.3762829 -0.7121145
000260 e7 c0 8b be 71 74 a3 3f 2d fd b9 3e a3 ae 38 bc
       -0.2729561 1.276991 0.3632597 -0.011272105
000270 ca 0c b3 3f 12 3a a3 3d 54 1d 38 3d 10 c6 8c be
       1.3988278 0.079700604 0.044949844 -0.2749486
000280 1c 7e 1a 3f 10 c8 71 3e e9 20 ab be e4 e8 8e 3c
       0.6034868 0.23611474 -0.33423546 0.017445035
000290 29 e3 2c bd cc cb 96 3d 97 2e 37 bf 64 30 d9 3e
       -0.042208824 0.0736309 -0.71555465 0.42419732
0002a0 81 17 fa 3e c0 c0 25 bf 4b e1 32 3e 66 56 30 bf
       0.48846057 -0.6474724 0.17468755 -0.68881834
0002b0 3b f2 1b 3e 28 04 17 3e ab 09 e9 bd 7f f5 05 3e
       0.15229122 0.14747679 -0.11378797 0.1308193
0002c0 5d 1e 93 3e d8 31 9f 3e 52 18 18 bd 67 8b 25 bf
       0.28734103 0.31092715 -0.03713257 -0.64665836
0002d0 9e 87 3e 3e 36 37 5e 3f c2 68 8a 3e 7b bc 03 3f
       0.18606421 0.86802995 0.2703305 0.51459473
0002e0 56 2c a2 be b5 cf ab be 35 22 82 bd 3c ea 45 3f
       -0.3167445 -0.33556905 -0.06354181 0.7731054
0002f0 e5 39 e0 3e a6 25 ab bd 48 9c 3c 3e cb 9c 07 bf
       0.4379417 -0.0835679 0.18418992 -0.5297362
000300 54 1b 0f bd d1 fe 08 be 49 eb 04 bf 01 0b 5d 3e
       -0.03493817 -0.13378455 -0.51921517 0.21586229
000310 7b fd b5 3d a5 e1 9d 3e 37 7a af 3f 42 19 9f 3d
       0.08886238 0.30836216 1.3709172 0.077684894
000320 8d f4 aa be cf ef 85 be 34 df 34 3d 40 8e 14 3e
       -0.33389702 -0.26159522 0.044158176 0.14507389
000330 46 37 1c bd 89 88 bb be 11 2a 53 bf 36 45 26 bd
       -0.03813865 -0.36627606 -0.82486063 -0.04059335
000340 70 bd 4c bd e1 b7 af bc bd 20 94 3f d8 47 cc be
       -0.04998535 -0.021449985 1.1572491 -0.39898562
000350 6a 0a f1 3e b7 2b 38 3f be 2d bf 3e b4 7a 6d be
       0.47078258 0.71941704 0.37339586 -0.23191339
000360 57 ab 6a bc 18 55 da be 3c 6e 66 3e 65 ce 3d 3f
       -0.014323077 -0.42643046 0.22502989 0.7414306
000370 68 30 53 bf 85 38 9d 3f 6f e3 0d bf 02 2f 6f 3d
       -0.8249574 1.2282873 -0.5542516 0.05839444
000380 fd b4 ec 3c f6 e2 ac 3f 41 43 6b 3e 8b 92 6e bf
       0.028894896 1.3506763 0.22974874 -0.93192357
000390 c5 99 1c be d3 72 d0 be de e4 3e be f9 55 1e bf
       -0.15293033 -0.40712604 -0.18641993 -0.61849934
0003a0 2b df 9b bd b1 b8 12 bf c4 f5 35 3f 98 6d d2 bd
       -0.07610925 -0.57313067 0.71078134 -0.102748096
0003b0 92 79 98 bd 24 0f dc bd 89 aa 49 be a8 3e e7 be
       -0.07445063 -0.10745075 -0.1969396 -0.4516499
0003c0 a9 c9 7b 3f f6 5b 4a 3f 3b 75 c5 bc 9b c0 5a 3f
       0.98354584 0.7904657 -0.024103751 0.8545014
0003d0 2b cf 45 be 57 d5 4e 3f ba 9c 52 3d 07 e6 9e bd
       -0.1931731 0.8079428 0.051418997 -0.07758718
0003e0 f1 37 45 3e 60 5a c4 3e 1b 7d f6 bd d6 84 76 be
       0.19259621 0.383502 -0.12035581 -0.2407411
0003f0 c8 30 4b bf fb 66 73 3e 7e ec 99 3c 8d e7 19 bd
       -0.7937131 0.23769753 0.018789526 -0.03757434

linears.0.weight f4 [256, 256]
000000 29 e2 b3 3f 0e 3c a1 bf 2a 02 2e bf 26 62 32 3d
       1.4053394 -1.2596452 -0.6797205 0.043550633
000010 11 54 25 3e fe 6c 8b 3e 78 b5 64 3e bd ef 73 bf
       0.1614535 0.27231592 0.2233485 -0.95287687
000020 29 20 09 be 95 97 86 3b 88 1e ae 3d f3 ad ad 3e
       -0.13391174 0.0041074255 0.08501917 0.33921775
000030 85 b1 d9 3d b3 41 59 3e de 6f 9d be 83 91 9a 3e
       0.10629562 0.21216469 -0.3074941 0.30189142
000040 ea 91 a0 bf a2 44 b7 3d 67 25 80 bf 9d eb 9e 3e
       -1.254453 0.089486375 -1.0011414 0.31039134
000050 1f fb 26 3d 3a 88 86 3f 96 bd 42 3e cc 56 f4 3c
       0.04076683 1.0510323 0.19017634 0.029826544
000060 d2 37 85 be 09 1c 3a bd 69 f8 27 3e f3 d2 e8 bb
       -0.2601915 -0.045436893 0.16403355 -0.007105225
000070 06 d8 da 40 23 a5 8f 3d d6 61 ac bf a5 e7 d3 be
       6.83887 0.07013919 -1.3467357 -0.41387668
000080 30 79 79 be fb 80 1c bd 9c 04 a8 3e 20 ee 4d bc
       -0.24362636 -0.038208943 0.32816017 -0.01256898
000090 bf ff 06 bf a8 9a 47 c0 6e e4 ff 3d b4 14 95 3f
       -0.5273399 -3.1188145 0.124947414 1.1646943
0000a0 b3 2f 10 3e a2 be 1e 3e 96 6d 81 bf 81 01 e7 3f
       0.14080696 0.15502408 -1.0111568 1.8047334
0000b0 62 d8 83 bf b6 9a ff 3c 72 ce 8e 3e 6c 2a d5 be
       -1.030041 0.031201702 0.2789188 -0.41633928
0000c0 91 97 25 3d 89 f7 44 3e 79 ed a8 3e 76 58 4f 3f
       0.040427748 0.19235052 0.32993677 0.80994356
0000d0 04 ae 08 bf 7e 11 88 3f 59 e6 3a c0 ba 99 b9 bd
       -0.53390527 1.0630338 -2.9203093 -0.09062524
0000e0 7b 21 33 bd 54 ec 02 3e 14 2e 88 3e 1b b1 05 c0
       -0.0437331 0.12785465 0.26597655 -2.0889347
0000f0 7c fd 8f 3f 7e d8 3d 3e ec 0f c7 bf 21 c2 a7 3d
       1.1249232 0.18539616 -1.5551734 0.08191324
000100 9d 38 de bc 2f 39 0d c0 38 a2 61 3f db 6e 7e 3e
       -0.027126605 -2.2066152 0.8813815 0.24846976
000110 6c 7c 20 bd 5a 78 71 3c ca 9d 5d be d3 fc 64 3d
       -0.039181158 0.014738167 -0.21642223 0.055905174
000120 4b 6b 95 3f b2 ff ac bf 84 48 3e 3e 87 12 f0 bd
       1.1673368 -1.3515532 0.1858235 -0.11722284
000130 59 34 2b 3e cb 9e 9e be 45 6a 90 be aa 92 7f 3e
       0.16719188 -0.30980524 -0.28206077 0.24958292
000140 15 63 81 3e a6 2f 70 bf 25 e8 88 3d 6a 28 70 3e
       0.25270906 -0.93822706 0.06684903 0.23452917
000150 b0 f8 e2 bd cf f7 80 bc 65 cf b7 be 01 15 3d bf
       -0.110825896 -0.015743164 -0.35900417 -0.73860174
000160 fa 44 a4 bf e7 43 b4 be f7 71 55 3e 38 4e 6a bf
       -1.283355 -0.35208055 0.20844255 -0.915256
000170 a4 79 7c 3e dc 5c 80 be 53 a6 b0 3f 55 bd 89 bd
       0.24655777 -0.25070846 1.3800758 -0.06725565
000180 f3 b7 b0 bd c2 a9 86 3f 35 09 dd 3a ea d3 cd be
       -0.086288355 1.0520556 0.0016863706 -0.4020074
000190 9a ce 60 3e 55 6e 30 40 13 dc d1 3d 9b 5a d0 3b
       0.21953812 2.7567341 0.10247054 0.0063584573
0001a0 ed 77 e9 be b9 71 a2 bd 42 58 d4 bd 3e b0 24 be
       -0.4559931 -0.07931847 -0.10368396 -0.16082856
0001b0 21 3c a2 3a bb ac ea bd 10 dc 55 3b 52 22 83 bb
       0.0012377539 -0.11458727 0.0032632388 -0.004001894
0001c0 79 73 6a bd a2 24 63 3d 53 ed 9c be f6 e1 79 3e
       -0.05723903 0.055454858 -0.30649814 0.24402604
0001d0 11 69 99 3e 17 ed ab 3d 26 17 f8 bd 9d a8 20 3f
       0.29962972 0.08394831 -0.1211379 0.62757283
0001e0 6b 69 a6 bd a3 ab 0d bf d8 7f 57 3e da 93 8f 3e
       -0.08125576 -0.5534002 0.21044862 0.2804249
0001f0 8a 6c f2 3f c9 a9 a1 be 64 f0 0a 3f b6 e0 c0 3d
       1.8939373 -0.31574848 0.54273057 0.0941786
000200 e2 7a 82 be d9 ad 8e 3f 0a c9 18 3f b5 cd 14 3e
       -0.25484377 1.1146804 0.5968176 0.14531596
000210 4a 62 9d be 37 cf 9d c0 26 76 9e bc 40 bb fa be
       -0.3073905 -4.931545 -0.019343447 -0.48970985
000220 74 6a f4 3d 8b 51 69 be 82 3e 98 3d b1 66 29 3e
       0.11934367 -0.22785012 0.074337974 0.1654308
000230 c8 f8 fc 3e 73 74 9f 3d 8a 38 4b bf a5 6d 7b 3d
       0.49408555 0.07785883 -0.79383147 0.061383862
000240 45 2c 99 3d 10 63 47 be e1 2f 4c be 29 8f 77 3e
       0.07479147 -0.19471383 -0.1994014 0.24175705
000250 10 85 3c bf 54 72 43 bf e3 d7 c8 3d b6 d6 bc 3f
       -0.7364054 -0.76346326 0.09806802 1.4753025
000260 08 75 f8 be 8d cc 94 3d 03 69 33 bf 40 29 9c 3c
       -0.48526788 0.072655775 -0.7008211 0.019062638
000270 03 a5 87 3d 41 a1 46 3f 29 13 ce bd b2 53 16 bf
       0.0662327 0.77589804 -0.10062248 -0.5872146
000280 26 c7 06 be 28 91 8a 3c cd 22 8a 3f 3f 80 1c 3f
       -0.13161907 0.016914919 1.079187 0.6113319
000290 69 10 4d 3e 8a 6c a8 be 50 1a 9d bd 28 91 bb 3d
       0.20025791 -0.3289531 -0.07671034 0.09158546
0002a0 8e 55 43 3d 91 c3 e1 3f c6 bb 99 be 1d 9b 64 be
       0.047689013 1.7637807 -0.30026072 -0.22324796
0002b0 7f 5c 4b be 2d 73 94 3e 1d 70 4f 3f f8 9e 9b be
       -0.19859503 0.28994122 0.81030446 -0.3039472
0002c0 22 e7 0b be f4 e2 2b 3e 95 25 8d 3e 66 b2 62 bf
       -0.13662389 0.16785794 0.27567735 -0.88553464
0002d0 bd b1 38 be 63 e1 07 3e 55 36 b3 3e 46 93 51 bb
       -0.18036552 0.13269572 0.3500239 -0.003197865
0002e0 d3 d2 99 3f 2e f1 36 3e fe 1e 02 c0 a1 be 6e bd
       1.2017463 0.1786544 -2.0331416 -0.058287267
0002f0 f7 26 2a 3d af 9d 28 3e 26 bf e4 3c dd 57 8a bc
       0.041541066 0.16466402 0.027923178 -0.0168876
000300 15 91 b2 3e 18 33 40 3f b9 1a 97 3f d9 46 55 3e
       0.34876314 0.7507796 1.180503 0.20827807
000310 92 80 24 3e 75 a3 e2 be 73 bc 86 3c 6f af 23 3f
       0.1606467 -0.44265333 0.016447281 0.63939565
000320 45 8a 4d 3f d5 25 81 3f 5e 1d 3f 3e 05 8f c4 be
       0.8028911 1.008967 0.18663546 -0.38390365
000330 31 3d aa be be 5d 46 bf 66 85 00 bf 7b de 36 3e
       -0.3324981 -0.7748679 -0.5020355 0.17858307
000340 21 af 31 3f 8b ad b4 3e fe 22 73 3d 19 d6 73 3f
       0.6940785 0.35288653 0.059359543 0.9524856
000350 03 92 24 be 9c 3c 9e be c4 74 7b bc f8 d8 37 c0
       -0.16071324 -0.30905616 -0.015347663 -2.8726177
000360 e5 50 1f 3e 40 ee 92 3f c0 90 c0 3c ab 3d d1 3d
       0.15558203 1.1478958 0.023506522 0.1021684
000370 c1 10 dd be 06 63 60 bc da e1 15 40 09 46 54 bf
       -0.43176845 -0.013695484 2.34191 -0.82919365
000380 de cc 96 3e 83 18 85 3d bf 2c 76 3e 8e 29 e5 3f
       0.29453176 0.06498816 0.24040507 1.7903306
000390 fb b5 a0 3f 3f 1e 39 40 e1 a0 b6 3f fa 10 66 bf
       1.2555536 2.892471 1.4267846 -0.89869654
0003a0 0b 71 3b 40 23 49 ac bd ec 8a 2b 3d 08 8a 57 3e
       2.9287746 -0.08412387 0.041880533 0.21048748
0003b0 ca bb d5 3d ec 11 17 3e 2d 20 82 3d e8 c6 97 3f
       0.104362085 0.1475293 0.06353793 1.1857576
0003c0 00 62 e0 bc 0a 6f 63 3e fd e8 c7 bf fa 07 ec 3d
       -0.02739048 0.22210327 -1.5617977 0.11524959
0003d0 26 20 75 bf 7e 4d b1 bd aa eb 9f 3e f7 f7 d9 3e
       -0.9575218 -0.086573586 0.31234485 0.42571995
0003e0 de 40 bc 3d 8e 3b ea bc 2c 87 f8 be 67 53 31 c0
       0.0919206 -0.028592851 -0.48540628 -2.7707155
0003f0 2d bf 55 bf 6e 6c 86 be 96 c9 62 bd 67 82 8d 3e
       -0.83494836 -0.262546 -0.05536803 0.27638552

linears.0.bias f4 [256]
000000 31 f8 00 3d 47 42 33 3e 7b a9 ad 3d 67 8c 7e be
       0.031486694 0.17505752 0.084795915 -0.24858247
000010 3d 82 a5 3d 9f 27 ee 3d 71 db 15 bc 7e a9 a1 be
       0.080814816 0.11628651 -0.009146557 -0.31574625
000020 ca 35 01 bf e8 58 0b bf 52 73 e5 3d 50 89 5b bc
       -0.504727 -0.54432535 0.11203636 -0.013399437
000030 26 a4 ca be 7a b3 2a bf 80 5d 65 bd 15 06 4f bb
       -0.3957836 -0.6668011 -0.05599737 -0.0031589319
000040 ec 8c b3 3d 22 a5 2b 3e a9 2c ab 3d 07 2b a2 be
       0.08767113 0.16762212 0.083581276 -0.31673452
000050 96 2c 87 3d f3 f8 09 be 59 01 1a bd b5 b3 9f be
       0.06600301 -0.13473873 -0.03759894 -0.31191793
000060 ba 9e b0 3d 59 f4 ea be c0 89 0c 3e 1c 97 46 bb
       0.08624025 -0.45889547 0.13724422 -0.003030247
000070 9d 75 5e 3d 59 44 c3 be 2f 8d 74 be 46 69 ad 3d
       0.054311384 -0.38138083 -0.23881982 0.08467345
000080 da ae ed be 65 e2 99 bd 09 d5 be bc 02 35 22 3e
       -0.46422464 -0.075138845 -0.023294942 0.15840533
000090 eb 91 4e bd 9e a4 9a be ad 26 f9 bd bf bb 3f be
       -0.050432127 -0.30203718 -0.1216558 -0.18723963
0000a0 56 6e 6e 3e dd 86 cb be a2 a3 79 be 69 5d b9 3d
       0.23284277 -0.3975133 -0.24378827 0.0905102
0000b0 4a c6 21 3d ee bf f5 be 0a ab de be 12 b3 37 bf
       0.039495744 -0.47997993 -0.43489867 -0.71757615
0000c0 e6 ba 65 bc 42 25 89 3e 81 ed 14 bb ac 3a a0 be
       -0.014021611 0.26786238 -0.0022724571 -0.31294763
0000d0 5f 84 5b be 9f 45 5c be 2c fe 00 bd dc 64 a6 3d
       -0.21437214 -0.21510933 -0.031492397 0.08124706
0000e0 40 17 81 be f3 cd dc bc c0 81 1c be 8d b8 0b 3e
       -0.2521305 -0.026953673 -0.1528387 0.1364462
0000f0 79 45 3e be 76 1e 9a 3d 98 7d 03 bf aa d5 6b be
       -0.18581189 0.07525341 -0.51363516 -0.23030725
000100 4c 0f f4 be 61 eb 4a be fe 2a 0d 3e 81 44 d7 bd
       -0.4766792 -0.19816352 0.13785931 -0.10511113
000110 bd 82 18 bf 3c 63 be bc 19 d9 e1 bd eb 07 ee be
       -0.5957449 -0.023240678 -0.11027736 -0.46490416
000120 b5 15 70 3e 60 5f 65 3e 17 04 a3 be d7 f0 19 bb
       0.2344578 0.22399664 -0.31839058 -0.00234895
000130 97 63 b0 bc b5 6e 7b be 83 f3 ef bd 8a 09 f3 be
       -0.021531863 -0.2455395 -0.11716368 -0.47468215
000140 b3 2f 52 bc 8a cb bb 3c d7 63 a9 3e c9 45 81 bc
       -0.012828755 0.022924203 0.33083984 -0.015780346
000150 b3 d5 23 be db 49 e4 3e c4 41 22 3f d5 b6 ab be
       -0.15999489 0.44587597 0.633816 -0.33537927
000160 57 dc 87 bd 46 7d 4f 3e bd 75 a5 be 9a be 84 bc
       -0.06633823 0.20262632 -0.3231639 -0.016204167
000170 1a b8 9e be 0e 9a 40 be 57 d8 be bd b8 dd f2 3e
       -0.30999833 -0.18808767 -0.09318607 0.47434783
000180 b9 9c 0a 3e 5b 90 cd 3d f4 3c 15 3e 35 d6 ba 3d
       0.13536347 0.10037299 0.14574033 0.09122888
000190 32 33 9b be 12 d8 23 be 3e 66 23 bc 34 a5 03 bf
       -0.30312496 -0.16000393 -0.009973107 -0.51423955
0001a0 e9 b1 65 be 75 9c 1b be 36 4d a1 bd ca f1 13 bc
       -0.22431149 -0.15196402 -0.07876055 -0.009029815
0001b0 4d 77 12 3d f9 9c 82 bd 6d 93 43 bf bb 78 2a 3e
       0.035758305 -0.063775964 -0.7639683 0.16647618
0001c0 a9 ef 30 bd af db 8c bd 9c d3 4f 3e 82 30 59 3c
       -0.043197308 -0.06877839 0.20295566 0.013256194
0001d0 97 10 6e 3e 4e 46 0c be a8 da 04 3c ef de ba ba
       0.23248516 -0.13698694 0.008108772 -0.0014257113
0001e0 35 f7 5c bc 81 7d 36 bc 4c 3f ca be a7 45 0d 3d
       -0.013486673 -0.011138321 -0.39501417 0.034490254
0001f0 9d 93 79 3c 51 51 b7 bd 88 4c 71 3c 58 77 64 3e
       0.015232948 -0.08951057 0.014727719 0.22311151
000200 eb 63 57 be 6a c4 45 bf 02 39 32 bd 6b bb eb 3d
       -0.2103421 -0.7725283 -0.043511398 0.115103565
000210 fe 0c a0 3d 28 79 3d bc 6a 19 09 be 0b 70 42 bc
       0.07814978 -0.01156453 -0.13388601 -0.011867533
000220 e1 63 54 bf 4a 6a 9a be 5e b4 1d bf d5 c7 c9 ba
       -0.82964903 -0.30159217 -0.61603343 -0.0015394638
000230 65 93 32 bd 8f da be 3d 31 95 52 be c7 c0 96 bc
       -0.043597598 0.093190305 -0.20564725 -0.01840247
000240 f5 b2 55 bc 4e 23 ad be b7 2a ea be 8f d0 3a 3d
       -0.013043155 -0.33815998 -0.45735714 0.045609053
000250 79 92 03 3e 74 5e 4f bb 32 2e 89 3d 53 d9 c1 3d
       0.12848844 -0.0031641992 0.06698264 0.094652794
000260 a9 68 f7 be ca 6c 63 bd 5a fa 89 be a3 a0 0c be
       -0.48322037 -0.05552367 -0.26948816 -0.13733153
000270 28 1b 54 be 26 1d 6d 3d 8c 26 08 3e eb aa 9f be
       -0.20713484 0.057889126 0.13295954 -0.31185088
000280 33 ea 34 3c a1 fa 67 3e 89 24 01 3d 00 00 00 00
       0.011042166 0.22654201 0.031528983 0.0
000290 21 40 60 bc df f4 b0 bd 06 1f b0 be 02 91 58 be
       -0.0136871645 -0.086404555 -0.3439867 -0.21149066
0002a0 ea 14 3a bf a8 55 b1 3c f3 2a 0b bd b6 f5 d2 bd
       -0.7268816 0.02164729 -0.033976506 -0.10300772
0002b0 d3 5c 56 bc 38 2d f1 be 13 ad c0 bd 23 93 6c be
       -0.013083654 -0.47104812 -0.09408011 -0.23103003
0002c0 89 04 d9 be a5 6c 84 be 4e d6 58 3e 9d 22 ae bd
       -0.42386273 -0.2586414 0.21175501 -0.08502696
0002d0 2d 60 33 bf 9b 2b 98 3e 6f 12 ca 3d 3f ce b8 3d
       -0.7006863 0.29720768 0.09866797 0.09023713
0002e0 b0 42 e0 bc 45 52 c7 3d 69 48 94 bb 32 40 c6 3d
       -0.02737555 0.097324885 -0.0045252335 0.09680213
0002f0 61 94 d5 be ba 7a 13 3e 65 db 79 bd f9 3c 57 bd
       -0.41714767 0.14402285 -0.061000247 -0.052548382
000300 05 f6 34 be 06 a0 1f 3e 4e 5a 09 bb 92 57 45 bc
       -0.17671974 0.15588388 -0.0020958367 -0.012044804
000310 9f a5 c8 be 49 60 b5 3d e0 4a a6 3d 12 a1 3a 3e
       -0.3918886 0.088562556 0.0811975 0.18225506
000320 12 10 62 3e 6d 74 a0 be 31 df 9c 3e e3 22 d3 bc
       0.22076443 -0.31338826 0.30639032 -0.025773471
000330 32 09 25 3e 50 ad 97 bd 66 11 33 be a6 75 01 bf
       0.16116789 -0.074061036 -0.17487106 -0.5057014
000340 2e 4c 3a be e1 70 e0 be 43 94 70 3e 03 a6 7c be
       -0.18193123 -0.4383612 0.23494057 -0.24672703
000350 a4 02 2d be 04 49 45 3e 79 68 11 be cf b2 2f 3e
       -0.16895539 0.19266135 -0.1420001 0.17158054
000360 91 35 93 be 35 dd 5f be 91 93 b5 bd 68 b7 50 bc
       -0.28751805 -0.21861728 -0.08866037 -0.01273904
000370 d2 13 95 3c a2 6a 51 be 13 fa 8f 3e d3 4e 1d be
       0.018197928 -0.20450833 0.2812048 -0.153621
000380 ed e8 54 3c 0d 9d 00 bf dd 7a 1f bf 57 58 38 bc
       0.012994987 -0.5023964 -0.6229685 -0.011251531
000390 47 68 57 be 92 ec c7 be fe e9 9e be a4 db a3 be
       -0.21035872 -0.39047676 -0.31037897 -0.3200351
0003a0 12 4a 8c be 0d 86 b1 bd bf d5 fd bd 68 ae af be
       -0.2740026 -0.08668146 -0.123942845 -0.3431275
0003b0 f6 20 01 be 0d 0f e4 be 83 09 80 be 76 92 a9 bd
       -0.1261023 -0.44542733 -0.25007257 -0.08279888
0003c0 0d 99 9f bd e1 0a 39 be 52 be 0b be 00 00 00 00
       -0.07792864 -0.18070556 -0.1364682 0.0
0003d0 cd e9 5d 3e 2f 51 55 3e 9c bc 08 3d 6e 7c c6 be
       0.21671219 0.2083175 0.033382997 -0.38766807
0003e0 36 19 0a bb d6 78 4a be 04 49 fa 3d 30 71 f4 be
       -0.0021072156 -0.19772658 0.12220958 -0.47742605
0003f0 a9 f5 08 bf 50 95 06 bd 00 00 00 00 86 66 0f bf
       -0.5349985 -0.03285724 0.0 -0.56015813

V.weight f4 [1, 256]
000000 47 ae 96 3f ef 4f b5 bf e3 1e d3 3e 6f 4f 5e c0
       1.1771935 -1.4165019 0.41234502 -3.4735982
000010 02 1f c5 bf 06 9d 33 c0 71 cd 9d 3d c2 8a 09 40
       -1.5400088 -2.806459 0.077052005 2.149094
000020 71 ae aa bf a2 b0 38 3c cd a1 0a 40 a4 51 9c bf
       -1.3334485 0.011272581 2.1661255 -1.2212415
000030 bd ff 4f c0 d3 36 c8 be 88 39 bd 3f 4e d8 20 be
       -3.249984 -0.39104328 1.4783182 -0.15707514
000040 8a 63 f2 bf 0a b5 86 3f ed 02 ca bf 52 2c 42 40
       -1.8936627 1.0523999 -1.5782143 3.033955
000050 ef d3 a8 3e cf eb 8c bf a6 30 23 c0 89 53 fb 3f
       0.32974193 -1.1009463 -2.5498443 1.9634868
000060 4e f5 ac be 9d 2b b7 bf 50 af e4 bd 4d 8a 60 bd
       -0.33780903 -1.4310185 -0.11166251 -0.054819394
000070 87 df 27 be 9f 88 ad bf 87 c2 8e c0 2c 0d a3 3f
       -0.16393863 -1.3557318 -4.461246 1.2738395
000080 4f 43 03 40 1e 8f f7 be da 26 fd bf 7d 92 9b 3f
       2.0509832 -0.48351377 -1.9777482 1.215408
000090 88 5d 4f bf 97 d6 8b c0 79 8d dc bf 88 c9 31 bf
       -0.8100209 -4.369945 -1.7230674 -0.6944814
0000a0 1a a0 99 bf 98 9a a5 3f 1e 5d 64 40 c5 44 99 3f
       -1.2001984 1.2937803 3.5681834 1.1974112
0000b0 23 32 ff 3f 4a f0 9d c0 ff cc f8 3f 79 f1 5f c0
       1.9937176 -4.935582 1.943756 -3.4991133
0000c0 c2 89 00 bd ca b1 9d 3f e9 2c ba 3d bc 0e 0e bf
       -0.031381376 1.2319882 0.09090597 -0.5549123
0000d0 b8 ae 3f c0 e9 16 41 40 ab 50 5c bf eb aa 8b 3f
       -2.995039 3.0170233 -0.8606059 1.0911535
0000e0 18 ff 9a 40 08 02 5a c0 cd 33 5d 40 22 ad bd bf
       4.8436394 -3.406374 3.4562867 -1.4818461
0000f0 26 88 1b 40 5a c0 2e 3e 11 00 e0 3f d8 c7 c3 3f
       2.4301848 0.17065564 1.750002 1.5295362
000100 c9 2f b9 bf 8c 66 ee bf 05 06 56 c0 9e e9 92 3f
       -1.4467708 -1.8625045 -3.3441174 1.1477544
000110 de 40 f7 3f 17 05 05 c0 8e 3b bf bf 10 48 23 be
       1.9316671 -2.0784357 -1.494005 -0.15945458
000120 35 ed a7 bf a9 1d 27 3f 4b ec 9b bf 1b dc c9 bf
       -1.3119265 0.6527963 -1.2181486 -1.5770296
000130 68 0c 5a bf 1a c1 0f c0 3c cf 3e c0 28 b3 a8 bf
       -0.8517518 -2.246161 -2.9813986 -1.3179674
000140 6f da 18 3e b7 c1 2f c0 07 99 af bf cb 9c 7e 3f
       0.14927076 -2.7461984 -1.3718575 0.99458
000150 a2 b6 67 bf 2d 83 e1 bf d6 ba 3f bf 3f b7 98 be
       -0.9051305 -1.7618157 -0.74894464 -0.29827306
000160 e4 bb 89 be 4e 83 d5 bf 47 ae 81 40 e1 e0 df bf
       -0.26901162 -1.6680696 4.052524 -1.7490503
000170 da 25 44 c0 3d 3c 22 c0 3b 03 a0 bf 16 c4 58 c0
       -3.0648103 -2.5349267 -1.2500986 -3.3869681
000180 d8 f6 94 bf c9 18 98 3f 20 6e bf bf 29 15 b3 bf
       -1.1637831 1.1882564 -1.4955482 -1.3990833
000190 87 49 1f 40 a3 cb 67 3f b0 cc 65 3d 30 ef 7a bf
       2.4888628 0.905451 0.05610341 -0.9802122
0001a0 bc 4c d9 3f c4 f7 1c c0 10 3d 15 c0 c5 fd 1c be
       1.6976542 -2.4526224 -2.331852 -0.1533118
0001b0 1b dc 06 c0 16 a2 08 c0 9f 3b 0d 40 e2 14 2a 3f
       -2.1071842 -2.134893 2.206764 0.66438115
0001c0 ac 1d 04 c0 b8 17 b6 3f 21 c5 95 bf ab 86 81 3f
       -2.064311 1.4225988 -1.1700784 1.0119222
0001d0 e2 3d 27 3f 7c 44 08 40 fc 16 f5 bf 42 1a 98 bd
       0.653288 2.12918 -1.9147639 -0.07426883
0001e0 de 78 06 c0 86 f2 ae bf 9c 4f a9 3f 65 81 86 3f
       -2.1011271 -1.3667762 1.322742 1.0508238
0001f0 81 43 c1 3f 7c 52 25 c0 da 73 50 3f ef 03 ad bf
       1.5098726 -2.5831594 0.81426775 -1.3516825
000200 c5 c5 40 3f 4f af 47 40 74 27 f8 3e a2 97 b9 3f
       0.7530177 3.120075 0.484676 1.44994
000210 d0 cc 56 3f 69 ab 5c bd 3e 6e f3 3f 7b 52 3d be
       0.8390627 -0.053874407 1.9018018 -0.18488495
000220 ac 66 ae c0 1a 77 de 3f 85 e8 83 3f 43 47 8b bd
       -5.450033 1.7380097 1.0305334 -0.068007015
000230 01 9c 07 c0 5a f1 f3 3e 16 78 17 40 8b 21 85 3f
       -2.1188967 0.47645074 2.3667045 1.0400862
000240 b0 90 7d 3c fa c4 0a 40 db 07 c3 bf 51 67 04 bf
       0.015476391 2.1682725 -1.5236772 -0.5172015
000250 ee 52 4d 3f 4d 43 6b 3d 3f a9 c7 bf 0f 91 a4 3f
       0.80204666 0.05743723 -1.5598525 1.2856768
000260 31 43 a1 bf 3b e8 b0 bf 93 9a 31 bf 14 32 7c bf
       -1.259863 -1.3820871 -0.69376487 -0.98513913
000270 bc 01 16 40 81 94 01 c0 22 66 a1 3f ac bb 4e c0
       2.3438559 -2.024689 1.2609293 -3.2302046
000280 bd 38 2d c0 05 2c 8e bf 50 76 9a bf dc 28 d7 3d
       -2.706588 -1.1107184 -1.2067356 0.1050584
000290 ed d9 c8 bc e1 4e 48 40 31 c7 5f bf 2b 24 23 3f
       -0.024517978 3.1298144 -0.87413317 0.6372706
0002a0 96 09 4d c0 b5 e4 6f 3f 2d fd 8d 3f ca d6 35 3d
       -3.20371 0.93708354 1.1092888 0.044394292
0002b0 ea a5 f2 3c 8f 3a ce bd 3a fb 1f c0 b3 96 26 c0
       0.02962013 -0.10069763 -2.4997087 -2.602948
0002c0 ba f7 62 c0 b4 7c 73 40 2b b7 08 c0 f8 ea c0 bf
       -3.54637 3.8044863 -2.1361797 -1.5071707
0002d0 bf 81 0e 40 09 39 71 c0 42 dd 40 c0 fb de c6 3e
       2.226669 -3.7691061 -3.0135045 0.38841996
0002e0 6d 8a f7 bf 1f 94 f3 bf 68 3a 49 bd 27 79 de bf
       -1.9339119 -1.9029578 -0.049127966 -1.7380723
0002f0 ab ad e4 bf 1f 4f db bf 69 4a c3 bf 19 ff 83 bf
       -1.7865499 -1.7133521 -1.5257083 -1.0312225
000300 c4 b8 d0 bf ae 07 81 bf fe 93 2e 3f 56 69 2b bd
       -1.6306386 -1.0080469 0.6819457 -0.041848503
000310 9b 05 82 40 b5 16 8b 3f 12 f9 a7 3f e8 ed 64 3f
       4.0631843 1.0866305 1.3122885 0.89425516
000320 57 b4 ef bf 73 28 2d 40 9e 1c 34 c0 84 1c 10 c0
       -1.872691 2.7055938 -2.8142467 -2.2517405
000330 22 a9 92 3f 17 56 08 c0 d4 e9 fe 3f 38 a0 03 40
       1.1457865 -2.1302545 1.9915109 2.056654
000340 06 4a 35 bf 7d 81 23 c0 f7 0b e2 bf 30 34 49 c0
       -0.70816076 -2.5547783 -1.7659901 -3.1438103
000350 05 f9 86 bf c4 33 a7 bf 8e fc 85 bf 1d 0d ad 3f
       -1.0544745 -1.3062673 -1.0467699 1.3519627
000360 d1 2f a2 3f 4f 84 5b c0 7c 00 1f 3d 7e 86 8b 3c
       1.2670842 -3.4299505 0.03881882 0.017031904
000370 f4 7b fa bf 41 eb aa 3f c8 ff 8e bf 55 f0 84 c0
       -1.9569077 1.3353044 -1.1171808 -4.1543374
000380 c2 79 91 3f 59 c6 b6 bf 0f 48 5a c0 57 8e 9c bc
       1.1365283 -1.4279281 -3.410648 -0.019110842
000390 23 38 00 40 6c e7 3d 40 e6 55 40 40 d1 28 e3 3f
       2.0034263 2.9672499 3.0052428 1.7746831
0003a0 4b f0 cb 3f b8 95 0e c0 b5 42 a3 3f f0 f3 4f bb
       1.5932707 -2.227888 1.2754732 -0.0031731091
0003b0 dd 66 9e bf c0 e8 aa c0 b4 17 92 bf 99 86 29 3f
       -1.2375141 -5.340912 -1.1413484 0.66221005
0003c0 4f fe a9 bf 01 71 b5 3f 65 1f 82 bf 0d 61 17 bb
       -1.3280734 1.4175111 -1.0165831 -0.0023098618
0003d0 58 ab 96 bf 2a d1 06 c0 42 87 87 3e 0f 16 b4 3f
       -1.177104 -2.1065164 0.2647038 1.4069232
0003e0 b6 bd 3a 3d d5 82 21 c0 dc fd cb bf e8 4b 49 c0
       0.04559108 -2.5236104 -1.5936847 -3.145258
0003f0 ae 56 5e bf 9c 28 a3 bf d7 1a 9b 3c 49 9b 82 c0
       -0.8685101 -1.2746768 0.018933697 -4.0814557

A.weight f4 [51, 256]
000000 95 9c 2f 3f 54 18 0e 40 00 19 81 3f ba b7 0e 40
       0.685983 2.2202349 1.0085754 2.2299638
000010 be 0a 94 3f 01 02 58 40 1f 8c 08 bd ba 22 8f bf
       1.1565778 3.3751223 -0.033336755 -1.1182473
000020 c4 c5 ca 3f 10 90 81 3e ee f8 e7 3e 95 f3 c7 3f
       1.5841603 0.25305223 0.45307106 1.562121
000030 e3 77 19 40 6a 5a 01 3f 14 ab f4 3f 3b 92 21 3d
       2.3979423 0.50528586 1.9114709 0.039446097
000040 6e c5 08 40 8e 5e 78 3f b4 a7 c5 3f d6 43 cc 3e
       2.1370502 0.9701928 1.5441804 0.39895505
000050 46 db b6 3f b5 e7 cc 3f 68 be 3a 40 54 17 a6 bf
       1.4285667 1.6008211 2.9178715 -1.2975869
000060 d8 03 c2 3f df 63 e1 3f b6 59 96 3f 52 2d 98 3d
       1.5157423 1.7608603 1.1746128 0.07430519
000070 7b 0e 19 40 e3 a4 d2 3f ad bc 56 40 19 f1 2d 3f
       2.3915088 1.645657 3.3552659 0.6794601
000080 58 96 e0 be 8e 69 28 3f 85 fb b1 3f 47 87 0a 3f
       -0.43864703 0.65786064 1.3904883 0.54112667
000090 7b 02 82 3f fa 61 36 40 6d 91 e5 3f 7a 65 df 3e
       1.0157007 2.84973 1.7935005 0.43632108
0000a0 09 8b f4 3f 17 dc 2c bf 08 66 8f bf 10 12 33 3e
       1.910493 -0.6752333 -1.1203012 0.17487359
0000b0 a2 9e 9b 3f e9 b3 a1 40 d6 5c 85 bf 5a 57 2a 40
       1.2157786 5.0532117 -1.0418956 2.6615815
0000c0 2b 7c 9c 3d 75 65 39 3f bc af 7a 3d cf 34 2d 3f
       0.07640871 0.72420436 0.06120275 0.67658705
0000d0 55 7d f2 3f 27 1b f6 be 6c 98 80 3f 81 b3 6c 3f
       1.8944498 -0.4806759 1.0046515 0.924614
0000e0 01 72 6a c0 32 2e 41 40 94 ec 41 bf 67 e7 fb 3f
       -3.6632082 3.0184445 -0.75751615 1.9679993
0000f0 28 a2 17 bf 7b ea 7a 3e a8 58 a8 bf 1d 9c ee 3e
       -0.59231806 0.2450351 -1.3152056 0.4660348
000100 04 a7 ec 3f 0c 7c 13 40 93 62 0e 40 1f 70 38 be
       1.8488469 2.3044462 2.2247665 -0.18011521
000110 72 ed 8c bf ee e9 1b 40 b6 cf e0 3f d5 2b f9 3e
       -1.1009963 2.436153 1.7563388 0.48666254
000120 82 2f 24 40 b8 ff 3c 3b 25 9d a0 3f bd c9 05 40
       2.5653996 0.0028838944 1.2547957 2.0904381
000130 0e 22 0e 40 62 a9 d0 3f 84 73 4a 40 0a bf e2 3f
       2.2208285 1.6301692 3.1633005 1.771455
000140 e3 8b ae 3d 46 08 f4 3f e2 2f 32 40 a0 61 42 3f
       0.08522775 1.9065025 2.7841725 0.75930214
000150 d3 75 6e 3f 78 8f 0e 40 fe 8c 1c 40 8f 3d b8 3e
       0.93148535 2.2275066 2.4461055 0.35984465
000160 22 69 d9 3f 81 3e 0f 40 9e a4 27 c0 f8 ff 0a 40
       1.6985209 2.23819 -2.6194224 2.171873
000170 9f 53 f6 3f 74 e8 34 40 0a 3f d6 3f 54 88 82 40
       1.9244269 2.8266878 1.6737988 4.0791416
000180 f0 2e e8 3f 09 fb 41 3f c6 5e f9 3f c1 dc 38 40
       1.8139324 0.75773674 1.9482048 2.8884737
000190 8e bf 90 bf cd 1a d5 3f d3 35 05 3e f6 53 a9 3f
       -1.1308458 1.6648804 0.13008814 1.3228748
0001a0 57 69 22 bf 53 f4 47 40 31 97 b3 3f 8a b2 08 3d
       -0.63441986 3.1242874 1.4030515 0.033373393
0001b0 ef 72 85 40 e4 c5 3c 40 27 19 b0 bf cd 79 20 40
       4.17028 2.9495783 -1.3757676 2.5074341
0001c0 36 f9 34 40 4d a9 47 40 8f 4f ab 3f 4c d2 ff 3e
       2.8277106 3.1197083 1.3383654 0.4996513
0001d0 5d fa a1 3f 41 9d e6 3f bc 82 05 40 c7 7e f2 3d
       1.265453 1.801674 2.0861044 0.11840587
0001e0 85 00 1f 40 dd 92 e0 3f f3 7d 4c be 39 36 04 3f
       2.4844067 1.7544819 -0.19969921 0.5164524
0001f0 07 23 14 3f 98 f8 e5 3f de f9 3f 3f a4 63 1c 40
       0.5786595 1.796649 0.7499064 2.4435816
000200 9e b7 9c 3f ad 4b 0b c0 4c 74 80 be e4 d3 11 3f
       1.2243536 -2.176494 -0.25088727 0.56963944
000210 87 29 ca 3f 6b ba 2d 3d 1c 1c 91 3f 0c 3c e8 3d
       1.5793923 0.04241411 1.1336703 0.11339578
000220 72 c8 ad 40 58 6f 8f bf fe 2c 04 be b2 d7 63 bc
       5.4307184 -1.1205854 -0.12907788 -0.013906406
000230 24 b5 d5 3f 2f 93 89 3f a5 d3 c7 bf 89 cf 02 40
       1.6695905 1.0748042 -1.5611464 2.043917
000240 b1 57 4e 3e b5 b2 b9 bf 43 22 c7 3f 5c ab f7 3f
       0.20150639 -1.4507662 1.5557331 1.934917
000250 32 22 40 3f bc bf 83 bc 15 15 c1 3f b3 92 78 3e
       0.7505218 -0.016082637 1.5084559 0.24274711
000260 8e 09 b0 3f 25 a7 d6 3f aa b4 b8 3f 3f 98 84 3f
       1.3752916 1.6769758 1.4430134 1.0358962
000270 b1 34 0e bf 92 eb 67 40 56 61 73 3e 51 00 11 40
       -0.5554915 3.623753 0.237676 2.2656443
000280 29 1e 71 40 98 02 1c 40 75 08 13 40 dc d2 08 3d
       3.7674658 2.4376583 2.2973912 0.033404216
000290 a7 e6 a3 bd 10 ed 12 c0 bc 1e c7 3f d2 48 f2 3f
       -0.08002978 -2.2957191 1.5556254 1.8928473
0002a0 61 97 0f 40 c4 5b 3b 3f 35 5c a6 3e 82 44 70 3f
       2.2436144 0.731869 0.32492223 0.93854535
0002b0 6b dc 0f 3d 23 85 84 3f 53 37 38 40 75 38 2f 40
       0.035122316 1.035313 2.8783767 2.7378209
0002c0 10 64 29 40 9f 54 2b c0 fa c4 0f 40 dc 52 db 3f
       2.6467323 -2.6770399 2.2463975 1.7134662
0002d0 95 95 a3 bf f3 a1 38 40 f3 21 21 40 c1 a5 d5 3f
       -1.2780024 2.8848846 2.517697 1.6691209
0002e0 29 5a f7 3f bd d6 f7 3f 3d 75 cb 3c f6 a4 f7 3f
       1.932439 1.9362408 0.024836177 1.9347217
0002f0 db c6 10 40 26 21 b2 3f 4b 77 f4 3f 3f ca a4 3f
       2.2621372 1.3916366 1.9098905 1.2874221
000300 9b 71 06 40 dc f8 ed 3e b7 5f 3d 3f 39 a5 fa 3c
       2.100684 0.46478927 0.73974174 0.030596362
000310 e4 88 3f c0 af 3c c6 3e 65 96 90 3f b1 5d c1 3f
       -2.9927301 0.38718173 1.1295897 1.5106717
000320 c6 c3 10 40 bb 4b 26 3e 9a 90 30 40 e9 31 17 40
       2.261949 0.16239826 2.7588258 2.3624213
000330 d9 ab 5a 3f 04 ed 2f 40 a8 08 55 be 97 18 db bf
       0.8541847 2.7488413 -0.20804083 -1.7116879
000340 7a 74 9d 3f 34 37 06 40 b4 da d2 3f e6 6d 1f 40
       1.2301171 2.0971193 1.6472993 2.4910827
000350 c9 5b c1 3f 96 f4 68 3f e8 16 ab 3f 71 9e 8b 40
       1.5106136 0.9099821 1.3366365 4.363091
000360 0f e3 23 bf d8 6e 11 40 3d d6 a8 3f e4 04 04 bd
       -0.6401834 2.2723904 1.319038 -0.032231227
000370 45 27 0c 40 74 74 92 bf 3e 44 f8 3f 4d 8a 1e 40
       2.1898968 -1.1441789 1.9395826 2.4771912
000380 6e 2e 32 3f 13 18 cb 3f 89 f5 0c 40 6b e7 88 bc
       0.69602096 1.5866722 2.2024863 -0.016711911
000390 a2 0c c8 be d9 af c7 bf c8 da f0 bf 41 fb 88 bf
       -0.39072138 -1.560054 -1.8816767 -1.0701677
0003a0 03 18 1a bf 9f 80 1e 40 6b f9 f2 be f0 14 bf 3f
       -0.6019289 2.4766004 -0.47455916 1.4928265
0003b0 52 6b 1d 40 d6 64 95 40 65 83 ab 3f f4 7b 0d bd
       2.4596753 4.668559 1.3399473 -0.03454204
0003c0 1f 8a 91 40 7b 4d 12 bf 66 04 6e 3f 08 e9 61 bb
       4.5481105 -0.57149476 0.9297546 -0.0034471173
0003d0 c0 67 07 40 99 e1 2b 40 b1 e7 67 3f 3f 15 fc be
       2.1157074 2.6856444 0.9058791 -0.4923496
0003e0 b7 26 bd 3d 78 00 49 3f 8e 22 06 40 db 0a aa 3f
       0.092359 0.7851634 2.095859 1.3284563
0003f0 d2 00 9d 3f 73 81 40 40 02 07 14 be a8 a5 1a 40
       1.2265875 3.007901 -0.14455798 2.4163609

A.bias f4 [51]
000000 84 c2 9c 3f 3a e9 8e 3f 6f ed b5 3f 25 b3 9a 3f
       1.2246861 1.1164925 1.4213084 1.208592
000010 bc 65 a7 3f 85 fa 5f 3f 47 2d b6 3f cf 12 7d 3f
       1.3077922 0.8749164 1.4232568 0.98856825
000020 e7 28 57 3f 9a cd 84 3f eb 89 46 3f b5 b2 5b 3f
       0.8404679 1.0375245 0.77554196 0.8581956
000030 0f d1 7d 3f 87 91 8c 3f 1b 20 76 3f 4a 87 71 3f
       0.99147123 1.0981911 0.9614274 0.9434706
000040 08 3c 6c 3f 97 1d 6c 3f 7b 9a 70 3f 51 c0 90 3f
       0.922791 0.9223265 0.9398572 1.130869
000050 36 87 2a 3f 2e 50 49 3f 59 1b 32 3f e8 35 4d 3f
       0.66612566 0.7863797 0.6957298 0.8016038
000060 d1 e0 35 3f 20 fd 51 3f 6a 78 37 3f 3c 34 be 3e
       0.7104617 0.82026863 0.7166811 0.37149227
000070 d7 80 4e 3f 28 19 cd 3e 70 aa ab 3e 99 83 5d 3f
       0.80665344 0.40058255 0.3352847 0.8652893
000080 9f d6 03 3f 12 1a 1b 3f 26 a6 77 3f 7c c2 02 3f
       0.5149936 0.60586655 0.967379 0.5107801
000090 80 c5 2b 3f 9b 90 37 3f 7e a4 66 3f f5 91 60 3f
       0.67098236 0.71705025 0.90094745 0.8772271
0000a0 f1 43 4b 3f 6c 8b 1d 3f 2c f4 4a 3f 49 04 64 3f
       0.79400545 0.61540866 0.79278827 0.8906904
0000b0 44 a5 60 3f a4 e3 66 3f a0 0f 80 3f 82 d6 6e 3f
       0.87752175 0.901911 1.0004768 0.9329606
0000c0 35 91 ac 3f 3f 27 81 3f a3 d1 8a 3f
       1.3481814 1.0090102 1.0845226
