option_hedging/hyperparameters/dqn_hyperparameters/dueling_double/year/0.0/best_dqn_model.pth (torch, 97748 bytes, 7 tensors)

linear1.weight f4 [128, 3]
000000 93 37 b5 be 5e f9 94 bd 28 c4 b4 be 43 17 43 bf
       -0.35393962 -0.072741255 -0.35305905 -0.7620737
000010 d3 07 93 be 8d 4d c9 be ce 40 a4 bf 3f e7 22 3f
       -0.28716907 -0.3931698 -1.2832277 0.63634104
000020 90 e1 7d bf 00 05 15 3e 97 69 c7 3e da dc 4d 3f
       -0.99172306 0.14552689 0.38947746 0.8041512
000030 2c c6 a8 3e 0f 38 ad 3f 38 6c 52 3e e0 88 54 3c
       0.32963693 1.3532733 0.20549095 0.012972087
000040 92 1a 13 40 7d a7 09 be ac 55 d9 3e f6 90 23 40
       2.2984967 -0.13442798 0.42448175 2.5557227
000050 a4 1e 97 bd b7 7c cf bd d5 d6 88 bf b3 ab 0b bf
       -0.07378891 -0.10131209 -1.0690562 -0.5455887
000060 5c 4c c0 3e d2 80 8a 3f a2 e0 17 be b5 25 c8 3d
       0.37558258 1.0820563 -0.14831784 0.09772817
000070 8d 0a f1 3f fa 30 66 bd 87 18 93 bd d9 74 9e 3f
       1.8831345 -0.05619905 -0.071824126 1.2379409
000080 bb c0 86 be 04 c2 54 be 6c 6a ba be f1 ae 88 be
       -0.26318917 -0.20777136 -0.36409318 -0.2669597
000090 96 4d 07 3f a5 cb 57 be 5e c5 dc bf 32 65 fd be
       0.5285276 -0.21073778 -1.7247732 -0.49491268
0000a0 89 71 b6 3f 50 79 47 be c5 f4 73 3d 32 86 20 40
       1.4253398 -0.19479871 0.059559602 2.5081906
0000b0 2d ae 0a be d6 28 47 bf 9c 9d 6c 3f 21 a6 80 be
       -0.13543005 -0.77796686 0.9242799 -0.25126746
0000c0 57 16 33 bf 24 be d8 3f 01 85 1a be 35 92 b4 3e
       -0.6995596 1.6933026 -0.150898 0.35267797
0000d0 17 26 9e be 85 0f c9 bd 55 2a e4 bd 9b eb c2 bf
       -0.30888435 -0.09817413 -0.11140887 -1.5228151
0000e0 26 6f 81 3c 4d da 67 3d 86 7f a9 3f 46 5c d8 3d
       0.01580007 0.056604672 1.3242042 0.10564475
0000f0 54 e7 0f bf 8e 82 88 3f d4 07 52 be 63 22 1a bf
       -0.56212354 1.0664842 -0.20510799 -0.6020872
000100 cc 94 69 3e a3 07 d8 be 8b 76 03 be 79 80 3d be
       0.22810668 -0.42193326 -0.1283819 -0.1850604
000110 89 67 ae be 00 1b 12 bf 38 69 a3 3f b0 df e6 be
       -0.34063366 -0.5707245 1.2766485 -0.45092535
000120 89 f3 af 3e 3f 3e b7 bf ec 70 da 3e de 53 44 be
       0.3436549 -1.4315871 0.42664278 -0.19172618
000130 bb de 31 3d da 3f ef bb 54 28 c7 3e d4 37 aa bf
       0.043425303 -0.007301313 0.38897955 -1.3298287
000140 26 9f 8d 3e a5 ca 82 3f 07 89 ea bf 62 ba 57 3d
       0.27660483 1.0218092 -1.8323067 0.052667983
000150 6b 97 9d be 25 28 bb 3f 56 0e a2 be fc 10 70 be
       -0.30779585 1.4621626 -0.31651562 -0.23443979
000160 95 82 aa 3f e8 71 9b be f4 4b 84 bd 0d 09 0c 40
       1.33211 -0.3036034 -0.064597994 2.1880524
000170 ba 6e 1d be 31 bb 0d bf a4 20 05 40 a7 05 34 bf
       -0.1537427 -0.55363756 2.0801172 -0.70321125
000180 5e e4 31 be 34 eb c2 bd dc 84 ec be 05 d0 c1 3e
       -0.17372271 -0.09517518 -0.46195114 0.3785402
000190 e5 1f 91 bf a9 4e 91 3e e6 7c 38 bf d9 43 c7 3f
       -1.1337858 0.28380325 -0.7206558 1.556758
0001a0 33 aa 33 bf e7 4c 74 bf ef a6 fa 3f cb 83 4d bf
       -0.7018158 -0.95429844 1.9582194 -0.80279225
0001b0 65 a0 7d be 9e 0f 99 be 1d 02 e4 be aa d7 20 bf
       -0.24768217 -0.29894727 -0.44532862 -0.6282908
0001c0 c0 24 a3 3f bb 97 5b be 39 cd 19 be 25 17 19 40
       1.274559 -0.214446 -0.15019692 2.3920376
0001d0 1b 8b a9 bf 80 99 06 bd e3 94 84 bf b4 b0 9a 3e
       -1.3245577 -0.032861233 -1.0357937 0.3021294
0001e0 17 10 42 3f 6f aa 02 40 24 73 a3 be 8c 71 b6 3e
       0.758058 2.0416524 -0.31923783 0.35633504
0001f0 62 a0 c8 bf d1 e9 93 3e 01 48 c2 3c 52 2a 9e be
       -1.5673945 0.28889325 0.023715975 -0.30891663
000200 a9 3c df be e3 b0 25 3c d1 a2 8e 3f 79 9d ea 3e
       -0.43600968 0.010112974 1.1143438 0.45823267
000210 8f fc 92 be 15 1e 82 be 7d d0 02 bf da e0 30 bf
       -0.28708312 -0.25413576 -0.5109938 -0.69093096
000220 fd 99 b7 bc e2 19 38 be 17 6d 06 bf cf 47 8d bf
       -0.022412295 -0.17978624 -0.5251021 -1.1037539
000230 6e 3d 0e bf 7c b4 76 bf d0 96 ab be de e7 60 be
       -0.55562484 -0.9636915 -0.33513498 -0.2196345
000240 3f 0c 76 3d a5 8b 8b bf 6c 5a 9e 3e d8 ae cf 3e
       0.060070273 -1.0901991 0.3092836 0.40563083
000250 da c3 c6 3f cd fc a4 3c 9c b4 fc 3d 69 c2 a0 bf
       1.5528519 0.020140076 0.12339136 -1.2559329
000260 e5 a1 a6 3e 86 b5 53 bf c8 7c 0d be c9 11 fe bd
       0.3254539 -0.8269886 -0.13817132 -0.12405736
000270 c3 70 90 be 2d a4 13 40 cc c9 04 bf ca 3a 43 bf
       -0.2821103 2.3068955 -0.5187042 -0.7626158
000280 33 50 45 be fb ea 93 be 9a c2 da be 45 f4 95 3f
       -0.19268875 -0.28890213 -0.42726594 1.171517
000290 09 6d f4 bd a2 7f 2e 3f 31 43 b3 bf ae 1e 0a 3f
       -0.11934859 0.681635 -1.400488 0.53953063
0002a0 91 e9 8d 3d 73 49 ca bf 3c 62 e6 3d 5f 67 6a 3f
       0.06929315 -1.5803665 0.112492055 0.9156398
0002b0 e6 49 b4 bf 07 6e 06 3e 74 4d 1d bf 0d 75 9f 3f
       -1.4085052 0.1312791 -0.6144631 1.2457596
0002c0 a2 66 ff bd 15 db 29 bf d9 54 84 3f 39 0e da bd
       -0.124707475 -0.6634992 1.0338393 -0.10647244
0002d0 fb 21 be be e8 58 53 3f 89 5d 75 be 91 81 5a bf
       -0.371353 0.82557535 -0.23961462 -0.8535395
0002e0 99 da f0 3e 57 c0 92 be c2 1b 37 3f fd cb af bf
       0.47041777 -0.2866237 0.7152673 -1.3734127
0002f0 c6 4e a9 bd 7d 4a 44 3e 5b d3 07 c0 44 b5 da 3d
       -0.08266978 0.1916904 -2.122275 0.10679105
000300 e8 4e be be 35 3d aa be bb 38 53 be 5d 41 89 3e
       -0.37169576 -0.33249822 -0.2062711 0.2680768
000310 ed 66 b1 bf 9b 59 9b 3e ef 57 72 bf a5 2a 55 3f
       -1.3859535 0.303418 -0.94665426 0.83268195
000320 c1 83 cd be 38 b5 86 bb bc 5a 04 c0 d4 ed b2 3d
       -0.40139583 -0.0041109584 -2.068038 0.08736768
000330 cc f0 06 bf 6b 4e b4 be be d2 e7 3b 5c b3 32 3e
       -0.52711177 -0.35216078 0.007074683 0.17451233
000340 f5 89 e0 3f 5a 2e 24 3e b0 83 5f bf 1d 29 ef 3e
       1.7542101 0.16033307 -0.87310314 0.46711054
000350 69 a6 ec be 60 f4 0b bf 15 9c ae 3f a0 9a 4d be
       -0.4622071 -0.5466976 1.3641382 -0.20078516
000360 b5 6d 5c be 11 cb f8 3d ab 02 c4 bc 0d 65 31 bf
       -0.21526225 0.12148107 -0.023927053 -0.69294816
000370 32 90 40 3d 5c 7d a9 be ea 1e 2b 3e e8 e8 bb 3f
       0.047012515 -0.33103454 0.16711012 1.4680452
000380 29 89 d8 3e 1e a0 65 3f 6b d0 de bf 75 83 8b 3e
       0.42292145 0.89697444 -1.7407354 0.2724873
000390 6c 37 28 bf 8b 88 a6 3f a9 69 5d be e0 45 70 bf
       -0.6570957 1.301042 -0.21622337 -0.9385662
0003a0 28 b6 29 3f a9 a3 11 bf 2c d0 4a 3b a0 ee fe 3f
       0.66293573 -0.5689035 0.0030946834 1.9916573
0003b0 9b 18 28 3e 11 f8 06 bf 73 3a b4 3f 25 fb d6 bd
       0.16415636 -0.5272227 1.4080337 -0.10497121
0003c0 3d 67 fc 3c 35 8b 9d bf ce 0b c1 3e 16 27 cb bd
       0.030810947 -1.2308108 0.3770432 -0.099195644
0003d0 54 ce 58 be a1 cd ee be 8e 75 5e bf 63 e3 50 3f
       -0.21172458 -0.46641257 -0.86898124 0.81596965
0003e0 06 12 02 bf f7 63 48 bf 92 24 a7 3f d2 10 59 bf
       -0.5080875 -0.78277534 1.3058035 -0.8479129
0003f0 2b 04 5c 3e be d2 5b 3f f4 2f 6a 3f fa 98 7a bd
       0.21485965 0.8586844 0.9147942 -0.061181046

linear1.bias f4 [128]
000000 fb 3f 7c bf 45 ce 7c be aa 67 fb bc 49 ae 73 3e
       -0.98535126 -0.2468806 -0.03068908 0.23796953
000010 f7 20 1a 3f 29 52 af bd 32 d0 f3 bd 4b 74 6f be
       0.6020655 -0.08560593 -0.119049445 -0.23384206
000020 da 0d 35 3f 46 44 2c 3f df af 2e be 8e e1 3e bf
       0.7072426 0.67291677 -0.17059277 -0.7456292
000030 cb cb 0c 3f 7f ed 1d be 43 a2 65 be a4 1f a4 3d
       0.54998463 -0.15422629 -0.22425179 0.080138475
000040 5e e2 b1 bd 6d e6 06 3f 82 64 4c 3e b4 d5 15 3f
       -0.08685754 0.5269535 0.19960216 0.5852921
000050 74 6c a2 bd 69 e1 e8 be c3 e0 7b bf bb 79 0d 3e
       -0.07930842 -0.45484474 -0.98389834 0.13815968
000060 a9 0d 98 3e 44 5a 48 bb 77 c6 f0 3d ac fd 61 3e
       0.29697922 -0.003057138 0.11756604 0.22069424
000070 c0 67 8b bd e0 c4 a3 bd 9e 9d 58 be cb e2 be 3e
       -0.06806898 -0.07996535 -0.21153876 0.37282404
000080 ac e5 16 bf b4 9e e9 3d 62 6b 0a 3f 41 c8 40 3e
       -0.589442 0.11407223 0.54070103 0.18826391
000090 9a 74 24 bf 2e 99 d2 bd f6 d4 a1 be c3 e1 9b 3e
       -0.6424042 -0.10283123 -0.3160779 0.3044568
0000a0 e9 19 00 3f da c9 16 3e b9 80 58 bf 8a 48 c8 3e
       0.50039536 0.14725438 -0.84571415 0.39117843
0000b0 62 fb 31 bf b3 31 cd be 50 53 8e 3c 05 0e 13 be
       -0.69524205 -0.4007698 0.01737371 -0.14360817
0000c0 69 d9 72 3e 5e c2 32 3f 61 69 5f 3e 62 ad 8d be
       0.23715748 0.6982783 0.21817543 -0.27671343
0000d0 a8 77 cd 3e b1 59 d5 be fe 3a 07 be 0d 97 e1 3e
       0.40130353 -0.41669992 -0.13206097 0.44060555
0000e0 de 64 71 bd e1 3a 35 3d 2c 0b 8c bd 6c a9 45 bd
       -0.058934085 0.044245604 -0.06838068 -0.048257276
0000f0 54 0c 43 be 4e f5 93 bd ea 43 2d 3f 90 09 12 3d
       -0.19047672 -0.072245225 0.67681754 0.03565365
000100 64 53 65 bf 75 92 69 3e b6 e9 1d bc 66 a4 95 3e
       -0.8958037 0.22809775 -0.009638241 0.2922699
000110 b2 a3 8e be 20 42 05 3f 34 dc 56 be c0 e8 09 be
       -0.27859265 0.52054024 -0.20982438 -0.13467693
000120 0c a1 80 bb 4c f3 dc be e6 79 1d bd 0e 9e 59 be
       -0.0039254483 -0.4315437 -0.03844633 -0.212517
000130 c2 c6 ae bd 17 e9 9a bd b9 1d 16 bd a8 bb c0 bd
       -0.08534004 -0.075639896 -0.03664944 -0.094107926
000140 d3 57 a9 3e 54 40 6c bf 6a 4c 55 3f 4e 9e 81 be
       0.33074817 -0.92285657 0.83319724 -0.2531609
000150 da e4 14 3e 66 cc 19 3f fe 51 94 3e 68 46 05 be
       0.14540425 0.6007751 0.28968805 -0.13015139
000160 6f 3a a9 3d a1 c2 ce bd e0 68 5b 3e 90 25 3d 3d
       0.082630984 -0.10095716 0.21426725 0.0461784
000170 78 31 fb 3e e8 8d 4e bf ec d7 93 bc 21 3a a0 3e
       0.4906118 -0.8068528 -0.018047296 0.3129435
000180 9d e6 4d be 8e c7 90 3e 45 d5 bd be 6c c8 b6 be
       -0.20107503 0.28277248 -0.37076774 -0.35699785
000190 b1 d7 1b bf 48 b7 0a 3f 5c de b2 3d 30 6e 1f 3f
       -0.60875994 0.54185915 0.08733818 0.6227751
0001a0 48 d8 31 be 92 94 4c 3e a5 8b b3 3e 73 f4 85 3e
       -0.17367661 0.1997855 0.35067478 0.26163062
0001b0 a6 fc ef 3e 56 d1 47 3e 57 d0 22 3f 9b 2d 4c 3e
       0.46872443 0.19513449 0.6359915 0.19939272
0001c0 fd d9 4f bb dc 40 f8 3e 33 b3 f6 3e 9b 44 19 3f
       -0.0031715625 0.48486984 0.48183593 0.5987031
0001d0 94 e7 77 be c8 36 51 3e 56 76 8c 3f e9 6f 07 3e
       -0.24209434 0.20431054 1.0973613 0.13226284
0001e0 b8 75 13 bf 4a c5 7b bf 96 cd 3c 3f 94 cb bc 3d
       -0.576015 -0.98347914 0.737512 0.09218517
0001f0 96 68 c7 be 42 62 6c bf dd 24 ab 3e 2c 35 19 be
       -0.3894698 -0.9233743 0.33426562 -0.1496169

linears.0.weight f4 [128, 128]
000000 17 86 74 3e 36 a6 60 3f 49 6d b9 3d 89 e2 a7 be
       0.23879276 0.8775362 0.090540476 -0.3279002
000010 56 64 b8 3c e0 6b 84 bd d4 a1 3e 3d 6f a7 23 3f
       0.022508781 -0.06465888 0.04654105 0.6392736
000020 db e5 9e 3c 4e 79 67 3e 05 cc c7 bf 63 96 91 be
       0.019396713 0.22604868 -1.5609137 -0.28435048
000030 2b b4 0f 3e 68 49 c4 3d 7e ad 5d c0 f4 a0 12 3e
       0.14033572 0.09584314 -3.4637141 0.14319211
000040 90 d6 a1 bd 41 15 95 3d e3 53 87 be f5 71 8d 3c
       -0.07902253 0.072794445 -0.26431188 0.017266253
000050 0a e4 00 bf b2 47 03 3f 29 38 69 3f 7a 6b 57 3f
       -0.5034796 0.51281273 0.9110132 0.8414837
000060 09 d3 9a 3e 8a 1c 91 bd f8 41 4f 3f f7 e8 ed 3b
       0.30239132 -0.070855215 0.80960035 0.0072604376
000070 56 ad ba bf 96 77 05 c0 9f 94 f4 bf 84 ac d4 3e
       -1.4584148 -2.085424 -1.9107856 0.4153787
000080 be 49 66 be 90 93 d6 3e aa 18 75 3e 39 a6 31 3d
       -0.22489068 0.41909456 0.2393519 0.043371413
000090 3a e5 97 be b2 9a f5 be 1f ed dc 3e c3 81 67 3f
       -0.29667073 -0.47969586 0.4314966 0.90432376
0000a0 3e b6 81 bd 07 b9 16 3f 74 99 fe be 69 77 3d be
       -0.06333588 0.5887608 -0.4972645 -0.18502583
0000b0 f5 a7 92 bc 61 54 04 40 aa c3 90 3d 38 04 39 bd
       -0.017902354 2.06765 0.0706857 -0.04517004
0000c0 3d 4e 4c 3f e1 9f 92 3d 47 f0 7b 3f 3d 2c ba 3f
       0.7980688 0.07159401 0.9841351 1.454475
0000d0 3a 51 9a be 34 0e 36 40 1e b6 c2 bf 29 25 54 3d
       -0.30140096 2.844617 -1.5211828 0.05179325
0000e0 fb 10 e2 be 74 52 0c 3b 67 d4 f8 be 3b 21 2d be
       -0.4415358 0.002141145 -0.4859955 -0.16907208
0000f0 9b 35 fe 3f c8 2c 1f 3e b2 12 74 3d c0 5c 19 be
       1.9860109 0.15544426 0.05958814 -0.14976788
000100 1d dc 53 3f 68 90 ca 3e 72 8c 53 be 3e dc 6d bf
       0.8275774 0.39563298 -0.20659044 -0.9291419
000110 f9 01 d9 3f aa 8a 45 be 46 30 5e 3f bb b0 56 bd
       1.6953727 -0.19291177 0.8679241 -0.052414637
000120 b5 4c d3 bb 1b ba 0c 3f bb f5 a8 be 18 28 9c 3d
       -0.006448353 0.54971474 -0.32999977 0.07624835
000130 d3 0a 2a 3e 5b 35 a4 3e 79 a7 3c be 38 90 9c be
       0.16605692 0.32071957 -0.18423261 -0.3057878
000140 c7 00 08 3f 23 82 35 be c8 a1 d5 bd e0 f5 76 3e
       0.53126186 -0.17725424 -0.10431248 0.24117231
000150 fb ac 69 be 3f 45 c3 bd b2 c1 9f be da 99 69 bf
       -0.22819893 -0.09534692 -0.31202465 -0.91250384
000160 fc 4a cf bd af 2f 13 c0 94 e8 5e 3f d1 37 92 3f
       -0.10121724 -2.2997854 0.87073636 1.1423284
000170 ae 56 d3 bd 7d c2 3f bf 5b 44 2f 3f 09 cf e0 3e
       -0.10319267 -0.7490614 0.6846368 0.43907955
000180 07 9c fd be 42 6c 3e 3f 9f d2 00 40 f6 67 1f bf
       -0.49533102 0.7438394 2.0128553 -0.62268007
000190 ec b1 ba bd 80 ad 92 bd b7 4e 20 3f d3 6b f2 bd
       -0.09115967 -0.07161999 0.6262011 -0.11836972
0001a0 f3 87 e0 3d c1 ca 55 be e1 e4 85 bd de 1a 52 be
       0.1096343 -0.20878126 -0.06537796 -0.20518062
0001b0 e8 02 0b 3e f0 79 ff 3d e8 e1 9d bd c3 85 27 3e
       0.13575327 0.124744296 -0.07709104 0.1635962
0001c0 23 3a ab bd 6a 21 84 bd 20 6b 9c 3e 45 26 65 3d
       -0.08360698 -0.06451686 0.3055048 0.0559447
0001d0 ec 34 bb 3d ae db 5c 3f de 1f d1 3c b3 6f e2 3e
       0.091409534 0.86272705 0.02552789 0.44225845
0001e0 f3 41 64 bf 66 b7 e3 be 44 0f 7b 3e 48 5f ac 3e
       -0.8916313 -0.4447586 0.24517542 0.33666444
0001f0 83 59 c6 be 5f e1 66 3f 00 90 82 3e cf a0 02 c0
       -0.38740167 0.9018764 0.25500488 -2.041065
000200 1c dd d7 3d 64 90 63 be 83 9f ec bd a5 b4 a6 3d
       0.1054022 -0.2222305 -0.11553862 0.08139924
000210 8b 13 67 be dc dd 80 3c d2 5d 91 bd ca 70 3d bf
       -0.22566049 0.01573079 -0.07097973 -0.7400023
000220 a3 94 a3 bd e1 dd 2b bd 33 8e f6 3f 4f bf 2c 3f
       -0.079873346 -0.041959647 1.9262146 0.67479414
000230 2d 33 92 be 01 19 0d 3e 84 0b 2b 40 24 b8 b7 3d
       -0.2855467 0.1377907 2.6725779 0.08970669
000240 35 4a d2 3e e9 6e 3c be cf 84 1d bd af de 1d 3d
       0.4107224 -0.18401684 -0.038456734 0.038542446
000250 52 c6 30 3f b2 39 f6 3c 9c 5a ba be a5 26 89 3d
       0.6905261 0.030056808 -0.36397254 0.06696824
000260 cd 3c 68 bf 1f fc 30 bd de 5d 94 bf 39 62 02 bf
       -0.90717775 -0.04320919 -1.1591146 -0.50931126
000270 3a bc eb 3f 81 18 1c 40 15 67 8c 3f c2 71 e0 3e
       1.8416817 2.4389956 1.0968958 0.4383679
000280 e3 34 90 3e 96 74 6b bf ce 7e 21 be 3d 48 b6 3e
       0.2816535 -0.9197477 -0.15771028 0.35601988
000290 86 b9 b5 3e ff 35 41 3f 27 d0 8b 3c 39 d0 58 bf
       0.35493106 0.75473017 0.017067028 -0.8469272
0002a0 79 62 0d be 1f c2 66 bf 15 4a 19 3f c0 9c 40 3d
       -0.13807096 -0.90139955 0.59878665 0.04702449
0002b0 cf 00 54 3e 6e 82 c0 bf 86 89 ef bd 44 cd 9c bc
       0.20703433 -1.5039804 -0.116961524 -0.019140847
0002c0 e5 8e 76 bf 4d 7a ba be 8d 8f 8d bf 18 ac 8a bf
       -0.9631179 -0.36421433 -1.1059433 -1.0833769
0002d0 f6 b4 58 3d d3 01 f4 bf 29 e9 fe 3f 5b 48 44 bf
       0.052906953 -1.9063057 1.9914905 -0.76672906
0002e0 f4 82 90 bd 5b 18 cf be d7 97 72 3f 0d e6 07 3f
       -0.07056227 -0.4044827 0.9476294 0.53085405
0002f0 b1 3e d7 bf 22 a1 ff bd b3 25 c7 be df 2b 72 3d
       -1.6816007 -0.124819055 -0.3889595 0.05912387
000300 97 ea 2c be 2c 05 97 bf 14 16 2a 3e 9f 0b 99 3e
       -0.16886364 -1.1798453 0.16609985 0.2989168
000310 4a 56 c0 bf ef 70 9f 3d af b4 f9 be a9 e7 26 3f
       -1.5026333 0.07785212 -0.48770663 0.65197235
000320 01 57 63 3d 11 25 6f 3d 42 28 c5 be 60 79 a5 be
       0.055502895 0.05838496 -0.38507277 -0.32319164
000330 e2 49 90 3e b3 61 1d be 81 51 8f bd 4a 49 16 3f
       0.28181368 -0.153693 -0.069979675 0.5870558
000340 24 ab 83 bf 23 51 12 3f 7b 33 71 be 41 bd 91 3c
       -1.0286603 0.57155055 -0.23554794 0.017790439
000350 2b 3b 1b be 82 6a ce bd 08 e5 16 be 3c 66 ba 3d
       -0.1515929 -0.100789085 -0.14735806 0.09101531
000360 8e a2 82 3e 46 06 35 40 b9 29 a4 bf 15 47 04 be
       0.25514644 2.828508 -1.2825233 -0.1291774
000370 0c 97 85 3c 79 7d 66 3f 77 63 e5 be 84 66 06 bd
       0.016307376 0.90035206 -0.44802448 -0.03281261
000380 e0 8e 6e 3f 9d b4 87 bf 74 fb dd bf d2 38 79 3f
       0.9318676 -1.0601994 -1.7342362 0.97352326
000390 b4 13 2a 3c 74 36 89 be 33 ed 96 bf d3 4e b5 be
       0.010380674 -0.26799357 -1.1791137 -0.354117
0003a0 80 66 d0 be f5 8d 37 be ca 1a 26 be 1a 7c 0d be
       -0.407032 -0.17925246 -0.16221157 -0.13816872
0003b0 63 2b 52 bf 9a 23 a1 3c 62 40 9c 3d ef d4 18 be
       -0.8209745 0.019670296 0.076294675 -0.14924978
0003c0 89 5f 3d 3d 40 a1 54 3e 1c 10 7f be 5f 20 39 bd
       0.046233688 0.20764637 -0.24908489 -0.045196887
0003d0 4e c6 83 be 78 7f 9f bf 71 6b 4f be 0c 31 a6 be
       -0.25737232 -1.2460775 -0.2025583 -0.32459295
0003e0 b7 ab 77 3f 0f 6c f9 3e e4 54 c7 bd 7b 44 07 be
       0.9674639 0.48715255 -0.097329885 -0.13209717
0003f0 bb 37 b8 3e bd f1 a2 be 7d f0 c5 be 48 37 19 40
       0.3598002 -0.31825057 -0.3866004 2.393999

linears.0.bias f4 [128]
000000 ec a2 2f 3e 64 67 48 be 05 13 97 bd ce 68 08 bf
       0.17151994 -0.1957069 -0.073766746 -0.5328492
000010 da 83 e6 3e d8 55 df 3e ee c2 d6 be ce 99 5a 3b
       0.4502247 0.4362018 -0.41945595 0.0033355835
000020 1c 44 39 3e 89 c7 bf be 07 63 9b be 03 f4 aa be
       0.18092388 -0.3745692 -0.3034899 -0.3338929
000030 78 1f 96 bd 41 a6 b4 b9 3f cd f4 bd 12 9d 02 3f
       -0.07330221 -0.00034456144 -0.1195321 0.5102092
000040 14 de 40 bf a7 c2 35 bf c7 4b 22 bd 3f 6a 09 3e
       -0.75338864 -0.7100014 -0.03962305 0.13419436
000050 dc 3f e9 3d 0c 3a f1 be 04 8d aa 3e 8e 12 32 3e
       0.11389133 -0.471146 0.3331071 0.1738989
000060 13 06 55 bc 2c 53 47 be 27 05 fe 3d 52 81 0f 3d
       -0.0130019365 -0.19465321 0.124033265 0.03503544
000070 c1 0d 9e 3e 9b d1 16 bd d5 5a 92 bd c0 10 3b 3e
       0.30869868 -0.03682099 -0.07146231 0.18268108
000080 83 54 16 3e 83 87 1c be f1 09 e9 be 91 68 86 bb
       0.14680676 -0.15286069 -0.45515397 -0.0041018208
000090 a0 b7 15 3d a6 63 4b bc 0f 48 69 3c 61 e3 22 bf
       0.03655207 -0.012413895 0.0142383715 -0.636282
0000a0 55 7d a3 3e 11 22 6c bd 95 16 36 3d 3c 95 d9 be
       0.31931558 -0.057649676 0.04445513 -0.4249667
0000b0 cf 9d 29 3e 95 93 1f bf d2 e8 51 3e 72 fd 41 3e
       0.16564105 -0.6233457 0.2049897 0.18944338
0000c0 c2 e6 23 be ee 4f 26 3e 9a d1 30 3e e7 4f 8a 3e
       -0.16005996 0.16241428 0.17267457 0.27014086
0000d0 be 24 68 3e 9c db 8b 3e 00 00 00 00 3f 95 2e 3e
       0.22670266 0.27315986 0.0 0.1704912
0000e0 50 86 a8 be 34 d2 90 be 04 48 1c 3e 62 0f 01 3f
       -0.32914972 -0.28285372 0.15261847 0.504141
0000f0 ba 02 3e 3e 67 00 2f 3e 7b a6 f4 3d 58 a7 0c 3e
       0.18555728 0.17089997 0.11945816 0.13735712
000100 ac 2d 1a 3e b7 97 ed bc 51 70 a7 bc 0c 69 3a 3e
       0.15056485 -0.029003007 -0.020439299 0.18204135
000110 2e b9 fc bd 90 9d a8 bd 49 96 20 bd 1f ba 14 3e
       -0.12340008 -0.08233178 -0.039205823 0.14524125
000120 72 62 b8 3c 62 c0 01 3e 3c 1a 6d 3d 16 fe 50 3e
       0.02250788 0.12671044 0.057886347 0.20409426
000130 70 da e1 be b7 cd a5 3e 6b 01 68 bd 69 1d c7 be
       -0.44111967 0.3238351 -0.056641977 -0.38889626
000140 7f 4a a3 3d f8 b9 98 3e cf 02 18 3e d0 7d 07 3e
       0.079731934 0.29829383 0.14844821 0.13231587
000150 2f c2 8d be 04 e2 09 be 87 16 d9 be 5e ae 8c 3e
       -0.27687213 -0.13465124 -0.424 0.27476782
000160 6d 43 51 3e 6d 00 0e 3d 39 a0 f4 3d 7d b5 ea be
       0.20435877 0.034668375 0.119446225 -0.4584159
000170 f5 5b bf 3d ee 60 ad 3e 34 12 5e be 71 7e 48 be
       0.09343711 0.33863014 -0.21686631 -0.19579484
000180 b5 39 9c 3d 15 b5 26 3e 5e df 98 3e 5f 5f 15 3f
       0.07628194 0.16280015 0.29857916 0.5834865
000190 00 35 96 be e3 2f 88 bc 06 11 ca bd 08 50 89 3d
       -0.2933731 -0.016624397 -0.09866528 0.06704718
0001a0 c4 18 ef bd b1 51 a7 3e b6 25 c9 3d 81 2a 59 3e
       -0.116746455 0.32679513 0.09821646 0.2120762
0001b0 cd 43 6b 3e 6f 82 ce be 38 cc 93 be f8 48 28 3f
       0.22975083 -0.40333888 -0.28866744 0.6573634
0001c0 81 f2 5b be 97 d1 e3 bd 08 78 b7 be c7 e1 4c 3e
       -0.21479227 -0.111239605 -0.35833764 0.20008002
0001d0 3b 8d 13 3e f6 72 86 3e df cb 3f be 0c 9f 2b be
       0.14409344 0.26259583 -0.18730114 -0.1675989
0001e0 56 3e 83 3e 23 a0 51 3e a4 7c 5b 3e 4e 18 f8 3d
       0.25633496 0.20471244 0.21434265 0.12114011
0001f0 32 13 2b 3e 10 54 14 3f 68 44 44 bc 97 59 0b 3e
       0.16706541 0.5794077 -0.0119792 0.13608395

V.weight f4 [1, 128]
000000 9d 22 be 3f 42 5d 8e bf 09 40 b2 bf ef 61 8b bf
       1.4854313 -1.112221 -1.3925792 -1.0889262
000010 ec 0b c7 bf b0 39 af bf fb 7c 0a 40 01 0a 3d 3f
       -1.5550513 -1.368948 2.1638782 0.7384339
000020 e0 19 b4 bf 7a c5 4c c0 f0 ff 40 40 83 bb 9c 3f
       -1.4070396 -3.199553 3.0156212 1.2244724
000030 9d a0 b4 bf 45 bf 00 c0 88 e2 ac 3f 7f cd c4 bf
       -1.4111515 -2.0116742 1.3506632 -1.5375212
000040 56 bf 5d c0 88 34 bd c0 f4 2e ba bf 05 ed 8f 3f
       -3.4648032 -5.9126625 -1.4545579 1.1244208
000050 44 08 c2 3f d3 53 a0 bf 9f 26 f8 bf 04 86 c5 3f
       1.5158772 -1.2525581 -1.9386786 1.5431523
000060 9b 54 96 3e 16 42 82 bf 5d d6 59 3f 69 25 d9 3e
       0.29361424 -1.0176418 0.8509272 0.42411354
000070 74 f0 2b 3f e8 fc a8 bf 2f 14 02 be b2 5c ca 3f
       0.6716378 -1.3202181 -0.12703012 1.5809538
000080 7a ce e0 3f f9 b9 8a bf 7d 20 94 bf 76 cf 81 3e
       1.7563012 -1.0838004 -1.1572415 0.25353593
000090 d1 eb 45 c0 90 5c b3 bf ed 6a ce bf 87 f0 89 c0
       -3.092518 -1.4012623 -1.6126381 -4.3106112
0000a0 50 34 37 c0 e9 ef bb 3f bf a9 2c 3f 1b 8e 24 c0
       -2.862568 1.468259 0.6744651 -2.5711734
0000b0 88 4f aa 3f 34 12 84 c0 0f 7d d5 3f 0c eb 9a 3f
       1.3305521 -4.127222 1.667879 1.2102981
0000c0 d6 90 6a be 58 21 d9 3f 81 94 d8 3f 80 da e9 bf
       -0.22906813 1.6963301 1.692032 -1.8269806
0000d0 d2 19 f0 bf f9 a6 7a 3f 0f 76 b5 3d 6d e5 a7 3f
       -1.875788 0.9791103 0.088604085 1.311689
0000e0 39 a7 36 3f e8 68 77 bf b0 2d a4 3f 41 40 ec bf
       0.7134891 -0.9664445 1.2826443 -1.8457109
0000f0 b7 79 87 3f 53 0f c4 3f 6f 87 9e 3f b2 86 c9 3f
       1.058402 1.5317177 1.2385081 1.5744231
000100 ef 9a df bf cb f9 04 be d6 f8 e7 be 73 7d 63 3f
       -1.7469157 -0.12985913 -0.45307034 0.88863295
000110 e6 5c a9 bf 77 84 8e bf 8b bf bc bf c1 4a e6 bf
       -1.3231475 -1.1134175 -1.4745954 -1.7991563
000120 a0 d2 bf bf 56 ab 3b c0 b2 04 d5 bf 1a 0a 65 3f
       -1.4986153 -2.9323325 -1.6642058 0.8946854
000130 0d 5d 8c bf d2 1e c5 3f 35 a1 cb bf 48 b8 41 c0
       -1.0965897 1.5400031 -1.5908571 -3.0268726
000140 cf b7 8c 3f 58 5c e6 bf 68 6d 36 3d 99 e0 aa 3f
       1.0993594 -1.7996931 0.04453793 1.3349792
000150 1a 14 1f c0 a5 26 a1 3f 2f 34 7a 3e 11 81 f2 bf
       -2.485602 1.2589918 0.24433969 -1.8945638
000160 31 0a 88 3f 37 12 cc be ae 5a bd 3f a7 5a 84 bf
       1.062811 -0.39857647 1.4793298 -1.0340165
000170 f5 cd d1 bf b7 20 ed bf 83 3e 8b bf db bd b9 bf
       -1.6390978 -1.8525609 -1.0878452 -1.4511064
000180 f3 e0 fa 3e 07 d1 dd 3f e3 02 f1 bf 69 0f b9 bf
       0.48999748 1.7329415 -1.8829006 -1.4457828
000190 ca 16 6f c0 95 9b d9 3d ca 0b 82 3f 70 32 8a 3f
       -3.735766 0.10625378 1.0159848 1.0796642
0001a0 54 3f e0 3e 95 0c f5 bf 50 31 aa 3f 33 3c f3 bf
       0.43798316 -1.9144465 1.3296299 -1.9002746
0001b0 5e 34 1a 3f e0 78 87 c0 84 7c 42 40 96 e0 74 bd
       0.60236156 -4.2335052 3.0388498 -0.059784494
0001c0 0b 16 8e bf b9 9d 22 3e e2 67 8c c0 de c5 d7 bc
       -1.1100477 0.15880479 -4.387681 -0.026339468
0001d0 30 c9 88 3f 3d 09 f1 bf df 3e 5e bf 7b bb b9 bf
       1.0686398 -1.8830944 -0.86814684 -1.451034
0001e0 ed 14 f3 bf 2f e1 e0 bf 3a e0 cb 3f aa 5d b3 3f
       -1.8990761 -1.756872 1.5927804 1.4012959
0001f0 99 2c c8 3f 31 59 b8 bf 4d bf 33 3e 7a 46 d6 bf
       1.563861 -1.4402219 0.17553444 -1.6740258

A.weight f4 [50, 128]
000000 56 ca 51 3f 0f 70 86 3f 1f d0 f9 3f 76 26 be 3f
       0.81949365 1.0502948 1.9516639 1.4855487
000010 73 85 1f 40 6b cb 07 40 bd df af 3d d1 25 90 3f
       2.49252 2.1217906 0.085875966 1.1261541
000020 af ff f1 3f 93 b4 d5 3f 5f 44 94 bf e5 fd 9a be
       1.8906153 1.6695732 -1.1583365 -0.3027183
000030 42 96 bc 3f 81 11 12 40 56 3c 42 bf 2b 07 da 3f
       1.4733355 2.2823184 -0.75873315 1.7033437
000040 36 a6 0b 40 12 f8 5b 40 d2 31 f7 3f 01 73 4e 3f
       2.1820197 3.437016 1.9312079 0.8064423
000050 22 d9 32 3f b6 9e c7 3f 4d ea 2a 40 55 bd 23 3f
       0.6986257 1.559531 2.6705506 0.6396077
000060 21 2b a2 be e3 69 a1 3f 2c 17 4a 3f d7 b7 4d be
       -0.3167353 1.2610439 0.7894161 -0.2008966
000070 e4 24 9d 3f bb c3 b9 3f 7b a8 58 3e 7d 23 59 3f
       1.2276883 1.4512857 0.2115802 0.84819776
000080 e4 1e 3f 3f 94 4c 98 3f c3 4e db 3f 59 d5 05 be
       0.7465651 1.189837 1.7133411 -0.13069667
000090 53 b2 e2 3f da f6 b7 3f 2e 0d 0f 40 9c e2 ee 3f
       1.771067 1.4372208 2.2351794 1.8662906
0000a0 6a d3 27 40 46 3b 79 40 f1 3d 32 3f df de b1 3f
       2.6222787 3.8942428 0.69625765 1.389614
0000b0 7a 5f 24 3f cf 81 aa 3f e0 77 f4 3e 50 52 23 3f
       0.64208186 1.3320864 0.47747707 0.63797474
0000c0 10 1b 48 3f b5 c3 45 3f 13 86 33 3f 9f 1b 4a 40
       0.78166294 0.7725175 0.70126456 3.1579359
0000d0 70 c4 50 40 a2 f3 e2 3e ca 0b 1a 3d 92 69 36 3f
       3.2619896 0.44326502 0.0376089 0.7125484
0000e0 97 33 00 3e 0f e0 8f 3f 35 29 48 3f d3 f9 35 40
       0.1251968 1.1240252 0.78187877 2.843373
0000f0 84 bf 54 3f c2 78 75 3f 2f b3 3c 3f 41 9d 48 3f
       0.8310473 0.95887387 0.7371091 0.7836495
000100 9a 02 3e 40 45 6f eb 3d 22 5b 18 bd 22 9b 3f 3f
       2.9689088 0.11495832 -0.037196286 0.7484609
000110 10 a6 b8 3f 40 ef 9c 3f 93 ad 0d 40 10 18 1f 40
       1.4425678 1.2260513 2.2137191 2.4858437
000120 64 6a 28 40 ce 90 d7 3f 40 41 1c 40 33 a6 99 3f
       2.6314936 1.6841066 2.4414825 1.2003845
000130 b9 07 d4 3f 2d 8e f5 3f 5c 0f 12 40 f6 2d d0 3f
       1.6564857 1.9184014 2.2821875 1.6264026
000140 67 5f 9f 3f c4 50 3e 40 6e a2 be 3f 63 da db 3f
       1.245099 2.9736795 1.489332 1.7176021
000150 11 d5 13 40 dd c2 64 bf 3f e7 15 3e 76 56 47 40
       2.3098795 -0.8935984 0.14638995 3.1146522
000160 f7 11 6f 3f 4c c3 93 3e 60 f8 00 40 d1 ac a4 3f
       0.9338679 0.28859937 2.0151596 1.2865239
000170 a5 d1 b2 3f 59 e8 3d 40 ed d3 d8 3f 93 1d 24 40
       1.3970228 2.9673064 1.6939675 2.564305
000180 03 4d 19 40 db a2 72 3f 5f a5 3d 40 99 c0 ba 3f
       2.3953254 0.9477975 2.9632185 1.4590026
000190 bd 0c fb 3f fe b8 2c be ee ec 10 bf 07 6f 84 3f
       1.9613262 -0.16867444 -0.56611526 1.0346383
0001a0 53 40 1f 3f fe 13 28 40 50 6d 69 3f a8 08 4b 40
       0.62207526 2.6262202 0.9118242 3.1724033
0001b0 33 13 a3 3f 8c 55 45 40 c5 e1 a3 bf 03 a8 69 40
       1.2740234 3.0833464 -1.2803274 3.6508796
0001c0 b5 44 e0 3f 91 ea ff 3c 3f 78 14 40 28 b4 92 3f
       1.7520968 0.03123978 2.3198392 1.1461229
0001d0 34 f3 d6 3f 16 2f 54 40 b5 bf a0 3f 78 f2 e7 3f
       1.679297 3.315374 1.2558504 1.812087
0001e0 f8 e1 4e 40 f7 90 34 40 13 b5 50 3f ef 11 82 3f
       3.232542 2.821348 0.815263 1.0161723
0001f0 d0 7a 37 3f ef 0f 16 40 4b bc a4 3d fc 9a 2d 40
       0.7167177 2.3447225 0.080437265 2.7125845
000200 b8 3c 52 3f 37 b2 d1 3f 83 d0 07 40 8c 20 9f 3f
       0.821239 1.6382512 2.1221015 1.2431808
000210 6d 8b 2a 40 37 bd 0c 40 81 3c 61 3f 8f 8c 8d 3f
       2.6647599 2.1990488 0.87982947 1.105852
000220 4a f1 f1 3f 6a fc fc 3f af ea 89 bf 2a 8a 8f be
       1.890176 1.9764531 -1.0774745 -0.28035098
000230 61 d4 a7 3f b6 94 06 40 a5 a5 57 bf 49 0a dd 3f
       1.3111688 2.1028266 -0.8423713 1.7268764
000240 38 a3 22 40 72 c7 6a 40 4d 5d fa 3f a5 bb 37 3f
       2.541212 3.6684232 1.9559723 0.717707
000250 db e5 6a 3f b9 0d a6 3f 3b 05 23 40 28 58 7c 3f
       0.9175698 1.2972938 2.5471942 0.98572016
000260 11 c4 a0 be 54 e3 d4 3f 36 29 9f 3f 3d 6e a5 be
       -0.31399587 1.6631875 1.2434452 -0.32310668
000270 34 45 b5 3f 4a e8 a9 3f 42 28 13 3f 99 7b 2b 3f
       1.4161744 1.3274014 0.57483304 0.6698547
000280 9b a1 0c 3f 7b 8a 89 3f 8e 0d 91 3f d4 f3 3d 3d
       0.5493409 1.0745386 1.1332262 0.04637511
000290 78 7f 1b 40 e5 81 f6 3f 4c c7 14 40 27 e7 13 40
       2.429655 1.9258391 2.324664 2.3109834
0002a0 54 b1 37 40 5e eb 66 40 a0 35 3c 3f 39 30 dc 3f
       2.8701982 3.6081157 0.73519325 1.7202216
0002b0 96 5d 56 3f d4 af 13 40 de cb 3e 3f ff fb 56 3f
       0.8373655 2.3076067 0.74529827 0.83978266
0002c0 4e 2b 62 3f da 6d 15 3f 69 dd 37 3f ff cb 41 40
       0.8834733 0.58370745 0.7182222 3.028076
0002d0 30 54 43 40 e1 73 67 3f 45 0f b7 bc c9 be 68 3f
       3.0520134 0.9041119 -0.022346148 0.90916115
0002e0 e2 0f 0a be b7 9e cb 3f a8 51 49 3f 46 fe 1d 40
       -0.13482621 1.5907811 0.7864022 2.4686446
0002f0 8e 1f 94 3f ed 28 54 3f 7f f5 24 3f 4e f4 1b 3f
       1.157213 0.8287495 0.644371 0.60919654
000300 5b e2 29 40 d8 04 92 bd 3f 68 89 bd 4f 5a 77 3f
       2.6544406 -0.0712983 -0.067093365 0.96622175
000310 3b 76 e5 3f 4b 24 b3 3f 26 e4 19 40 c4 e0 18 40
       1.7926706 1.3995451 2.40455 2.3887186
000320 5c 12 25 40 3c d6 af 3f 1f fa 0c 40 a8 14 8c 3f
       2.5792456 1.3737254 2.2027662 1.0943804
000330 7a f2 b3 3f 2f 71 d9 3f 5f 58 0d 40 52 21 81 3f
       1.4058373 1.6987666 2.2085187 1.0088294
000340 fa b2 c9 3f 9b 99 33 40 a9 ec 4d 3f 3b b7 d2 3f
       1.5757744 2.8062503 0.8043924 1.6462168
000350 0b 63 f4 3f ff 2a 40 bf d9 ad e6 3e bb 8d 44 40
       1.9092726 -0.75065607 0.4505451 3.0711505
000360 a6 2a 3c 3f 3c b9 9f 3d 93 fb f4 3f 3e 9c 8f 3f
       0.73502576 0.077990025 1.9139274 1.1219556
000370 3d 9f e2 3f 98 51 38 40 79 e5 eb 3f 92 91 11 40
       1.7704846 2.87998 1.8429404 2.27451
000380 fc b7 00 40 94 83 53 3f b2 c0 39 40 5d c9 ca 3f
       2.0112295 0.8262265 2.9023862 1.5842701
000390 31 45 02 40 cb c1 3e be e0 f7 53 bf ae 20 88 3f
       2.035473 -0.18628614 -0.828001 1.0634973
0003a0 45 8c ae 3f a9 e3 17 40 9b f1 6c 3f 26 bc 40 40
       1.3636557 2.3732703 0.9255616 3.0114837
0003b0 c0 4e ab 3f 5d 48 40 40 3d bb c7 bf dc a2 78 40
       1.3383408 3.0044167 -1.5604016 3.8849401
0003c0 29 6c e9 3f 95 c5 09 3e d8 c4 38 40 3f 37 6e 3f
       1.8236133 0.13454278 2.8870144 0.9305305
0003d0 91 0c af 3f 86 19 3f 40 95 79 97 3f e0 a6 f6 3f
       1.367571 2.9859328 1.1833979 1.9269676
0003e0 a5 a1 4f 40 68 fb 29 40 26 38 4c 3f 3f b3 36 3f
       3.244241 2.6559696 0.79773176 0.7136726
0003f0 30 60 40 3f 36 88 14 40 0a 23 46 be 33 75 31 40
       0.7514677 2.3208137 -0.19349304 2.7727783

A.bias f4 [50]
000000 8d 25 c5 3f 25 12 ae 3f 9c e1 df 3f fa 65 da 3f
       1.5402085 1.3599287 1.7490726 1.7062371
000010 66 8f c5 3f 2e a9 be 3f 18 fb 9a 3f 37 ab d7 3f
       1.5434387 1.489538 1.2107878 1.6849126
000020 77 4a b8 3f 4b d2 9f 3f 46 c6 95 3f 45 36 93 3f
       1.4397725 1.2486051 1.1701133 1.1500937
000030 c1 09 dc 3f bb 32 b2 3f ff 8b b2 3f 7d 66 b1 3f
       1.7190477 1.3921732 1.3948973 1.3859402
000040 5a ac 8f 3f df 24 9e 3f e4 68 9d 3f a8 e1 a5 3f
       1.1224473 1.2355002 1.2297635 1.295949
000050 2c 47 b1 3f c7 c5 9f 3f 8f df a6 3f 5e 01 af 3f
       1.3849845 1.2482232 1.3036975 1.3672292
000060 ff 68 9f 3f 3f c7 a5 3f 24 8f a2 3f f3 c6 99 3f
       1.2453917 1.295143 1.2699933 1.201384
000070 f0 b2 53 3f c5 bd 9c 3f 4c c4 8c 3f c4 b0 ae 3f
       0.8269491 1.2245413 1.0997405 1.3647695
000080 86 5e 73 3f c3 4d 82 3f 58 76 a3 3f 1a 12 a8 3f
       0.95066106 1.0179981 1.2770491 1.3130524
000090 06 5a 9d 3f f8 40 cd 3f 89 4c 85 3f 72 b5 a1 3f
       1.2293098 1.6035452 1.0413982 1.2633498
0000a0 52 1e b6 3f 66 b0 ab 3f b4 c8 da 3f 36 54 a3 3f
       1.4228003 1.3413208 1.70925 1.2760074
0000b0 0b b5 bb 3f 10 1f ee 3f c5 32 c7 3f 33 19 e7 3f
       1.4664625 1.860323 1.5562369 1.8054565
0000c0 e5 dd dc 3f 94 15 df 3f
       1.7255217 1.742846
