option_hedging/hyperparameters/dqn_hyperparameters/dueling_double/year/0.0/best_dqn_model.pth (torch, 324116 bytes, 7 tensors)

linear1.weight f4 [256, 3]
0	0x3e42cd6e	0.19023678
1	0xbf272dfa	-0.6530453
2	0xbf6a1ff1	-0.9145499
3	0xbf0e3f67	-0.55565494
4	0x3e894568	0.26810765
5	0xbf49c391	-0.78814036
6	0x3eead2fe	0.458641
7	0xbf4e5082	-0.80591595
8	0xbf1f0124	-0.62111115
9	0x3fd025dd	1.6261555
10	0xbfa22b20	-1.2669411
11	0xbeae9586	-0.34098452
12	0x3f49b27f	0.7878799
13	0x3fe1644b	1.7608732
14	0x3ecf1fe3	0.40454015
15	0xbfa0deb8	-1.2567968
16	0x3fa49a8a	1.2859662
17	0xbfeb025d	-1.8360096
18	0x3eff663d	0.4988269
19	0x3fb79100	1.4341125
20	0xbd966530	-0.07343519
21	0xbe08489a	-0.13308945
22	0xbd7f6ac1	-0.062357668
23	0xbfcdcc76	-1.6078022
24	0x3f452313	0.77006644
25	0x3fbef65c	1.4918933
26	0x3e8869c2	0.26643187
27	0xbf1e2f3c	-0.61790824
28	0x3d3d7a64	0.0462593
29	0xbeb5a552	-0.35477692
30	0x3e9019d1	0.28144696
31	0x3eda1350	0.4259286
32	0xbc7f1972	-0.0155700315
33	0xbcca05c8	-0.02466096
34	0xbebfd111	-0.37464193
35	0xbf54b489	-0.83087975
36	0xbf05e740	-0.52305984
37	0xbf9be9ef	-1.2180766
38	0xbf9e9180	-1.2388153
39	0x3f1c4c07	0.6105351
40	0x3f0f16e7	0.5589432
41	0x3d59514f	0.053056058
42	0xbf0b5952	-0.54433167
43	0x400326df	2.0492475
44	0xbe9bb3a1	-0.30410483
45	0x3f1800b4	0.5937607
46	0xc028165a	-2.6263642
47	0x3e854173	0.26026496
48	0xbf70539f	-0.93877596
49	0x404b10f1	3.172909
50	0xbf3e29a7	-0.74282306
51	0x3e8e1679	0.2775152
52	0x3d2a336a	0.04155294
53	0xbec43d58	-0.38328052
54	0xbeda5d85	-0.42649475
55	0xbe2b8559	-0.16750087
56	0xbf0c6ed3	-0.54856604
57	0xbdff7ef1	-0.12475384
58	0x3ef9bb35	0.4877564
59	0xbd77bcaf	-0.060482677
60	0x3ef2230c	0.47292364
61	0x3f7f2c53	0.9967701
62	0xbd725cdd	-0.059170593
63	0xbfab5ee5	-1.3388335
64	0xbe141fb5	-0.1446522
65	0xbe2e234a	-0.17005649
66	0x3e787468	0.24263155
67	0xbf23c0ae	-0.6396588
68	0xbf5e8292	-0.86917984
69	0xbf75a893	-0.9596035
70	0x3f5fa555	0.8736165
71	0xbefcd50e	-0.49381298
72	0xbf5cb892	-0.8621913
73	0x404c3554	3.190755
74	0xbf1f0898	-0.6212249
75	0xbe0ba053	-0.13635378
76	0x3cf7f84c	0.030269764
77	0xbbe561d2	-0.0070001865
78	0x3edf2804	0.43585217
79	0xc01bf2a4	-2.4366846
80	0x3ddadc0f	0.10686504
81	0x3ee2879a	0.4424408
82	0xc01d327c	-2.4562063
83	0x3dad2b3a	0.084555104
84	0xbf23623f	-0.63821787
85	0x3fcc57a9	1.5964252
86	0xbe45772a	-0.19283739
87	0x3f3d6bdc	0.73992705
88	0xc015a639	-2.3382704
89	0x3ea1f3ac	0.3163122
90	0x3eab60d8	0.33472323
91	0x3fa6164e	1.2975557
92	0xbe1860e9	-0.14880718
93	0xbf5d537b	-0.86455506
94	0x40184917	2.379461
95	0xbf3da3c0	-0.7407799
96	0x3e020726	0.1269804
97	0xbf7fc380	-0.99907684
98	0xbdba8a9d	-0.0910847
99	0xbebb0c02	-0.365326
100	0x3c8ae2a9	0.016953783
101	0xbd6bf260	-0.057604194
102	0x3e466789	0.19375433
103	0xbc1f173c	-0.009710129
104	0xbf362ed7	-0.7116522
105	0x3e2a42ba	0.16627017
106	0xbc875316	-0.01651911
107	0xbf8fcc01	-1.1234132
108	0x3e9d8679	0.30766657
109	0xbd7fae11	-0.062421862
110	0xbf3e909a	-0.74439394
111	0xbe8f8589	-0.28031567
112	0x3f8e290f	1.110628
113	0xbd018149	-0.031617437
114	0x3f09a903	0.53773516
115	0xc0202de9	-2.5028021
116	0x3e698baf	0.22807191
117	0xbd186d34	-0.03721352
118	0xbf941c41	-1.1571122
119	0x3e398d83	0.18120389
120	0x3fd16527	1.6358994
121	0x3f966182	1.1748507
122	0xbd88304d	-0.06649838
123	0xbefe9667	-0.49724123
124	0x3bc198cd	0.005908108
125	0xbb075319	-0.0020648895
126	0xbe471d81	-0.19444849
127	0x3dc623b7	0.09674781
128	0xbf4fe4c8	-0.8120847
129	0xbf465c3c	-0.7748449
130	0xbfa3d455	-1.2799174
131	0xbff914a4	-1.9459424
132	0x3d1ecf63	0.038771998
133	0xbe1c22b0	-0.15247607
134	0xbeef6f3f	-0.46764562
135	0xbf878699	-1.0587951
136	0xbcb2c1b0	-0.021820873
137	0xbe7c64db	-0.24647848
138	0x3f915be4	1.1356168
139	0xbfa76307	-1.3077096
140	0xbf05f5bb	-0.5232808
141	0x3ea26b27	0.31722376
142	0xbe6ca6be	-0.23110482
143	0xbf007fa2	-0.5019475
144	0xbf1c3502	-0.61018384
145	0x3fa7c529	1.3107044
146	0xbe33e68f	-0.1756842
147	0xbdcbbf35	-0.09948579
148	0x3f22445c	0.6338556
149	0xbf0425ab	-0.51619977
150	0xbcdac4c9	-0.026705163
151	0x3bf8075c	0.0075692367
152	0xb8e814f1	-0.00011066523
153	0xbf806337	-1.0030278
154	0xbe9876df	-0.2977819
155	0xbceef57a	-0.029169787
156	0x3e8d2720	0.27568913
157	0x3f7170a8	0.94312525
158	0xbdaf72dc	-0.085668296
159	0xbf32ab23	-0.69792384
160	0x3e5f7148	0.21820557
161	0xbdc871a1	-0.09787298
162	0xbef00ca4	-0.46884644
163	0x3f79019f	0.972681
164	0x3a319ff7	0.0006775851
165	0x3fa8bc7c	1.3182521
166	0xbfc6effe	-1.554199
167	0xbe9424d8	-0.2893436
168	0xbf86f764	-1.0544248
169	0xbf3f7cf6	-0.7480005
170	0xbf6b8c39	-0.9201084
171	0x3fe11e21	1.758732
172	0xbfa7c8be	-1.3108137
173	0xbea0591a	-0.3131798
174	0xbd774f8e	-0.060378604
175	0xbf9b71a4	-1.2144055
176	0x3e07399f	0.13205574
177	0xbf2c66fc	-0.6734464
178	0x3f99d692	1.2018607
179	0xbe0c9acd	-0.13730927
180	0x3e92a15d	0.28638735
181	0xbe64b00c	-0.22332782
182	0xbeecfe57	-0.46287796
183	0xbf9025fd	-1.1261593
184	0x3fd7e1cb	1.6865782
185	0xbf7b355f	-0.9812831
186	0xbf0e6470	-0.55622005
187	0x3e852820	0.26007175
188	0xbc99bccd	-0.018766785
189	0x3e2c4776	0.16824135
190	0xc00ffbb6	-2.2497382
191	0x3e140734	0.14455873
192	0xbe3ecac7	-0.18632041
193	0x3e183577	0.14864145
194	0xbfac6d5e	-1.3470876
195	0x3da12b9d	0.07869647
196	0x40167cdf	2.3513715
197	0xbdd83ab6	-0.10558073
198	0xbf2945de	-0.66122234
199	0x3ea8a889	0.32941082
200	0xbe14e1f8	-0.14539325
201	0x3e2f2cd6	0.17106947
202	0xbfc048ec	-1.5022254
203	0x3e54b171	0.20770814
204	0xbf8ab316	-1.0835903
205	0xbe42026a	-0.18946233
206	0xbec97512	-0.3934713
207	0xbe1c0d86	-0.15239534
208	0x3fbd388a	1.4782879
209	0xbfbb52e5	-1.4634672
210	0xbf4ccfb7	-0.8000445
211	0x3ecb747b	0.39737305
212	0xbf15d6b2	-0.58530724
213	0xbf07aea4	-0.53000855
214	0x3f755390	0.9583063
215	0xbf7ec5d1	-0.99520594
216	0xbf007876	-0.5018381
217	0x3e3c693a	0.18399516
218	0xbe04fa89	-0.12986197
219	0xbf93a0d4	-1.1533456
220	0x3dbc3afd	0.091909386
221	0xbe3ead61	-0.18620826
222	0x3e036d93	0.12834768
223	0x3fd38c81	1.6527253
224	0xbf3197f9	-0.69372517
225	0x400405ca	2.0628533
226	0xbfae09a3	-1.3596691
227	0xbed65305	-0.41860214
228	0xbf2b0f23	-0.6681997
229	0x3ffaff66	1.9609191
230	0xbe87bcd4	-0.26511252
231	0xbe1d8bc4	-0.15385348
232	0xbd871ca5	-0.065972604
233	0xbf9f5484	-1.2447667
234	0xbf0ae651	-0.54257685
235	0x3f9563b9	1.1671058
236	0xbf7c9723	-0.98668116
237	0x3e94cd19	0.29062727
238	0x3f2f532a	0.68486273
239	0x3e525f5a	0.20544186
240	0x3ea941fb	0.33058152
241	0xbfcbacbf	-1.5912093
242	0x3b1d7d97	0.0024031156
243	0x3d7414b6	0.059590064
244	0x3e835d27	0.25657007
245	0xbf368453	-0.7129566
246	0x3f9036a9	1.1266681
247	0xbfea832f	-1.8321284
248	0xbe4fd9a2	-0.20297864
249	0xbd852ca6	-0.06502657
250	0xbd9f7bdf	-0.077872984
251	0xbf8a2332	-1.0791991
252	0x3ee4c584	0.44681942
253	0x3fa6f908	1.3044748
254	0x3e875109	0.26429012
255	0x3f0db4dc	0.55354095

linear1.bias f4 [256]
0	0xbf859641	-1.0436479
1	0xbec25277	-0.3795354
2	0xbf72be79	-0.9482189
3	0x3fcb41d4	1.5879464
4	0x3e601d3e	0.21886155
5	0xbed00340	-0.4062748
6	0x3e740cde	0.23833033
7	0xbf726ea6	-0.94700086
8	0x3edcbdbb	0.43113503
9	0xbed22283	-0.41041955
10	0x3e14d833	0.14535598
11	0xbe363e19	-0.17797126
12	0x3ee7011c	0.45118034
13	0x3e8e724d	0.2782158
14	0xbeafc03e	-0.34326357
15	0x3d842468	0.064522564
16	0xbbba3b7b	-0.00568336
17	0xbf7e1e20	-0.9926472
18	0xbf2eaa12	-0.68228257
19	0x3f0aa4cc	0.5415771
20	0x3e8e2589	0.27763012
21	0xbe6633e2	-0.22480729
22	0xbf7bb5bb	-0.98324174
23	0xbea7eb8d	-0.32796898
24	0x3e950d0b	0.29111513
25	0xbb4fc7c0	-0.0031704754
26	0x3ede84c2	0.4346066
27	0x3f10c44c	0.56549525
28	0xbdfb4b61	-0.12270237
29	0xbdddd5b4	-0.10831776
30	0x3e354e3e	0.17705628
31	0x3c5b68a8	0.013391651
32	0x3f4207ec	0.7579334
33	0xbe403ffc	-0.18774408
34	0xbf8e898b	-1.1135725
35	0xbfa37a71	-1.2771741
36	0xbf968b7a	-1.1761315
37	0xbe8830d6	-0.2659976
38	0x3d839da0	0.06426549
39	0x3e92ab80	0.2864647
40	0x3f81db79	1.0145103
41	0xbb967914	-0.0045920704
42	0xbf5cfcb2	-0.8632308
43	0xbde14191	-0.10998834
44	0xbfb78402	-1.433716
45	0xbf09fd88	-0.53902483
46	0x3ed2c321	0.41164497
47	0xbf92dc79	-1.1473533
48	0xbd66352b	-0.05620305
49	0xbf2edb36	-0.6830324
50	0xbbfd5c94	-0.0077319834
51	0xbe3cd4c1	-0.18440534
52	0x3e989191	0.29798558
53	0xbde877fc	-0.1135101
54	0xbe6d2e62	-0.23162225
55	0x3fbee5b7	1.4913853
56	0xbeb40144	-0.35157216
57	0x3fb42e7c	1.4076686
58	0x3e91c3e6	0.2846977
59	0xbd5acec6	-0.05341985
60	0xbf8736c4	-1.0563588
61	0x3ecb7f27	0.39745447
62	0x3f44473c	0.76671195
63	0x3ee96c3a	0.45590383
64	0xbeb01f89	-0.3439906
65	0xbcb4dd17	-0.02207808
66	0xbd7f30b1	-0.062302295
67	0x3e2c3472	0.16816881
68	0xbecc487f	-0.3989906
69	0x3ebeaeef	0.3724284
70	0xbef3f352	-0.47646576
71	0xbf4d571d	-0.8021105
72	0xbe859368	-0.26089025
73	0xbe92d92a	-0.28681308
74	0xbe6e6a02	-0.23282626
75	0x3fa65f97	1.2997922
76	0xbe620e37	-0.22075735
77	0xbf96e23c	-1.1787791
78	0x3dab4993	0.083636425
79	0x3e7002e4	0.23438603
80	0x3f157e69	0.5839601
81	0xbf8213b2	-1.016226
82	0x3fa6e53e	1.3038709
83	0xbf7efc40	-0.9960365
84	0x3f50b4ae	0.81525695
85	0x3f73c4c1	0.952221
86	0xbf8b24fa	-1.0870659
87	0xbc2b8403	-0.010468486
88	0xbe5aa660	-0.2135253
89	0xbea6fa34	-0.32612765
90	0x3d675ff1	0.05648798
91	0xbd328b17	-0.043589678
92	0x3e2fa28a	0.17151847
93	0xbfad5306	-1.3540962
94	0x3c30b197	0.010784528
95	0x3e0333e6	0.12812766
96	0x3e182577	0.14858042
97	0xbef10305	-0.47072616
98	0xbb7a35eb	-0.003817911
99	0x3a97c798	0.0011579869
100	0xbf169cb8	-0.58832884
101	0x3faf3dea	1.369077
102	0xbb49e3ef	-0.0030806025
103	0x3f05cca1	0.52265364
104	0x3f093356	0.5359396
105	0x3f913f9a	1.1347535
106	0x3f1c4db3	0.6105606
107	0x3e516c9e	0.2045159
108	0x3f863b1b	1.0486788
109	0x3e187040	0.1488657
110	0xbeb3db3b	-0.35128197
111	0x3db1ebe0	0.08687568
112	0xbb90bc94	-0.0044170115
113	0xbccd8e57	-0.025092287
114	0xbeec9d46	-0.4621374
115	0x3cf269b7	0.029591424
116	0x3e0d6d83	0.13811307
117	0xbcbf78c2	-0.023373011
118	0x3f90ff49	1.1327907
119	0xbe7dbfec	-0.24780244
120	0x3ec9a5a6	0.39384192
121	0xbf8df679	-1.1090842
122	0xbdfba7ae	-0.12287842
123	0x3ec05dde	0.37571615
124	0xbf88b8e9	-1.068143
125	0xbf7b2716	-0.98106515
126	0xbea8a52d	-0.3293852
127	0x3f14bfa6	0.5810493
128	0xbf93a423	-1.1534466
129	0xbe4225ea	-0.18959776
130	0xbf0a6426	-0.54059064
131	0xbe190031	-0.1494148
132	0xbf6f3b28	-0.9344964
133	0xbe3b222f	-0.18274759
134	0x3e108d89	0.14116491
135	0xbef7c3ad	-0.48391476
136	0xbe2ab177	-0.1666926
137	0x3eea10b4	0.45715868
138	0xbf081c77	-0.53168434
139	0xbe8f7032	-0.28015286
140	0xbf12e455	-0.5737966
141	0xbf8749fa	-1.0569451
142	0xbfad7997	-1.3552731
143	0xbcb7c8d2	-0.022434626
144	0x3d79d009	0.060989413
145	0x3f4ab7ed	0.791869
146	0x3e690835	0.22757037
147	0x3e80ecd9	0.251807
148	0x3e8b7762	0.2723952
149	0xbf8737de	-1.0563924
150	0xbe80b4cb	-0.25137934
151	0xbeb07f7c	-0.34472263
152	0xbf626597	-0.88436264
153	0x3eab58a2	0.3346606
154	0x3dd12ab5	0.10213224
155	0x3decb87b	0.11558624
156	0xbe9596b6	-0.29216546
157	0x3f59bcdb	0.85053796
158	0x3e81163c	0.25212276
159	0x3f225421	0.6340962
160	0xbc635d8f	-0.013877287
161	0x3f82b0a8	1.0210161
162	0xbecc384d	-0.39886704
163	0x3d065fbc	0.032806143
164	0x3dac8218	0.08423251
165	0xbf8507c8	-1.0393
166	0xbf634a20	-0.8878498
167	0x3f4757b3	0.77868193
168	0x3eca45e1	0.39506438
169	0x3f39a6c3	0.72520083
170	0xbeeb92cb	-0.46010432
171	0x3d7b6963	0.0613798
172	0x3f59a2f3	0.85014266
173	0x3f6092e9	0.8772417
174	0x3fae72ac	1.3628745
175	0x3e4c4230	0.19947124
176	0x3ea037dd	0.3129262
177	0xbe84abd3	-0.2591234
178	0xbe610ac8	-0.21976769
179	0xbecd4f1b	-0.40099415
180	0x3e9ae254	0.302508
181	0x3f16a805	0.5885013
182	0xbe6041fa	-0.21900168
183	0x3f53b10a	0.82692015
184	0xbbf4e382	-0.00747341
185	0x3dec4468	0.11536485
186	0x3d6e7a23	0.058221947
187	0xbb553555	-0.003253301
188	0x3f0c015f	0.5468959
189	0x3e4bec9d	0.1991448
190	0xbe068b00	-0.13138962
191	0xbe7d3ad6	-0.24729475
192	0x3cbf5329	0.023355084
193	0x3eb3bda6	0.35105628
194	0xbf61f714	-0.88267636
195	0x3e88000c	0.26562536
196	0x3c9bf4d7	0.019037647
197	0xbe3cb417	-0.18428074
198	0xbd5c33bc	-0.053760275
199	0x3ecb03bc	0.39651287
200	0xbe826690	-0.25468874
201	0xbdd4d729	-0.10392601
202	0xbeb09a83	-0.34492883
203	0xbdb72c0c	-0.08943948
204	0xbe47a1b2	-0.19495276
205	0x3e8aa326	0.27077597
206	0xbc808b7f	-0.015691517
207	0x3e2f090c	0.17093295
208	0xbda3c127	-0.07995825
209	0x3e9a64a0	0.30154896
210	0xbdaa7405	-0.0832291
211	0xbd9d1543	-0.07670071
212	0x3f8f00be	1.1172101
213	0xbde0bf58	-0.10973996
214	0x3c77578d	0.015096557
215	0xbe49846d	-0.19679423
216	0x3dad4bbc	0.08461711
217	0xbf0c415a	-0.5478722
218	0x3df61887	0.12016397
219	0x3f941993	1.1570305
220	0xbf58f0f7	-0.84742683
221	0xbe12d183	-0.14337735
222	0xbe7b9d9d	-0.24571843
223	0x3db25ea9	0.08709461
224	0x3de43cea	0.11144431
225	0x3e954aec	0.29158723
226	0x3f2f7008	0.6853032
227	0xbeba890d	-0.36432686
228	0xbe334b9a	-0.17509308
229	0xbe59c785	-0.21267517
230	0xbdaaa355	-0.08331934
231	0x3f7835b6	0.96956956
232	0xbe57b82b	-0.21066348
233	0xbf635259	-0.8879753
234	0x3ee7955d	0.45231143
235	0x3f6a9fcd	0.91650087
236	0x3d075306	0.03303816
237	0x3e09be24	0.13451439
238	0xbfafa9af	-1.3723658
239	0xbe4c7b3a	-0.19968882
240	0xbf962b3d	-1.1731945
241	0x3f43a2ae	0.76420105
242	0xbed49562	-0.4152022
243	0x3f3dbae3	0.7411329
244	0xbeeb4903	-0.4595414
245	0x3e080aa9	0.13285317
246	0x3e122980	0.14273643
247	0x3e0db3c0	0.138381
248	0x3ec39871	0.3820224
249	0x3edd73ce	0.43252414
250	0x3ef197fd	0.4718627
251	0x3dd80647	0.10548072
252	0xbeb7eb79	-0.3592184
253	0x3dcab8a8	0.09898502
254	0xbe76d562	-0.24104837
255	0xbe66e2c7	-0.22547446

linears.0.weight f4 [256, 256]
0	0x3e39acbf	0.18132304
1	0x3df0023b	0.117191754
2	0xbc34c475	-0.011033167
3	0xbeb73a1d	-0.35786524
4	0xbf674802	-0.9034425
5	0x3c22f128	0.009945191
6	0x3f848f45	1.0356222
7	0xbd42d701	-0.047568325
8	0xbf7805d0	-0.9688387
9	0x3eeb29d9	0.45930365
10	0x3f6430d8	0.8913703
11	0xbca9d773	-0.020732617
12	0xbe391660	-0.18074942
13	0x3e3dbbc8	0.18528664
14	0x3e94b762	0.2904616
15	0xbe803602	-0.25041205
16	0xbde42866	-0.11140518
17	0xbf3015bd	-0.6878317
18	0x3e74344d	0.23848076
19	0x3eade9d6	0.33967465
20	0x3dc8b1ba	0.09799524
21	0xbfda1861	-1.703869
22	0x3e8ca712	0.27471215
23	0x3f7d292b	0.9889094
24	0xbe32093b	-0.17386334
25	0xbd3a2591	-0.045445982
26	0xbe004a35	-0.12528308
27	0xbe91dc2e	-0.28488296
28	0xbf8fd439	-1.123664
29	0xbda11772	-0.078658
30	0x3f18ef5f	0.5974025
31	0x3e8ad5b6	0.27116174
32	0xbe53d899	-0.20688094
33	0x3f38a34c	0.7212417
34	0x3e0edaa6	0.13950595
35	0x3f12ce5d	0.57346135
36	0x3b496189	0.0030728301
37	0xbee0a395	-0.43874803
38	0xbdffebdd	-0.12496159
39	0xbd7dd6ed	-0.061972547
40	0xbe72a0a4	-0.23694092
41	0x3eed57d1	0.4635606
42	0x3e3bf726	0.18355998
43	0xbe72e072	-0.23718432
44	0x3f1350d6	0.5754522
45	0x400a4302	2.1603398
46	0xbe9b5588	-0.30338693
47	0x3d9ac301	0.07556725
48	0xbf455dc8	-0.77096224
49	0x3efd5e04	0.4948579
50	0x3df41d42	0.11919643
51	0x3d99a5f1	0.07502354
52	0xbc98a270	-0.018632144
53	0x3fe88c54	1.8167825
54	0xbf2eca04	-0.68277
55	0xbeda899b	-0.4268311
56	0x3e43e1a6	0.19129047
57	0xbea33acb	-0.31880793
58	0xbdde3326	-0.108495995
59	0xbf4cc579	-0.7998882
60	0xbee93037	-0.45544598
61	0x3e5db4d8	0.21651018
62	0x3eef007e	0.46680063
63	0xbe0f1053	-0.13971071
64	0x3e551350	0.20808148
65	0xbf95617f	-1.1670378
66	0x3f9e6455	1.2374369
67	0xbe4dbabd	-0.20090766
68	0x3e416e86	0.18889818
69	0xbe85f962	-0.26166826
70	0x3edc509a	0.43030244
71	0x3f110add	0.566572
72	0x3fc8cb70	1.5687084
73	0x3fc2c4e2	1.5216334
74	0xbe800427	-0.25003168
75	0xbeb72f3d	-0.35778227
76	0xbf20c640	-0.62802505
77	0x3d223c0a	0.03960804
78	0x3d3e24fb	0.046421986
79	0x3edd0350	0.4316659
80	0xbee93ed9	-0.4555576
81	0xbe76cdbf	-0.24101923
82	0xbe91737c	-0.2840842
83	0x3e852f3f	0.26012608
84	0xbf9d6f55	-1.2299601
85	0xbf3fa1d0	-0.7485628
86	0x3ce3f120	0.027824938
87	0x3ed28ea3	0.41124448
88	0xbedfa39b	-0.4367951
89	0x3fa60da3	1.2972912
90	0xbdfcd709	-0.12345702
91	0xbf9594c2	-1.1686022
92	0xbe00013d	-0.12500472
93	0xbdc90aba	-0.09816499
94	0x3eebe5e6	0.46073836
95	0x3eb9ca79	0.36287287
96	0x3e67eeac	0.2264964
97	0x40132edf	2.2997358
98	0x3edba22c	0.42897165
99	0xbf02c2c0	-0.51078415
100	0x3f1d479e	0.61437404
101	0xbea33423	-0.31875715
102	0xbe5afbbb	-0.2138509
103	0xbea03516	-0.312905
104	0x3d5ffcbc	0.054684386
105	0xbf384f45	-0.71995956
106	0x3d3df07a	0.046371914
107	0x3e6efeb1	0.23339345
108	0xbea3e13c	-0.32007778
109	0xbfeefe52	-1.8671362
110	0x3dad56e4	0.08463839
111	0x3e2496b9	0.16073121
112	0xbd6074f7	-0.054799046
113	0xbecf8a0f	-0.40535018
114	0xbe857ac2	-0.2607022
115	0x3ef7c80c	0.4839481
116	0x3f417038	0.7556186
117	0xbfa5308b	-1.2905439
118	0xbe919685	-0.2843515
119	0x3fc5a97d	1.5442349
120	0xbe29787c	-0.16549867
121	0x3bdde557	0.006771724
122	0xbe93e9af	-0.28889224
123	0x3e28bfb1	0.16479374
124	0xbe1921d7	-0.14954315
125	0xbd0ba109	-0.034089122
126	0x3f960816	1.1721218
127	0xbe9b5c3d	-0.3034381
128	0x3e9b679b	0.30352482
129	0x3efaeeec	0.49010408
130	0x3f0b34e2	0.5437757
131	0x3e52329f	0.20527123
132	0xbd3d3096	-0.046188913
133	0xbff21a93	-1.891436
134	0x3df5ef40	0.12008524
135	0x3edd117a	0.43177396
136	0xbe21e9a5	-0.15811785
137	0xbe0fec9d	-0.14055105
138	0x3ec88c50	0.3916955
139	0x3ea94c5b	0.33066067
140	0x3e4661c1	0.19373228
141	0x3f17bd5f	0.5927333
142	0x3e084e90	0.13311219
143	0x3daa11e1	0.083041914
144	0x3e715359	0.23566951
145	0xbe4b7307	-0.19868098
146	0xbf37bc17	-0.7177138
147	0x3ee9a216	0.45631474
148	0x3d3fab5a	0.046794273
149	0xbe12972f	-0.14315484
150	0x3db0e7ea	0.08637984
151	0x400c987f	2.1968076
152	0x3d905da4	0.070491105
153	0xbf6fdbaf	-0.93694586
154	0x3f60a0f3	0.8774559
155	0xbebe0136	-0.371103
156	0x3e50d659	0.20394267
157	0xbca2180e	-0.01978686
158	0x3e8fc765	0.28081813
159	0xbf3e9031	-0.7443877
160	0xbd66360e	-0.056203894
161	0xbec6e191	-0.3884397
162	0x3f9566b0	1.1671963
163	0xbeb9022b	-0.36134467
164	0xbee76e59	-0.45201376
165	0x3ebe62df	0.37184808
166	0xbdecbf1d	-0.115598895
167	0x3e668343	0.2251101
168	0xbdb5ed09	-0.088831015
169	0xbe1cee39	-0.1532525
170	0x3ee96e96	0.45592183
171	0xbf058850	-0.5216112
172	0xbf90710f	-1.1284503
173	0xbf431da7	-0.7621712
174	0xbe80b24d	-0.25136033
175	0xbe0274b0	-0.12739825
176	0xbf66a889	-0.90100914
177	0xbdaf9ef3	-0.08575239
178	0xbe1648b7	-0.14676176
179	0x3f9c70d3	1.2221931
180	0xbe72b64d	-0.23702355
181	0xbf19c709	-0.6006933
182	0x3fcb5e15	1.5888087
183	0xbf96af4e	-1.1772249
184	0xbca68791	-0.020328315
185	0x3f650535	0.8946107
186	0xbeb41751	-0.3517404
187	0xbf6b6cb8	-0.91962767
188	0x3f350797	0.70714706
189	0x3e92856f	0.28617427
190	0xbeb7865a	-0.3584469
191	0x3fb911f5	1.4458605
192	0xbe5454d5	-0.20735486
193	0xbe9e2637	-0.3088853
194	0x3db30efd	0.08743093
195	0x3e830b94	0.2559477
196	0xbef49425	-0.47769275
197	0x3da71a5e	0.08159326
198	0xbe845b60	-0.25850964
199	0xbe410d19	-0.18852653
200	0x3f0218fd	0.5081938
201	0x3f9c8fee	1.2231424
202	0xbe9282ad	-0.28615323
203	0xc03cb637	-2.9486215
204	0xbd94992e	-0.07255779
205	0xbe604962	-0.21902993
206	0xbcfc2533	-0.030779457
207	0xbeebf9b0	-0.46088934
208	0x3e058431	0.13038708
209	0xbdfb4db5	-0.12270681
210	0xbdcace27	-0.09902602
211	0x3ef49791	0.47771886
212	0xbf3d8f77	-0.74047035
213	0xbe1e97ca	-0.1548759
214	0xbe8d0c3a	-0.2754839
215	0xbfc016c7	-1.5006951
216	0x3e8d3d0d	0.2758564
217	0x3fe3a6fe	1.7785337
218	0xbf13f88d	-0.57801133
219	0xbe98b17a	-0.29822904
220	0x3d395904	0.045250908
221	0x3f138399	0.5762268
222	0x3fd73eea	1.6816075
223	0xbf2094b9	-0.6272693
224	0x3ece5d65	0.4030563
225	0x3dd5a69d	0.104321696
226	0xbf67c3a6	-0.9053291
227	0x3fad6a88	1.3548136
228	0x3ef61008	0.48059106
229	0x3fd24ea1	1.6430246
230	0x4041a82e	3.0258899
231	0xbea36c96	-0.31918782
232	0x3f73e1ee	0.95266616
233	0x3e8d4e9c	0.27599037
234	0xbf7a9393	-0.9788143
235	0xc027103c	-2.6103659
236	0xbeef0bd3	-0.4668871
237	0xbdf2eeb0	-0.11861932
238	0x3f208086	0.6269611
239	0x3f178c35	0.59198314
240	0x3f279a9a	0.6547028
241	0xbf3c9af0	-0.73673916
242	0x3f6323d7	0.8872656
243	0x3eacd5e6	0.33756942
244	0x3e414b51	0.18876387
245	0xbee22774	-0.44170725
246	0x3f726b86	0.9469532
247	0xbf2d1e1c	-0.6762407
248	0xbe9527ff	-0.29132077
249	0xbe6a98c8	-0.22909844
250	0x3f1b875a	0.60753405
251	0x403be672	2.9359403
252	0x3fe90ef4	1.8207688
253	0xbf3d3fb1	-0.7392531
254	0x3e8447ae	0.25835937
255	0x3f5ce521	0.8628712

linears.0.bias f4 [256]
0	0xbdd31035	-0.103058256
1	0xbd809948	-0.06279236
2	0xbe7194b7	-0.23591886
3	0xbee7a7b0	-0.45245123
4	0xbe8ffd92	-0.28123146
5	0xbed1ea49	-0.40999058
6	0xbeabd879	-0.33563593
7	0xbe95092f	-0.2910857
8	0xbedea4eb	-0.43485197
9	0xbf02e086	-0.51123846
10	0x3e3fdbdb	0.18736212
11	0xbf489bda	-0.7836281
12	0xbeb361e4	-0.35035622
13	0xbdf205bb	-0.11817499
14	0x3d9c4b65	0.07631568
15	0xbbe484cd	-0.006973839
16	0x3ea87729	0.32903412
17	0xbd9efb96	-0.0776283
18	0xbd355ef4	-0.044280007
19	0xbd5daa19	-0.054117296
20	0xbe79ced3	-0.24395303
21	0x3dec9252	0.11551346
22	0x3e7313fa	0.23738089
23	0xbe7852ac	-0.24250287
24	0xbe737418	-0.23774755
25	0xbedc227b	-0.42995057
26	0x3e83b69d	0.2572526
27	0x00000000	0.0
28	0xbea32551	-0.31864408
29	0xbe9fd86e	-0.3121981
30	0xbe95f4f7	-0.29288456
31	0x3d4d1b3f	0.050074812
32	0xbe23f821	-0.16012622
33	0xbe1a31a5	-0.15058
34	0xbbfe1cfd	-0.0077549205
35	0xbe645d10	-0.22301126
36	0x3e696ec9	0.22796167
37	0xbefbc7cc	-0.4917587
38	0x3e0ad1c9	0.13556589
39	0x3d8636aa	0.06553395
40	0x3dda5d23	0.10662296
41	0xbda2381a	-0.07920857
42	0xbc06ff95	-0.008239646
43	0x3e25aaa1	0.16178371
44	0xbd316500	-0.04330921
45	0xbdaef447	-0.08542686
46	0xbd5316de	-0.05153548
47	0xbf38bbbf	-0.7216148
48	0xbe382a7e	-0.1798496
49	0xbb6a6e4e	-0.0035771313
50	0x3e7ce5d8	0.24697053
51	0xbd6b7fbc	-0.057494864
52	0xbcb6856d	-0.02228042
53	0xbe225a6b	-0.15854804
54	0xbf17d69b	-0.59311837
55	0x3e08dc75	0.13365348
56	0x3e0528cd	0.13003846
57	0xbe951e7a	-0.29124814
58	0x3d4bc123	0.049744736
59	0xbe2ef8f0	-0.1708715
60	0x3e8eaa14	0.27864134
61	0xbe36e8ac	-0.17862195
62	0xbed60958	-0.41804004
63	0x3d9ab3c3	0.07553818
64	0xbeea06ba	-0.45708257
65	0xbe5105f7	-0.20412432
66	0xbe9564bb	-0.29178414
67	0xbeb34b11	-0.3501821
68	0xbd239277	-0.0399346
69	0xbecaf39b	-0.3963898
70	0x3db485b6	0.08814566
71	0xbc212b43	-0.009836975
72	0x3e1888c1	0.14895917
73	0xbdcda6fb	-0.100416146
74	0x3d808b77	0.06276601
75	0xbe07e532	-0.13271025
76	0x3ec01c5b	0.37521634
77	0xbec324bd	-0.38113967
78	0xbeb69bba	-0.35665685
79	0x3e6654b0	0.22493243
80	0xbddc1ee0	-0.107480764
81	0xbdf0e540	-0.11762476
82	0xbda86eb5	-0.08224241
83	0x3dad5d13	0.08465018
84	0x3d268b8c	0.040660426
85	0x3eba1aec	0.36348665
86	0xbd4b2299	-0.04959354
87	0xbbe8758e	-0.0070940917
88	0xbe80bfb1	-0.2514625
89	0x3d9ae5dc	0.075633734
90	0x3d7a40d0	0.061096966
91	0xbee50e67	-0.4473755
92	0x3da30a6e	0.07960974
93	0xbeb044fb	-0.34427628
94	0x3e8b4a49	0.27205113
95	0xbd03e951	-0.03220493
96	0xbe891f73	-0.26781806
97	0x3e43630f	0.19080757
98	0xbe4ae430	-0.19813609
99	0xbdc371f5	-0.0954322
100	0xbea1057e	-0.31449503
101	0xbee4a79f	-0.44659135
102	0xbe0b92b1	-0.13630177
103	0xbed9f976	-0.42573136
104	0xbe20ab05	-0.15690239
105	0xbd1cfd00	-0.038327217
106	0xbdceb1e0	-0.10092521
107	0xbd91cb31	-0.07118834
108	0xbe95580d	-0.2916874
109	0xbdf7da4a	-0.12102182
110	0x3d86f4c4	0.06589654
111	0x3eab30f1	0.33435777
112	0xbf094a8c	-0.53629375
113	0x3e28bd13	0.16478376
114	0xbeb16ba9	-0.3465245
115	0xbd7fab77	-0.06241938
116	0xbe3a61a9	-0.18201317
117	0xbea8bd21	-0.32956794
118	0xbcba09de	-0.022709783
119	0xbc0599f6	-0.008154383
120	0xbe9640bc	-0.29346263
121	0x3dba0cd6	0.090844795
122	0x3e595e9f	0.21227501
123	0xbed312f9	-0.41225412
124	0xbe3d9a48	-0.18515885
125	0xbe993ca8	-0.2992909
126	0xbe0bd3b8	-0.13654983
127	0xbece161c	-0.40251243
128	0xbee9cfde	-0.45666403
129	0x3e1a1eaa	0.1505076
130	0xbc0bc108	-0.008529909
131	0xba8eb2ea	-0.0010887061
132	0xbdc264bc	-0.0949187
133	0xbeb18ae3	-0.34676275
134	0xbd09263e	-0.033483736
135	0xbeb4e7e8	-0.3533318
136	0xbd1416a6	-0.03615441
137	0x3cb3c46e	0.02194425
138	0xbf048654	-0.5176747
139	0xbd83bf5a	-0.06432982
140	0xbd6ab01d	-0.05729686
141	0xbed63ba9	-0.41842392
142	0xbe96996e	-0.29413933
143	0x3dc98445	0.098396815
144	0x3df18a8c	0.11794004
145	0xbc60fe59	-0.013732516
146	0x3dab4e12	0.083645
147	0xbc2956e9	-0.010335662
148	0xbdfd2d67	-0.123621754
149	0xbdab81c3	-0.083743595
150	0xbb8dc3ab	-0.004326304
151	0xbe6ebb0f	-0.23313545
152	0x3d532523	0.05154909
153	0xbbd2165f	-0.0064113582
154	0x3e45699d	0.1927857
155	0x3d64c636	0.05585309
156	0xbc1cf9aa	-0.009581009
157	0xbf167cad	-0.5878399
158	0xbb9be763	-0.004757808
159	0xbe1a404e	-0.15063593
160	0x3da1e651	0.079052575
161	0xbda7bb01	-0.08189965
162	0x3d716b36	0.058940135
163	0xbd6898a1	-0.056786183
164	0xbc14772a	-0.009061614
165	0x3ea31178	0.31849265
166	0xbefbd3ae	-0.49184936
167	0xbe085fac	-0.13317746
168	0x3e51f9c8	0.2050544
169	0xbe900768	-0.2813065
170	0xbe0675e4	-0.13130909
171	0xbe58d5bf	-0.21175288
172	0xbc0ed80a	-0.0087185
173	0xbdf99cf5	-0.1218814
174	0xbb1e25e3	-0.002413147
175	0x3e6f3a84	0.23362166
176	0xbe89bccf	-0.26901862
177	0xbcb19545	-0.021677623
178	0xbe1413db	-0.144607
179	0xbc327d5e	-0.010894148
180	0xbea3612b	-0.3191007
181	0xbed659a6	-0.4186527
182	0xbdd21bcd	-0.10259209
183	0x3f0540eb	0.5205218
184	0x3d6ad75c	0.05733429
185	0xbd465bcd	-0.04842739
186	0xbe150ae3	-0.14554934
187	0xbe9dbda0	-0.30808735
188	0x3df36743	0.1188493
189	0xbe6a0f44	-0.22857386
190	0xbe9cc163	-0.30616292
191	0xbea03369	-0.31289223
192	0xbc13d934	-0.009023953
193	0xbe0636de	-0.13106868
194	0x3e1045cf	0.1408913
195	0xbec7255e	-0.38895696
196	0xbbc63305	-0.0060485625
197	0x3dcc5ee1	0.09979034
198	0x3e56917c	0.20953935
199	0x3d1c7772	0.03819985
200	0xbe0a95b2	-0.13533667
201	0x3d963fa0	0.07336354
202	0x3cf21f97	0.029556079
203	0xbd9bad98	-0.0760147
204	0x3e687f27	0.22704755
205	0xbdf05474	-0.11734858
206	0x3e2bd736	0.16781315
207	0xbef24ad4	-0.47322714
208	0x3cb04410	0.02151683
209	0xbbb57dd6	-0.0055386825
210	0xbe19a296	-0.15003428
211	0xbf0f49ba	-0.5597187
212	0xbf3a9634	-0.7288544
213	0x3b40582e	0.0029349434
214	0xbf10dc5b	-0.56586236
215	0xbeb2de59	-0.34935263
216	0xbe46a339	-0.19398202
217	0xbea6726e	-0.32509178
218	0x3e13ffb4	0.14453012
219	0xbe9ecba4	-0.3101474
220	0xbd730653	-0.059332203
221	0xbbb7bbf2	-0.0056071216
222	0xbd801f09	-0.062559195
223	0xbe9db202	-0.30799872
224	0xbe925304	-0.2857896
225	0x3d746742	0.059668787
226	0xbeb91bce	-0.36154026
227	0x3dd59c39	0.10430188
228	0x3da209f0	0.07912052
229	0x3d29b2c3	0.041430246
230	0xbed374f1	-0.41300157
231	0x00000000	0.0
232	0xbb4ec72b	-0.0031551819
233	0x3c7555c7	0.014974064
234	0xbbddc014	-0.0067672823
235	0xbc2ca53a	-0.01053744
236	0xbeae2748	-0.34014344
237	0xbc853973	-0.016262745
238	0xbe5fbb09	-0.21848692
239	0x3d1c4363	0.038150202
240	0xbdfd8cd3	-0.12380376
241	0x3d8c727a	0.06857772
242	0xbe8e404d	-0.27783433
243	0xbea7ad3c	-0.32749355
244	0x3d83e70e	0.064405546
245	0x3ea09f1b	0.31371388
246	0xbd1edb07	-0.0387831
247	0xbdf379ab	-0.11888441
248	0xbea9bae5	-0.33150402
249	0xbecfc3c1	-0.40579036
250	0x3d85117a	0.06497474
251	0x3db249df	0.08705496
252	0xbe3ec149	-0.1862842
253	0x3e1f7061	0.15570213
254	0xbe6df6d7	-0.23238693
255	0xbeb2feaf	-0.34959933

V.weight f4 [1, 256]
0	0x403b493b	2.9263446
1	0xbfd609f2	-1.6721785
2	0x3f82828d	1.0196091
3	0xc063c158	-3.5586758
4	0xc03bca9b	-2.934241
5	0xbfce4137	-1.6113652
6	0x40348c0b	2.8210475
7	0x3fa4be0c	1.2870498
8	0xbf989ab3	-1.192221
9	0x3fc63823	1.5485882
10	0x3e04c494	0.12965614
11	0xc0b71f63	-5.7225814
12	0xc06a9496	-3.665319
13	0x401ccbfd	2.4499505
14	0x40057abb	2.0856159
15	0xbe1c74ef	-0.15278982
16	0xc0014611	-2.0199015
17	0x3f9331a8	1.1499529
18	0xc03b4921	-2.9263384
19	0x4018f37e	2.3898616
20	0x3f39edd1	0.72628504
21	0xbf9da443	-1.2315754
22	0xc0131d90	-2.2986794
23	0x3f7092d3	0.93974036
24	0xbe13964e	-0.14412805
25	0xbfb5e974	-1.4211869
26	0xbeae2bf7	-0.34017918
27	0xbd6cf3bc	-0.05784963
28	0xbeefdaa0	-0.46846485
29	0xbf916f50	-1.1362095
30	0xc077407d	-3.863311
31	0x3f849403	1.035767
32	0x3fcc50b0	1.5962124
33	0x3f44fcc5	0.76948196
34	0xbf9e474e	-1.236551
35	0x3f982573	1.1886429
36	0xbfa440fd	-1.2832333
37	0xc06c0e84	-3.688386
38	0xbf959f85	-1.1689306
39	0xbfb29197	-1.395068
40	0xbf8d639c	-1.1046023
41	0x401fc55e	2.4964213
42	0x3f550514	0.83210874
43	0x3fb4470b	1.408418
44	0x3fdff92f	1.749792
45	0xbfee983f	-1.8640212
46	0x3f7646e9	0.9620195
47	0xbffe198b	-1.9851545
48	0x40126505	2.2874157
49	0x403874df	2.8821332
50	0x3e30927b	0.17243378
51	0xbfdd6c8b	-1.729875
52	0xc002001e	-2.0312572
53	0x40234735	2.5512211
54	0xbf15c3fb	-0.5850217
55	0x3eb3b09d	0.35095683
56	0x3df4aa11	0.119465
57	0xc04f9945	-3.2437298
58	0x3fbd2335	1.4776369
59	0xc03e2851	-2.9712107
60	0x3fa6460e	1.2990129
61	0x3fc41d3f	1.5321425
62	0xbeb6f296	-0.35731953
63	0x3f26f60a	0.65219176
64	0xbfc110b6	-1.5083225
65	0xbfe4b494	-1.7867608
66	0xc0485555	-3.1302083
67	0x3fbf4f6a	1.494611
68	0xbd6085d6	-0.054815136
69	0xbfb15070	-1.3852673
70	0xbf8e781c	-1.1130404
71	0xbd970df3	-0.073757075
72	0xbf9f78cf	-1.2458743
73	0x3f9482db	1.1602434
74	0xbfaeefef	-1.3666972
75	0x40385b77	2.8805826
76	0xbeef66c0	-0.4675808
77	0xc03b4ae6	-2.9264464
78	0xc0494b8b	-3.1452358
79	0xbfa672cb	-1.3003782
80	0x4063aa65	3.557275
81	0xc02ca63e	-2.6976466
82	0xbf7f321d	-0.9968584
83	0x3f917aad	1.1365563
84	0xbfe1bc85	-1.7635657
85	0xbf733381	-0.95000464
86	0xbf96795c	-1.1755786
87	0xbddba4a5	-0.10724763
88	0x3fd84ad3	1.6897835
89	0xc02d0c61	-2.7038805
90	0x40670405	3.6096203
91	0xbfb7b726	-1.4352767
92	0xbf898f09	-1.0746776
93	0xc00dd2a7	-2.2159822
94	0xbfc75088	-1.5571451
95	0xbfcaf1c6	-1.5855033
96	0xbf1bfff9	-0.6093746
97	0x3fa477a7	1.2849015
98	0xc03a4da9	-2.91099
99	0xbfa5fa34	-1.2966981
100	0x40087a4d	2.1324646
101	0x3fe0fc98	1.7577085
102	0x3f1677f0	0.5877676
103	0xc0671ec2	-3.6112523
104	0x3ff4ea6a	1.9134037
105	0xbff47551	-1.9098302
106	0xc014dd49	-2.3260062
107	0xbf03bb0f	-0.51457304
108	0x3fc111a3	1.5083507
109	0xbf800aea	-1.0003331
110	0xbe0775b2	-0.13228491
111	0x4058c730	3.3871574
112	0xc0a9e091	-5.308663
113	0x3fa2ca88	1.2718058
114	0xbfbc5a7b	-1.4715112
115	0x3fc39773	1.5280594
116	0x3d56a0c9	0.05239943
117	0xbf4b05c3	-0.79305667
118	0xc00bdcea	-2.1853585
119	0xbd92b725	-0.07163838
120	0x3e29f5a4	0.1659761
121	0xc008c15d	-2.136802
122	0x3fd19f3c	1.637672
123	0x401d128f	2.4542577
124	0x402bf206	2.686647
125	0xc0181212	-2.376103
126	0xbd30eeeb	-0.0431966
127	0xc007aae5	-2.1198056
128	0x3fc31a7a	1.5242455
129	0xbf795bdb	-0.97405785
130	0x3d1f8c33	0.038952064
131	0x3df6ee91	0.12057222
132	0x3fc4bcf2	1.5370162
133	0xc0154139	-2.3321059
134	0xbf3b8c22	-0.732607
135	0xbf6c688e	-0.9234704
136	0xbfce64e1	-1.6124536
137	0x3f396f62	0.7243558
138	0xbf265901	-0.6497956
139	0xbffe26ff	-1.9855651
140	0xbc83247a	-0.016008604
141	0xc02e7b06	-2.7262588
142	0x4002a6cb	2.0414302
143	0x3fa5e965	1.2961851
144	0xbf5718ab	-0.84022015
145	0x40216923	2.522042
146	0xc005cc54	-2.0905962
147	0xbcf124a7	-0.029436423
148	0xbea854c2	-0.32877165
149	0x3f71dacc	0.9447448
150	0x3be94152	0.0071183825
151	0x4000ada4	2.0105982
152	0xbfef526f	-1.8697032
153	0xbd2031a6	-0.03910985
154	0xbf8c5d9f	-1.0966071
155	0xc001d71c	-2.0287542
156	0x3f7096ac	0.9397991
157	0x3f39cddd	0.7257975
158	0x3e3280c6	0.17431936
159	0xc03836dc	-2.8783484
160	0xbf98c64c	-1.1935515
161	0xc0458110	-3.0860023
162	0xbf9f9aa4	-1.2469068
163	0x3fdab499	1.7086364
164	0xbcc124f2	-0.023577187
165	0x3f02943f	0.51007456
166	0xbf17efc8	-0.5935025
167	0x3e6f4d1b	0.23369257
168	0xbf80b426	-1.0054977
169	0x40b9ef79	5.8104825
170	0x3f69f5f2	0.9139091
171	0x3fbfd37f	1.4986418
172	0x3d12523b	0.035722952
173	0xbf9dc6c2	-1.2326281
174	0xbd880319	-0.06641216
175	0xc01ceb8f	-2.4518774
176	0xc032c584	-2.7933054
177	0x3ff7b80e	1.9353044
178	0xbfb43a91	-1.4080373
179	0xbdcfba9a	-0.10143013
180	0xc00c8ad1	-2.1959727
181	0xbfaed84e	-1.3659761
182	0xc01ee4b1	-2.4827082
183	0xc0a00479	-5.000546
184	0xbfd0e640	-1.6320267
185	0xbfb93768	-1.4470034
186	0xbf3c5f68	-0.7358308
187	0x3d0faaa6	0.035074852
188	0xbfad9e0a	-1.3563855
189	0xbf866d2a	-1.0502064
190	0xbf5f82cd	-0.8730896
191	0xbf4cd340	-0.8000984
192	0xbe5f2b07	-0.21793757
193	0xc0057046	-2.0849776
194	0x3f67f7fe	0.9061278
195	0xc01390bf	-2.3057096
196	0x3d2550b1	0.040360156
197	0x3fb09db8	1.3798132
198	0xbf7133c9	-0.9421964
199	0xc033c7be	-2.8090663
200	0x3dc093c0	0.09403181
201	0x3ff13b2f	1.8846186
202	0xbfa66b43	-1.3001484
203	0xc0068171	-2.1016505
204	0x3f12bcca	0.5731932
205	0xc0217477	-2.5227334
206	0xbf9a978b	-1.2077497
207	0x3f0ad667	0.542334
208	0xbf803807	-1.0017098
209	0x3d078149	0.03308228
210	0xbfbf1db0	-1.4930935
211	0xc0a57523	-5.170549
212	0xc0068591	-2.1019022
213	0xc048f1a5	-3.1397488
214	0xc0799325	-3.899606
215	0x3f4f8f73	0.8107826
216	0x40387320	2.8820267
217	0xc0123a51	-2.2848094
218	0x3f845d39	1.0340949
219	0xbfff9ab0	-1.9969082
220	0xbff38b3f	-1.902687
221	0x3d80dfba	0.062926725
222	0xbfb92b8a	-1.4466412
223	0xbf829973	-1.0203079
224	0x40064864	2.0981684
225	0xbfa774a8	-1.3082476
226	0xc06c1c67	-3.6892335
227	0xc0310474	-2.7658968
228	0x3f157f11	0.5839701
229	0x3fabc10b	1.3418287
230	0x3ffb34a7	1.9625443
231	0x3d60d8a5	0.05489411
232	0x3d8f9a2c	0.07011828
233	0xbf9f465b	-1.2443346
234	0x3cf8bb0a	0.030362625
235	0xbb03b1bc	-0.0020094952
236	0xbfd86194	-1.6904778
237	0x401e9cec	2.4783278
238	0xbf629576	-0.8850931
239	0x3fe1da71	1.7644788
240	0x3f8beec2	1.0932238
241	0x3f8e6a57	1.1126202
242	0xc03c0f7b	-2.9384449
243	0xc0122a02	-2.283814
244	0xbdebe9b4	-0.11519185
245	0xbfb81760	-1.4382133
246	0xbe7ac54d	-0.24489327
247	0x3f6a4583	0.91512316
248	0xc00b9b33	-2.1813476
249	0xbfc08392	-1.5040152
250	0xbf9576a5	-1.1676832
251	0xbe5622fc	-0.20911783
252	0xbfe40290	-1.7813282
253	0xc00ed104	-2.2315073
254	0xc0091f26	-2.1425261
255	0x3e7266c0	0.23672009

A.weight f4 [51, 256]
0	0xbfdea65e	-1.7394521
1	0x4013a4d8	2.3069363
2	0xbf099e61	-0.5375729
3	0x40434a6e	3.0514178
4	0x405a9199	3.4151366
5	0x3fe2a065	1.7705199
6	0xc01f9702	-2.4935918
7	0xbde8a365	-0.1135929
8	0x3fa11690	1.258501
9	0xbf23aba7	-0.63933796
10	0x3fa5c674	1.2951188
11	0x40ca93f3	6.33056
12	0x4025ba16	2.5894828
13	0xbdd21bb7	-0.102591924
14	0x3fd9bfc9	1.7011653
15	0x3d137453	0.035999607
16	0x40188e84	2.3836985
17	0x3c344aa3	0.011004123
18	0x407a891e	3.914619
19	0x3ff0cd99	1.8812743
20	0x3e606f10	0.21917367
21	0x402ed622	2.7318196
22	0x402e2c3b	2.7214496
23	0xbeeda748	-0.46416688
24	0x4010ce42	2.262589
25	0x3fc27ee5	1.5194975
26	0x3edf0db4	0.43565142
27	0x3d9e61db	0.07733508
28	0x3f9e96b0	1.2389736
29	0x3fa168ef	1.2610148
30	0x402a33cf	2.6594121
31	0x3ec50ff4	0.38488734
32	0xbf7e95fe	-0.9944762
33	0x402cc801	2.6997073
34	0x3fb68fb2	1.4262602
35	0xbdc1ccb0	-0.09462869
36	0x4001df85	2.0292675
37	0x3fbced55	1.4759928
38	0x400347dc	2.051261
39	0x3f876bb5	1.0579745
40	0x3fe15c9d	1.7606388
41	0xbf969011	-1.1762716
42	0x4001c181	2.0274355
43	0x3da9ace8	0.082849324
44	0x3f8ca0f1	1.0986615
45	0x3f6c2255	0.92239887
46	0xbed4c653	-0.4155756
47	0x3f802c94	1.0013604
48	0xbf3ee272	-0.7456428
49	0xc00b15e3	-2.1732109
50	0x3f138081	0.57617956
51	0x400b4b12	2.176457
52	0x3fbb743d	1.4644848
53	0xbfdf6270	-1.7451916
54	0x3fae1846	1.3601158
55	0x3f3b6d53	0.7321369
56	0x3fa4f351	1.2886754
57	0x400ae044	2.169938
58	0x3ff607b8	1.9221106
59	0x4020dc74	2.5134554
60	0x3e628c2a	0.22123781
61	0xbf23669c	-0.63828444
62	0x3f0ef2a6	0.55839
63	0x3d8e4d0f	0.069482915
64	0x3fdee70b	1.7414259
65	0x40162beb	2.3464305
66	0x4000307b	2.002959
67	0xbee7219b	-0.45142826
68	0x3f98760e	1.1911027
69	0x3fc1cbae	1.5140283
70	0x4018832a	2.3830056
71	0xbcdcbfb7	-0.026946886
72	0x400e8609	2.2269309
73	0xbec8eb95	-0.39242235
74	0x406d9406	3.7121596
75	0xbfaa6838	-1.3313055
76	0x3f8e8d07	1.1136788
77	0x4008f01b	2.1396549
78	0x400d657e	2.2093196
79	0x401b5305	2.426942
80	0x3f3f57e2	0.74743474
81	0x40189caa	2.384562
82	0x3fcc64bd	1.5968243
83	0x3e88487e	0.26617807
84	0x4012f977	2.2964761
85	0x3ffde45f	1.9835318
86	0x4003ed08	2.0613422
87	0x3d784852	0.060615845
88	0xbef633d9	-0.48086432
89	0x406c6ddf	3.694206
90	0xbfccdaa2	-1.6004221
91	0x3fc346fc	1.5256038
92	0x3fe96101	1.8232728
93	0x40128141	2.289139
94	0x402bc149	2.6836722
95	0x3f37bdb7	0.71773857
96	0x3f445b49	0.7670179
97	0x3f781069	0.9690004
98	0x4022e1be	2.5450282
99	0x40327a19	2.7887022
100	0xbf394ca7	-0.7238259
101	0xbe6d3029	-0.23162903
102	0x3ecca3dc	0.39968765
103	0x40339000	2.805664
104	0xbafbaa45	-0.0019200525
105	0x4043f424	3.0617762
106	0x3fd01679	1.6256858
107	0x3f94730b	1.1597608
108	0x40783f5f	3.8788679
109	0x3fc26cc0	1.5189438
110	0x3fcb521c	1.5884433
111	0xc049e3fd	-3.1545403
112	0x4081bb7c	4.0541363
113	0xbea7d777	-0.32781574
114	0x3fc2eb99	1.5228149
115	0xbf3d2c7c	-0.73896
116	0x402c81de	2.6954265
117	0x3f95cd4f	1.170328
118	0x4009565c	2.145896
119	0x3deb53f9	0.11490626
120	0x3f3605b7	0.7110247
121	0x405d32b9	3.4562209
122	0x3f5037ef	0.8133535
123	0xbf798798	-0.97472525
124	0xbe066026	-0.13122615
125	0x3fb7645f	1.4327506
126	0x4023f12c	2.561595
127	0x4000f4a5	2.014932
128	0xbed5566b	-0.41667494
129	0x3fc31c2c	1.5242972
130	0x3da97d84	0.08275893
131	0x3cf3a286	0.029740583
132	0x405709da	3.3599763
133	0x3f4d7a44	0.8026469
134	0x3fb0dea9	1.381795
135	0x3f7e87f7	0.99426216
136	0x3f22ea4a	0.63638747
137	0xbec2d1d1	-0.38050702
138	0x3fc9792d	1.5740105
139	0x3f75e259	0.96048504
140	0x3f34707f	0.70484155
141	0x3fa72d87	1.3060769
142	0xbf492175	-0.78566676
143	0x3f5356a4	0.8255408
144	0x3fc712cb	1.555261
145	0xbfb9747b	-1.4488672
146	0x4039f6d6	2.9056907
147	0xbe0e9b0d	-0.13926335
148	0x403898dc	2.8843298
149	0x3fda7df6	1.706969
150	0xbd6a0e55	-0.057142574
151	0xbf7355bf	-0.95052713
152	0x3f51ff1c	0.8202989
153	0x3e3dee7b	0.18548004
154	0x3fc8d8d8	1.5691175
155	0x3f7b8aef	0.9825887
156	0xbdf66e5c	-0.12032768
157	0x3d213502	0.039357193
158	0x3d9e1297	0.077183895
159	0x40122f98	2.284155
160	0x402aad95	2.6668446
161	0x405a86e4	3.414483
162	0x401f0c80	2.485138
163	0x3e27671b	0.16347925
164	0xbda3c164	-0.07995871
165	0x3ea1f139	0.3162935
166	0x3f9cc0db	1.2246355
167	0x402158ca	2.5210443
168	0x3fc1ff7a	1.515609
169	0xc014eeb7	-2.32707
170	0xbe110159	-0.1416067
171	0xbf48c488	-0.7842488
172	0x3cbed698	0.023295686
173	0x400f993f	2.2437284
174	0x3d8bb009	0.068206854
175	0x401db813	2.46436
176	0x4012562f	2.2865102
177	0x403e4a78	2.9732952
178	0x400a9287	2.1651933
179	0xbabb64e5	-0.0014297037
180	0x3f69e66b	0.91367215
181	0x3fc1c1e4	1.5137296
182	0x3fbb720d	1.464418
183	0x405ed826	3.4819427
184	0x405f613b	3.4903095
185	0x3ea4c4ce	0.321814
186	0x3ff6bd3b	1.9276499
187	0x3e02588d	0.12729092
188	0x405219da	3.2828279
189	0x3f8bc13b	1.0918344
190	0x3f8663d6	1.0499218
191	0x3f2b6461	0.6695004
192	0xbd7f5e92	-0.06234605
193	0x403110ce	2.7666507
194	0x3fadb661	1.3571283
195	0x3f6a54c4	0.9153559
196	0x3c2e9da3	0.010657701
197	0xbe77cf0d	-0.24200077
198	0x40017f73	2.023404
199	0x40455021	3.0830157
200	0x3f211693	0.6292507
201	0x3f6b63f5	0.919494
202	0x3fe06929	1.7532092
203	0x3f848db3	1.0355743
204	0x3f68600c	0.90771556
205	0x3fc91232	1.5708678
206	0x403a80cf	2.9141119
207	0xbe8500ea	-0.2597726
208	0x3f55018b	0.8320548
209	0x3c8e21a1	0.01735002
210	0x3fd599be	1.6687543
211	0x408202c6	4.0628386
212	0x3fa6ad07	1.3021554
213	0x401cd170	2.450283
214	0x408493fb	4.143064
215	0xbf037a1a	-0.5135819
216	0x3ed7deee	0.4216227
217	0x400af7c3	2.1713722
218	0x3e32c573	0.17458133
219	0x3f960201	1.1719362
220	0x402b1ab7	2.6735055
221	0xbc4bf561	-0.01244864
222	0x401783e2	2.3674245
223	0x3f93b353	1.15391
224	0xbe6d9083	-0.23199658
225	0x403c0044	2.9375162
226	0x40232fa8	2.5497837
227	0x3fe5d70e	1.7956254
228	0x3fa9574b	1.3229765
229	0x3f4ab257	0.79178375
230	0xbfb391d7	-1.4028882
231	0x3c8dc203	0.017304426
232	0xba0a92a1	-0.00052861316
233	0x40350880	2.8286438
234	0x3d25d4cb	0.04048614
235	0xbd16ec2b	-0.03684632
236	0x4022f981	2.5464785
237	0x3f9a76f2	1.2067549
238	0x3f33c636	0.7022432
239	0x400c7f70	2.1952782
240	0xbe95ebe5	-0.29281536
241	0x3e204520	0.15651369
242	0x402f1be7	2.736078
243	0x3f62a227	0.88528675
244	0x3f0afad6	0.54288995
245	0x4056c720	3.3559036
246	0x400a1ea7	2.1581209
247	0xbf3d3b81	-0.7391892
248	0x3f86db98	1.0535765
249	0x3fb513b1	1.4146634
250	0x400ddd6f	2.2166402
251	0x3eb90c70	0.36142302
252	0x3f64c216	0.8935865
253	0x402226db	2.5336215
254	0x3f9c32e2	1.2203028
255	0x40656283	3.5841377

A.bias f4 [51]
0	0x3f458b34	0.7716553
1	0x3f4bf602	0.79672253
2	0x3f502323	0.81303614
3	0x3f7447dc	0.9542215
4	0x3f5cee0e	0.8630074
5	0x3f4c1683	0.7972185
6	0x3f11608e	0.56787956
7	0x3f203e1a	0.6259476
8	0x3f7806a2	0.9688512
9	0x3f81b188	1.0132303
10	0x3f54fa6b	0.8319461
11	0x3ecf3e10	0.40477037
12	0x3e81892c	0.25299966
13	0x3f06e639	0.5269504
14	0x3ef62d45	0.48081413
15	0x3eccba52	0.399859
16	0x3ee1138b	0.43960223
17	0x3e6af2ee	0.22944233
18	0x3e8bcbdc	0.2730397
19	0x3ea4bee6	0.32176894
20	0x3e3d555d	0.18489595
21	0xbb138ea1	-0.0022515433
22	0xbe260b7d	-0.1621532
23	0xbdc4619f	-0.09588932
24	0x3e37ec45	0.17961223
25	0x3e7507c3	0.23928742
26	0x3e1456da	0.14486256
27	0x3dcce18f	0.100039594
28	0x3d58bb54	0.052913025
29	0xbcfb8c52	-0.030706558
30	0xbd2af201	-0.0417347
31	0xbb895dad	-0.004192075
32	0xbcc64a94	-0.024205483
33	0xbe84cb63	-0.25936422
34	0xbd930f89	-0.071806975
35	0x3e80758b	0.25089678
36	0xbe14951e	-0.14510009
37	0xbcb07088	-0.021538034
38	0x3d9a0f15	0.07522408
39	0x3e67d179	0.22638501
40	0x3ed07157	0.4071147
41	0x3ec6e239	0.3884447
42	0x3edee9b7	0.43537685
43	0x3f005ef4	0.50144887
44	0x3f10ca44	0.5655863
45	0x3f2bb97d	0.6707991
46	0x3ed5569f	0.4166765
47	0x3f261d52	0.6488849
48	0x3ed363f9	0.4128721
49	0x3e67cc24	0.22636467
50	0x3f17147c	0.5901563
