option_hedging/hyperparameters/dqn_hyperparameters/dueling_double/year/0.0/dqn_model.pth (torch, 323928 bytes, 7 tensors)

linear1.weight f4 [256, 3]
0	0x3e7ffa9d	0.24997945
1	0xbfab29c4	-1.3372121
2	0x3e1b8e10	0.15190911
3	0x3e9a3b44	0.3012334
4	0x3fb134d2	1.3844244
5	0x3cc54ea8	0.024085358
6	0xbd49a128	-0.049225956
7	0xbf9395bd	-1.1530071
8	0x3d6b12b5	0.057390887
9	0xbf4cb7ec	-0.7996814
10	0x3f963385	1.1734473
11	0xbe87c622	-0.2651835
12	0xbf3260e3	-0.6967909
13	0xbe26d223	-0.16291098
14	0xbea168cd	-0.3152527
15	0x3d97f8d9	0.07420511
16	0xbf92bb65	-1.1463438
17	0x3e4d47ff	0.20046996
18	0x3eccfef9	0.4003828
19	0xbed8009c	-0.42187965
20	0xbf1190da	-0.5686165
21	0xbf153ed8	-0.58299017
22	0x3e469216	0.19391665
23	0xbdee610a	-0.116396025
24	0xbeb5e7a3	-0.35528287
25	0x3f946fe3	1.1596645
26	0xbea257fd	-0.31707755
27	0x3f049054	0.5178273
28	0xbf5fd437	-0.8743319
29	0xbdac5ea8	-0.08416492
30	0xbe7866db	-0.24257986
31	0x3efab10b	0.48963198
32	0xbd6ad3cf	-0.057330903
33	0x3e0a75e1	0.1352153
34	0x3f95d444	1.1705403
35	0xbe906f1c	-0.2820977
36	0xbf124c51	-0.571477
37	0x3e393aa2	0.18088773
38	0xbdf376ad	-0.1188787
39	0x3ea37f06	0.3193285
40	0xbefb5388	-0.49087167
41	0xbf022550	-0.50838184
42	0xbec1276a	-0.37725383
43	0x3d99a00b	0.07501229
44	0xbe4cf67b	-0.200159
45	0xbdfd3499	-0.12363548
46	0x3f5db6f5	0.86607295
47	0xbe037423	-0.12837271
48	0xbe2a438f	-0.16627334
49	0xbee3e19a	-0.44508058
50	0xbf2eab7e	-0.68230426
51	0xbe801b0b	-0.25020632
52	0xbe6db16d	-0.23212214
53	0xbf28aae2	-0.65885746
54	0xbea8efcb	-0.32995448
55	0xbf0e7c61	-0.5565854
56	0xbe926a08	-0.2859652
57	0x3e49c261	0.19703056
58	0x3f3a0e41	0.72678
59	0xbf15d76e	-0.58531845
60	0x3d3db774	0.046317533
61	0xbf299c06	-0.662537
62	0x3e40915f	0.18805455
63	0xbe4259ad	-0.18979521
64	0x3e7ad485	0.24495132
65	0xbf2e11a5	-0.67995673
66	0x3d50e605	0.051000614
67	0xbe247378	-0.16059673
68	0xbf2ed07b	-0.68286866
69	0xbf012ac7	-0.504559
70	0x3fc0a4cc	1.5050292
71	0xbe36973a	-0.17831126
72	0x3db20f99	0.08694381
73	0xbf599e3e	-0.85007083
74	0x3e88d7c8	0.26727128
75	0xbf130182	-0.57424176
76	0x3e4c143a	0.19929591
77	0xbe112657	-0.14174782
78	0x3f4586c0	0.7715874
79	0xbf87d773	-1.0612625
80	0x3da54c99	0.080712505
81	0x3f37df95	0.71825534
82	0xbf5c21d1	-0.859891
83	0xbd71944e	-0.058979325
84	0x3e988b05	0.29793563
85	0x3f6c194b	0.92226094
86	0xbde48df1	-0.11159886
87	0x3dec6328	0.1154235
88	0xbf8f9570	-1.121748
89	0x3e2de251	0.16980864
90	0x3e99e97b	0.30060944
91	0xbf73079b	-0.9493348
92	0x3e4f59fa	0.20249167
93	0xbe7f6e2e	-0.24944374
94	0x3f892e80	1.0717316
95	0xbdb7a5c5	-0.08967165
96	0x3e9c52af	0.30531833
97	0x3f9fc429	1.2481738
98	0xbef39510	-0.47574663
99	0xbe5de65d	-0.21669908
100	0x3f27d6c3	0.65562075
101	0xbec32d83	-0.3812066
102	0xbf3fa4e6	-0.7486099
103	0x3f796aaf	0.9742841
104	0xbe34bf0a	-0.17651
105	0xbee5f7e4	-0.44915688
106	0x3f955da0	1.1669197
107	0xbf23687c	-0.63831306
108	0xbe78651b	-0.24257319
109	0x3fcd4160	1.6035576
110	0x3d7d701c	0.061874494
111	0xbf089029	-0.5334497
112	0x3f547c23	0.8300192
113	0xbe0f73f3	-0.14009075
114	0xbf48fc18	-0.78509665
115	0xbe0af3d1	-0.13569571
116	0xbe0410ff	-0.12897108
117	0xbf4106de	-0.75401103
118	0x3f683012	0.9069835
119	0xbf4579b6	-0.7713884
120	0xbe0776d4	-0.13228923
121	0x3f5e9121	0.869402
122	0xbe8311a1	-0.25599387
123	0xbf0a3b62	-0.5399686
124	0x3f0dedfb	0.55441254
125	0xbe1f9142	-0.15582755
126	0xbf22465c	-0.6338861
127	0x3fa9211b	1.3213228
128	0xbf1b5d06	-0.6068882
129	0xbf602f47	-0.8757214
130	0x3dfbb0d4	0.12289587
131	0xbe344d5e	-0.17607638
132	0x3d6765ea	0.056493677
133	0x3edde9ba	0.43342382
134	0xbf3af16c	-0.7302463
135	0xbd78e477	-0.060764756
136	0x3f85b488	1.0445719
137	0xbe0bf256	-0.13666663
138	0x3e3c0fc9	0.18365397
139	0xbf223c96	-0.63373697
140	0x3e87d37d	0.2652854
141	0xbef7c9c8	-0.48396134
142	0x3dcb3594	0.099223286
143	0xbe113f16	-0.14184222
144	0xbd9367a4	-0.07197502
145	0xbe997b03	-0.29976663
146	0x3dd62a3a	0.10457273
147	0xbe8d2824	-0.27569687
148	0xbf86d6cc	-1.0534301
149	0x3e33fed8	0.17577684
150	0xbf0db4be	-0.55353916
151	0x3f91d416	1.1392848
152	0xbe262092	-0.16223362
153	0xbd24def6	-0.040251695
154	0xbf8d725b	-1.1050524
155	0x3e39e024	0.18151909
156	0x3cecdaa4	0.02891285
157	0x3dd7c116	0.10534875
158	0xbf392d98	-0.72335196
159	0x3d3e9203	0.046525966
160	0xbfabb9c7	-1.341607
161	0x3dc1d551	0.09464515
162	0xbf04a4e0	-0.5181408
163	0x3f438fea	0.7639147
164	0xbe324f27	-0.17413007
165	0xbe0cbdad	-0.1374423
166	0x3f50c0b4	0.8154404
167	0x3e29b155	0.16571553
168	0x3e4b61e6	0.19861564
169	0xbf919d75	-1.1376177
170	0xbf235e0e	-0.6381539
171	0xbf060bca	-0.5236174
172	0x3e423194	0.18964225
173	0xbe1b6636	-0.15175709
174	0x3e6a768b	0.22896783
175	0xbf074da4	-0.52852845
176	0xbf244aec	-0.6417682
177	0x3e1347a6	0.143828
178	0x3f3acb60	0.72966576
179	0x3e67e951	0.22647597
180	0xbd579fb8	-0.052642554
181	0x3c548f8d	0.012973678
182	0xbb80f9c4	-0.0039360244
183	0x3dcf2a2d	0.10115466
184	0xbf8b6828	-1.0891161
185	0x3e63fe6a	0.2226502
186	0x3ed0387b	0.4066809
187	0xbf6d8002	-0.9277345
188	0x3e6046e0	0.21902037
189	0xbc09c9e5	-0.008409952
190	0xbee83d87	-0.45359442
191	0xbf35386e	-0.7078923
192	0xbc9b4a53	-0.018956339
193	0x3fc5d4e8	1.5455599
194	0x3d46a8cd	0.048500825
195	0x3ea02267	0.31276247
196	0xbeedbfd1	-0.46435407
197	0xbf1ca8ec	-0.61195254
198	0x3cc4dda5	0.02403147
199	0xbf7ab8fe	-0.97938526
200	0x3e49a099	0.1969017
201	0x3df0f79a	0.11765976
202	0x3f75217a	0.95754206
203	0x3ee19541	0.44059184
204	0xbecfd9b7	-0.4059579
205	0x3edd98a6	0.43280524
206	0xbf4e4529	-0.8057428
207	0x3ea3f745	0.3202459
208	0xbecad6cf	-0.3961701
209	0xbf2aed5c	-0.6676843
210	0xbf4c7ba7	-0.7987618
211	0xbbd7b2e6	-0.0065826057
212	0xbda0f8b0	-0.078599334
213	0x3e7f2b0c	0.24918765
214	0x3f428bf7	0.7599482
215	0xbc29c3c1	-0.010361613
216	0xbf01273a	-0.5045048
217	0xbebe4294	-0.3716017
218	0xbeb5ad32	-0.354837
219	0x3df331a2	0.11874701
220	0x3e9ad417	0.30239937
221	0xbf31d02d	-0.69458276
222	0xbc1a8f3f	-0.009433567
223	0xbf94cf45	-1.1625754
224	0x3e463419	0.19355811
225	0x3efc85ff	0.4932098
226	0xbfa71d35	-1.3055788
227	0x3ccbba48	0.0248691
228	0xbeb80c38	-0.35946822
229	0x3f830d71	1.0238477
230	0xbddc776a	-0.10764964
231	0x3e80e8c3	0.25177583
232	0xbfaab7f0	-1.3337383
233	0x3e173e58	0.14769876
234	0xbe1865e2	-0.14882615
235	0xbe324b22	-0.17411473
236	0x3deaf67e	0.11472796
237	0x3e8e1829	0.27752808
238	0xbf8ed77b	-1.115951
239	0x3f18b9ae	0.59658325
240	0x3ebfa049	0.37426975
241	0xbfb2de75	-1.3974138
242	0x3e08353e	0.1330156
243	0x3ecf65ee	0.40507454
244	0x3fabcd91	1.3422109
245	0x3e802970	0.25031614
246	0xbeb99fea	-0.36254817
247	0x3d8c5028	0.06851226
248	0xbe8375fe	-0.25675958
249	0x3e03b7cc	0.12863082
250	0xbe088929	-0.13333572
251	0xbf37931f	-0.71708864
252	0x3e3c36e1	0.1838031
253	0xbf93bc72	-1.1541884
254	0x3e1ecd4a	0.15507999
255	0xbe753e7b	-0.23949616

linear1.bias f4 [256]
0	0x3dd2795c	0.10277054
1	0xbccbb587	-0.024866832
2	0x3eb1bca9	0.3471425
3	0x3d9fcd7f	0.07802867
4	0xbeb72ea5	-0.35777774
5	0x3e09dd87	0.13463412
6	0xbf320b48	-0.69548464
7	0xbe2a3dca	-0.16625133
8	0xbe150f0e	-0.14556524
9	0x3f1126a1	0.5669957
10	0x3ece450a	0.40287048
11	0xbd8e1b40	-0.06938791
12	0xbe37b7df	-0.17941235
13	0xbf1bf06b	-0.60913724
14	0xbe92163d	-0.2853259
15	0x3f2010e5	0.6252578
16	0xbf0f25fe	-0.55917346
17	0xbe4997f5	-0.19686873
18	0x3ec2ef27	0.38073084
19	0x3ed688ea	0.41901332
20	0x3ee74a2a	0.4517377
21	0xbc770c01	-0.015078546
22	0xbf20965b	-0.62729424
23	0xbc4bb8bf	-0.012434184
24	0x3ecdc0b8	0.40186095
25	0xbd94b1ea	-0.07260497
26	0x3ef3f2c0	0.4764614
27	0x3e8fbb4c	0.28072584
28	0x3e768ad5	0.24076398
29	0x3e11b4a2	0.14229062
30	0x3eba25ec	0.36357057
31	0xbd9513a0	-0.07279134
32	0x3f3090f2	0.6897117
33	0xbe4f5fd5	-0.20251401
34	0xbd06a8d5	-0.032875855
35	0xbd922a1b	-0.07136937
36	0x3d6f4bf8	0.05842206
37	0xbd137f98	-0.036010355
38	0xbde44a22	-0.11146952
39	0xbd5b2982	-0.05350638
40	0xbe930fec	-0.28723085
41	0xbcf48814	-0.029850043
42	0x3db79c0e	0.08965312
43	0xbd89b010	-0.067230344
44	0x3f0613e1	0.5237408
45	0x3f1ad9aa	0.6048838
46	0x3ec42536	0.3830964
47	0xbe83e364	-0.25759423
48	0x3f146454	0.5796559
49	0x3d9db7ce	0.077010736
50	0xbc8b3a2b	-0.01699551
51	0x3e460c27	0.19340573
52	0xbf403071	-0.75073916
53	0x3e416c39	0.1888894
54	0xbe2a513f	-0.16632555
55	0x3ea1fffb	0.3164061
56	0x3dc56269	0.09637911
57	0xbe687519	-0.22700919
58	0xbf2180f6	-0.63087404
59	0x3e8a3c33	0.26999053
60	0xbb40b35c	-0.0029403782
61	0x3e19dbba	0.15025225
62	0x3ee3ffc7	0.4453108
63	0xbf00c446	-0.5029949
64	0x3e988eb8	0.29796386
65	0xbf369eff	-0.7133636
66	0x3e3823b0	0.17982364
67	0x3e62eec3	0.22161393
68	0x3e716774	0.2357462
69	0xbf40e301	-0.7534638
70	0xbd245105	-0.04011633
71	0x3e12492a	0.14285722
72	0x3cd6463b	0.026156535
73	0xbf1b5818	-0.60681295
74	0x3e31fbc7	0.17381202
75	0x3d4f5a4b	0.05062322
76	0xbc52894f	-0.01285012
77	0x3dc8a02d	0.09796176
78	0x3f02c013	0.5107433
79	0xbcda6909	-0.026661413
80	0x3edfbab0	0.4369712
81	0xbe8f0070	-0.2793002
82	0xbd963121	-0.07333589
83	0xbf4dd4bd	-0.8040274
84	0x3e1325dc	0.14369911
85	0x3d7a10e3	0.06105126
86	0xbf4cce29	-0.80002075
87	0x3e19668d	0.14980526
88	0x3e3a3b9b	0.181868
89	0x3e29141b	0.16511576
90	0xbf099df4	-0.5375664
91	0x3e26a1d0	0.16272664
92	0x3ebaacdf	0.36460015
93	0x3f04a8ca	0.5182005
94	0x3e7f0ae2	0.24906495
95	0x3ea903d2	0.33010727
96	0x3e149033	0.14508133
97	0x3b06a690	0.0020546056
98	0x3d683285	0.056688804
99	0xbe2c8373	-0.16847019
100	0xbf40ef2f	-0.75364965
101	0xbcad265e	-0.021136459
102	0x3f2bd908	0.6712804
103	0xbdd99a79	-0.106251664
104	0x3ebd52d2	0.3697725
105	0x3dbe4eec	0.09292397
106	0x3f1ff869	0.6248842
107	0x3e812279	0.25221613
108	0x3e1fc1d7	0.15601288
109	0xbdcb8abc	-0.09938571
110	0xbe452d0e	-0.19255468
111	0xbd240ff8	-0.04005429
112	0x3f046827	0.51721424
113	0xbdf97756	-0.12180965
114	0xbbcbf1ba	-0.0062238844
115	0x3e2fc237	0.17163931
116	0x3df5c8e8	0.120012105
117	0xbf2e5519	-0.680986
118	0x3d474fb6	0.048660003
119	0x3ef1b0b6	0.47205132
120	0x3e8f8902	0.28034216
121	0x3ee7f88f	0.45306823
122	0x3ea6d00d	0.32580605
123	0xbdc6ee96	-0.097134754
124	0xbe6fffb3	-0.23437385
125	0xbd0c84ff	-0.034306522
126	0x3f1c6659	0.6109367
127	0xbdadbd5d	-0.08483384
128	0xbeba6583	-0.36405572
129	0x3e0dc3d2	0.13844231
130	0x3e565a14	0.209328
131	0xbde1e32f	-0.1102966
132	0x3e038c83	0.1284657
133	0x3dd98a68	0.10622102
134	0x3f0996e9	0.53745896
135	0xbc0a2d8e	-0.008433713
136	0xbf57b1c7	-0.8425564
137	0x3e7c88db	0.24661581
138	0x3e894cc1	0.2681637
139	0x3ed02c5e	0.4065885
140	0x3eb2617c	0.3484
141	0x3eaf34af	0.34219882
142	0x3cce1dae	0.025160637
143	0xbdb4269e	-0.08796428
144	0x3e40f5c9	0.1884376
145	0x3f329c58	0.6976981
146	0x3ebb6cfc	0.36606586
147	0x3e5bbeee	0.21459553
148	0xbd0912ca	-0.033465184
149	0x3e0700fc	0.1318397
150	0x3eb306cb	0.3496612
151	0x3f05c918	0.5225997
152	0xbe0fb31d	-0.1403317
153	0x3ef4e8ac	0.47833765
154	0xbf283ac1	-0.6571465
155	0x3e9d555b	0.30729184
156	0x3c3bd30f	0.0114638945
157	0x3e572c36	0.21012959
158	0xbf2cd5b5	-0.6751359
159	0x3e6cbb10	0.23118234
160	0x3e75cb79	0.240034
161	0xbf30bf66	-0.6904205
162	0xbe729692	-0.2369025
163	0x3e3daa58	0.18522012
164	0xbf22cfcd	-0.6359833
165	0x3e0b76b8	0.13619506
166	0x3dd48049	0.10376031
167	0x3ec45cad	0.38351956
168	0x3e88a896	0.2669112
169	0x3ea3d05d	0.31994906
170	0xbf820d37	-1.0160283
171	0xbd8967eb	-0.06709274
172	0xbe11be2f	-0.14232706
173	0x3f1a2e52	0.6022693
174	0x3c1058f3	0.00881027
175	0x3e6fb6a5	0.23409517
176	0x3e0df8fa	0.13864508
177	0x3e040eea	0.12896314
178	0x3e9e52a4	0.30922425
179	0x3ece93b5	0.40347067
180	0x3e9ed9fb	0.3102568
181	0x3e96d5cf	0.29459998
182	0x3e5543b8	0.20826614
183	0x3ec234eb	0.37930998
184	0x3e88684d	0.26642075
185	0x3eafecc7	0.34360334
186	0x3eb72c3c	0.35775936
187	0xbe5c6e8b	-0.21526544
188	0x3ee514c0	0.44742393
189	0x3eb57054	0.35437262
190	0x3f0aeb0f	0.5426492
191	0xbf01cee3	-0.5070631
192	0xbdb1f594	-0.086894184
193	0x3ed021ac	0.4065069
194	0x3d8f8459	0.07007665
195	0x3f06412a	0.5244318
196	0xbc8823ce	-0.016618636
197	0xbddbb829	-0.10728485
198	0x3dba9f3f	0.09112405
199	0xbbe8286f	-0.007084898
200	0xbd93d149	-0.07217652
201	0x3d827ffd	0.06372068
202	0x3ed79d73	0.42112312
203	0x3b007087	0.0019598322
204	0xbd9ca51e	-0.07648681
205	0x3ed7d964	0.42158043
206	0xbe1f8003	-0.15576176
207	0xbf534cf0	-0.8253927
208	0xbd5c5a8d	-0.053797293
209	0xbb94b4fe	-0.0045381775
210	0x3e1a66c4	0.15078264
211	0x3ee6aaf2	0.45052296
212	0xbceb0f02	-0.02869368
213	0x3e32346c	0.1740281
214	0x3daefe5b	0.08544608
215	0xbe6d249c	-0.23158497
216	0xbdf68d56	-0.120386764
217	0xbec1748a	-0.37784225
218	0x3df4b207	0.119480185
219	0x3e6b67c0	0.22988796
220	0x3f20a472	0.62750924
221	0x3de98ff7	0.11404412
222	0x3e91cd23	0.2847682
223	0x3e58c13e	0.21167466
224	0xbf7915ea	-0.97299063
225	0x3e93265f	0.28740212
226	0xbf2af6c1	-0.66782767
227	0x3cea9acd	0.028638268
228	0xbf14be71	-0.5810309
229	0x3edd5170	0.43226194
230	0xbe990c14	-0.29892027
231	0xbb89e89f	-0.004208639
232	0x3e9746a0	0.2954607
233	0xbe4cfa67	-0.20017396
234	0xbf732a0f	-0.9498605
235	0xbd957776	-0.07298176
236	0x3e16c1f4	0.14722425
237	0x3f1208a7	0.5704445
238	0x3dff9178	0.12478918
239	0xbb3c3adf	-0.0028721613
240	0x3f05ba30	0.52237225
241	0xbebfee8a	-0.37486678
242	0x3e1f2229	0.15540375
243	0x3e79d760	0.24398565
244	0x3e14a829	0.14517273
245	0xbd65c768	-0.05609837
246	0x3cd57240	0.026055455
247	0x3e8cb587	0.27482244
248	0xbb6bc3bb	-0.0035974819
249	0xbc6f6f2c	-0.014613908
250	0x3f020630	0.5079069
251	0xbf451493	-0.7698452
252	0xbe7c7e3e	-0.24657533
253	0x3eb1865e	0.34672827
254	0x3f015d3e	0.505329
255	0xbe5ef793	-0.2177413

linears.0.weight f4 [256, 256]
0	0x3e1bf333	0.15229492
1	0x3edaf933	0.4276825
2	0xbdb1f74f	-0.086897485
3	0x3de99b4e	0.11406575
4	0xbe23f9f8	-0.16013324
5	0x3d44865c	0.047979698
6	0x3cc21dd0	0.023695856
7	0x3f9cecf5	1.2259814
8	0x401f1c4a	2.4861016
9	0x3d965ff3	0.073425196
10	0xbc11817b	-0.008880968
11	0x3f66f940	0.90224075
12	0x3f9e3891	1.2361013
13	0x3f756c4d	0.9586838
14	0x3fa20924	1.265904
15	0x3c82b0f7	0.015953524
16	0xbe18d7e7	-0.1492611
17	0xbdc2988b	-0.095017515
18	0x3d676435	0.05649205
19	0x3e2278bf	0.15866373
20	0x3d3ccfd5	0.04609664
21	0x3e1efe89	0.15526785
22	0x3dd82f3a	0.10555883
23	0xbe592b79	-0.2120799
24	0x3e235263	0.15949397
25	0x3f8d5381	1.1041108
26	0x3d87ab06	0.06624417
27	0xbd916c81	-0.071007736
28	0x3df26578	0.1183576
29	0x3db9ccf8	0.09072298
30	0x3d334baf	0.04377335
31	0xbf89f57e	-1.0778043
32	0x3d438cad	0.04774158
33	0x4018484d	2.379413
34	0xbfaa6bad	-1.331411
35	0x3cc6ff7f	0.024291752
36	0xbd30dd31	-0.043179695
37	0xbfa7c540	-1.3107071
38	0x3ec3ce41	0.38243297
39	0xbd4ab1d3	-0.049485993
40	0x3ff62012	1.9228537
41	0x40112f16	2.268499
42	0xbde2b98b	-0.11070546
43	0x3efa5742	0.48894697
44	0xbbc33f86	-0.0059585003
45	0xbd41c748	-0.04730919
46	0xbce568e8	-0.028004125
47	0x3f9e74d0	1.2379398
48	0x3d1aa2cf	0.037752923
49	0x3e35304d	0.17694207
50	0xbd19598c	-0.037438914
51	0x3e22d644	0.15902048
52	0x3ea130fe	0.3148269
53	0x3df8d587	0.12150102
54	0xbfcb8ed2	-1.590296
55	0x3e17e713	0.14834242
56	0x3d9f9bf0	0.077934146
57	0x3fcab4e9	1.5836459
58	0xbce790e4	-0.028267331
59	0x3e16ccb5	0.14726527
60	0x3c2727e3	0.010202381
61	0x3e6f674a	0.23379245
62	0x3e053bc5	0.13011082
63	0x3e158332	0.14600828
64	0x3a651d98	0.00087400666
65	0xbbd7d0cd	-0.0065861703
66	0x3e4ef8f9	0.20212163
67	0x3d177cb2	0.036984153
68	0xbd586b45	-0.052836675
69	0xbd9d67eb	-0.076858364
70	0xbff31299	-1.899005
71	0x3f168fe0	0.58813286
72	0x3f105b86	0.56389654
73	0x3ea310b4	0.3184868
74	0x3e45ee3c	0.1932916
75	0xbb1f4261	-0.002430104
76	0xc00156ee	-2.0209308
77	0x3d681781	0.05666304
78	0x3db6e4c4	0.08930352
79	0xbe375cce	-0.17906496
80	0xbbac6188	-0.00526065
81	0x3ac3b951	0.0014932548
82	0x3fdda244	1.7315145
83	0x3e1d48bc	0.15359777
84	0x3ea4f39c	0.3221711
85	0xbd028bd5	-0.031871635
86	0x3d83d630	0.064373374
87	0xbea37351	-0.31923917
88	0xbe12eb78	-0.14347637
89	0x3cf21dbb	0.029555192
90	0x3e75bec5	0.23998554
91	0x3e803329	0.25039032
92	0x3e27bf89	0.16381659
93	0x3cea50e8	0.028603032
94	0xbd113dac	-0.035459206
95	0x3da55d73	0.08074465
96	0x3e35b561	0.17744972
97	0x3e279415	0.16365083
98	0x3dd0bdc3	0.10192444
99	0x3edf35c1	0.43595698
100	0x3e56eb93	0.20988302
101	0x3e82c553	0.2554117
102	0xbc7f92b6	-0.015598943
103	0x3e59a7f0	0.2125547
104	0x3d222a75	0.03959127
105	0x3f1cb94b	0.61220235
106	0x3db98357	0.09058254
107	0x3f0c89d2	0.548978
108	0x3e17a55d	0.14809175
109	0x3fae96cb	1.3639768
110	0xbfa9e13d	-1.3271862
111	0xbe42e2c6	-0.1903182
112	0x3b9eb153	0.004842916
113	0xbe60426c	-0.21900338
114	0xbc958f30	-0.018256754
115	0x3df03783	0.11729338
116	0x3cb75e55	0.022383848
117	0x3d6e038e	0.05810886
118	0x3dba24c6	0.09089045
119	0x3d4e7b62	0.050410636
120	0x3e6e35d2	0.23262718
121	0x3d8419bd	0.06450222
122	0x3e1a6879	0.15078916
123	0xbe1a555c	-0.15071625
124	0x3fb814c8	1.4381342
125	0xbf5763ff	-0.84136957
126	0x3e280981	0.16409875
127	0xbff38dcf	-1.9027652
128	0x3ffc318a	1.9702618
129	0x3e302843	0.17202859
130	0xbca0875c	-0.019595794
131	0xbe32ce80	-0.17461586
132	0xbc717400	-0.014737129
133	0x3df3cf05	0.1190472
134	0xba4a9340	-0.00077276304
135	0xbe565433	-0.20930557
136	0x3e71bb6d	0.23606654
137	0x3e3532e0	0.17695189
138	0x3dfe76be	0.12424992
139	0x3de81409	0.113319464
140	0x3e1f5e6e	0.15563366
141	0xbca77347	-0.02044071
142	0x3d8c603f	0.06854295
143	0x3f7d3614	0.9891064
144	0x3e0d74f6	0.13814148
145	0x3d8bc44c	0.0682455
146	0x3d2084b4	0.039189056
147	0xbf1a2855	-0.6021779
148	0xbeb0627d	-0.3445014
149	0x3f0b2795	0.5435727
150	0x3db5a65a	0.0886962
151	0xbc829f8a	-0.015945215
152	0x3f72209c	0.9458101
153	0x3dae9166	0.08523826
154	0x3ede17db	0.43377575
155	0xbd362ed5	-0.044478256
156	0xbeda1e25	-0.42601123
157	0x3dcd987b	0.10038849
158	0x3d61f1b2	0.05516214
159	0x3ec277cc	0.37982023
160	0x3e1fd767	0.15609513
161	0x3e373e19	0.17894782
162	0x3dd67fc8	0.10473591
163	0x3e2d3538	0.16914833
164	0x3ce5a558	0.028032944
165	0x3e34b4fe	0.17647168
166	0xbe49cb6d	-0.19706507
167	0xbd68cf1a	-0.056838132
168	0x3d70b1b6	0.05876323
169	0x3d64f987	0.05590203
170	0x3e143890	0.14474702
171	0x3dd0923f	0.10184144
172	0xbfee65fe	-1.8624876
173	0xbcaa3a44	-0.020779736
174	0x40216289	2.521639
175	0x3e0ba3d3	0.13636713
176	0x3da33bfa	0.07970424
177	0x3da5f870	0.08104026
178	0xbf98f608	-1.1950083
179	0x3d9a6a34	0.07539788
180	0x3e1d4c54	0.15361148
181	0xbea4e6b0	-0.3220725
182	0xbbd849a0	-0.0066005737
183	0x3da9d73a	0.08293004
184	0x3d96efa1	0.07369924
185	0x3db1b604	0.08677295
186	0x3cedb61b	0.029017499
187	0x3f5441e9	0.8291307
188	0xbc82b5d4	-0.015955843
189	0x3d8fd28c	0.070225805
190	0xbc08c5cd	-0.008347941
191	0x3e53ad61	0.20671608
192	0xbf19276b	-0.5982577
193	0xbd803ca0	-0.06261563
194	0xbe025a2c	-0.1272971
195	0xbd4e67e6	-0.050392054
196	0xbac410ee	-0.0014958659
197	0xbfb8aea6	-1.4428298
198	0xbe577051	-0.21038939
199	0xbea54c14	-0.32284606
200	0x3f018856	0.5059866
201	0x3dc8fb90	0.09813607
202	0x3c84354f	0.0161387
203	0xbe83352a	-0.25626498
204	0x3f1f586e	0.6224431
205	0xbb823d26	-0.0039745746
206	0xbf93a4f0	-1.153471
207	0xbd1deeb7	-0.038557734
208	0xbf22077d	-0.63292676
209	0xbf1d7e00	-0.61520386
210	0x3e3b35cb	0.18282239
211	0x3e568805	0.20950325
212	0xbf555f87	-0.8334889
213	0x3dad7cd7	0.08471077
214	0xbe608bf0	-0.21928382
215	0x3f471204	0.77761865
216	0x3edc2851	0.4299951
217	0x3f6d05eb	0.92587155
218	0x3f7b1307	0.9807591
219	0x3d96c85f	0.073624365
220	0x3c12c6fc	0.008958574
221	0x3e41b2a1	0.18915798
222	0x3dc3d4dc	0.09562084
223	0xbec00043	-0.375002
224	0x3f39ab8e	0.72527397
225	0xbe96ec87	-0.2947733
226	0x3f1e009e	0.6171969
227	0x3dc2eb4d	0.09517536
228	0x3f448fc5	0.76781875
229	0x3e270e6a	0.16314092
230	0x3e43bb31	0.19114377
231	0xbf7014a1	-0.9378148
232	0x3c6d5b5f	0.014487117
233	0x3fa7839d	1.308704
234	0x3f5d1701	0.86363226
235	0xbcd95207	-0.026528371
236	0x3d1732c9	0.036913667
237	0x3d985101	0.07437325
238	0x3e431538	0.19051063
239	0x3d268993	0.040658545
240	0x3d05a8c2	0.032631643
241	0xbead15d2	-0.3380571
242	0x3b0cf8c1	0.0021510574
243	0x3d6b3ce3	0.057431113
244	0xbd845f45	-0.06463484
245	0xbf488412	-0.78326523
246	0xbcc9a934	-0.024616815
247	0xbc79497c	-0.015215274
248	0x3dc6cc8d	0.09706984
249	0x3ee2a016	0.4426276
250	0x3dff7108	0.12472731
251	0x3f67f8b2	0.90613854
252	0x3f357efa	0.70896876
253	0xbd00de69	-0.031462107
254	0xbd901e6d	-0.07037053
255	0x3fac9378	1.3482504

linears.0.bias f4 [256]
0	0x3d88616e	0.06659208
1	0x3eb72bae	0.35775512
2	0x3dc98d9e	0.098414645
3	0xbec9afb3	-0.3939186
4	0xbe459d63	-0.1929832
5	0x3e2f3c75	0.17112906
6	0xbec0398a	-0.375439
7	0xbde803fb	-0.11328884
8	0xbec94fff	-0.39318845
9	0xbb02d265	-0.001996183
10	0xbda58023	-0.08081081
11	0x00000000	0.0
12	0xbc0b9417	-0.008519194
13	0x3d638947	0.05555084
14	0xbdd834c6	-0.10556941
15	0x3dab393e	0.083605275
16	0x3ddbd84a	0.10734613
17	0xbe88502a	-0.2662366
18	0x3e1d28aa	0.15347543
19	0x3d875d4d	0.066095926
20	0x3bf77e32	0.0075528855
21	0x3e43540b	0.19075029
22	0xba1dac68	-0.0006014765
23	0x3dc1ad76	0.09456913
24	0xbe0f224d	-0.13977928
25	0xbea76f9f	-0.32702348
26	0x3d987289	0.07443721
27	0x3e1e445e	0.15455768
28	0xbee4fe08	-0.4472506
29	0xbe32ccc4	-0.17460924
30	0xbe93d086	-0.28870028
31	0xbe139973	-0.14414005
32	0xbcedee1a	-0.0290442
33	0xbd254002	-0.040344246
34	0xbe41c933	-0.18924408
35	0xbe3f9f94	-0.18713218
36	0xbd3152fd	-0.043292034
37	0x00000000	0.0
38	0x3e0bf5d8	0.13668
39	0x3d6ec7ed	0.058296133
40	0xbeb4ff84	-0.35351193
41	0x3d667b47	0.05626991
42	0xbb1a2f25	-0.0023526635
43	0xbedb8e25	-0.42881885
44	0xbeddd78f	-0.4332852
45	0x3ddf1fd8	0.108947456
46	0xbe986c03	-0.29769906
47	0xbaff595e	-0.001948159
48	0x3e0ea2b2	0.13929251
49	0xbbadfc95	-0.005309651
50	0x3dc44737	0.09583896
51	0x3df2d56d	0.11857114
52	0x00000000	0.0
53	0x3dacdf49	0.08441026
54	0xbcce2810	-0.025165588
55	0x3e3716c4	0.17879778
56	0x3e26b58b	0.1628019
57	0x3c96e687	0.01842047
58	0xbe6a8bfd	-0.22904964
59	0xbe8f0b2f	-0.2793822
60	0x3dfbbed4	0.12292257
61	0x3e05eaca	0.13077846
62	0xbe2ea8a3	-0.17056517
63	0xbea1009a	-0.3144577
64	0x3de79ccd	0.11309204
65	0xbbc19d41	-0.0059086387
66	0xbb870d93	-0.004121491
67	0xbe5ddc00	-0.21665955
68	0xbe7d93e6	-0.2476345
69	0x3e0a8cb3	0.13530235
70	0xbe7769fb	-0.24161522
71	0xbd8d0b04	-0.06886867
72	0xbbecf861	-0.0072317575
73	0xbec3fdcb	-0.38279566
74	0xbea4a83a	-0.32159597
75	0x3b864f49	0.004098807
76	0xbe8e4263	-0.27785024
77	0xbefd39b1	-0.49458078
78	0xbeabdafe	-0.33565515
79	0x3e1a8d19	0.15092887
80	0xbe2a430b	-0.16627137
81	0xbdbaf221	-0.09128214
82	0x3dab4707	0.08363157
83	0xbe5c83fb	-0.21534722
84	0x3d987a98	0.07445258
85	0xbb91b799	-0.0044469354
86	0xbe866fa1	-0.2625704
87	0xbf00a376	-0.5024942
88	0xbeac8268	-0.33693242
89	0xbea0993e	-0.31366915
90	0x3e00aa32	0.12564924
91	0xbe8229af	-0.25422427
92	0x3e8fffac	0.2812475
93	0x3df8ffee	0.1215819
94	0xbe46c6db	-0.19411795
95	0xbdcd7ba3	-0.100333475
96	0x3edf7b1e	0.43648618
97	0xbe284913	-0.16434126
98	0xbdf15bf9	-0.117851205
99	0x3e35e19e	0.17761847
100	0x3dc985c4	0.09839967
101	0x3e39893d	0.18118758
102	0x3dfb2653	0.12263169
103	0x3e8d41e9	0.27589348
104	0x3d1fd61d	0.039022554
105	0xbd24f3b7	-0.040271487
106	0xbc21478a	-0.009843716
107	0x3e06ca09	0.13163008
108	0xbe0b3b4f	-0.13596843
109	0x3de82ce3	0.113366865
110	0xbe7301ec	-0.23731202
111	0xbbb9acee	-0.005666367
112	0xbe6293d9	-0.22126712
113	0xbeb269b3	-0.34846267
114	0xbe1e9f75	-0.15490516
115	0xbe624d23	-0.22099738
116	0xbbb14abd	-0.005410521
117	0x3da27677	0.079327516
118	0xbec1d827	-0.37860224
119	0x3e04fcf0	0.12987113
120	0x3d82e756	0.0639178
121	0xbecbb46a	-0.39786083
122	0x3da26f6a	0.07931407
123	0x3dd064d5	0.10175482
124	0xbe7e9c01	-0.24864198
125	0x3dca7a6a	0.0988663
126	0x3d5811c7	0.05275133
127	0xbecf219b	-0.40455326
128	0x3df162c3	0.117864154
129	0xbeae1faa	-0.34008533
130	0xbb801db2	-0.00390979
131	0x3ec38011	0.38183644
132	0xbea87cd7	-0.32907745
133	0x3d6355ca	0.055501737
134	0x3dec992c	0.11552653
135	0xbe60774a	-0.21920505
136	0x3dda8085	0.106690444
137	0xbd7f0411	-0.062259737
138	0xbea900b3	-0.33008346
139	0xbec01e55	-0.37523142
140	0xbebb665b	-0.3660153
141	0x3ee3403d	0.44384947
142	0xbde5ea40	-0.1122632
143	0xbbe74450	-0.007057704
144	0x3d5c6f1d	0.053816903
145	0x3e05037f	0.12989615
146	0xbed350fa	-0.41272718
147	0x3e419aa5	0.18906648
148	0xbe5ac142	-0.21362785
149	0x3e06daa2	0.1316934
150	0x3de05f52	0.10955681
151	0xbe2794da	-0.16365376
152	0x3e63399c	0.22189945
153	0x3ebe2fa8	0.37145734
154	0xbe7b67b3	-0.24551277
155	0xbc3a5947	-0.011373824
156	0xbe12e1af	-0.14343904
157	0x3dcc5a5e	0.09978174
158	0x3e24d8a3	0.16098265
159	0x3e16b4a5	0.14717348
160	0xbe69aab3	-0.22819023
161	0x3e0c39df	0.13693951
162	0x3e8b9ad3	0.2726656
163	0xbe367be4	-0.17820698
164	0x3dcb526d	0.09927831
165	0xbc4df840	-0.012571394
166	0xbbc0dbca	-0.005885576
167	0xbe6f5ff9	-0.23376454
168	0xbf08bd52	-0.5341388
169	0xbec64f3c	-0.38732326
170	0xbec86f54	-0.39147437
171	0x3db0f05c	0.08639595
172	0xbe23119b	-0.15924685
173	0xbe0070f0	-0.12543082
174	0xbc75966a	-0.014989475
175	0x3d019117	0.03163251
176	0xbf46caf3	-0.77653426
177	0xbbb49fb1	-0.0055122008
178	0xbdcf22bf	-0.10114049
179	0xbc7096bd	-0.014684376
180	0x3d94d334	0.07266846
181	0x3e87a886	0.2649576
182	0xbeb5a523	-0.35477552
183	0x3df0c7ff	0.11756896
184	0x3e27f2e8	0.16401255
185	0xbe82d899	-0.25555876
186	0x3dd38262	0.10327603
187	0x3d91c194	0.07117
188	0x3e5293ec	0.2056424
189	0x3c390444	0.011292521
190	0xbb8d516c	-0.0043126848
191	0x3e3c0f68	0.18365252
192	0x3eaa8cbe	0.33310503
193	0x3d700244	0.05859591
194	0xbc402175	-0.011726727
195	0x3e1952fd	0.14973064
196	0xbe386484	-0.18007094
197	0x3e90db8b	0.28292498
198	0xbeaa4f1d	-0.33263484
199	0xbc2426ce	-0.010019017
200	0x3d3cc717	0.046088304
201	0x00000000	0.0
202	0xbe8cf35a	-0.27529413
203	0x3db01729	0.085981674
204	0xbe702512	-0.23451641
205	0x3e1d510c	0.15362948
206	0x3e010d65	0.12602766
207	0xbde93cfd	-0.11388586
208	0xbb91bc29	-0.0044474793
209	0xbee145dc	-0.4399861
210	0xbc5575d6	-0.013028583
211	0x3e1769f0	0.14786506
212	0x3dd56706	0.10420041
213	0xbc421a18	-0.011847042
214	0xbb92ec66	-0.0044837473
215	0x3dee82e9	0.11646063
216	0xbede0b5f	-0.4336805
217	0xbe3cb61b	-0.18428843
218	0xbeabe128	-0.33570218
219	0x3ef50959	0.47858694
220	0xbeb2546f	-0.34830043
221	0xbb19e44a	-0.0023482018
222	0xbeb1875a	-0.34673578
223	0x3d4d0fbb	0.05006383
224	0xbe5fc75c	-0.21853393
225	0xbe3a0bf4	-0.18168622
226	0x3e1b5dbe	0.15172479
227	0x3e5f50fa	0.21808234
228	0x3e73f664	0.2382446
229	0xbd354ce9	-0.0442628
230	0xbc130a5d	-0.008974639
231	0x3e15a9a1	0.1461549
232	0x3de99277	0.11404889
233	0x3db3c014	0.0877687
234	0xbe9185f6	-0.28422517
235	0xbe94294a	-0.2893775
236	0x3d7b4c02	0.061351784
237	0x3dcd6b93	0.10030284
238	0x3e0aa017	0.13537632
239	0x3d4e07fc	0.050300583
240	0x3dde900c	0.108673185
241	0xbdedf93a	-0.11619802
242	0x3e5db5fb	0.21651451
243	0x3e25e29c	0.16199726
244	0xbb94c06e	-0.004539541
245	0xbe999bea	-0.30001765
246	0xbe0630dd	-0.13104577
247	0x3df0e8c7	0.11763149
248	0x3e00b0bb	0.12567417
249	0x3e018905	0.12649925
250	0xbe97b279	-0.2962835
251	0x3e3e46db	0.18581717
252	0x3c6e5c05	0.014548306
253	0x3df417f9	0.11918635
254	0x00000000	0.0
255	0xbdf567c9	-0.11982686

V.weight f4 [1, 256]
0	0x3ebb8320	0.36623478
1	0xbf821ea3	-1.01656
2	0x3f5ef162	0.8708707
3	0xc01122c8	-2.2677479
4	0xc0932514	-4.598276
5	0x3dca7b0c	0.098867506
6	0xc028f4a6	-2.6399322
7	0xbd83a72b	-0.06428369
8	0x3f8b8e00	1.090271
9	0xbe09f53d	-0.13472457
10	0xbfb2a6e0	-1.3957176
11	0xbd2783e5	-0.04089727
12	0xbd399da3	-0.04531635
13	0x3f24a4d7	0.64314026
14	0xbfad601f	-1.3544959
15	0x3f68c5f5	0.9092706
16	0xbdedb4b6	-0.116067335
17	0xc005d72e	-2.0912585
18	0x3f835d3f	1.0262831
19	0x3ea422af	0.3205771
20	0x3eb09cf9	0.3449476
21	0x3d3d8e8f	0.046278533
22	0xbc49d3b1	-0.012318538
23	0xbfebd3d5	-1.8424021
24	0xbfe08ebf	-1.7543563
25	0xbf5452a0	-0.82938576
26	0x3f2bb4e7	0.6707291
27	0x3f48e112	0.7846843
28	0xbfc722ec	-1.5557532
29	0xbf54bdee	-0.8310231
30	0xbfd50e1d	-1.6644932
31	0xbfb8ec4b	-1.4447111
32	0xbe786ec6	-0.24261007
33	0xbf9d73b8	-1.230094
34	0xbf9bafcc	-1.2163024
35	0xbfdbc0a9	-1.716817
36	0x3f802172	1.0010207
37	0xbde12ad9	-0.10994501
38	0x3e9e523b	0.30922112
39	0x3eb9174a	0.3615058
40	0xbfa21aa0	-1.2664375
41	0x3f1b2577	0.6060404
42	0xbd8d83ad	-0.06909881
43	0xc026b4a5	-2.6047757
44	0xbf579236	-0.84207475
45	0x3f4de809	0.8043218
46	0x3fb6d113	1.4282554
47	0x3db7245f	0.08942484
48	0x3f1e1c2c	0.61761737
49	0xbcb7aa13	-0.022419965
50	0x3f2db4ef	0.6785421
51	0xbf49e73e	-0.7886847
52	0xbd0f0ebb	-0.034926157
53	0xbd4b5e50	-0.04965049
54	0xbfe7d19a	-1.811084
55	0xbf37ae05	-0.7174991
56	0x3f7b08cc	0.980603
57	0x3e48ac66	0.19597015
58	0xc02774d6	-2.616506
59	0xbf254035	-0.645511
60	0x3f3ef1c7	0.7458767
61	0x3f368ec8	0.71311617
62	0xbfbac46c	-1.4591193
63	0xbf1a97b0	-0.60387707
64	0x3f801171	1.0005323
65	0x3b9aaf60	0.0047206134
66	0xbbd83a62	-0.0065987566
67	0xc026f1c5	-2.6085064
68	0xc020fdb7	-2.5154855
69	0xbf834c6e	-1.02577
70	0x4002d2d0	2.044117
71	0xbff39eec	-1.9032874
72	0x3d3aa3a7	0.045566227
73	0xc06f2982	-3.7369084
74	0xbfc93d4e	-1.5721834
75	0xbe23ecd6	-0.16008314
76	0xbf7e2fdd	-0.99291784
77	0xbfdbab59	-1.7161666
78	0xc008c986	-2.1373
79	0x3e6d7565	0.23189314
80	0xbf5bee11	-0.85910136
81	0xbf53f022	-0.8278829
82	0x3f5b9079	0.8576732
83	0xbfe77ceb	-1.8084997
84	0xbf693dc8	-0.91109896
85	0x3d87a3b3	0.0662302
86	0xbfdd1578	-1.7272177
87	0xbf0d085a	-0.5509087
88	0xbfca8b84	-1.5823827
89	0xbfc05df5	-1.5028673
90	0xbf5eb8fe	-0.87001026
91	0x3f6948e5	0.91126853
92	0xbf63efd0	-0.890378
93	0xbf8a2b3b	-1.0794443
94	0xbff690bc	-1.926292
95	0xbfd54e60	-1.6664543
96	0xbec18da7	-0.37803385
97	0xbf92324d	-1.14216
98	0x3e2dc1b8	0.16968429
99	0x3f51a237	0.81888145
100	0x3f11cad5	0.5695012
101	0xbf9054c0	-1.1275864
102	0xc013031e	-2.2970653
103	0x3eacaf53	0.33727512
104	0xbfee5d46	-1.8622215
105	0xbef90b1e	-0.48641294
106	0x3e319cb0	0.17344928
107	0x3ec1eb54	0.37874854
108	0xc004a958	-2.072836
109	0xbfae47cc	-1.3615661
110	0xbf5b1d74	-0.85591817
111	0x3dd6d44d	0.10489712
112	0x3feef5bb	1.8668741
113	0x3f3aee75	0.73020107
114	0xbff7236c	-1.9307685
115	0xbf9d7af6	-1.230315
116	0x3cc98d16	0.024603408
117	0x3f324fcd	0.69653016
118	0xbf86a3f5	-1.0518786
119	0x3f2e8115	0.68165714
120	0xc01f9670	-2.493557
121	0xc0036208	-2.0528584
122	0x3ea135d1	0.3148637
123	0x3f3cc4c2	0.7373773
124	0xbfb184c7	-1.3868645
125	0xbf8e112d	-1.1098992
126	0xbf780068	-0.9687562
127	0x400fd263	2.247216
128	0xbf8bb98f	-1.0916003
129	0xc025e69c	-2.5922003
130	0x3e1af974	0.15134221
131	0xbf414e25	-0.75509864
132	0xbfbd3146	-1.4780662
133	0x3f3f579d	0.7474306
134	0xbe85a7de	-0.26104635
135	0x3fa516e1	1.2897607
136	0x3f4ec088	0.8076253
137	0x3f0fe17f	0.56203455
138	0xbf9beb45	-1.2181174
139	0xbf683402	-0.9070436
140	0xc00eb002	-2.2294927
141	0xbb302654	-0.0026878314
142	0xbfbc47d3	-1.4709419
143	0x3d2365d0	0.039892018
144	0xbfcb4ee8	-1.5883455
145	0xbf8b9f28	-1.0907946
146	0xc023eae9	-2.5612128
147	0xbefa011d	-0.48828974
148	0xbf90829d	-1.128986
149	0x3f60a988	0.87758684
150	0x3f66f5f6	0.90219057
151	0xbff4fc21	-1.9139444
152	0xbec32646	-0.38115138
153	0xbe08e542	-0.13368705
154	0xc02d49c3	-2.707627
155	0xbe422962	-0.18961099
156	0xc02aa80f	-2.6665075
157	0xc005afa6	-2.0888457
158	0x3e69c408	0.22828686
159	0xbfd12bd0	-1.6341496
160	0xc06ead13	-3.7293136
161	0xbf5447fb	-0.82922333
162	0x3efde325	0.4958736
163	0xbfb715fa	-1.4303582
164	0x3f4dbead	0.80369073
165	0xbda5d302	-0.08096887
166	0x3c99cf7f	0.0187757
167	0xbf3200ae	-0.6953229
168	0x3f19980b	0.59997624
169	0xc06a15c9	-3.6575797
170	0xbfb0368e	-1.3766649
171	0x3f12d778	0.5736003
172	0xbfb69dc4	-1.4266896
173	0xc00e7b91	-2.226292
174	0x3de990b9	0.11404557
175	0x3f6836c3	0.9070856
176	0x3f142e1b	0.5788285
177	0x3db0a785	0.08625702
178	0xc00611ac	-2.0948286
179	0xbfd89535	-1.6920534
180	0x3f64e736	0.894153
181	0xc0158491	-2.3362162
182	0xc08d7266	-4.4202147
183	0x3ee4871f	0.4463434
184	0x3f3b8075	0.73242885
185	0xbfe80b11	-1.8128377
186	0x3f4a757b	0.7908551
187	0xbf751363	-0.95732707
188	0x3f8a7ead	1.0819908
189	0xbb4b1b23	-0.0030991517
190	0xbc22fae5	-0.009947513
191	0xbf02592f	-0.50917333
192	0xbee07b47	-0.43844053
193	0xbfbacc66	-1.4593627
194	0x3df3be82	0.11901571
195	0xbdc68be8	-0.09694654
196	0x3eac2abe	0.3362636
197	0xbf19a30c	-0.60014415
198	0xbf52e3cc	-0.8237884
199	0xbd4c0777	-0.049811807
200	0xbcd8f4e2	-0.026483957
201	0xbdb7e0b6	-0.08978407
202	0xbf458749	-0.77159554
203	0xbf741cef	-0.9535665
204	0xc080ddbe	-4.027068
205	0xbf462500	-0.7740021
206	0x3f51c535	0.8194154
207	0xbff3e45a	-1.9054062
208	0xbd9ebc31	-0.077507384
209	0xc0169c2c	-2.353282
210	0xbc9ff7e4	-0.019527383
211	0xbf35df5d	-0.7104395
212	0xbf3a8b6b	-0.72868985
213	0x3e175694	0.1477912
214	0xbb64c1cf	-0.0034905558
215	0xbf8aca43	-1.0842975
216	0xbfaa8298	-1.3321104
217	0x402558b8	2.58354
218	0xbf6ff9b8	-0.93740416
219	0xbf23e2d8	-0.6401801
220	0xc049fe59	-3.1561491
221	0xbe08c469	-0.13356175
222	0xbf43500f	-0.76294035
223	0x3f600497	0.87507004
224	0xbfbe58ec	-1.4870887
225	0xbf1cba9d	-0.6122225
226	0x3f4f77d3	0.8104221
227	0x3ebfa12d	0.37427655
228	0x3f0967e7	0.5367417
229	0xbe2c38f3	-0.168186
230	0xbd7bd8c2	-0.061486013
231	0x3f8471df	1.0347251
232	0xbfe17820	-1.7614784
233	0xbf7b13d6	-0.9807714
234	0xbf715028	-0.94262934
235	0xc05d6b3d	-3.4596703
236	0x3f4b9081	0.7951737
237	0x3ef51073	0.47864112
238	0xbf6b2030	-0.9184599
239	0x3f01c640	0.5069313
240	0xbfab64b5	-1.3390108
241	0xc0078dd2	-2.118031
242	0xbeaa762b	-0.3329328
243	0xbf05e805	-0.5230716
244	0xbc150056	-0.009094318
245	0xc0014420	-2.019783
246	0xc00736e1	-2.1127245
247	0xbff16bff	-1.8861083
248	0x3f4762d6	0.77885187
249	0xbf79609b	-0.97413033
250	0xbfb07afa	-1.378753
251	0xbe149a06	-0.1451188
252	0x3ef7c7ed	0.4839472
253	0x3f5e610a	0.8686682
254	0x3daa6b81	0.08321286
255	0xc005e2b7	-2.0919626

A.weight f4 [51, 256]
0	0x3f1f24d2	0.6216556
1	0x3f4e9399	0.80693966
2	0x3d008df3	0.031385373
3	0x3fd87eaf	1.6913661
4	0x403e22f1	2.9708827
5	0x3fa4bdbb	1.2870401
6	0x40022c49	2.033953
7	0x3f82c0e6	1.0215118
8	0xbf5711e4	-0.84011674
9	0xbe033a78	-0.12815273
10	0x3fee2739	1.860572
11	0xbdda08a3	-0.106461786
12	0xbdef1d30	-0.11675489
13	0x3e960bda	0.29305917
14	0x3fc8f878	1.5700827
15	0x3d8f72b2	0.07004298
16	0x3ed051a9	0.40687302
17	0x3f8e39d3	1.1111397
18	0x3c9cc3ee	0.019136395
19	0x3d991c70	0.07476127
20	0x3dc472a3	0.09592178
21	0x3d822d44	0.0635629
22	0x3d0844c2	0.033268698
23	0x3fe92c71	1.8216687
24	0x400775cc	2.1165648
25	0x3f4c7b71	0.79875857
26	0x3ec07eb6	0.37596673
27	0x3ecf3883	0.40472803
28	0x400415d3	2.063832
29	0x3f251161	0.64479643
30	0x3f9926d6	1.1964977
31	0x3fe02ed8	1.7514296
32	0xbcce537c	-0.025186293
33	0x3f9be3a4	1.2178845
34	0x3fcaec3c	1.5853343
35	0x3f0aa32c	0.5415523
36	0x3ea47933	0.32123718
37	0xbb7a5ec7	-0.0038203464
38	0x3eb29ee7	0.34886858
39	0x3f0b131b	0.5432603
40	0x3faf4e5e	1.3695791
41	0xbd27047f	-0.040775772
42	0x3c6aca49	0.014330455
43	0x3fa99ac7	1.3250359
44	0x3fcb1597	1.5865964
45	0x3ebfae26	0.37437552
46	0xbf6b10b4	-0.9182236
47	0xbb1945da	-0.0023387582
48	0x3e31334d	0.17304726
49	0xbe13c2bd	-0.14429756
50	0x3ee43214	0.44569457
51	0x3f7a3327	0.977343
52	0xbda165a1	-0.07880712
53	0x3f8cbe36	1.0995548
54	0x3f58a17a	0.84621394
55	0x3fcc9187	1.5981911
56	0xbde69f59	-0.11260862
57	0x3ed26ee8	0.4110024
58	0x3fb4f1e4	1.4136319
59	0x3f16a93f	0.58852
60	0x3e9cbd90	0.30613375
61	0x3f343be5	0.7040389
62	0x3fde5b60	1.7371635
63	0x3f35309e	0.7077731
64	0xbe9750fa	-0.29553968
65	0xbe05a753	-0.1305211
66	0x3ddff449	0.109352656
67	0x3f62bddf	0.8857097
68	0x3fef3c9c	1.8690372
69	0x3ff173da	1.886348
70	0xbf124464	-0.57135606
71	0xbc07e812	-0.008295076
72	0x3daa0a1f	0.08302712
73	0x401a8d95	2.4148915
74	0x3fcf4658	1.6193342
75	0x3f5ca52f	0.8618955
76	0xbf23b49f	-0.6394748
77	0x3fcb52fa	1.5884697
78	0x3fe5b254	1.7945046
79	0x3f34d42f	0.70636266
80	0x3f63d45b	0.88995904
81	0x3f81d960	1.0144463
82	0x3e0aa356	0.1353887
83	0x3f6a3667	0.9148926
84	0x3fa71a75	1.3054949
85	0x3daa69e0	0.08320975
86	0x3fc1f8db	1.515407
87	0x3f60b188	0.8777089
88	0x3fc7681c	1.5578647
89	0x3fcc59f6	1.5964954
90	0x3f8ec821	1.1154824
91	0xbf2680dd	-0.6504038
92	0x3f54df9d	0.83153707
93	0x3fc0bd96	1.5057857
94	0x40219ae3	2.5250785
95	0xbea874ca	-0.32901603
96	0x3e1a8b21	0.15092136
97	0x3f9f329f	1.2437323
98	0x3f4efbab	0.80852765
99	0x3ed610c5	0.4180967
100	0x3f40768e	0.751809
101	0x3fa448dc	1.2834735
102	0x3f4f03dc	0.80865264
103	0x3ea6f7a2	0.32610804
104	0x400e8112	2.2266278
105	0x3f39e43c	0.72613883
106	0x3de27f97	0.11059492
107	0x3f87765f	1.0582999
108	0x4007224b	2.111468
109	0x3fab3ef6	1.3378589
110	0x3f9585a4	1.1681409
111	0xbc5c72a6	-0.013455069
112	0xbe92033e	-0.285181
113	0xbebf3e0c	-0.37352026
114	0x3fd50c38	1.6644354
115	0x3fd949b2	1.6975615
116	0x3dbab4ea	0.09116538
117	0xbc6937bf	-0.014234482
118	0x3f7cb582	0.9871446
119	0x3da2ae37	0.07943385
120	0x3f96f3da	1.1793168
121	0x3e3f1615	0.18660767
122	0x3f1f49f8	0.6222224
123	0x3e104518	0.14088857
124	0x3f8cdb71	1.1004468
125	0x3e4edc70	0.20201278
126	0x3fc90056	1.5703228
127	0xc007fb16	-2.1247
128	0x3fd56071	1.6670057
129	0x3f61c719	0.88194424
130	0x3d739812	0.059471197
131	0x3fe2dbf5	1.7723376
132	0x3fc0d400	1.5064697
133	0x3f44f49f	0.7693576
134	0x3e0c9f6b	0.13732688
135	0xbeae0d3f	-0.3399448
136	0x3eb6d991	0.35712865
137	0xbedefa04	-0.43550122
138	0x3f8c6e75	1.0971209
139	0x3f529c2a	0.8226954
140	0x3ff6d7eb	1.9284643
141	0x3f8937c7	1.0720147
142	0x3fcca363	1.5987362
143	0x3d91659d	0.07099459
144	0x3fe9141e	1.8209264
145	0x3fdeb75b	1.7399706
146	0x3f941c14	1.1571069
147	0x3f3d8626	0.7403282
148	0x3fd6cd42	1.678139
149	0xbd4cfbd4	-0.05004485
150	0xbdc5abbd	-0.09651897
151	0x3f784adf	0.96989244
152	0x3eca7f70	0.39550352
153	0x3f4c9663	0.7991697
154	0x400cd505	2.2005017
155	0xbd873b3a	-0.066030934
156	0x3f9035b9	1.1266395
157	0x401c5657	2.4427698
158	0x3f0c1749	0.5472303
159	0x3fd80124	1.6875348
160	0x4078ca79	3.887358
161	0x3f8776c1	1.0583116
162	0x3e4745a7	0.19460164
163	0x3fe42ad5	1.7825571
164	0x3db02102	0.08600046
165	0xbd9437dd	-0.072372176
166	0xbca243f4	-0.019807793
167	0x3f49e872	0.7887031
168	0xbd5164db	-0.051121574
169	0x403d4fe4	2.9580011
170	0x3fb91407	1.4459237
171	0x3dcf4b93	0.101218365
172	0x3f8d1e98	1.1024961
173	0x3f9a1172	1.2036574
174	0xbd8420a2	-0.06451537
175	0x3f4cfb62	0.8007108
176	0x3e932a2e	0.28743118
177	0x3c439aa0	0.011938721
178	0x3d25a75c	0.04044281
179	0x3f9542fd	1.1661068
180	0x3f0cb8df	0.5496959
181	0x3e47ddcd	0.19518204
182	0x4082dbc9	4.0893292
183	0x3e61f9b6	0.22067913
184	0xbe635892	-0.22201756
185	0x3fcf50fd	1.6196591
186	0x3ce8c8d9	0.028416084
187	0x3fbb4744	1.4631124
188	0x3ee3c68d	0.4448742
189	0x3e6ee048	0.23327744
190	0x3df6be2f	0.120479934
191	0x3ee9399e	0.4555177
192	0x3f7b3e00	0.9814148
193	0x40227455	2.5383503
194	0x3d7503aa	0.059817947
195	0x3f5c266e	0.8599614
196	0xbe86adc7	-0.26304457
197	0x3fa30711	1.2736531
198	0x3f2b1995	0.6683591
199	0xbcf8506e	-0.03031179
200	0x3ea2c708	0.31792474
201	0x3ddeec83	0.10884955
202	0x3f3b9e9b	0.7328889
203	0x3fc6dc35	1.5535952
204	0x406d7da2	3.710793
205	0x3f872656	1.0558574
206	0x3e73e2a8	0.23816931
207	0x3eb00399	0.34377745
208	0xbc4d32e3	-0.012524339
209	0x3fe6fa31	1.8045102
210	0xbcd57e5e	-0.026061233
211	0x3ef61883	0.48065576
212	0x3f6cff9f	0.92577547
213	0xbc031a4c	-0.008001875
214	0x3d65bcce	0.05608826
215	0x3fbcb51e	1.4742773
216	0x3fc7e5a0	1.5616951
217	0xbeb24506	-0.34818286
218	0x3f69e6f1	0.91368014
219	0x3fac4f32	1.3461668
220	0x404de142	3.2168736
221	0x3cc8c674	0.024508692
222	0x3f5abe09	0.8544622
223	0xbd0d1f48	-0.03445366
224	0x3f8a6fcf	1.0815371
225	0x3dfc11cf	0.12308084
226	0x3e714a85	0.23563583
227	0x3f65746c	0.8963077
228	0x3fbb0232	1.4610045
229	0x3f9e6cd6	1.2376964
230	0x3c9aa365	0.01887674
231	0x3ecec998	0.4038818
232	0x400b802b	2.1796978
233	0x3fd203f5	1.6407458
234	0x3f31932c	0.6936519
235	0x40132831	2.299328
236	0x3e41dae2	0.18931153
237	0x3ef61e06	0.4806978
238	0x3f4af46b	0.792792
239	0x3deee167	0.11664086
240	0x3fc179ab	1.5115255
241	0x3fa471e3	1.2847255
242	0x3f3ff7e3	0.7498762
243	0x3f0b48eb	0.5440814
244	0xbc67900b	-0.014133464
245	0x3fbf0cf7	1.4925832
246	0x401adb91	2.4196513
247	0x3fea103b	1.8286203
248	0x3ed35191	0.41273168
249	0x3fcaef44	1.5854268
250	0x3f581b00	0.844162
251	0x3f09e7a6	0.5386909
252	0x3ee06a1a	0.4383095
253	0xbd8907a0	-0.066909075
254	0x3e6da91a	0.23209038
255	0x3e02b8e6	0.12765846

A.bias f4 [51]
0	0x3ea761a7	0.3269169
1	0x3e98c20c	0.29835546
2	0x3edab96f	0.427196
3	0x3ebbb5cf	0.36662146
4	0x3dffe826	0.12495451
5	0x3ee608a2	0.4492846
6	0x3ee987e6	0.45611495
7	0x3ea2d2c7	0.31801435
8	0x3ee32309	0.44362667
9	0x3efb3e09	0.49070767
10	0x3eb36f6e	0.35045952
11	0x3f347cbd	0.70502836
12	0x3ef61697	0.4806411
13	0x3eaf263f	0.34208867
14	0x3ed63843	0.418398
15	0x3e801f49	0.2502387
16	0x3efb8870	0.4912753
17	0x3eef572b	0.4674619
18	0x3ef0eb00	0.4705429
19	0x3e95e3f7	0.29275486
20	0x3f03e64d	0.51523286
21	0x3ee5bc23	0.448701
22	0x3eb70bab	0.3575109
23	0x3ed887e4	0.42291176
24	0x3f04c311	0.5186015
25	0x3ea1c735	0.31597295
26	0x3e2c833e	0.1684694
27	0x3e860773	0.26177558
28	0x3ec4302f	0.3831801
29	0x3eee0346	0.46486872
30	0x3e9d4310	0.30715227
31	0x3eaecc82	0.34140402
32	0x3ecf9afd	0.40547934
33	0x3e4a7187	0.1976987
34	0x3e6a7e0e	0.22899649
35	0x3ec7a981	0.3899651
36	0x3edf19f7	0.43574497
37	0x3eb896c0	0.36052513
38	0x3ec465cc	0.38358915
39	0x3e893411	0.26797536
40	0x3ee65b4d	0.44991532
41	0x3f2278b3	0.6346542
42	0x3e93e7ef	0.2888789
43	0x3ed74f75	0.42052808
44	0x3e39454f	0.18092845
45	0x3e593292	0.21210697
46	0x3efa50b5	0.488897
47	0x3ec9a531	0.39383844
48	0x3eec3f7c	0.46142185
49	0x3e9b0e5e	0.302844
50	0x3ef8a79f	0.48565385
