option_hedging/hyperparameters/dqn_hyperparameters/dueling_double/year/0.0/dqn_model.pth (torch, 97624 bytes, 7 tensors)

linear1.weight f4 [128, 3]
0.046676084 0.3827199 -0.682583 0.011603798 1.5917093 0.15475176 0.21184061 -0.56425256
-0.6862248 0.22016263 -1.5781837 0.18716653 -0.6288132 0.40599415 -0.120052375 0.17771307
-0.7461086 -0.43812 -0.29321173 -0.7953747 -0.35845888 -0.2505959 0.8665693 0.37234613
-0.4668349 0.4234621 -0.60173315 -0.49059796 0.03558524 0.023431934 -0.15163167 -0.009843818
-0.63984376 0.101535514 -1.132893 0.17009886 -0.57851326 -0.25322884 -0.60054123 -0.37753144
-0.06949767 -0.06155799 -0.34278244 0.9456419 -0.45433888 -0.041037086 -1.1407286 0.21244967
0.0846325 1.1218175 -0.28842905 -0.083406374 0.43663657 -0.44748417 0.16957207 -0.87256944
-0.27300403 0.25933522 1.5002466 0.026209569 -0.354688 -0.054705966 -0.070088655 0.17104806
1.0035821 0.44219646 0.12495542 -1.0730724 0.19801727 -0.46121648 -0.037769835 -0.11813236
-0.46289167 1.7487886 -0.2759419 0.06143988 -1.3011094 0.19092025 0.23044783 1.2145954
-0.075321004 0.4543188 0.99167 0.25112754 -0.56081706 0.5479523 -0.7758405 0.1729647
1.1237152 -0.43475652 0.16154814 1.4581461 0.042867392 0.38683134 -2.325491 0.15008166
0.03331103 1.146491 0.2672786 0.03817914 -0.20857227 -0.61126524 -0.18576837 0.30298874
0.07713579 -0.083372176 -0.050995924 -0.6188073 -0.2577108 0.08078535 -0.6754546 -0.1402233
1.7597011 -0.25470278 0.09540679 1.0672956 -0.08300988 0.10725456 0.79198533 0.42532635
-0.10781232 0.1004509 -0.67000616 0.006812312 1.118947 -0.24681601 0.12262328 0.6546915
0.30506405 0.16305651 -0.9917939 0.18327017 0.30863678 1.5545118 -0.1469173 -0.3271314
0.9393469 0.111608714 0.052170508 1.3261296 -0.105486706 -0.128426 0.012889869 -0.60423714
0.39959192 -2.156944 0.113578655 0.3610279 1.9351983 -0.08284844 -0.12188891 -0.13889073
-0.5395468 0.26069412 1.9597799 0.017994324 -0.24781351 -0.027430356 -0.47369826 -0.40286905
0.19831538 -0.49783638 0.17858063 -1.3950236 0.1884895 0.246234 -1.9393693 0.1318207
0.15019971 -0.96797836 0.17783013 0.3238955 0.14831853 0.29999813 -0.17531827 0.027987417
-0.43720382 -0.1059918 0.039276518 -0.005823414 0.6077348 -2.0431607 0.13143039 -0.31247982
0.09082083 -0.35010812 -0.84325546 -0.10019237 0.024797784 0.036359627 1.607205 -0.07024289
0.04903802 0.87763125 -0.05002387 0.35119817 2.0887196 0.03040559 0.09008198 1.528251
0.24826927 0.22397242 0.4313256 0.209477 -0.09084619 -0.014119878 0.17781909 0.0997038
0.770307 0.43794382 -0.8465152 0.3639129 -0.10943075 -0.55395323 -0.19765322 -0.14490755
-0.19940542 0.29101533 0.31034037 -0.23767307 1.626626 -0.28590256 -0.008721021 0.4519984
0.01649996 -0.20879464 -0.41597664 0.104487784 0.040173195 0.6140239 0.48210222 -0.46665975
0.2377089 -0.76264197 -0.3847035 1.0171005 0.050039265 -0.022003816 0.1970927 0.20912498
-0.10952393 0.034942105 -0.6053141 0.042707503 -1.1040133 0.20634909 0.3171204 0.95392674
0.36248338 -0.44947177 0.29560825 -0.7901948 0.3633545 -1.1649206 0.33756518 0.25833598
00000000: 6c2f 3f3d ddf3 c33e c2bd 2ebf db1d 3e3c
00000010: 21bd cb3f 3f77 1e3e bfec 583e db72 10bf
00000020: 6eac 2fbf 5072 613e ec01 cabf 95a8 3f3e
00000030: e7f9 20bf 77de cf3e 05de f5bd 6afa 353e
00000040: f900 3fbf 4451 e0be d91f 96be ad9d 4bbf
00000050: ec87 b7be 1b4e 80be 7cd7 5d3f 27a4 be3e
00000060: fc04 efbe 06d0 d83e 2f0b 1abf a82f fbbe
00000070: d4c1 113d 54f4 bf3c 5545 1bbe f747 21bc
00000080: cdcc 23bf daf1 cf3d a302 91bf 652e 2e3e
00000090: 7219 14bf 36a7 81be 12bd 19bf cd4b c1be
000000a0: cb54 8ebd 3b24 7cbd 2e81 afbe 9615 723f
000000b0: 1b9f e8be 8116 28bd 6503 92bf 688c 593e
000000c0: ce53 ad3d b797 8f3f f9ac 93be f6d0 aabd
000000d0: d48e df3e a51c e5be 4da4 2d3e b660 5fbf
000000e0: 2fc7 8bbe 96c7 843e 1508 c03f 73b5 d63c
000000f0: aa99 b5be 5d13 60bd a48a 8fbd 3927 2f3e
00000100: 6175 803f 9367 e23e a1e8 ff3d 705a 89bf
00000110: 0ac5 4a3e 9124 ecbe 8bb4 1abd 61ef f1bd
00000120: 2300 edbe 4ed8 df3f 4248 8dbe 62a8 7b3d
00000130: c18a a6bf 9980 433e 84fa 6b3e dd77 9b3f
00000140: e641 9abd 799c e83e 16de 7d3f ca93 803e
00000150: b591 0fbf 9a46 0c3f 7c9d 46bf a91d 313e
00000160: e6d5 8f3f 6898 debe e06c 253e 88a4 ba3f
00000170: b895 2f3d c20e c63e d8d4 14c0 02af 193e
00000180: 2671 083d 38c0 923f bed8 883e bb61 1c3d
00000190: f893 55be e17b 1cbf 103a 3ebe 5721 9b3e
000001a0: 5ef9 9d3d 08bf aabd 1ae1 50bd 286a 1ebf
000001b0: acf2 83be ca72 a53d 98ea 2cbf b296 0fbe
000001c0: e33d e13f 6768 82be a364 c33d 249d 883f
000001d0: 1501 aabd 47a8 db3d 8dbf 4a3f 60c4 d93e
000001e0: b5cc dcbd 34b9 cd3d 8685 2bbf d139 df3b
000001f0: a839 8f3f 56bd 7cbe ea21 fb3d dd99 273f
00000200: 5b31 9c3e 49f8 263e 34e6 7dbf 2dab 3b3e
00000210: a405 9e3e 3efa c63f 7d71 16be c47d a7be
00000220: 0a79 703f 1c93 e43d beb0 553d 9dbe a93f
00000230: 6a09 d8bd 1b82 03be 0730 533c 49af 1abf
00000240: 5097 cc3e 5f0b 0ac0 ed9b e83d a6d8 b83e
00000250: 94b4 f73f 71ac a9bd e5a0 f9bd 5f39 0ebe
00000260: bd1f 0abf b379 853e 11da fa3f d568 933c
00000270: d3c2 7dbe a0b5 e0bc 9488 f2be da44 cebe
00000280: 3013 4b3e 69e4 febe d7dd 363e 2290 b2bf
00000290: 6403 413e c424 7c3e 413d f8bf 01fc 063e
000002a0: f4cd 193e 6ecd 77bf 1a19 363e a2d5 a53e
000002b0: d0e0 173e 5b99 993e a286 33be de45 e53c
000002c0: 2ed9 dfbe 3b12 d9bd 6ae0 203d 56d2 bebb
000002d0: 8294 1b3f 25c3 02c0 b095 063e 5bfd 9fbe
000002e0: 4500 ba3d 5f41 b3be 97df 57bf a831 cdbd
000002f0: b924 cb3c d5ed 143d e5b8 cd3f 81db 8fbd
00000300: 17dc 483d 71ac 603f d4e5 4cbd 3fd0 b33e
00000310: 95ad 0540 2515 f93c e77c b83d bb9d c33f
00000320: 4d3a 7e3e 0759 653e b6d6 dc3e 2481 563e
00000330: 910d babd 1057 67bc 3516 363e 8231 cc3d
00000340: d732 453f 2c3a e03e 38b5 58bf cb52 ba3e
00000350: 3b1d e0bd e1cf 0dbf 9b65 4abe a562 14be
00000360: ef30 4cbe f6ff 943e efe4 9e3e 9260 73be
00000370: 4835 d03f d261 92be 9de2 0ebc 566c e73e
00000380: ed2a 873c 43ce 55be e4fa d4be b1fd d53d
00000390: a68c 243d ac30 1d3f 1ad6 f63e 07ee eebe
000003a0: f669 733e 813c 43bf dbf7 c4be 5930 823f
000003b0: f9f5 4c3d 5941 b4bc abd2 493e dc24 563e
000003c0: 154e e0bd 741f 0f3d ddf5 1abf 10ee 2e3d
000003d0: 4f50 8dbf 2d4d 533e 9b5d a23e 8b34 743f
000003e0: 6c97 b93e 2a21 e6be f759 973e 354a 4abf
000003f0: 9a09 ba3e 1e1c 95bf 58d5 ac3e 9d44 843e

linear1.bias f4 [128]
-0.018665921 0.23604378 0.71443516 0.12827188 0.52274734 0.67845935 0.26193637 0.07723734
-0.39294705 0.5202062 -0.23317215 0.14211154 0.34361923 -0.13704346 0.2690082 0.23574604
0.49130476 -0.666032 0.6805705 0.32336542 -0.1606547 0.16935742 0.17671496 -0.16491543
0.13948748 0.19241042 0.5904567 0.3010486 0.5472036 0.73614925 0.31024778 0.1454448
0.1702708 -0.5536542 0.7356299 -0.6818291 -0.5143571 0.2519881 0.58702254 0.18812941
-0.8075041 0.55820876 0.2964754 0.1308469 0.5410495 0.4872159 0.5832378 -0.618497
0.045171846 0.06030666 -0.48278174 0.26093256 -0.7205287 -0.66668564 0.13351026 0.10889999
0.1318615 0.14472525 -0.64139414 -0.0061422517 -0.0958721 -0.1599891 0.695537 0.31526992
0.525394 0.23816466 0.16357197 0.6422891 -0.007065465 0.18608192 -0.014273293 -0.26621372
0.3746192 0.35573536 0.6245438 0.09504346 0.27553546 -0.037559196 0.43150148 0.49515176
-0.63188255 0.23969541 0.2867345 0.19898957 0.23291339 -0.42965922 0.5171528 0.0055516
0.14405224 -0.5288011 0.13574949 0.70208913 0.44893178 -0.015265547 -0.18840824 -0.18215422
0.34965444 0.011494572 -0.38833982 -0.50901693 -0.3538796 0.1593428 -0.6213223 -0.104000345
0.31697476 0.33496824 -0.17038985 0.43894565 -0.5898875 0.6593104 0.1658467 0.24808009
0.6257999 0.44036457 0.620579 -0.3594315 0.168159 0.64200014 0.6819827 0.39874834
-0.0048169526 0.23308553 0.17137831 0.29675898 -0.4920235 -0.17651923 0.42099833 0.45349744
00000000: 46e9 98bc 76b5 713e 39e5 363f b459 033e
00000010: c5d2 053f 83af 2d3f 861c 863e 9c2e 9e3d
00000020: 5b30 c9be 3c2c 053f aec4 6ebe b085 113e
00000030: dcee af3e 1f55 0cbe 71bb 893e 6967 713e
00000040: 4c8c fb3e 1381 2abf de39 2e3f 2790 a53e
00000050: aa82 24be 086c 2d3e c4f4 343e 97df 28be
00000060: ced5 0e3e 3d07 453e 2c28 173f 0b23 9a3e
00000070: 8915 0c3f 4774 3c3f ccd8 9e3e 7bef 143e
00000080: 785b 2e3e 48bc 0dbf 3e52 3c3f 5a8c 2ebf
00000090: e8ac 03bf 9604 813e 1c47 163f ffa4 403e
000000a0: 97b8 4ebf c5e6 0e3f a0cb 973e bbfc 053e
000000b0: 3882 0a3f 5d74 f93e 134f 153f d255 1ebf
000000c0: 1d06 393d 1e04 773d 2b2f f7be f498 853e
000000d0: 9274 38bf e9ab 2abf eab6 083e f506 df3d
000000e0: b306 073e db32 143e 6832 24bf f144 c9bb
000000f0: 9758 c4bd 2fd4 23be b60e 323f 0f6b a13e
00000100: 3980 063f 70e1 733e 697f 273e 0f6d 243f
00000110: 6b85 e7bb 428c 3e3e 88da 69bc 2a4d 88be
00000120: 16ce bf3e f222 b63e 1ae2 1f3f 25a6 c23d
00000130: fc12 8d3e acd7 19bd c3ed dc3e 8884 fd3e
00000140: 0ec3 21bf b772 753e ddce 923e ecc3 4b3e
00000150: d980 6e3e 4bfc dbbe 2064 043f 32ea b53b
00000160: 6e82 133e 825f 07bf ea01 0b3e 1dbc 333f
00000170: 63da e53e 581c 7abc 17ee 40be a386 3abe
00000180: e805 b33e bb53 3c3c 7ad4 c6be ef4e 02bf
00000190: b52f b5be c22a 233e fa0e 1fbf 22fe d4bd
000001a0: 844a a23e f580 ab3e ad7a 2ebe 7cbd e03e
000001b0: de02 17bf 91c8 283f b8d3 293e b508 7e3e
000001c0: 6c34 203f 7777 e13e 44de 1e3f 6807 b8be
000001d0: df31 2c3e 1f5a 243f 6b96 2e3f be28 cc3e
000001e0: 87d7 9dbb f9ad 6e3e cc7d 2f3e cbf0 973e
000001f0: 81ea fbbe 75c1 34be 188d d73e d130 e83e

linears.0.weight f4 [128, 128]
0.22612607 0.09297851 0.35060987 0.17279887 0.27860555 0.39589316 0.4034422 0.40293372
0.39261687 0.12869073 -0.13174734 0.11683132 0.4484063 -0.8904879 0.000539832 -0.2608735
0.06319776 0.5491339 0.45794794 -0.037052386 -0.78821975 0.29603192 -0.19419764 -0.8944145
1.7568736 0.1382015 0.13482945 -0.0035514263 0.27485287 0.058215454 0.08616328 0.099254444
0.08297946 0.5665884 0.014604201 0.5351906 0.54336363 0.37061504 0.1894914 -0.006429358
0.56067175 0.2853035 0.26730502 -0.29653507 0.062886864 0.37581494 0.16455582 0.64727074
0.46527708 0.16503118 0.0846062 0.11334085 0.51208454 0.3710806 0.2173849 0.31395635
-0.07724294 -0.00019977061 0.46083733 0.113117106 0.26520315 -2.174128 -0.0028435444 0.26560095
0.008509457 0.011603674 -0.035366554 -0.08412609 -0.3374373 0.24804372 0.839978 -1.8586874
0.25434256 0.68195736 0.47382578 -0.21575686 0.19136515 0.4474819 0.45712876 0.058164384
0.60594463 -0.1592363 0.18544269 0.4118973 0.0037314487 0.24765311 0.17644113 0.43817884
0.130217 0.7795761 0.20903686 -0.15473565 -0.0039217127 -0.00775308 -1.5146022 -1.0343041
0.1737577 2.7993214 -0.06823575 0.18092017 0.76068753 0.10489301 -0.11244601 -0.6300944
0.13406515 0.63245517 -1.1142248 0.24865136 0.40667465 0.13418953 -0.15364663 0.34097102
0.46740308 0.00092411746 0.113776475 0.057156127 -0.19920705 0.10290559 0.4119509 0.37701225
0.08122651 0.5484166 0.414488 0.21407002 0.5602575 -0.7874567 -0.025633723 -0.061463438
0.09867031 -0.12723096 0.2881252 -0.50737226 -0.10179725 0.12219042 0.12461455 -0.19809934
0.35890856 -0.28822693 -0.01532825 -0.37899753 0.31027216 -0.8983374 0.08656181 -0.75895804
0.08110664 0.63323456 0.23927811 -0.12670639 -0.9020907 -0.41469905 -0.82715315 -0.95497394
1.5606589 -0.05171632 -0.07085119 -0.31380355 0.2620219 -0.0940937 -0.1640194 0.05179704
-0.2181515 0.19971669 -0.082986385 0.48239055 0.53357077 0.030541105 -0.016281815 -0.44143027
0.52585673 0.12030111 -0.29901537 -0.8159167 -0.092736244 0.064490706 -0.062488772 0.3601716
-0.15046872 -0.17645764 0.19875889 -0.1891572 0.40092808 0.38332942 -0.5793083 -0.10739641
-0.9116933 -0.52108896 0.39552143 0.10788924 -0.139344 -2.174448 -0.122431315 0.07388361
-0.3984198 -0.23849969 -0.17769241 -0.34841812 -0.41212255 -0.3490375 0.5853348 -1.5975572
-0.26696053 0.30235606 0.22496729 -0.5558987 -0.3495958 0.55370843 0.10698779 -0.33010113
0.49420327 -0.6153262 -0.5369792 0.39380327 -0.47962266 0.2434792 0.10024407 0.35084382
-0.2832106 0.4134527 -0.61352676 -0.22732203 -0.17741036 -0.08111492 -1.4007784 -0.729766
-0.10269622 2.8202004 -0.22299278 -0.021303624 0.6826526 -0.5324423 -0.28258026 -0.8709932
0.03676 0.40044284 -1.1861651 0.08799659 0.35475278 -0.052716766 -0.98099154 -0.3570824
0.37992266 -0.22055648 0.0030098602 0.048106443 -0.8541661 0.00800321 0.21296573 0.16980197
-0.029171351 0.40588492 0.28754422 -0.35905904 0.30650175 -0.88069963 -0.25470418 -0.60613704
00000000: 988d 673e 846b be3d 2383 b33e 30f2 303e
00000010: 63a5 8e3e 82b2 ca3e fa8f ce3e 544d ce3e
00000020: 1405 c93e 81c7 033e c6e8 06be 4245 ef3d
00000030: 8395 e53e 04f7 63bf 8383 0d3a 3691 85be
00000040: d46d 813d 0a94 0c3f 2778 ea3e 3ec4 17bd
00000050: c5c8 49bf 7f91 973e bfdb 46be 59f8 64bf
00000060: 3ce1 e03f b284 0d3e bb10 0a3e 0cbf 68bb
00000070: 84b9 8c3e 5473 6e3d 6076 b03d ea45 cb3d
00000080: 23f1 a93d f00b 113f 7546 6f3c 4002 093f
00000090: e119 0b3f 41c1 bd3e 090a 423e 5dad d2bb
000000a0: 2f88 0f3f 4d13 923e 34dc 883e 72d3 97be
000000b0: d4ca 803d d16a c03e 5281 283e 89b3 253f
000000c0: cc38 ee3e effd 283e 0446 ad3d 3f1f e83d
000000d0: f917 033f 47fe bd3e 269a 5e3e e3be a03e
000000e0: 8c31 9ebd 8479 51b9 dff2 eb3e f1a9 e73d
000000f0: b5c8 873e ea24 0bc0 c25a 3abb d9fc 873e
00000100: 406b 0b3c 561d 3e3c 85dc 10bd 4d4a acbd
00000110: 95c4 acbe 2cff 7d3e cc08 573f 78e9 edbf
00000120: 3039 823e c294 2e3f 4b99 f23e 5eef 5cbe
00000130: 3af5 433e 591c e53e c80c ea3e c73d 6e3d
00000140: 301f 1b3f d70e 23be b0e4 3d3e 34e4 d23e
00000150: 528b 743b c798 7d3e fcac 343e fa58 e03e
00000160: 9b57 053e 4d92 473f c20d 563e 0673 1ebe
00000170: b681 80bb 8d0d febb 7cde c1bf 1464 84bf
00000180: 8aed 313e 1528 3340 2fbf 8bbd 2343 393e
00000190: 6bbc 423f 25d2 d63d 184a e6bd de4d 21bf
000001a0: 6048 093e 95e8 213f eb9e 8ebf 769e 7e3e
000001b0: a937 d03e fb68 093e 8b55 1dbe c193 ae3e
000001c0: 754f ef3e 7940 723a a403 e93d 8b1c 6a3d
000001d0: effc 4bbe 2ac0 d23d 3aeb d23e c007 c13e
000001e0: 165a a63d 0865 0c3f c537 d43e 2c35 5b3e
000001f0: 096d 0f3f c396 49bf d0fd d1bc 16c1 7bbd
00000200: a913 ca3d d548 02be 2585 933e 26e3 01bf
00000210: 147b d0bd f93e fa3d ea35 ff3d 8eda 4abe
00000220: ddc2 b73e 7b92 93be 5723 7bbc f70b c2be
00000230: fedb 9e3e 71f9 65bf 5147 b13d 134b 42bf
00000240: 3d1b a63d a91b 223f 5205 753e 52bf 01be
00000250: 6bef 66bf 6f53 d4be 4fc0 53bf 2c79 74bf
00000260: acc3 c73f 7ed4 53bd 6e1a 91bd dcaa a0be
00000270: bc27 863e 33b4 c0bd b4f4 27be 2229 543d
00000280: 1b63 5fbe 8882 4c3e c4f4 a9bd e5fb f63e
00000290: 1898 083f 5731 fa3c 7161 85bc 2603 e2be
000002a0: 8c9e 063f 6e60 f63d 8b18 99be ebdf 50bf
000002b0: 80ec bdbd b413 843d 3af4 7fbd 6968 b83e
000002c0: 7914 1abe 50b1 34be 7387 4b3e 6db2 41be
000002d0: 7246 cd3e c143 c43e 8c4d 14bf a6f2 dbbd
000002e0: bb64 69bf 1666 05bf c981 ca3e 09f5 dc3d
000002f0: 32b0 0ebe 282a 0bc0 45bd fabd 4a50 973d
00000300: aefd cbbe 4339 74be 00f5 35be dc63 b2be
00000310: ba01 d3be 0bb5 b2be 80d8 153f c17c ccbf
00000320: 0daf 88be 6ace 9a3e d35d 663e 614f 0ebf
00000330: 38fe b2be d6bf 0d3f 6a1c db3d 0403 a9be
00000340: 3608 fd3e 0586 1dbf 7877 09bf 95a0 c93e
00000350: 1a91 f5be 9d52 793e c34c cd3d cda1 b33e
00000360: fb00 91be 13b0 d33e 1710 1dbf 1bc7 68be
00000370: 10ab 35be 941f a6bd b54c b3bf f2d1 3abf
00000380: 6552 d2bd 2a7e 3440 3858 64be f084 aebc
00000390: 52c2 2e3f 234e 08bf 5cae 90be 69f9 5ebf
000003a0: a791 163d d806 cd3e 42d4 97bf 8e37 b43d
000003b0: 28a2 b53e 89ed 57bd 4322 7bbf 81d3 b6be
000003c0: 3985 c23e 8fd9 61be 1341 453b 430b 453d
000003d0: a1aa 5abf e51f 033c b013 5a3e 91e0 2d3e
000003e0: c2f8 eebc 26d0 cf3e ff38 933e 96d6 b7be
000003f0: cced 9c3e 8875 61bf 9668 82be cc2b 1bbf

linears.0.bias f4 [128]
0.17178737 0.025544226 -0.27874583 0.07118881 -0.19348665 0.15090781 0.17336158 -0.31759316
0.0 -0.17183688 -0.36091778 0.0 0.06824818 -0.030504191 0.3981118 0.07223841
-0.0138091985 -0.29145753 0.28922492 0.0 -0.10537592 0.18305835 -0.01788534 0.41783634
-0.002216683 0.0 -0.37321237 0.017340869 0.45058286 -0.01330125 0.13016592 0.06751798
-0.26843283 -0.30715036 -0.24215731 -0.19616792 0.0 -0.006918004 -0.048676386 0.045331266
-0.2481261 -0.23610148 -0.0044958526 -0.44749376 0.019993067 -0.10891443 0.0 -0.027055705
0.0 0.14368778 -0.12620477 0.09236931 0.09542265 0.03299876 -0.20552918 0.087026335
-0.16114937 0.47523457 0.09624817 -0.013697518 0.075871214 0.20218599 0.09098911 -0.098364055
-0.14070955 0.106029145 -0.019185757 0.088710606 0.0 -0.068766735 -0.27634472 -0.03693577
0.13647304 -0.20811346 -0.07824345 0.18229486 -0.059282236 -0.08405231 -0.28843147 -0.0374407
-0.20708854 0.23710328 0.07849936 0.07726323 -0.15322115 0.24421346 -0.63609546 -0.012811631
0.20079572 0.1240244 0.168322 0.16200745 -0.33949235 0.23213771 -0.11912969 0.015691336
0.0833353 -0.20310108 0.056534126 0.008650906 0.25587314 0.10179637 -0.0060952464 0.14294285
-0.012259918 0.09309783 0.0 0.07466547 0.11409741 -0.0065898513 0.1889921 0.016046928
-0.018788336 -0.041117415 0.0 -0.011738068 0.02214228 -0.023823421 0.08643815 0.13703415
0.16719298 -0.0033828344 -0.08173184 -0.027296511 0.09709445 -0.18971147 -0.37054178 -0.022715215
00000000: 07e9 2f3e 2042 d13c c6b7 8ebe 70cb 913d
00000010: 5d21 46be 9487 1a3e b385 313e 929b a2be
00000020: 0000 0000 02f6 2fbe 37ca b8be 0000 0000
00000030: b4c5 8b3d ede3 f9bc 4fd5 cb3e bbf1 933d
00000040: fa3f 62bc ec39 95be 4a15 943e 0000 0000
00000050: 55cf d7bd a673 3b3e 4784 92bc a5ee d53e
00000060: c545 11bb 0000 0000 b115 bfbe 700e 8e3c
00000070: ccb2 e63e 7ced 59bc 374a 053e de46 8a3d
00000080: 0770 89be d042 9dbe 16f8 77be 3ee0 48be
00000090: 0000 0000 6cb0 e2bb e460 47bd 47ad 393d
000000a0: c514 7ebe 96c4 71be f251 93bb e71d e5be
000000b0: 80c8 a33c 870e dfbd 0000 0000 eda3 ddbc
000000c0: 0000 0000 e422 133e d33b 01be 1f2c bd3d
000000d0: f36c c33d b529 073d 3e76 52be dd3a b23d
000000e0: 5704 25be f251 f33e c31d c53d 8e6b 60bc
000000f0: 5e62 9b3d d809 4f3e 8058 ba3d 1873 c9bd
00000100: 2a16 10be cf25 d93d 732b 9dbc e8ad b53d
00000110: 0000 0000 93d5 8cbd 0e7d 8dbe f649 17bd
00000120: 97bf 0b3e b21b 55be 1a3e a0bd 81ab 3a3e
00000130: eed1 72bd 9e23 acbd 4aad 93be 6b5b 19bd
00000140: 050f 54be 34cb 723e 46c4 a03d 2f3c 9e3d
00000150: 01e6 1cbe 1813 7a3e 27d7 22bf e0e7 51bc
00000160: 659d 4d3e 8100 fe3d 9a5c 2c3e 48e5 253e
00000170: f1d1 adbe 82b5 6d3e 44fa f3bd 1e8b 803c
00000180: b3ab aa3d bbf9 4fbe 5490 673d 88bc 0d3c
00000190: ce01 833e 9e7a d03d a2ba c7bb 9c5f 123e
000001a0: d3dd 48bc 13aa be3d 0000 0000 36ea 983d
000001b0: e7ab e93d aeef d7bb 2587 413e d974 833c
000001c0: ffe9 99bc bc6a 28bd 0000 0000 0751 40bc
000001d0: ba63 b53c 5629 c3bc 7c06 b13d ae52 0c3e
000001e0: a334 2b3e 8bb2 5dbb 0663 a7bd ef9c dfbc
000001f0: 74d9 c63d b943 42be a7b7 bdbe 4215 babc

V.weight f4 [1, 128]
-0.83327883 -0.8666787 -0.58346224 1.1211256 0.32539704 -0.9200597 -0.9413314 -3.4068327
0.10602738 -0.7366714 -3.5204108 0.06769107 0.93267 -0.3118026 -1.1150994 0.030735342
0.17358221 -4.543199 -0.8723819 -0.23678407 1.2497846 -0.9038761 -0.04859054 -3.3372633
-0.044546045 -0.066604 -0.7189568 0.9029785 -0.544709 0.19670375 -0.98099 1.1885641
-0.81560606 -3.667227 -4.4769793 -0.94749415 -0.09426837 -0.13220026 0.8736445 -2.7834332
-1.1552937 -1.1407434 0.06008514 -4.4932566 -0.68347114 -1.9950238 -0.042922176 0.792648
0.080245905 -0.72136116 0.45005134 1.0102992 0.8939714 -3.017454 -1.0333033 0.86525655
-0.39587337 -2.4122922 0.9682157 0.15084536 0.94755745 -0.887911 0.96144724 0.9140096
0.03559241 1.2169718 0.12714824 -1.1872883 0.021661881 -1.6438233 -0.89271075 0.08904255
-0.8066982 -1.0587612 -0.23302643 -3.2885456 -0.72630066 -0.6925066 -0.9816067 -2.8984256
-3.356666 -0.8813078 0.9874333 0.567392 -1.6845475 -1.0696627 -6.0583434 0.14990175
-0.90778494 1.0527261 -0.9060897 -0.8622185 -0.7786454 -0.5261465 1.173147 -2.6727562
1.1644193 -0.43234292 -1.095682 0.7784829 -0.9574063 0.49921355 0.13544378 -0.9420004
-0.018683806 1.0927142 0.16915867 1.1624393 1.0214242 -0.09353565 -0.92821234 -0.7279671
-2.7596993 0.5558672 0.074477956 0.14350748 -0.8155492 0.26447895 1.1170949 -0.86360234
-0.9404646 -0.1383093 -0.9058554 -2.8097959 1.1923424 -0.3506827 -0.008848411 0.18452364
00000000: c351 55bf a8de 5dbf c85d 15bf 0b81 8f3f
00000010: 719a a63e 0889 6bbf 18fb 70bf 8c09 5ac0
00000020: e224 d93d 7f96 3cbf 694e 61c0 9ea1 8a3d
00000030: 76c3 6e3f 97a4 9fbe 94bb 8ebf afc8 fb3c
00000040: 89bf 313e e361 91c0 6c54 5fbf 8677 72be
00000050: f1f8 9f3f 6d64 67bf e006 47bd b995 55c0
00000060: ea75 36bd ae67 88bd 8e0d 38bf 9929 673f
00000070: 0d72 0bbf b56c 493e 2922 7bbf de22 983f
00000080: 8fcb 50bf d9b3 6ac0 6a43 8fc0 fa8e 72bf
00000090: c60f c1bd 815f 07be 2aa7 5f3f c523 32c0
000000a0: aae0 93bf e103 92bf d61b 763d c2c8 8fc0
000000b0: f7f7 2ebf f15c ffbf 2acf 2fbd fbea 4a3f
000000c0: f757 a43d 20ab 38bf 216d e63e 7c51 813f
000000d0: 4fdb 643f f71d 41c0 4843 84bf 7481 5d3f
000000e0: eaaf cabe ff62 1ac0 fcdc 773f 3577 1a3e
000000f0: 2093 723f 234e 63bf 6821 763f 88fc 693f
00000100: 59c9 113d bbc5 9b3f 2633 023e 10f9 97bf
00000110: 4274 b13c cd68 d2bf b188 64bf f15b b63d
00000120: c683 4ebf 7d85 87bf 7b9e 6ebe 8877 52c0
00000130: d7ee 39bf 1d48 31bf 944a 7bbf ce7f 39c0
00000140: 9ed3 56c0 639d 61bf 6ec8 7c3f 9a40 113f
00000150: 419f d7bf b5ea 88bf f3dd c1c0 d87f 193e
00000160: 9864 68bf bbbf 863f 7ff5 67bf 5aba 5cbf
00000170: 4e55 47bf 89b1 06bf ae29 963f 700e 2bc0
00000180: b10b 953f 0d5c ddbe 4f3f 8cbf a84a 473f
00000190: 9418 75bf eb98 ff3e c6b1 0a3e f026 71bf
000001a0: c80e 99bc 0fde 8b3f ee37 2d3e d0ca 943f
000001b0: 07be 823f 9e8f bfbd 539f 6dbf 0d5c 3abf
000001c0: ea9e 30c0 504d 0e3f e687 983d a0f3 123e
000001d0: d5c7 50bf c969 873e f7fc 8e3f 0b15 5dbf
000001e0: 4ac2 70bf f4a0 0dbe 24e6 67bf b2d3 33c0
000001f0: ad9e 983f af8c b3be edf8 10bc c4f3 3c3e

A.weight f4 [50, 128]
1.2473059 1.4502379 0.75744504 0.55827993 0.6892311 1.5344895 2.0974271 2.2497308
-0.06303552 1.5198315 1.9243463 0.11425397 0.43723217 0.062355556 1.7775007 0.9966795
0.020846799 2.9522727 1.4589554 0.008797792 0.9619885 1.4234141 0.10213865 1.3463439
0.015847487 -0.035099093 0.6471052 0.40787122 0.5385463 -0.2334686 1.4819367 0.45375276
0.93543947 2.1648405 3.1530638 1.1602836 0.06075444 0.01373 1.6733971 1.8786412
1.1552905 1.0972104 0.06827052 3.0748708 1.2176998 2.430179 -0.023821186 0.6226724
0.1288859 1.1298277 -0.006733621 0.568545 0.76549447 1.6267786 0.9629525 0.5596076
0.4013892 1.472771 0.32046294 -0.2594485 1.3721086 1.3368812 0.49415594 1.371854
0.15232286 0.4268503 0.14685902 1.0829809 -0.09707373 1.3218136 0.8732258 0.85286885
1.7510287 0.8975437 0.19838013 2.4124556 1.3492774 1.9681345 0.9834584 1.7742656
2.1048646 1.5207947 0.49550802 0.4537391 2.1605072 1.4732375 4.2838755 0.03367673
1.3870875 0.8568155 1.9113135 1.5145038 0.85716707 1.3952898 0.68971753 1.8736224
0.2820554 0.6100443 0.9649408 1.6049571 1.4568084 0.6331138 -0.020272527 1.59105
-0.16153643 0.13926685 0.0075514237 0.44617575 0.29567266 -0.046090536 1.4051064 1.5212035
1.5984672 0.42971402 0.027410962 -0.07353356 1.3556551 0.051743817 0.5207592 1.7680616
1.6277629 0.20918132 1.3824409 1.9164641 0.34498733 0.5650072 0.4232522 -0.028316887
1.3818791 1.1760453 1.0698845 0.31407267 0.5847199 1.4589248 1.8385109 1.6431901
0.070439406 1.1218789 1.793018 0.0075689773 0.39989606 0.07321186 1.6572462 0.69796115
-0.084890604 2.785687 1.6859862 0.07211612 0.51443017 1.6457257 -0.033692382 1.7315145
-0.11712802 -0.070076436 0.83956647 0.4634449 0.6329051 -0.09372176 1.7010521 0.4256586
1.2190784 2.1806662 2.9388306 1.1395345 -0.05596161 -0.10904645 1.4639304 1.1406747
1.0859326 1.1153787 -0.12494294 2.7590172 1.0144732 1.9430993 -0.10474543 0.68991363
0.096224256 1.0724212 -0.20804486 0.8055374 0.63869387 1.2282419 1.1542481 0.5016144
0.9022295 0.99224013 0.4313969 0.0048453314 1.2113466 1.5207561 0.5175831 1.1979166
0.6380418 0.28604448 0.01558524 1.267294 -0.049284708 1.248169 1.1672238 0.13786778
1.4719115 1.1620867 -0.009727502 1.5615082 1.2237391 1.5913177 0.91190743 1.2592419
1.5787387 1.3706735 0.49261612 0.46445167 2.133111 1.4441661 4.119677 -0.1453028
1.5836208 0.43987006 1.6436696 1.447043 1.1129719 1.2523376 0.57694626 1.3347285
0.23667486 0.5129976 1.2119129 1.384199 1.3817273 0.70448345 -0.05649609 1.5864984
0.0061173993 0.33083013 0.11200678 0.37069696 0.45163754 0.05194877 1.6592628 1.4298851
1.3298606 0.4241644 0.18547949 -0.12896524 1.5753416 0.14442796 0.24557282 1.6566925
1.5521775 0.15524487 1.9069698 0.72036844 0.36240223 0.67729896 0.25939518 0.0579943
00000000: b8a7 9f3f 65a1 b93f ebe7 413f 6feb 0e3f
00000010: 7371 303f 276a c43f 3f3c 0640 97fb 0f40
00000020: c418 81bd d789 c23f fb50 f63f fcfd e93d
00000030: e5dc df3e 8a68 7f3d 2585 e33f 6326 7f3f
00000040: e8c6 aa3c 09f2 3c40 0dbf ba3f 9d24 103c
00000050: e144 763f 6f32 b63f 122e d13d ff54 ac3f
00000060: 97d2 813c 11c4 0fbd b0a8 253f 7fd4 d03e
00000070: 2cde 093f 6512 6fbe 1ab0 bd3f 4852 e83e
00000080: f678 6f3f bf8c 0a40 cccb 4940 2c84 943f
00000090: a6d9 783d cbf3 603c e031 d63f 5177 f03f
000000a0: 8fe0 933f 6471 8c3f 6ad1 8b3d afca 4440
000000b0: 96dd 9b3f 0e88 1b40 a624 c3bc 7567 1f3f
000000c0: aafa 033e 329e 903f b5a5 dcbb 2a8c 113f
000000d0: 72f7 433f 483a d03f 0e84 763f 7242 0f3f
000000e0: e382 cd3e c383 bc3f b813 a43e 6fd6 84be
000000f0: 41a1 af3f ec1e ab3f 0202 fd3e e998 af3f
00000100: 86fa 1b3e 1f8c da3e 3662 163e 1e9f 8a3f
00000110: 97ce c6bd 3031 a93f ba8b 5f3f 9d55 5a3f
00000120: b521 e03f 6dc5 653f 2924 4b3e ac65 1a40
00000130: 1fb5 ac3f d5eb fb3f eec3 7b3f 231b e33f
00000140: 1ab6 0640 67a9 c23f 3ab3 fd3e 7e50 e83e
00000150: c045 0a40 0c93 bc3f 8215 8940 9cf0 093d
00000160: 158c b13f 4358 5b3f eca5 f43f 43db c13f
00000170: 4d6f 5b3f db98 b23f 5491 303f dcd2 ef3f
00000180: 9169 903e dd2b 1c3f 5c06 773f 3c6f cd3f
00000190: b378 ba3f bf13 223f 9212 a6bc 87a7 cb3f
000001a0: ce69 25be f89b 0e3e ef71 f73b 2671 e43e
000001b0: 6862 973e 6ec9 3cbd 87da b33f ccb6 c23f
000001c0: 939a cc3f 7a03 dc3e f48c e03c c398 96bd
000001d0: 1b86 ad3f 53f1 533d 7a50 053f d84f e23f
000001e0: 895a d03f a133 563e d3f3 b03f b24e f53f
000001f0: 2ea2 b03e 50a4 103f 83b4 d83e d1f8 e7bc
00000200: 6ae1 b03f a788 963f faf1 883f 22ce a03e
00000210: 34b0 153f 0cbe ba3f 5354 eb3f 0e54 d23f
00000220: 8942 903d ba99 8f3f 9d81 e53f 2f05 f83b
00000230: 2dbf cc3e 1af0 953d a520 d43f 95ad 323f
00000240: 20db adbd b248 3240 65ce d73f 9eb1 933d
00000250: b2b1 033f 24a7 d23f 0601 0abd 44a2 dd3f
00000260: d1e0 efbd 3c84 8fbd d4ed 563f a648 ed3e
00000270: 1206 223f 32f1 bfbd 13bc d93f edef d93e
00000280: c30a 9c3f 0990 0b40 cd15 3c40 44dc 913f
00000290: 0038 65bd bf53 dfbd 1262 bb3f a101 923f
000002a0: d7ff 8a3f bbc4 8e3f 16e2 ffbd bd93 3040
000002b0: 42da 813f 7ab7 f83f c684 d6bd 2e9e 303f
000002c0: 3911 c53d 1945 893f b609 55be b337 4e3f
000002d0: 7181 233f 0837 9d3f 67be 933f cd69 003f
000002e0: 83f8 663f 7303 7e3f 0ee0 dc3e 96c5 9e3b
000002f0: 680d 9b3f 23a8 c23f 5380 043f 5555 993f
00000300: b556 233f 6c74 923e 3c59 7f3c b136 a23f
00000310: c3de 49bd 00c4 9f3f 9767 953f 362d 0d3e
00000320: 9967 bc3f 42bf 943f 1a60 1fbc 80df c73f
00000330: 7ca3 9c3f 4cb0 cb3f c472 693f d72e a13f
00000340: 1c14 ca3f 3b72 af3f 2e38 fc3e 9ccc ed3e
00000350: e484 0840 6fda b83f 65d4 8340 42ca 14be
00000360: 16b4 ca3f a636 e13e c463 d23f b438 b93f
00000370: dd75 8e3f 994c a03f c0b2 133f 62d8 aa3f
00000380: e55a 723e d053 033f f61f 9b3f 6f2d b13f
00000390: 71dc b03f 0759 343f 7268 67bd 6112 cb3f
000003a0: 7774 c83b 9162 a93e d063 e53d fecb bd3e
000003b0: 093d e73e 3cc8 543d b962 d43f 7a06 b73f
000003c0: df38 aa3f 142c d93e 56ee 3d3e 770f 04be
000003d0: cba4 c93f ece4 133e 7177 7b3e 800e d43f
000003e0: c1ad c63f 83f8 1e3e 9617 f43f 116a 383f
000003f0: c98c b93e 7763 2d3f 72cf 843e 6e8b 6d3d

A.bias f4 [50]
0.75549346 0.7784333 0.6002141 0.8796057 0.76231134 0.64860535 0.45319995 0.5732944
0.82011884 0.7000652 0.6619632 0.6717031 0.7249784 0.73350835 0.75298077 0.66425306
0.7217281 0.7692376 0.6834409 0.6259821 0.6500958 0.5462943 0.8141883 0.66013986
0.7868214 0.58727485 0.8184976 0.7660184 0.9668597 0.6389763 0.6017864 0.7760195
0.8046411 0.68158835 0.7704911 0.49779367 0.78833187 0.9176845 0.7918361 1.09872
1.093583 0.76603925 0.89452523 0.80799896 0.7444374 0.8868182 0.92194855 0.7687951
0.84362113 0.554597
00000000: 0568 413f 6847 473f a2a7 193f d72d 613f
00000010: d626 433f 000b 263f d309 e83e 6cc3 123f
00000020: 4ff3 513f 7937 333f 6c76 293f bcf4 2b3f
00000030: 2f98 393f 34c7 3b3f 59c3 403f 7d0c 2a3f
00000040: 2cc3 383f c1ec 443f fcf5 2e3f 5d40 203f
00000050: ae6c 263f f1d9 0b3f a56e 503f edfe 283f
00000060: 216d 493f a557 163f 0f89 513f c819 443f
00000070: 1e84 773f f393 233f ac0e 1a3f 37a9 463f
00000080: f6fc 4d3f 937c 2e3f e83e 453f d0de fe3e
00000090: 1ed0 493f 5fed 6a3f c5b5 4a3f dba2 8c3f
000000a0: 87fa 8b3f 261b 443f 9bff 643f 05d9 4e3f
000000b0: 7393 3e3f 8406 633f d204 6c3f c1cf 443f
000000c0: 8ef7 573f 12fa 0d3f
