ddpg_model.pth (torch, 143458 bytes, 10 tensors)

linear1.weight f4 [128, 4]
000000 48 d6 cc bd ff 70 c8 bd ae e7 e3 be 19 9d c1 bc
       -0.100018084 -0.09787177 -0.44512695 -0.02363448
000010 d0 3b 25 bd b0 fe ed bd b3 80 89 bd b4 87 b3 bd
       -0.040340245 -0.116208434 -0.067140006 -0.08766118
000020 7b 65 53 be d0 bf 49 be d3 dc 5b be 13 d4 88 3e
       -0.2064418 -0.19702077 -0.21470957 0.267243
000030 98 1c 1b 3c 62 97 8c 3d b5 f9 9c 3d 15 9b 2b 3e
       0.0094672665 0.068648115 0.07664815 0.16758378
000040 0f ae ea bd 1b 15 03 3e 5f 83 ea 3d 59 48 43 3e
       -0.1145898 0.1280102 0.11450838 0.19070567
000050 7a 85 b5 bd 0c 15 e6 bd 6b 1d df bd 1c 20 13 be
       -0.08863349 -0.11234483 -0.10894283 -0.14367718
000060 21 de 0f be ea 1b 2e be d6 06 2b 3e 60 72 05 3e
       -0.14049579 -0.17002836 0.16701826 0.13031912
000070 c7 d5 17 3b 6b 97 4c bc 1a 82 47 3e 21 e0 88 bd
       0.0023168193 -0.012487273 0.19483224 -0.06683374
000080 57 16 fa bd 3f 19 b4 bd 53 08 a0 bd ca b5 0b be
       -0.12211292 -0.08793878 -0.07814088 -0.13643566
000090 ac 3d 5a be 35 42 39 be e6 0f 9f 3d 50 cc 53 3e
       -0.21312588 -0.18091662 0.07766704 0.20683408
0000a0 30 5f 0f be 1d 20 3d bd e1 3b 4a 3e 40 8b c7 3d
       -0.14001155 -0.046173204 0.19749404 0.09743357
0000b0 96 91 29 bd ed f1 22 3d 96 b3 63 be 87 d4 d3 bd
       -0.041398607 0.0397815 -0.22236475 -0.10343271
0000c0 8e 33 fc bd d1 e1 c6 bd 68 42 86 3d 51 d3 25 3c
       -0.12314521 -0.0971104 0.06555635 0.010121183
0000d0 4a 64 74 3d b3 ee b6 bd 89 a0 34 3c 57 2f 5f 3d
       0.059665956 -0.08932247 0.011024603 0.054488506
0000e0 bf c3 f6 bd 65 06 e1 bd 73 62 48 bd 45 95 1b 3e
       -0.12049054 -0.10987548 -0.048922013 0.1519366
0000f0 77 bb e8 3c f5 de 03 3e 53 3d 02 3e 6e aa de bd
       0.028409703 0.1287802 0.12718706 -0.10872351
000100 e4 37 2a bd 4e fd 77 bd f5 b8 db 3d 12 2a e8 bd
       -0.041557208 -0.060544305 0.10728637 -0.11336149
000110 b7 57 0a be cc d8 01 3e ac 76 25 3e 16 9a dc bc
       -0.13510023 0.12680358 0.16158551 -0.026928943
000120 a5 14 b4 bd f2 69 9e bd 4e 13 09 3e c2 6d f2 bd
       -0.08793 -0.07735051 0.1338627 -0.11837341
000130 d9 27 ad 3c eb 61 9b 3d e4 91 c9 3d 2a f2 73 bd
       0.021137165 0.07587036 0.098422796 -0.059557118
000140 9b 05 da 3c 59 80 a7 3d fe c1 01 bf d4 30 0a bc
       0.026614001 0.08178777 -0.50686634 -0.008434493
000150 14 07 4c bd 5d d2 55 3e 8d e6 4f bc 3f ee 9c bc
       -0.049811438 0.20881028 -0.012689245 -0.019156573
000160 53 ef 91 bd 41 f7 f5 bd da 3e 2b 3d 47 77 43 3e
       -0.071257256 -0.120100506 0.041807987 0.1908847
000170 6c 71 a3 3c 38 2f 3a 3d 63 19 19 3e 8f 66 e9 bd
       0.019951545 0.045455188 0.1495109 -0.113965146
000180 f2 e3 e1 bc 28 d3 83 be d6 78 07 be aa 6f d1 bd
       -0.027574513 -0.25747037 -0.13229689 -0.10226376
000190 1c dd eb bd 5f 71 fc bd 59 f0 a0 3b 35 51 b8 3d
       -0.11516783 -0.12326311 0.004911464 0.08999864
0001a0 02 a4 44 be 1e 42 af 3d 4c 16 33 3e 0a 97 f5 bd
       -0.19203189 0.08557533 0.17488974 -0.11991699
0001b0 c1 d4 24 3d 44 56 1c be fd be 5f be 25 6e 84 bd
       0.04024196 -0.15267283 -0.218502 -0.06466321
0001c0 dc 42 5d 3e b0 a1 c6 3d 75 9c 2a 3e 8d 52 08 be
       0.21607536 0.09698808 0.16661246 -0.1331274
0001d0 1d 23 40 be 86 37 b8 be 42 fe b0 3d 88 f7 3e 3d
       -0.18763395 -0.3597986 0.08642246 0.046622783
0001e0 9e 81 22 3e cd 96 bb 3b 15 b3 54 3e 49 c6 d4 bc
       0.15869758 0.005724764 0.2077144 -0.025973456
0001f0 58 9e 0e be e0 46 b5 bd 44 74 57 bd 21 b7 5a bd
       -0.13927591 -0.08851409 -0.052601114 -0.0533973
000200 be b0 57 be 5e a8 5c be 1c c3 ab bd df 55 98 3e
       -0.21063516 -0.21548602 -0.083868235 0.29753014
000210 9c fe 4f be 35 05 5f 3d c9 77 98 be 31 d6 17 be
       -0.2031197 0.054448325 -0.2977889 -0.14827801
000220 aa d0 13 3d c3 31 2c bd 44 72 5b 3d 43 85 14 bd
       0.03608767 -0.042039644 0.05357577 -0.0362599
000230 eb 38 c2 3c 8f df 58 3d 90 b2 77 3d 0b 49 de bd
       0.023708781 0.052947577 0.060473025 -0.108537756
000240 05 50 03 be 2f 07 c5 bd 8a 4b 2a bd f4 32 51 3e
       -0.12823494 -0.09620511 -0.041575946 0.20429593
000250 97 a5 51 3e ee a4 bb bd 6e 85 41 b9 0c 32 d7 bc
       0.20473324 -0.09162317 -0.00018455621 -0.026268981
000260 21 e1 1b 3c 4c 58 e2 bd 00 49 8c 3d c7 29 0b bd
       0.009514124 -0.110519975 0.06849861 -0.03397539
000270 05 e4 ba 3d 6f 51 3e 3e fd 6d d4 3d 6d 6f 97 bd
       0.091255225 0.18585752 0.10372541 -0.073943
000280 64 f4 1b bc 1b 16 21 be 53 5e 41 be 9c bf f5 3d
       -0.0095187165 -0.15731089 -0.18883638 0.11999437
000290 a6 f2 99 3b 8e 3b 2f be 53 a5 36 be 59 be e1 3d
       0.0046981154 -0.17112562 -0.17836504 0.11022634
0002a0 b3 31 9c bd 66 e8 d4 bd 02 c8 cf bc 96 c0 9b 3d
       -0.07626667 -0.10395889 -0.025363926 0.07605092
0002b0 1a 0e a8 be 30 58 f8 bc 41 a1 18 be d1 76 3f 3e
       -0.3282326 -0.030315489 -0.14905263 0.18697669
0002c0 c6 b0 8b bd 4e 96 62 be e1 6c 05 3d 41 33 8f 3d
       -0.06820826 -0.22127649 0.03257454 0.06992198
0002d0 88 f9 33 be d0 5d 72 3e a6 23 2a be a5 c6 7d bb
       -0.17575657 0.23668599 -0.16615161 -0.0038723138
0002e0 82 ac 9a bd 3d f9 1d bd 30 56 09 be c6 ba 1b bd
       -0.075524345 -0.03856777 -0.13411784 -0.038019918
0002f0 a7 37 0d bc 34 01 5b bc 15 95 46 bd 1a eb d5 bd
       -0.008619226 -0.013366986 -0.04848202 -0.10445233
000300 02 15 b1 3b f6 ca c7 bd 63 bc 17 be 20 b1 8b bd
       0.0054041157 -0.097555086 -0.14817958 -0.06820893
000310 b5 fe 52 3d 1b 06 16 3d 8e 90 7d be 4e af 8d bd
       0.05151244 0.036626916 -0.24762174 -0.06918202
000320 7a 2f a5 bd 60 e3 8e be d5 d2 25 be 13 d5 80 bd
       -0.08065696 -0.27907848 -0.16193707 -0.06290641
000330 94 d1 7e bc b6 8e 90 be eb f8 32 be 47 32 0e bd
       -0.015552897 -0.2823388 -0.17477767 -0.034715917
000340 32 13 75 3e 97 6a 7d 3e 7f 11 b3 bc 23 f2 37 3d
       0.23933104 0.24747692 -0.021858929 0.044908654
000350 c4 b4 40 be f5 e2 67 3e 60 3b dc 3d 3b 99 e1 bd
       -0.18818957 0.22645171 0.107535124 -0.110155545
000360 ab ee 69 be d0 b9 2c 3e 03 8d 3a bd 7b b3 63 bd
       -0.22844951 0.16867757 -0.045544636 -0.055591088
000370 29 b7 14 bc e4 b2 f7 bd 1b 3e 58 3e 68 03 98 3d
       -0.009076872 -0.120946676 0.21117441 0.07422525
000380 e1 83 42 3e 9d 6a 4c 3d 70 fe a4 be 08 45 f8 bc
       0.1899562 0.04990636 -0.3222537 -0.030306354
000390 de 14 c4 bc 2b ad 87 bd da 44 82 3d 00 7e 07 3e
       -0.023935732 -0.06624826 0.06360789 0.13231659
0003a0 93 14 1a bd f4 64 ca be dc 8f a0 3d ef c5 59 3d
       -0.037617277 -0.39530146 0.07839939 0.05316728
0003b0 bc a7 a4 3d 6c 78 ed bc 1f a5 49 be f7 72 db bc
       0.08039805 -0.028988086 -0.19691895 -0.026788218
0003c0 f9 e8 d0 be a3 e5 2f be c4 40 ff 3c 2a 18 c6 3c
       -0.40802744 -0.17177443 0.031158812 0.024181444
0003d0 a1 92 69 bc 97 6e 5a be 77 33 76 3d 55 9f 54 be
       -0.01425615 -0.21331249 0.060107674 -0.20763905
0003e0 17 0b 2c 3e f9 13 86 bd 28 8a 7e 3e b4 df 0a be
       0.16801105 -0.06546778 0.2485739 -0.13561898
0003f0 fa f6 1b be 3e d3 56 3e 8f 8a d6 3e 01 64 90 bd
       -0.15230933 0.2097902 0.41902587 -0.07050324

linear1.bias f4 [128]
000000 a7 9d b8 bc 47 fd 28 bc 62 82 b0 bd 58 f9 01 bd
       -0.022536112 -0.010314292 -0.086186185 -0.031731933
000010 7c 8f c6 bd 1b b9 59 bc aa 39 07 be 85 28 0c 3c
       -0.09695336 -0.0132887615 -0.13205591 0.0085545825
000020 81 bd 03 bd d9 18 e3 bd b3 70 13 be 48 5f cf bc
       -0.032163147 -0.11088724 -0.1439846 -0.025313988
000030 56 7e df bd 26 fd 8f bd 6b 82 5a bd e5 3c a3 bb
       -0.109127685 -0.07030706 -0.053347033 -0.0049816244
000040 6e e5 66 bd 83 4f d0 bc 0f 1a d4 3b e5 64 02 bc
       -0.056371145 -0.02542854 0.006472833 -0.007958625
000050 65 17 a2 3d 7c 52 76 bd 9e d7 ce bd ae 09 c8 3c
       0.079146184 -0.060137257 -0.100997195 0.024418678
000060 dd f8 c4 bc 89 27 f3 bd 57 2e bf 3c ef a3 79 bd
       -0.024044449 -0.11872775 0.023337526 -0.060947355
000070 fd 3c 39 bb ee 2c 08 be 4a 08 de bd 1d 35 33 ba
       -0.0028265112 -0.1329839 -0.10841425 -0.00068362226
000080 8c c6 79 bd 01 31 f7 bc b0 76 30 3b b1 39 b7 bc
       -0.060980365 -0.030174734 0.0026926212 -0.022366377
000090 60 37 8d bd 77 f7 85 3e 99 93 92 bb 25 eb 4e bc
       -0.068953276 0.26165363 -0.0044731614 -0.012629305
0000a0 05 38 aa bd 4f ab 72 bd 0f 80 42 bc 48 e6 8c bd
       -0.08311466 -0.059245404 -0.011871352 -0.0687986
0000b0 f9 3f a1 bd cc 24 13 bd 64 01 fa bc a9 0e 8d bc
       -0.0787353 -0.035923764 -0.030518241 -0.017218905
0000c0 68 0b 62 bc b9 92 c9 bc 6a e7 3a bd 24 90 f2 3d
       -0.013796665 -0.024606096 -0.04563085 0.11843899
0000d0 45 ae 52 3e 1f 04 8a bc bb 4e df ba da c7 36 bd
       0.20574291 -0.016847668 -0.0017037013 -0.044624187
0000e0 87 e4 a9 3d 98 9b 1f be 2a 71 4b bd ed 6d 3f bd
       0.08295541 -0.15586698 -0.04966847 -0.046735693
0000f0 44 f0 bd bd 8b d6 1d bd 31 20 d2 3c 05 44 5c bc
       -0.09274343 -0.038534682 0.025650116 -0.0134439515
000100 74 64 c7 bd de a0 5e bd 92 32 16 be bd 23 c9 bd
       -0.09735957 -0.054352634 -0.14667729 -0.0982127
000110 a9 6c 09 bd 4d 61 98 3c 95 25 c4 bd af ec bd 3b
       -0.033550892 0.018601084 -0.09577481 0.005796037
000120 e6 2e a9 3c e7 95 66 bd 41 37 b3 bc 33 44 39 bd
       0.020652246 -0.0562953 -0.021876933 -0.045231055
000130 a6 04 05 bc d2 d5 ab bd 9b 8c eb 3a d5 6d 1b bc
       -0.008118784 -0.08390392 0.0017970981 -0.009486635
000140 81 dc a3 bd 01 f0 46 ba 51 53 c6 bc dd 7b 0d bd
       -0.08001042 -0.0007588864 -0.02420965 -0.034541953
000150 15 86 d3 3c 96 cc 5e 3c 26 e1 b0 3b 88 47 21 bd
       0.025820771 0.013598582 0.0053979335 -0.03937486
000160 b5 34 a3 ba b6 39 42 3a 72 03 a5 3d d2 d6 27 bd
       -0.0012451621 0.00074091123 0.08057298 -0.040976353
000170 35 d6 8e bd e5 9e d2 bc ca 7b 4c bd d0 16 c7 b9
       -0.069744505 -0.025710532 -0.049922742 -0.00037973234
000180 c3 f0 66 bd 2d 84 b9 bd 9a d8 4a bb b0 ef 43 bc
       -0.056381952 -0.09058414 -0.0030951858 -0.011959001
000190 60 18 37 bd c2 21 88 bd 71 4f fb 3c e1 10 41 3c
       -0.04470098 -0.06647064 0.030677529 0.011783809
0001a0 ba c5 8a bd d4 cd 94 bd 4c 51 fe bc fd df 48 bd
       -0.067759946 -0.07265821 -0.031044625 -0.049041737
0001b0 b1 4c 8a bd ad f3 42 bc 8c 9b 2c bc 8d ca 6c 3c
       -0.06752909 -0.011898917 -0.010535132 0.014452589
0001c0 37 c5 16 be 26 39 2c bd e0 a7 b0 bd 84 d3 d6 3c
       -0.14723669 -0.04204669 -0.086257696 0.026223905
0001d0 bd 49 5a 3d e3 95 26 be a5 ba 0d be 32 55 0e be
       0.05329298 -0.16268115 -0.1384073 -0.13899687
0001e0 43 23 c6 bd 4b cd 04 3d 0f 73 b2 bc 3f 4a 81 3c
       -0.096746944 0.032422345 -0.02178338 0.015782474
0001f0 d3 bb 70 bc a2 b0 75 bd ae 69 0a bd c8 62 7a bd
       -0.014693218 -0.059982903 -0.03379219 -0.06112936

linears.0.weight f4 [128, 128]
000000 9c 13 ca 3c fc 95 22 be 73 12 15 3e a6 6b b7 bc
       0.024667554 -0.15877527 0.14557819 -0.022390198
000010 fb 6a 29 3e 5c 5d f9 bc d0 9d 5b 3d 3f dd 3b be
       0.16544716 -0.030440025 0.0536173 -0.18346117
000020 4e ae 32 bd 44 44 f6 3d 4f 03 50 bd 88 cf a2 bc
       -0.04362326 0.120247394 -0.050784405 -0.01987435
000030 30 29 aa 3d 41 81 93 3d e8 3e 26 bb 42 d9 80 bd
       0.08308637 0.072023876 -0.0025367085 -0.06291439
000040 0a 10 af bd 4b fa 81 3d da 53 00 be d3 97 97 3d
       -0.08547981 0.06346568 -0.12531987 0.07402005
000050 e0 bf 2e 3d 9b 52 0c bd f5 62 80 3d 73 66 81 bd
       0.042663455 -0.034258466 0.062688746 -0.06318369
000060 22 48 1c bd 19 33 9d bc d4 ae f6 3c ca 3a a1 bc
       -0.03815473 -0.019189404 0.030112661 -0.019681353
000070 ab f6 83 3c f8 4f ab 3d 28 fc b3 3d bf 88 0d bd
       0.016108831 0.08364862 0.08788329 -0.03455424
000080 35 33 09 3d 17 16 2d bd fd 12 13 3e 9c 8b e9 bc
       0.0334961 -0.042257395 0.14362712 -0.028508954
000090 5d 06 8a 3c 98 98 45 bd ce 7f 5d 3d 55 7c f3 3d
       0.016848737 -0.048241228 0.054076962 0.11888949
0000a0 83 6e b6 3c 4e 6f 6e 3d 93 6e 67 3d 97 3f 1e 3d
       0.022269493 0.058211617 0.056501936 0.038634863
0000b0 94 5d 7c 3e 84 8b 0e 3d b3 b7 4b 3c 81 91 a4 bd
       0.24645072 0.03480102 0.012433934 -0.08035565
0000c0 e2 7c 1c be bb 87 a0 bd 9c 77 4a 3e 16 b3 1a 3d
       -0.15282014 -0.078383885 0.1977219 0.037768446
0000d0 30 1e 1a be 2b 0d 3d 3e 95 02 82 3d d6 c7 09 be
       -0.15050578 0.18462054 0.06348149 -0.13455138
0000e0 a6 ac 68 bd 43 75 83 3c 89 f8 1b 3e 1b 51 fa ba
       -0.056805275 0.016047126 0.15231527 -0.0019097658
0000f0 7c 40 df bc 76 5f f7 3c f4 73 b2 bc e7 8b 34 bd
       -0.027252428 0.030196887 -0.021783806 -0.044078734
000100 04 78 06 3e d6 9f 54 be da 80 e5 3c 74 f8 18 be
       0.1313172 -0.20764098 0.028015543 -0.14938527
000110 06 50 97 3d d4 bb e4 bd 2b d1 91 bd c1 46 34 bd
       0.0738831 -0.11168638 -0.07119974 -0.04401279
000120 61 29 59 bd 93 9b bc bc 04 bb 74 be dd 94 de bc
       -0.053017978 -0.023023402 -0.23899466 -0.027170593
000130 ee fe 4e 3d 41 9e b5 bd 41 a6 38 bd 31 86 16 be
       0.05053609 -0.08868075 -0.045080427 -0.14699627
000140 a9 d3 25 bd a5 d8 92 3d 38 95 c9 bd 7b 5e f7 3d
       -0.040485058 0.07170228 -0.09842914 0.120785676
000150 11 22 0d 3e a8 4f 38 bd 75 d9 dc bc b2 31 8a bd
       0.13782527 -0.04499784 -0.02695916 -0.0674776
000160 0f 48 99 bd a7 c3 09 3d 99 e7 ae 3c e7 cc 15 be
       -0.07484447 0.033633854 0.021350669 -0.14628945
000170 21 14 b6 3d 81 66 be 3c eb 4f 44 3e ce 2b 26 be
       0.08890558 0.023242237 0.19171111 -0.16227648
000180 01 54 55 be 52 8c b7 3d f8 d2 ec bc 78 9b ba 3b
       -0.20832826 0.08962311 -0.028909191 0.005694803
000190 df 31 90 bd 06 c0 0d be a1 40 9d 3d aa 6d 3a be
       -0.07040762 -0.13842782 0.076783426 -0.18205896
0001a0 ce d3 e9 bc 25 31 a1 3d 90 19 bd 3d fb f8 29 bc
       -0.02854338 0.07870702 0.09233391 -0.010374303
0001b0 d3 a2 0c bd 52 04 46 be cc f8 51 be fd 2a 14 be
       -0.03433497 -0.19337586 -0.20505065 -0.14469524
0001c0 60 2f 10 bd a0 0b 00 be bf fe 2b 3e aa 49 42 be
       -0.03520143 -0.12504435 0.16796397 -0.18973413
0001d0 f4 83 5c 3d aa 5c a4 bd af be 1d 3d a3 65 a9 3d
       0.053836778 -0.08025487 0.03851193 0.08271339
0001e0 dd 45 91 bd f0 cf 27 bd 52 7c 70 bd b9 e4 99 3d
       -0.070934035 -0.04096979 -0.05871231 0.075143285
0001f0 7d cb b6 bd 3f 40 93 3d 7e 5c 16 3d 89 9a eb 3a
       -0.08925531 0.07189988 0.0367093 0.0017975132
000200 d9 f6 5f 3d 81 96 07 3e a6 b4 ec bd a9 86 d5 3d
       0.05467877 0.13241006 -0.115578935 0.10426075
000210 d6 f0 18 be bc b7 08 3e 65 40 ee bc 26 7c 70 bc
       -0.14935622 0.13351339 -0.02908344 -0.014678037
000220 09 22 16 3e c2 d6 88 3d 23 a9 d9 bd 3f 85 d2 3d
       0.14661421 0.06681587 -0.106279634 0.10279321
000230 97 d3 18 be 8b e0 e0 3d 08 a5 2d 3e ea e6 2b 3e
       -0.14924465 0.10980328 0.16957486 0.16787305
000240 71 dc 1d 3e 23 29 46 bd 21 81 3e 3b b7 46 a7 3d
       0.15416123 -0.048379075 0.0029068666 0.08167785
000250 73 3d 2d bd 71 5a 9d 3d 86 21 a8 bc fd 0f e6 bd
       -0.04229493 0.07683266 -0.020523798 -0.11233518
000260 16 38 9e bd 8d b9 9a bd d8 52 ce bb 15 c8 0b bc
       -0.07725541 -0.07554922 -0.006296497 -0.00853159
000270 99 39 b3 3d 9f 43 e3 bc 23 8b 0f bc 5b ee 6c bc
       0.0875122 -0.027742205 -0.0087612 -0.014461125
000280 77 3f c2 bd 05 15 98 bb 90 5c 0b bd f5 f5 88 3e
       -0.09484761 -0.0046411776 -0.03402382 0.2675015
000290 86 f8 a5 bd c6 6b 03 3c c4 67 60 3e 8e 59 b4 3d
       -0.08104043 0.008021301 0.21914583 0.08806144
0002a0 93 c7 4a 3d 7b 4e 1b bd 95 c7 23 be f1 79 ba 3d
       0.049506735 -0.03791664 -0.15994103 0.0910529
0002b0 c4 91 ab bc f0 4c e3 3d 92 74 34 3d 13 27 a8 bd
       -0.02094353 0.11098659 0.044056483 -0.08210578
0002c0 f2 c7 77 3e 19 9a 87 bd 86 c9 ef bc d6 7c 88 3d
       0.24197367 -0.06621189 -0.029270899 0.066644356
0002d0 b9 55 e4 39 90 8b ee 3d fb 38 4f 3e 80 cb 12 be
       0.00043551417 0.11647713 0.2023658 -0.14335442
0002e0 a5 43 d5 bc 68 e8 ec ba a9 dd 9b bd 53 b3 e5 3c
       -0.026033232 -0.0018074634 -0.07610638 0.02803961
0002f0 5e 38 35 bd a0 70 6a 3d cc 81 c4 3c b0 50 63 3d
       -0.04424321 0.057236314 0.023987673 0.05549687
000300 9b b6 eb 3d e7 9c 97 bd 3e db 58 3d 0e db 9a 3b
       0.115094386 -0.074029736 0.05294346 0.0047258204
000310 50 e9 b5 bd c5 50 de 3d 74 d3 6c 3d ed 8e ed 3d
       -0.088823915 0.10855249 0.057818845 0.115995266
000320 d1 05 0b 3e a7 11 75 3e 32 39 95 bb e0 a3 84 3d
       0.13576438 0.23932515 -0.0045539374 0.06476569
000330 79 71 01 3e 7d 8d a5 3a 4b 13 3e bd bc 1b 00 bd
       0.12640943 0.0012630668 -0.046405118 -0.03127645
000340 d8 1d c3 bb 92 8c a6 3d aa a9 41 bc ce 76 08 3c
       -0.0059544854 0.081322804 -0.011820236 0.0083291065
000350 4b 70 9a bd b0 7f 8a bd 28 d5 41 be ce 84 41 3d
       -0.075409494 -0.06762636 -0.18928969 0.047245793
000360 29 03 fa 3d e0 1f fb 3d 57 e8 a5 3c c2 fd bd 3c
       0.12207634 0.12261939 0.02025239 0.02319229
000370 62 14 97 bc c7 26 aa bd 2d 5a d6 bd f9 9e b1 3d
       -0.018442336 -0.083081774 -0.104664184 0.086729
000380 26 6a ff 3d 00 40 4a bd f2 40 86 3d 33 fc 21 bd
       0.12471418 -0.04937744 0.06555356 -0.039547157
000390 30 ec 8e 3d c0 24 1b 3e 50 31 3c be 69 0e 3e bd
       0.06978643 0.15150738 -0.18378186 -0.04640046
0003a0 04 c8 e0 bd dd ed dc bd cc e3 76 bd 47 47 14 be
       -0.1097565 -0.10787556 -0.060275838 -0.14480315
0003b0 1f 29 30 be da e4 2e 3e 0d e8 1a 3e ab 1e 4b 3d
       -0.17203186 0.17079487 0.15127583 0.049589794
0003c0 f3 13 ac 3c 6c f3 21 3e cf 96 b1 bd 6e ee 39 3e
       0.021005606 0.15815514 -0.086713426 0.1815736
0003d0 40 3a 89 bd 8b fe a4 3c c1 25 2c 3d d4 3e 97 3d
       -0.067005634 0.020140907 0.042028192 0.073850304
0003e0 34 70 59 bc 42 d4 5b bb fd 62 2c 3d 73 c3 e7 3a
       -0.01327138 -0.0033543264 0.04208659 0.001768215
0003f0 4e 40 8f bd 18 56 ff bc 30 00 29 be e2 01 67 bc
       -0.06994687 -0.031168982 -0.16503978 -0.01409957

linears.0.bias f4 [128]
000000 2f a5 b1 bd d2 c0 3d bd e2 fd 54 3e 20 a4 4e bd
       -0.086740844 -0.046326466 0.20799974 -0.05044949
000010 be 9c bc bd 85 ca fa 3d 2b d1 08 bd 1a 31 be bd
       -0.09209584 0.12245659 -0.033402603 -0.09286709
000020 b7 38 85 bd 8c 8f c3 bd f8 6b a5 bd 4e 4a 07 bc
       -0.06504958 -0.09548864 -0.08077234 -0.008257462
000030 d8 61 3b 3c 54 46 05 bc 0a 11 7f bc ec a7 39 bc
       0.011436902 -0.008134443 -0.015568027 -0.01133154
000040 f0 4f 22 bc ad a8 c5 bd 04 11 80 bd 37 27 42 bd
       -0.009906754 -0.09651313 -0.062532455 -0.04740068
000050 e0 5f cc bd 89 b9 79 bd bf 92 20 bd c4 01 de bd
       -0.09979224 -0.060967956 -0.039202448 -0.108401805
000060 a1 e8 f6 bc af 71 fb 3d 43 9c b5 bd 1c 96 a4 bc
       -0.030140223 0.12277543 -0.08867695 -0.020091109
000070 2a 56 2a bd b6 1b 62 3e 29 6e 92 3c 4b 99 ca bb
       -0.04158608 0.22080883 0.017874794 -0.0061828247
000080 2a fb e5 bc 59 1b 38 3e 76 eb 75 bc 43 85 b5 bd
       -0.028073866 0.17979182 -0.015009752 -0.08863308
000090 d7 b7 c2 3d 45 0d a0 bd 3a 87 74 bc 2e 54 80 bc
       0.09507721 -0.07815031 -0.014924819 -0.01566514
0000a0 32 2b 83 bd d8 0a d4 bd bf 3c ce bc ce 96 af bd
       -0.06404723 -0.10353631 -0.02517545 -0.085736856
0000b0 da c2 ee bc 15 be 39 bd b6 c8 c4 bd 37 55 99 bd
       -0.029145647 -0.045347292 -0.09608595 -0.074869566
0000c0 30 4a 29 bd 55 e1 bd bd 1e 7d a4 bc 49 a8 d4 3d
       -0.041330516 -0.09271494 -0.020079192 0.1038366
0000d0 1e 55 00 3d f3 d9 dd bd b2 39 17 be be bc 94 bd
       0.031331174 -0.10832586 -0.14768103 -0.07262562
0000e0 a0 e9 97 bb 0e 0e a0 bd 3e 17 98 bd d1 46 1b bd
       -0.0046360046 -0.07815181 -0.07426308 -0.037909333
0000f0 49 7f 63 bc 0b 3a f3 bc 46 a5 e8 bc 2e 2f 2d 3b
       -0.013885328 -0.029690763 -0.028399121 0.0026425826
000100 00 ad 60 3e 7a db 25 bc 0f 5e 60 3e 1a 67 d7 bd
       0.21940994 -0.010123128 0.2191088 -0.10517712
000110 3d 3c 1e bd 20 83 60 3e ed 72 c4 bd 1b 32 10 3e
       -0.038631666 0.2192502 -0.09592233 0.14081614
000120 31 cb b3 bd cd 70 ea bb d6 47 3a bc a4 4e 8a bd
       -0.0877899 -0.00715456 -0.011369666 -0.06753281
000130 55 05 c6 bd 7a 74 8c bd 13 22 9d bd 70 b5 82 bc
       -0.09668986 -0.06858154 -0.07672515 -0.015955657
000140 03 bc b1 bd af 17 97 bd 3a e6 09 bd 7a 33 c3 bd
       -0.086784385 -0.07377564 -0.033666827 -0.09531303
000150 01 36 53 bd cf 83 35 bc 5e 10 4d bd 76 45 ab 3d
       -0.051565174 -0.011078789 -0.050064437 0.08362858
000160 9e cc 89 bd a6 9b 8f 3e 5f be 31 3c 52 10 75 bc
       -0.06728481 0.28048438 0.010848611 -0.014957504
000170 2c 47 af bd 9e 17 bb bb bc 55 f7 bc 41 6f 8e bd
       -0.08558497 -0.0057096025 -0.030192249 -0.06954814
000180 18 45 f6 3c 39 4f 82 bd 51 7d 14 3e 48 c8 5d 3c
       0.030062243 -0.06362767 0.1450093 0.01353652
000190 72 fd c2 3c 7f a6 30 3d e2 50 42 bc f9 c9 1e bd
       0.023802493 0.043127533 -0.011860104 -0.038766835
0001a0 09 fb b5 bd 8e 02 88 bd 91 b4 8a bd de b4 52 bc
       -0.08885772 -0.06641112 -0.067727216 -0.012860505
0001b0 6d 94 c3 bd 60 4a 8e 3c 7f c2 b4 bd f9 31 ee bd
       -0.09549794 0.01736945 -0.0882616 -0.11630625
0001c0 19 95 81 bd 45 48 6f bc 9f 6e 7f 3e a3 5c 4a bd
       -0.06327266 -0.014604633 0.24944542 -0.04940475
0001d0 ce 61 82 3c 1b d2 bc bc d9 6f 15 3b 96 0b 10 3d
       0.015915778 -0.023049405 0.0022802262 0.0351673
0001e0 03 8d 30 3e 57 e5 13 3d 9d 87 ac bd 23 9d ca bd
       0.17241292 0.036107387 -0.08424304 -0.09893253
0001f0 04 32 cd bd 1d 1a 2c bc d7 38 40 bd 8c 1a 2a 3e
       -0.10019305 -0.010504273 -0.046929207 0.1661169

final_linear.weight f4 [1, 128]
000000 99 4b b0 3e 28 ce 0d be 44 63 b5 bd d5 69 e0 3d
       0.34432676 -0.13848174 -0.08856824 0.10957686
000010 13 a1 d3 3c b9 2e fe bd 54 f4 52 3e f4 76 0a 3e
       0.025833642 -0.124112554 0.20601016 0.1352194
000020 61 b3 94 bd 91 45 21 3d c8 17 39 3e 6b 46 a8 bc
       -0.07260776 0.039372984 0.18075478 -0.02054139
000030 d2 27 0e be a4 9d 79 bd 78 82 7b 3e 4a a0 53 be
       -0.13882378 -0.060941353 0.24561489 -0.20666614
000040 db 1c 04 bd af 4f 8a 3d 58 4a 22 be 17 98 2f 3e
       -0.03225408 0.0675348 -0.15848672 0.17147861
000050 77 e7 17 3e 7c 10 38 3d 79 50 74 be 7f e3 2d 3e
       0.1483439 0.044937596 -0.23858823 0.16981314
000060 03 3e 82 3e 71 5a 19 be 9c b4 1a 3e b9 8c 18 be
       0.25437936 -0.14975907 0.1510796 -0.14897431
000070 56 eb c0 3d 76 99 c2 bd 16 b7 1e be d7 79 ba 3e
       0.09419887 -0.095019266 -0.15499529 0.3642108
000080 17 2b 38 3e cc 85 61 bd 8f 53 ce bb fd 9b bc 3e
       0.17985187 -0.05505924 -0.006296582 0.3683776
000090 04 3f 67 bd 93 dc a9 bd 20 ba fc bc aa 28 7f bd
       -0.05645658 -0.08294024 -0.03085047 -0.06229464
0000a0 0b f6 98 3b 33 d1 37 3e 01 2d dc 3d 31 73 bc 3d
       0.0046680025 0.17950897 0.10750771 0.092016585
0000b0 61 cc 8b 3e 3f 08 8b bd 4c 08 06 3e c7 f5 05 3d
       0.27304366 -0.06788682 0.13089103 0.032705095
0000c0 f8 e7 d5 bd f1 b0 4b 3e ea 31 7d 3e ed 9b ca bd
       -0.10444635 0.19891717 0.24726072 -0.09893022
0000d0 e6 d0 07 be dc 1f 68 3e 0d d8 ee 3d e2 54 cc 3d
       -0.13263282 0.22668403 0.11662302 0.099771276
0000e0 76 d6 54 3e 00 38 bb bd a6 a3 02 3e 67 3b 30 be
       0.20784935 -0.091415405 0.1275774 -0.1721016
0000f0 d2 2e 7d 3e 39 7e 9a 3e 26 a6 bd 3d f7 3f 2e 3e
       0.24724892 0.30174425 0.09260206 0.17016588
000100 80 e0 17 be 08 89 b0 bd d3 27 f3 be 69 75 0e 3e
       -0.14831734 -0.08619887 -0.4749132 0.13911976
000110 58 3e 62 3d 5e 0f f5 bd 72 86 5f 3d bb 41 d2 bd
       0.055235237 -0.11965822 0.054571576 -0.10266443
000120 2f 40 ee bc fa 27 43 3e 50 a7 65 be 56 14 92 bd
       -0.02908334 0.19058219 -0.22427106 -0.07132785
000130 1d 6e 16 3e b6 6e ec 3d 24 52 26 be 9d 05 91 bd
       0.14690442 0.11544554 -0.16242272 -0.07081149
000140 e3 db 72 3e 0b 3e c8 bd 6e 23 34 3d 2e fe 77 3e
       0.23716693 -0.09777459 0.0439791 0.24218056
000150 65 a5 31 be 16 3a 95 3d bb 46 3f 3e 28 f7 37 be
       -0.1734825 0.0728647 0.18679325 -0.17965376
000160 ee 85 47 3e 35 7d 84 be a7 18 b5 3e 46 78 eb bd
       0.19484684 -0.25876775 0.3537037 -0.1149755
000170 96 0e 96 bc b0 01 62 be 64 89 5f bc 90 3e ba bd
       -0.018317502 -0.22070956 -0.013643596 -0.09093964
000180 88 02 be 3d a2 4a 85 3e 09 01 41 be 5e 4f a9 be
       0.092778265 0.26033503 -0.18848051 -0.33068365
000190 4b f1 24 3e 33 a0 2c 3e 22 27 ac 3d 9b ae 41 3d
       0.16107671 0.16857986 0.084059015 0.047285657
0001a0 ad 3b 10 3e e6 ed 44 be bc c9 34 3d 60 d7 5b be
       0.14085265 -0.19231376 0.0441377 -0.21468878
0001b0 44 e8 cb 3d 1c 29 a4 bd 06 f7 8a 3d 89 9b 4a 3d
       0.099564105 -0.080156535 0.06785397 0.049464736
0001c0 2e 01 3f bd f9 f1 ce 3d 72 bb 7a bd 19 d7 96 3e
       -0.046631984 0.10104746 -0.061213918 0.2946098
0001d0 ad 6f 0d 3e 2f 7e 98 3a 67 ea 98 bd 14 a6 3f be
       0.13812132 0.0011634285 -0.07466584 -0.18715698
0001e0 7c 5c 71 bc 9b 74 50 be 0e de 7f 3e 9c 23 5f 3e
       -0.014731523 -0.20356981 0.24987051 0.21790928
0001f0 29 7e 86 3e c9 91 4a bc db a9 87 3e 78 f9 4d bd
       0.26268128 -0.012363859 0.26496777 -0.05028674

linear1.weight f4 [128, 5]
000000 76 db d6 ba f7 31 68 3e 54 dc a0 bd 61 a1 d7 3c
       -0.0016392309 0.2267531 -0.07854524 0.026322069
000010 2b 73 50 be d7 c7 00 3d 92 e5 b9 3e 17 1c 9f 3d
       -0.20356433 0.031440582 0.3630796 0.077690296
000020 52 1e 88 bd 71 05 88 bd ad 91 31 be 4a fe e1 3e
       -0.06646408 -0.06641663 -0.17340727 0.4413932
000030 63 8c 93 bc a8 43 7b 3d d8 24 1c be f3 e0 8e be
       -0.018011278 0.06134382 -0.1524843 -0.27905998
000040 b5 94 cc 3d c0 96 1c 3e 9b 39 a4 bd 1e 14 2f be
       0.09989301 0.15291882 -0.080188 -0.17097518
000050 e1 fa 72 be f1 c5 1e 3d 30 53 45 3e 60 d2 2e bd
       -0.23728515 0.03876299 0.19270015 -0.042681098
000060 a7 db ba be cd 41 34 3d 90 c9 17 bf 25 41 40 3e
       -0.36495706 0.044008065 -0.59291935 0.1877485
000070 da 65 23 3e e6 f8 bb 3c 98 ae 25 3e c7 98 ab 3e
       0.15956822 0.022945832 0.16179883 0.33514997
000080 3a bb 99 3d 6d 1d 27 3d bb 3a 71 3e 88 2c bc be
       0.07506414 0.040799547 0.2355756 -0.36752725
000090 71 d2 bd bd 2d f0 bc be dc ee d4 bd 15 b9 10 3b
       -0.09268654 -0.3690199 -0.10397121 0.0022082974
0000a0 93 61 7b be 8d 41 d3 3e 3c 17 f4 bd ac c7 28 be
       -0.2454894 0.4126095 -0.11918494 -0.16482419
0000b0 ef 6d 3f be 10 6d 98 3e 78 e5 1d 3e 4b 4d e7 bd
       -0.1869428 0.29770708 0.15419567 -0.11294039
0000c0 d9 9e e0 3d e3 8f 1e 3e d2 d2 9e 3e 40 6e 69 be
       0.10967798 0.15484576 0.31020218 -0.22795963
0000d0 74 4e 50 3e 66 65 1b bf a0 c3 3c 3d e7 16 06 3e
       0.20342427 -0.60701597 0.046085 0.13094674
0000e0 10 11 fb bb e6 e2 48 be 6b d5 a0 bd 99 54 b1 3e
       -0.007661946 -0.19617805 -0.07853206 0.34634855
0000f0 88 91 23 be ba b0 15 3d 81 3b b3 bd ca f6 13 3e
       -0.15973485 0.036545493 -0.08751584 0.14449611
000100 3a 37 6b 3e 64 ff 14 3e 60 29 af 3d d2 95 07 be
       0.22970286 0.14550549 0.085528135 -0.13240746
000110 a5 af fe bb b0 84 e0 3c c9 dc d0 be 0b fc de 3d
       -0.0077724033 0.02740702 -0.40793446 0.10887917
000120 51 5c 1d 3d 9d 75 fc bd 7e 1c ee bd ea 40 a4 be
       0.038418118 -0.123271205 -0.11626528 -0.32080775
000130 c0 d1 24 be d0 1d 29 3e 4d 04 38 3d 92 8a 89 3e
       -0.16095638 0.16515279 0.044925977 0.26863533
000140 e4 59 36 bd 1e 15 b3 bd c5 ee 69 3e a2 12 0c 3e
       -0.04451932 -0.08744262 0.2284499 0.13678983
000150 7c 00 a2 3c 7b 09 54 be ff 28 82 be a6 dc a3 3d
       0.019775622 -0.20706742 -0.25421903 0.0800107
000160 31 79 89 3d 2f 68 bf 3d 3d c9 84 be 73 ee 67 3d
       0.067125686 0.09346043 -0.25934783 0.056623887
000170 9f 02 97 bb a1 f1 8d 3d cd 8e d9 3d 6e e0 c6 3c
       -0.0046084668 0.06930853 0.1062294 0.024276938
000180 68 13 e7 3c 1b e5 1e 3e d3 56 fe bd b4 7f 11 be
       0.028207496 0.15517084 -0.12418904 -0.14208871
000190 dd 85 37 3e 4a 87 70 3e d0 89 6c 3e c9 a7 9b 3d
       0.17922159 0.23489109 0.23099446 0.07600362
0001a0 34 6e 2a be 0e c8 94 bd 02 4d 60 be 8b 27 00 3e
       -0.16643602 -0.0726472 -0.21904376 0.12515084
0001b0 84 7c 8e 3d 78 f6 04 3e 3f ea 9c be d4 5f 07 be
       0.06957343 0.12984645 -0.30647466 -0.1322015
0001c0 59 46 76 3e d4 40 1f 3d 66 00 bf bd e4 42 d9 bd
       0.24050273 0.038880184 -0.09326248 -0.106084615
0001d0 31 ce 6e 3c 02 a1 66 3e d8 0e 0b 3e 5f 8a 1a 3e
       0.014575527 0.22522357 0.13579881 0.15091847
0001e0 3e 55 a2 3d 32 0b b1 bd ce 6a 77 3d 99 5c 8f 3c
       0.07926415 -0.086447135 0.06040459 0.017500209
0001f0 4b a6 11 3d 61 7e cb 3e b1 c6 87 3e b8 40 0a be
       0.03555898 0.39744857 0.26518777 -0.1350125
000200 c0 ff d9 bd c4 3c be 3d 7b fc 67 bd 9e 09 95 3e
       -0.106444836 0.09288934 -0.05663727 0.291089
000210 f6 e8 e2 3d 49 ee 7c 3d de da 46 be 45 c6 07 3f
       0.1107959 0.061750684 -0.19419429 0.5303691
000220 62 75 d6 3e d0 21 c4 3d cf 10 40 3e 8d 69 e1 3c
       0.4188643 0.09576762 0.18756412 0.02751615
000230 3d 8b e0 be 65 f7 26 3e 6f a0 78 bd 83 46 0c 3e
       -0.4385623 0.16305311 -0.060699876 0.13698773
000240 f1 3b ad 3e 81 cf 1e bf ba b1 12 bc 2c 6a 22 be
       0.33834794 -0.62035376 -0.008953506 -0.15860814
000250 2c cc 43 3e ea 38 de bd 5f 94 81 3b c1 0f 31 3e
       0.19120854 -0.10850699 0.003954455 0.17291166
000260 15 47 85 be 6f 41 8f 3e a9 f7 3c 3e 9b a9 dc be
       -0.26030794 0.2797961 0.1845385 -0.4309815
000270 06 57 91 3e 9d aa c9 bd 37 74 14 3e db 0f c5 bd
       0.28386706 -0.09846995 0.14497457 -0.09622165
000280 e3 3f 0c be 52 56 21 3f 05 1a ad bd b9 35 2f 3d
       -0.13696246 0.6302234 -0.084522285 0.042775843
000290 5e 95 5c be 7c d4 b7 bd 71 65 91 be 09 a2 3f 3d
       -0.21541354 -0.08976075 -0.28397706 0.04678539
0002a0 db 4a 5c be 6b 30 9a 3c 98 4d 8a 3e 17 5c d9 3d
       -0.2151293 0.018821916 0.27012324 0.10613268
0002b0 96 33 cf 3d e0 b7 c5 bc 61 88 a1 3d 7c 1e a3 be
       0.10117261 -0.02413553 0.0788734 -0.31859195
0002c0 71 af ee bd 6f d6 41 be e0 fc 00 bc a7 71 08 3c
       -0.116545565 -0.18929456 -0.00787279 0.008327878
0002d0 1c 87 9b be 3b 65 a5 be a2 f6 e9 3b e8 d7 36 3e
       -0.30376518 -0.32303795 0.0071399966 0.17855799
0002e0 d4 33 73 bd 37 c8 9f be 16 6b cc 3e 96 d6 80 3c
       -0.0593756 -0.3120744 0.3992545 0.015727323
0002f0 43 8d 14 3e 08 3c 8b be 46 0e 84 be 99 c6 87 bd
       0.14507012 -0.27194238 -0.2579214 -0.06629676
000300 3c d8 1b be bc c8 06 be 04 5a 66 bd 69 e8 37 3e
       -0.15219206 -0.13162512 -0.05623819 0.17959751
000310 05 11 8d 3e f3 fa 37 3b ed 9b cd 3d 42 90 27 bd
       0.27552047 0.0028073161 0.10039506 -0.04090906
000320 e1 ee 8f be aa 85 87 be 1f 77 2c bd bb 0a 96 be
       -0.28111938 -0.26469165 -0.04210579 -0.29305062
000330 fb e9 4f 3e b2 79 2a 3e ef a5 90 bd 49 ac 65 3d
       0.203041 0.16647986 -0.07062899 0.056072507
000340 a1 9d 76 3e cf 09 82 b9 61 ef 08 bf ae 64 95 be
       0.24083568 -0.0002480284 -0.53490263 -0.29178375
000350 01 99 0b bd 3c 48 b1 3d 4c 25 49 3d 5f d5 c4 3d
       -0.034081463 0.08656356 0.049107835 0.0961101
000360 b9 be 70 be f6 9b 05 be 0d 8a 38 be 42 89 cb bb
       -0.23510255 -0.13047776 -0.18021412 -0.0062114308
000370 f3 c9 8f 3e ff a6 c2 3e 8b 47 9c 3d 2e f4 6a bc
       0.28083763 0.38018033 0.07630833 -0.014340444
000380 c4 f0 e6 bd 23 32 96 be f6 19 4d 3e ba 68 a3 bc
       -0.11276391 -0.29335126 0.20029435 -0.019947398
000390 c0 e5 db 3d 78 0d 50 be 13 76 98 3e c2 e9 60 3e
       0.10737181 -0.20317638 0.29777583 0.21964172
0003a0 7e 9d 87 bd a5 d1 be bd 91 19 47 3d 98 d9 b9 be
       -0.06621836 -0.0931733 0.048608366 -0.36298823
0003b0 b9 64 9a 3e 25 15 19 be 5b 5f e7 3d 32 bd b6 bd
       0.3015497 -0.14949472 0.112974845 -0.08922805
0003c0 f8 d0 60 bd 1f 99 e4 3e 30 c1 ab bd 75 cc b6 bc
       -0.054886788 0.44648072 -0.08386457 -0.02231429
0003d0 2c 3a 8e be b5 5a c9 be 36 1a 3b 3d b7 d9 c7 3d
       -0.27778757 -0.39327016 0.045679294 0.09758323
0003e0 0f 65 fe 3d 94 90 a4 be 8a e1 f8 be f7 2c 3b be
       0.12421619 -0.32141554 -0.48609573 -0.18278871
0003f0 cf 48 a8 bd 23 d8 f5 3c 28 a4 87 be 1f c2 5f 3e
       -0.08217012 0.030010289 -0.2649243 0.21851395

linear1.bias f4 [128]
000000 ff 92 8b be cd 9a a8 be 1a 9e 78 be 8c a8 77 be
       -0.27260587 -0.32930604 -0.24279061 -0.2418539
000010 d3 97 69 be 09 78 82 3e 30 a8 45 bb a6 54 38 bd
       -0.22811823 0.25482205 -0.0030160062 -0.045002602
000020 c7 3b 1e be 2c a8 a3 bd a9 90 ac 3e 1d 93 6a bd
       -0.15452491 -0.079910606 0.33704117 -0.057269204
000030 e0 c3 6a bd 00 bb be 3d 0e 34 d1 be ed 55 b9 bd
       -0.057315707 0.09313011 -0.40860027 -0.09049592
000040 f1 7d 07 3e 7f 16 c0 bd 1b c0 bb bd aa 51 9b be
       0.13231637 -0.09379291 -0.091675006 -0.30335742
000050 88 fa 34 be 0e cf 30 bd de d5 ca bd 16 e6 57 3d
       -0.17673695 -0.043166213 -0.09904073 0.05270966
000060 0f 18 4b 3d 5e f1 77 bc 47 ad 7f be df 52 e5 3c
       0.04958349 -0.01513323 -0.24968444 0.027993618
000070 3c 5e ee bd bb be aa be e0 88 ab 3d 96 24 80 be
       -0.116390675 -0.3334864 0.08375716 -0.25027913
000080 26 10 8f be d0 78 83 3e 62 6f c5 bc 86 f2 78 bd
       -0.27942008 0.2567811 -0.024100963 -0.060778163
000090 14 c1 83 3d f6 aa 90 be 9b b8 d4 3c a5 6b e4 bd
       0.06433311 -0.28255433 0.025966933 -0.11153344
0000a0 3d ac f0 bd 77 ee 34 3e c9 24 8e bd cc 69 9d bc
       -0.11751602 0.17669092 -0.0694061 -0.019215487
0000b0 a9 bc 53 be 49 8d a3 be bd 6f 57 3d 83 9a 6e be
       -0.20677437 -0.3194373 0.052596796 -0.23301129
0000c0 76 b6 a5 be 9c 99 76 be 7a 99 97 be 9e f9 49 bd
       -0.3236577 -0.24082035 -0.2960928 -0.04931032
0000d0 ce 78 f1 3d 2d f3 c1 be c7 78 8b 3c 7b 93 ce be
       0.1179062 -0.3788084 0.017025365 -0.40346894
0000e0 8f c6 4a be 99 96 fe bd 9d 01 47 3d 07 1c 8c be
       -0.19802307 -0.12431068 0.048585523 -0.27365133
0000f0 de c9 9b be a2 23 2e be 1c 76 52 3c 57 1f a2 be
       -0.3042745 -0.1700578 0.012845542 -0.31664535
000100 86 9f 86 be 74 74 ad be 8f 4b b8 bd a5 d6 73 3e
       -0.26293582 -0.3387791 -0.08998787 0.23812349
000110 16 1a 0a be f3 89 f9 bd 48 ca 47 be c6 8e 94 3d
       -0.13486513 -0.12184515 -0.19510758 0.07253794
000120 65 98 9b 3c fc 65 61 3e 4c b4 1d 3e c1 96 85 be
       0.018993566 0.2201156 0.15400809 -0.2609158
000130 3c b2 55 bd 11 94 93 bd d4 0b ca 3c 7a 23 58 bd
       -0.05217193 -0.07205976 0.024663843 -0.052768208
000140 24 b6 6b be c8 ee a9 3a 2f b0 8c 3b 96 cc 33 be
       -0.230187 0.0012964839 0.0042934637 -0.17558512
000150 65 16 5b bd 3a bd c9 bd c4 05 7c be 3e 93 c2 be
       -0.053488154 -0.09850545 -0.24611574 -0.38002962
000160 45 38 62 be 1b b8 1f bd 3c 2f 34 3e cf 9b 65 3e
       -0.22091778 -0.038993936 0.17596143 0.22422718
000170 f2 e6 8c be e9 6f 7d bb 27 2e e5 3d a7 20 a4 be
       -0.27519947 -0.003867144 0.111904435 -0.32056162
000180 8d 80 07 3e 45 58 20 3d 2d f7 dd bd 00 9f 6f be
       0.13232632 0.03914668 -0.10838161 -0.23400497
000190 5e cb a2 bd 26 76 f9 bb 68 bc ef bb f3 71 7f 3d
       -0.079489455 -0.0076129613 -0.007316161 0.06236453
0001a0 0b 24 a3 3c 2f fe 0c 3e 22 aa 78 3e 92 bb 60 be
       0.019914648 0.13768838 0.2428365 -0.21946552
0001b0 e6 3e 7c be 92 13 fc 3d 21 bf 81 be d2 c3 a9 be
       -0.24633369 0.1230842 -0.25341132 -0.33157212
0001c0 f4 91 a3 be 02 b0 b4 bc ea f7 0e be cd aa 96 bb
       -0.3194729 -0.022056583 -0.13961759 -0.0045979978
0001d0 6e c1 23 be 9a 55 61 3d 51 eb 91 bd 6b d4 80 be
       -0.15991756 0.055013277 -0.07124961 -0.25162062
0001e0 e1 6f 39 bc 73 b2 41 be e1 04 29 3c 02 c0 aa be
       -0.011318178 -0.18915729 0.010316105 -0.33349615
0001f0 76 82 56 3e 31 86 8e be 5c 7b ee 3c 00 fb 84 be
       0.20948204 -0.27836755 0.029111557 -0.25972748

linears.0.weight f4 [128, 128]
000000 c3 ba b0 bd 7c eb 2f 3d dc 8c a8 3c 0e e8 d9 bc
       -0.08629372 0.042949185 0.02057498 -0.02659991
000010 86 27 4c bc f3 58 a8 bd ef 03 f1 3c 26 6f 8a 3d
       -0.012460595 -0.08220091 0.029420821 0.06759481
000020 77 ed 8a bd 90 4c 03 3e f8 10 7e 3d 88 ae cb bc
       -0.06783574 0.12822175 0.0620279 -0.024863496
000030 f4 2c 0b be f2 23 6b ba 57 81 e6 3d 83 50 9e 3d
       -0.13591367 -0.0008969895 0.11255138 0.077302
000040 09 11 30 3d 0a ae 06 3e 44 5c c5 3c b9 b9 c5 3d
       0.042984996 0.13152328 0.024091847 0.096545644
000050 8b df 6c 3e a5 7d 1a be 8f ad 16 be c8 b7 ac bd
       0.2313215 -0.15086992 -0.14714645 -0.08433491
000060 fd 46 8f 3d a7 8a 3e bd 2d 8d b8 bd b6 39 0a 3d
       0.06995962 -0.046518948 -0.09011302 0.033746444
000070 9a db 00 bc 27 71 97 3c f8 40 73 3c e6 70 29 bd
       -0.007864857 0.018486572 0.014847033 -0.041367434
000080 3e 1e 70 3c 6c 25 d6 bb d8 cb 90 bd ef fc 4f bc
       0.014655648 -0.0065352228 -0.0707013 -0.012694581
000090 aa 97 53 bd f7 f7 4d be fe 74 3f bd 5d 04 68 3d
       -0.05165831 -0.20114122 -0.04674243 0.056644786
0000a0 62 b9 82 3c ed b1 29 3d cf b8 fe 3d bc 3f d2 bd
       0.015957538 0.04142945 0.12437593 -0.102660626
0000b0 8a 35 db 3b aa 10 dd 3d 71 ca fa bd de f8 bf 3d
       0.006689732 0.10794194 -0.12245644 0.093736395
0000c0 0f 2f d9 bc 62 60 b1 3d 58 c4 79 bd e1 23 eb 3c
       -0.026511697 0.08660962 -0.060978264 0.028703632
0000d0 b7 92 7c bc 4b b7 95 3d d5 f9 c5 bd ef a5 57 bd
       -0.015415839 0.07310351 -0.09666792 -0.05264848
0000e0 7c 85 ad 3d d3 74 cc 3d b4 8a c3 bd a5 bd fe bd
       0.08472726 0.0998322 -0.0954794 -0.124385156
0000f0 00 e9 1f bd 7b 5f a9 3d c0 0a 4b 3e 33 4c 37 bd
       -0.039040565 0.082701646 0.1982832 -0.044750404
000100 18 88 1d bc 9c 73 9b bd f0 3f 7f bd 23 e6 be 3d
       -0.009614967 -0.0759041 -0.062316835 0.09321239
000110 38 86 cf 3d fe 37 b5 bd 5c 79 7c 3b 6a ef 91 bd
       0.10133022 -0.0884857 0.0038524484 -0.07125743
000120 4f 3d 64 3e 93 f1 30 bd 66 66 51 3d ec 62 7b 3d
       0.22289012 -0.043199133 0.051123045 0.061373636
000130 24 aa b6 3c fe f4 9c 3d 98 34 a5 be 2f 55 67 bd
       0.022297926 0.07663916 -0.32266688 -0.05647772
000140 aa 57 e8 bd 38 f8 ea 3b dc 2f a5 3d 16 54 1e 3d
       -0.113448456 0.0071707033 0.08065769 0.03865441
000150 12 7a 06 be 09 0f 87 3d 70 33 19 3d 8e b4 00 3e
       -0.13132504 0.065946646 0.03740257 0.12568876
000160 84 44 86 3d ff 0d 20 be 3c 95 30 be 29 db 3b bd
       0.06556037 -0.15630339 -0.17244428 -0.045863304
000170 ff 1f fa bd 28 c9 34 3e da 6c 1e 3d 19 ec 29 bd
       -0.12213134 0.1765486 0.038678028 -0.041484926
000180 fb 5f 8a 3d 13 b3 10 be 68 0a 57 3d e9 e0 08 be
       0.06756588 -0.14130811 0.05250016 -0.13367046
000190 93 8f 99 3c b9 75 45 3d 0c 0d a3 3d cc 78 6b 3d
       0.01874522 0.048207972 0.07961473 0.057488248
0001a0 b4 53 cc bd a2 94 48 bd 58 bd 52 3d 5f d4 81 3d
       -0.099769026 -0.048969872 0.051450104 0.06339335
0001b0 e3 ce 24 be 43 d9 0b 3d 2d 7c a1 bc 94 44 cc bd
       -0.16094546 0.034142744 -0.019712532 -0.09974018
0001c0 13 c5 60 bd e6 4b 94 bb c8 45 14 3e d7 6c 1d be
       -0.054875445 -0.0045256494 0.14479744 -0.1537355
0001d0 a3 33 bf 3d f6 95 3d bd 2e 62 2c bd 3c 0e 87 bd
       0.09336021 -0.046285592 -0.04208582 -0.06594512
0001e0 bd 76 51 3d 7e a9 25 3d f4 e2 71 3d 91 ca 59 bd
       0.05113863 0.040444843 0.05905433 -0.053171698
0001f0 13 d8 48 3d 46 1a 56 bd 4e 12 1d be 85 45 85 3c
       0.04903419 -0.05227115 -0.15339014 0.016268501
000200 f0 10 9b bc 34 01 30 bb a0 4c a4 bd 47 b8 7a be
       -0.018928975 -0.0026856186 -0.080224276 -0.24484359
000210 0a 05 f3 3d f4 9c 94 3d b3 8f f9 3c 3b 4d a3 3c
       0.118661955 0.07256499 0.030464029 0.019934287
000220 cf 06 c3 bc 33 8b d4 3d ef 14 6b be 20 28 50 3e
       -0.023806958 0.10378113 -0.22957204 0.20327806
000230 47 35 b5 3d 58 d8 89 bd e6 9c e0 bd bc 8a 39 3c
       0.088480525 -0.067307174 -0.10967426 0.011324581
000240 cc 87 69 3e 00 3a 6f 3d 00 98 64 3c e6 69 0b 3c
       0.22805709 0.058404922 0.013952255 0.008509135
000250 59 5d 65 3d dd 10 d0 3d 9b 9d 3a bc ba 6f 70 3d
       0.055997226 0.101594664 -0.011390115 0.0587003
000260 59 e8 34 be 90 ef 8b 3b 21 17 9d 3d 89 a5 a7 bc
       -0.17666759 0.0042705014 0.07670427 -0.020464676
000270 b3 51 8e 3d 64 f1 4e bb 67 74 1c be 9a 99 01 be
       0.06949177 -0.0031576985 -0.15278779 -0.1265625
000280 4c 57 98 bc 3b c2 9f bd 43 8b 1e bd 16 39 26 bd
       -0.018596314 -0.078007184 -0.03870703 -0.040581785
000290 b6 19 14 3e 73 fd 6c 3e 62 9b 81 bd 74 f6 cb bc
       0.14462933 0.23143558 -0.06328465 -0.024897791
0002a0 f3 86 16 be ed 59 29 3e 7c 63 01 3b 6d 59 a0 3d
       -0.14699917 0.1653821 0.0019743135 0.078295566
0002b0 75 da 84 3b 59 73 10 3c a2 ff 01 be cd df b0 bb
       0.0040543624 0.0088165635 -0.12695172 -0.005397773
0002c0 e8 2a 2d 3d a5 51 87 3d 12 fe 3f bd 09 a5 5e bc
       0.042277247 0.06607369 -0.04687316 -0.013589152
0002d0 48 7f b4 3d 22 fa 02 be 62 23 84 bd d9 2b 98 3d
       0.088133395 -0.1279073 -0.06452061 0.07430238
0002e0 94 07 9f bd 97 d2 66 3e 51 85 de bc 41 f9 b3 3c
       -0.07765117 0.22541271 -0.02716318 0.02196944
0002f0 40 56 a0 bc 78 b8 36 3d 05 f9 06 3c 0f 67 4f be
       -0.019572377 0.044609517 0.008238082 -0.20254157
000300 97 38 f0 bc 7b 72 5f 3d 2c fe 93 3b 42 b0 ca 3d
       -0.02932386 0.054552536 0.0045163836 0.098969
000310 3b 94 dc bc 41 1e 7c bd 09 bc 38 3e 9d 48 e2 3c
       -0.02692615 -0.06155229 0.1804048 0.027622515
000320 07 f7 1c 3d 43 31 a1 3c 95 0c ee 3d 69 7f 00 3c
       0.03832152 0.01967681 0.116234936 0.007842877
000330 74 d8 72 3d 6b 24 bd 3d 8e c6 b2 bd c4 c5 19 3d
       0.059288457 0.09235462 -0.087292776 0.03754212
000340 b2 02 22 bd f7 2b 15 3c 57 d1 8c 3d 89 66 ad 3c
       -0.03955335 0.00910472 0.06875866 0.021167057
000350 98 cc c9 3d 83 22 22 3d 31 57 3a bd 74 e6 1c be
       0.09853476 0.039583694 -0.04549331 -0.15322286
000360 b9 81 44 bd 69 b8 7a 3c 77 4e 2c be 1f 2d 83 bc
       -0.047975276 0.015302756 -0.16826807 -0.016012726
000370 e7 56 a4 bd df a9 17 3d 66 f2 29 3e ec c5 9a bd
       -0.08024388 0.037027236 0.16596374 -0.07557282
000380 0d 9c c8 3d 3c 72 9c 3d 93 8b c5 3d 1c 3d 9e 3d
       0.09795389 0.07638976 0.09645762 0.077264994
000390 2b 79 ab bd fc 29 e4 bd 31 1f b5 bc 00 f5 55 bd
       -0.0837272 -0.111408204 -0.0221096 -0.052235603
0003a0 c0 9f 01 be a3 74 9e 3b fe 65 4d bd 78 76 fb bd
       -0.12658596 0.0048356815 -0.050146095 -0.122784555
0003b0 fc 07 29 3e 8b 7a 90 39 41 23 b5 3d 77 63 2a 3e
       0.16506952 0.00027557122 0.08844615 0.16639505
0003c0 7b 21 58 3c 26 7c 56 3d 88 b4 f7 bd ff 3b 80 bd
       0.013191576 0.05236449 -0.120949805 -0.06261443
0003d0 03 46 33 3c 2c c7 5f be 96 27 8a 3d 48 45 ad bd
       0.010941985 -0.21853322 0.06745832 -0.0846048
0003e0 e6 17 1c bc 54 c0 b3 3d 9f 33 4c ba fc 80 3b 3d
       -0.009527182 0.08776918 -0.00077896746 0.045777306
0003f0 e2 a3 59 bd 33 49 00 be a0 98 dc 3c ed d6 94 3c
       -0.053134806 -0.12527923 0.026928246 0.01816889

linears.0.bias f4 [128]
000000 fb 8d c1 bc 67 89 f9 bc 3a 24 79 3d e2 c0 af 3d
       -0.023627272 -0.030461026 0.060825564 0.08581711
000010 53 63 b0 bd 7c 1b 14 3d 4f 3d 68 3c 1a fd 23 3d
       -0.086126946 0.036159024 0.014174773 0.0400363
000020 77 66 88 3d 42 62 80 3d db 80 fc bc e7 6b d8 bc
       0.066601686 0.06268741 -0.030823162 -0.02641864
000030 3e fe 8e bd 2a fc 3f 3d 5f 09 95 bc 9b b1 60 3d
       -0.069820866 0.04687134 -0.018192945 0.054856878
000040 18 83 c2 3c 46 e7 5b bd 98 8c 0f 3e 93 19 ab be
       0.023744151 -0.053687356 0.14018476 -0.3341795
000050 d9 c3 3a 3d 4a 9f ac bc 4c 8e 8e bb 44 8c 6d 3d
       0.04559693 -0.021072049 -0.004350459 0.057995096
000060 53 a6 52 3d 2f c1 3f be 20 a5 fa bc 45 dc 96 bd
       0.05142815 -0.18726037 -0.030596316 -0.07366232
000070 ad f7 c7 3d 36 90 9f bd 5f 1c 0b 3c ed ef e3 bd
       0.09764037 -0.07791178 0.008490651 -0.111297466
000080 60 df c3 3c 86 81 1a bd fb 36 8b 3b 4a 87 47 bc
       0.023910224 -0.03772118 0.0042484975 -0.0121782515
000090 20 6f f8 3c d1 11 72 be a6 09 41 bc 08 23 13 3e
       0.030326426 -0.23639609 -0.0117820855 0.14368832
0000a0 7a 14 3f 3e e0 24 71 3d 09 50 9b bd f8 bf 92 3c
       0.18660155 0.058873057 -0.07583625 0.017913803
0000b0 db f5 67 be 6f 4c cc bc 38 a4 00 bd 3c d5 2a 3c
       -0.2265238 -0.02493879 -0.03140661 0.010426816
0000c0 74 46 2c 3d 6d c4 b8 ba 0a 6e 66 bd b4 09 eb 3c
       0.042059377 -0.0014096625 -0.056257285 0.02869115
0000d0 a4 9e 86 3c 9d 71 cb 3c eb 2e aa be 24 e6 16 3d
       0.016433068 0.024834448 -0.3323892 0.036840573
0000e0 73 ae c9 3c 2b ee e4 3d d3 85 9b bc 16 6f 35 bd
       0.024619317 0.111782394 -0.01898471 -0.044295393
0000f0 9d a3 63 bd 5e f5 cf bd a3 7a 26 bd 60 7f 38 3d
       -0.055575956 -0.10154222 -0.0406443 0.04504335
000100 a7 c4 83 bd 31 8c 19 bd 99 9a 80 bd 70 cb b5 bb
       -0.06433993 -0.037487213 -0.06279487 -0.0055479333
000110 9b b1 5a bb e0 83 80 be b3 53 ae bb fc 65 d3 bd
       -0.0033370021 -0.25100613 -0.0053200363 -0.10322186
000120 f6 59 59 be f5 78 98 bc 12 a1 c1 bd 21 9a 19 3d
       -0.21225724 -0.018612364 -0.0945455 0.037500504
000130 4b e1 09 be 04 63 00 3e 49 02 0d 3d ee 9a d9 bc
       -0.13464849 0.12537771 0.034426007 -0.026563134
000140 35 d5 a7 3c 8d 87 8f bc 32 4f b0 3c d1 42 68 3c
       0.020487407 -0.01752069 0.021522138 0.0141760865
000150 d0 22 2d bd f9 e0 b6 bd 24 ae 14 3b e8 42 de 3d
       -0.042269528 -0.08929629 0.0022686804 0.10852605
000160 f1 94 d7 3d 8f 82 47 3d 01 b2 ec 3c 17 22 e9 bb
       0.10526455 0.048708495 0.028893473 -0.0071146595
000170 dc 87 54 bd 42 e0 af 3d 6d 69 ee 3d 58 41 94 bd
       -0.051887378 0.08587696 0.11641202 -0.07239026
000180 d7 69 41 bd b0 3a 17 3e 54 66 d4 3c ee b5 b8 bc
       -0.047220077 0.14768481 0.0259277 -0.022547688
000190 f1 24 36 be 65 89 f0 3c 6f ef 7a bd f4 f1 2b 3d
       -0.1778753 0.02936239 -0.061263498 0.04197879
0001a0 b7 0f 18 bd b4 52 69 3c 99 6c 6c bd 1a dc 98 bc
       -0.03712436 0.014240909 -0.057720754 -0.01865964
0001b0 a6 df d4 bb aa e7 70 3e ea 16 49 bd 2a f1 f4 3c
       -0.0064963875 0.23525873 -0.04909412 0.029900152
0001c0 92 1d 9f be f0 19 49 bc 25 3a 10 3d 77 c0 fb 3d
       -0.31077248 -0.01227425 0.0352117 0.12292569
0001d0 d6 c2 bf bc e1 a9 10 3d d5 c8 7f bc be bb 17 bc
       -0.023408335 0.03531826 -0.015611847 -0.00926107
0001e0 c1 1b 31 3d 06 d3 9f bc f5 c4 8f bd fc ea 8c bd
       0.04323936 -0.019509804 -0.070199884 -0.06880757
0001f0 74 67 8f 3c a8 13 17 bc d1 0c 83 3e 1b 2d be be
       0.017505385 -0.009220995 0.25595716 -0.37143788

final_linear.weight f4 [1, 128]
000000 df 1d 94 3b 15 30 94 3d 5f 58 c5 3d d0 d7 4f 3e
       0.0045201625 0.072357334 0.09635996 0.2029717
000010 49 77 45 be 7c 51 38 3e 25 7f 26 bd a3 3a 23 be
       -0.19283785 0.17999834 -0.0406486 -0.15940337
000020 93 06 38 be d5 f6 6d 3d 1a b1 6f be 4b 2e 56 be
       -0.17971258 0.058096725 -0.23407403 -0.20916097
000030 69 ef e3 3c 95 8a 1a 3e 80 69 dd 3b a1 24 95 3d
       0.02782412 0.15091927 0.0067569613 0.07282377
000040 96 2c a5 3d 60 6a a4 be fb 40 1b 3e e1 19 cf be
       0.08065145 -0.32112408 0.15161507 -0.40449432
000050 4c 46 1b 3c 42 ea 64 bd bf 1f 61 3d 17 bd 06 3e
       0.009477209 -0.05588747 0.054961916 0.1315807
000060 40 33 99 3e 00 b7 99 be fb 62 af 3d ba 28 e0 be
       0.29921913 -0.3002243 0.08563801 -0.43781072
000070 7e ff f5 3d 32 e9 9d 3d 70 05 a0 3d a5 30 e9 be
       0.12011622 0.07710494 0.07813537 -0.45544925
000080 dc 21 3f 3e ea 6b 1a be 5a b1 97 3e ac 45 99 3d
       0.1866526 -0.15080228 0.29627496 0.07483992
000090 e4 59 24 bd 09 7e 4f be 3f a7 ac 3d d9 79 58 3e
       -0.04012479 -0.20262922 0.08430337 0.21140231
0000a0 7d 55 a4 bd 71 04 ab bd fd 6a 56 be f0 e5 69 be
       -0.08024118 -0.083504565 -0.2093925 -0.2284162
0000b0 d7 6c 91 be 09 86 b3 3c 9f ca 0c 3d 58 f4 03 3e
       -0.2840335 0.021914499 0.034372922 0.12886178
0000c0 f3 c7 32 3d 49 b0 05 3e 27 6f 08 3e 43 a9 4b bc
       0.043647718 0.13055529 0.13323651 -0.012430492
0000d0 cc 01 fb 3d 3f 60 1d 3e 52 7d 36 be 1a bf 39 bb
       0.12256202 0.15368746 -0.17821243 -0.0028342665
0000e0 03 9e 18 3e cf 3e 5a 3d ad 12 9a 3c e6 7c 0e 3e
       0.14904027 0.053282555 0.018807733 0.13914832
0000f0 52 76 19 be e1 ec 18 be e6 cb 41 3e 34 02 88 be
       -0.14986542 -0.14934112 0.18925437 -0.2656418
000100 58 55 82 3d 2e d4 dc 3d a1 cc 60 3e 11 0a a1 3e
       0.06363934 0.107826576 0.2195306 0.31452993
000110 3b 72 43 3e 54 c9 2c bd 77 79 ab bc f5 8c 2e be
       0.19086544 -0.04218419 -0.020931942 -0.17045958
000120 65 3a 0e be d2 6c b6 3d f3 cb 9a be e1 89 91 3e
       -0.13889463 0.089074746 -0.30233726 0.28425506
000130 66 74 02 3e be 01 51 be 57 85 bc 3d b5 09 25 3d
       0.12739715 -0.20410821 0.0920512 0.04029246
000140 65 5e 72 bb 9d 4e c4 3d 1c 44 64 be 83 f4 6d bd
       -0.0036982533 0.09585307 -0.22291607 -0.058094513
000150 ba c2 13 be f5 b2 92 bd 94 a1 23 3d 26 5a 88 bd
       -0.14429751 -0.071630396 0.039949015 -0.066578194
000160 28 c0 0c be 5a c5 c3 bc 31 cf e1 bd cd 89 60 bd
       -0.13745177 -0.023897815 -0.11025847 -0.054818917
000170 93 74 1f 3e 1d 01 6e 3e 72 4c 30 bd fc 8d 16 be
       0.15571813 0.23242612 -0.043041654 -0.147026
000180 25 b3 b4 be 61 25 94 3e 82 1c 83 bd 04 a8 05 be
       -0.35292926 0.28934768 -0.06401922 -0.13052374
000190 91 6d 49 be 51 38 0e 3e c5 a1 ef bd ce 07 d3 bc
       -0.19670703 0.1388867 -0.11700777 -0.025760558
0001a0 7e 93 3c 3d 8b 7e fa bd b2 2c 89 be 5d 77 ec ba
       0.046039097 -0.122311674 -0.26791912 -0.0018040944
0001b0 3a 13 1e 3d 6c 2a 29 be 6e bd 34 3e 23 55 16 3e
       0.038592555 -0.16520089 0.17650387 0.14680915
0001c0 70 1e 97 be 63 3f bc b9 9a 70 0d 3c 06 11 4f bc
       -0.2951541 -0.0003590538 0.008632803 -0.012638336
0001d0 d5 2d b3 3d 6e 9f 22 bc 41 8a 12 3e a0 63 7e 3d
       0.08748976 -0.009925706 0.14310552 0.06210673
0001e0 af 80 db 3d b5 84 95 3e ff aa ae bd 92 64 80 be
       0.10717904 0.2920281 -0.08528709 -0.2507673
0001f0 7f 63 90 be 19 d1 ee b9 74 03 b2 be b8 27 2e be
       -0.2820091 -0.00045550687 -0.3476826 -0.17007339
