option_hedging/hyperparameters/ppo_hyperparameters/year/0.0/best_ppo_model.pth (torch, 14804 bytes, 7 tensors)

linear1.weight f4 [256, 3]
0	0xbdb7c405	-0.08972935
1	0xbdd5c3ca	-0.104377344
2	0xbeacb0ae	-0.33728546
3	0x3dba0168	0.090822995
4	0xbdc27a8a	-0.09496029
5	0x3bb46863	0.005505608
6	0xbdb5dc33	-0.0887989
7	0xbcea1754	-0.028575577
8	0xbe0cb890	-0.1374228
9	0xbd91d6a5	-0.07121018
10	0xbe3bd972	-0.18344668
11	0x3e4a1956	0.19736227
12	0x3d9b0ead	0.075711586
13	0x3ccbd07d	0.024879688
14	0x3df160ad	0.117860176
15	0x3e1343ad	0.14381285
16	0x3d0f7f5f	0.03503358
17	0x3dee8ee5	0.11648349
18	0x3e3f3b6b	0.1867501
19	0x3d8c7346	0.06857924
20	0xbc54f082	-0.012996795
21	0xbe08c30c	-0.13355654
22	0xbd7c3ba0	-0.0615803
23	0xbde890f7	-0.11355775
24	0x3d57bd6a	0.052670874
25	0x3d1743af	0.036929782
26	0x3e0a3dcf	0.1350014
27	0x3df56e0e	0.11983882
28	0x3dea91c7	0.11453586
29	0xbd0cf5c4	-0.034414068
30	0x3e0f100b	0.13970964
31	0xbe1b097a	-0.15140334
32	0xbdc15668	-0.09440309
33	0x3d98f9c5	0.07469515
34	0xbe2f339e	-0.17109534
35	0x3ab2a06e	0.0013628134
36	0xbd03f593	-0.03221662
37	0x3d4d95ab	0.050191563
38	0x3d67b206	0.05656626
39	0x3e300fe8	0.17193568
40	0x3d1412b9	0.036150668
41	0x3d345b0a	0.044032134
42	0x3e2bc507	0.16774379
43	0xbca25c8b	-0.019819519
44	0x3aa5784a	0.001262435
45	0x3e032284	0.12806135
46	0xbe814adf	-0.25252435
47	0xbd6063d8	-0.05478272
48	0xba56c38c	-0.0008192591
49	0x3d6390f0	0.055558145
50	0x3d0787d1	0.03308851
51	0xbd09de9f	-0.033659574
52	0x3da38d92	0.07985987
53	0xbe300635	-0.17189868
54	0x3dbe1032	0.09280433
55	0xbd2c1042	-0.042007692
56	0x39462417	0.00018896196
57	0x3c3d2244	0.011543814
58	0xbbdfcd00	-0.006829858
59	0x3dacf8ec	0.084459156
60	0x3d348af6	0.044077836
61	0x3d6de4d6	0.058079563
62	0x3d1c2b7f	0.03812742
63	0x3c4081c9	0.011749693
64	0xbdeef35c	-0.11667511
65	0x3b9bff9f	0.004760697
66	0x3dd58124	0.10425022
67	0xbda33d14	-0.07970634
68	0xbc8ecc28	-0.017431334
69	0x3d14f4a2	0.036366113
70	0x3cd7c7cd	0.02634039
71	0xbe3229a1	-0.17398693
72	0x3baaffe5	0.0052184933
73	0xbdd5da48	-0.104420245
74	0x3da8146e	0.08207022
75	0xbe0b5ce9	-0.13609661
76	0x3d06b895	0.032890875
77	0xbc108549	-0.00882084
78	0xbb37b3d7	-0.0028030777
79	0xbd7981af	-0.06091469
80	0xbdcad07b	-0.09903046
81	0x3d6c2707	0.057654407
82	0xbea1a0c1	-0.31567958
83	0x3d09147c	0.0334668
84	0x3cd6c372	0.026216242
85	0x3e518935	0.20462497
86	0x3a8fcb98	0.001097071
87	0x3ba38c4f	0.0049910913
88	0xbd2a0f0a	-0.04151825
89	0xbe11c475	-0.14235099
90	0x3df251cb	0.11832007
91	0x3e5948f4	0.21219236
92	0x3bf472aa	0.007459958
93	0x3daffec1	0.08593512
94	0xbb9c0367	-0.004761148
95	0xbd0a4e43	-0.033766042
96	0x3dd616c4	0.10453561
97	0xbe6e5a08	-0.23276532
98	0x39d88efb	0.0004130526
99	0xbcb264e3	-0.021776622
100	0xbbf83372	-0.007574492
101	0xbc852f17	-0.016257806
102	0xbd113bcd	-0.03545742
103	0x3e342e67	0.17595826
104	0xbe2c80a8	-0.16845953
105	0x3d11397e	0.03545522
106	0x3ca646dc	0.02029746
107	0xbe58ab04	-0.21158987
108	0x3dfc979b	0.12333604
109	0xbd2f6d63	-0.04282893
110	0xbe7523b5	-0.23939402
111	0x3d04bcaa	0.032406487
112	0x3e64f0f8	0.22357547
113	0x3d2cd649	0.042196546
114	0x3ddc8faa	0.10769589
115	0x3cb33653	0.02187649
116	0xbbc80bc2	-0.0061049173
117	0xbdca8f4c	-0.09890613
118	0x3e1c108d	0.15240689
119	0x3b6fc745	0.003658728
120	0x3dc8ee2f	0.09811055
121	0xbdca6b5d	-0.09883759
122	0x3e17594a	0.14780155
123	0xbc072336	-0.008248141
124	0xbe1fd797	-0.15609585
125	0xbe18d069	-0.14923252
126	0x3db2e187	0.08734422
127	0xbe01446d	-0.12623759
128	0xbc5588d7	-0.013033113
129	0xbdcba7fe	-0.09944151
130	0xbd834e94	-0.06411472
131	0x3e3d4ad4	0.18485576
132	0xbdd26b7a	-0.10274406
133	0x3d9b7287	0.07590204
134	0xbe894492	-0.26810127
135	0xbd7246c7	-0.05914953
136	0xbd3d7e0a	-0.04626278
137	0xbc1a5659	-0.009420001
138	0xbcf675f6	-0.030085545
139	0xbd0a12ec	-0.03370945
140	0x3d50fd7c	0.05102299
141	0x3d798521	0.060917977
142	0x3e099f5e	0.134397
143	0xbd084505	-0.033268947
144	0xbbc0474e	-0.005867875
145	0x3a8ea673	0.0010883346
146	0x3cef9379	0.029245125
147	0x3e057e5d	0.13036485
148	0xbe2d5b08	-0.16929257
149	0xbdb54920	-0.08851838
150	0x3c9d492f	0.019199936
151	0x3d90e75b	0.070753776
152	0x3c800f15	0.015632192
153	0xbdbf0ba2	-0.09328391
154	0xbd5f8c72	-0.0545773
155	0xbdd4a262	-0.103825346
156	0x3d6f86c8	0.058478147
157	0x3d78f6e6	0.060782336
158	0x3db202f6	0.08691971
159	0xbdb263bb	-0.08710428
160	0x3d6abe1c	0.05731021
161	0xbd8aa756	-0.06770198
162	0xbd086972	-0.033303685
163	0x3e1059c7	0.14096747
164	0x3d242969	0.040078554
165	0xbd75b824	-0.059990063
166	0xbe234938	-0.159459
167	0x3dcac0bd	0.09900043
168	0xbd7977a2	-0.060905106
169	0x3d0242d4	0.031802014
170	0xbb9acebd	-0.004724352
171	0x3d2196db	0.039450508
172	0xbe6d453c	-0.23170942
173	0x3d905142	0.07046749
174	0xbd253f0a	-0.04034332
175	0x3e45454f	0.1926472
176	0x3ca5229e	0.020158108
177	0x3c34f2af	0.011044188
178	0x3d179eb1	0.037016574
179	0x3ccc74af	0.024957983
180	0xbe2a571e	-0.16634795
181	0x3e444639	0.19167413
182	0xbd5021d1	-0.0508135
183	0x3d794dcf	0.06086522
184	0xbc7aaea6	-0.0153004285
185	0x3d878c78	0.06618589
186	0xbd3fbacc	-0.046809003
187	0x3d5a5cf2	0.053311296
188	0x3c976c3a	0.018484224
189	0x3d02e6f0	0.03195852
190	0xbdbf5389	-0.09342105
191	0xbbdd9479	-0.006762084
192	0x3c9f4bc2	0.019445304
193	0x3c847bee	0.016172376
194	0xbc86aad9	-0.016438888
195	0xbd349a7b	-0.044092637
196	0x3b2ada09	0.00260699
197	0x3d201abe	0.039088003
198	0xbd9aa786	-0.07551484
199	0xbe028dc1	-0.12749387
200	0xbe1907b3	-0.14944343
201	0xbdef379e	-0.1168053
202	0xbde54f37	-0.1119675
203	0xbd2a36ce	-0.041556172
204	0xbd981677	-0.0742616
205	0xbe7f30e6	-0.24920997
206	0xbe0fc006	-0.14038095
207	0xbd829535	-0.06376115
208	0xbc34263b	-0.010995443
209	0x3de65dc8	0.11248356
210	0xbbd42da9	-0.0064751697
211	0x3d15c08b	0.036560576
212	0xbdb15f12	-0.08660711
213	0x3d7d7355	0.061877567
214	0x3d931551	0.071818
215	0xbe500fd1	-0.20318533
216	0xbe2010c4	-0.15631396
217	0x3da8cd94	0.08242336
218	0xbc40220d	-0.011726868
219	0xbd84410f	-0.064577214
220	0x3e4055b3	0.18782692
221	0xbc65b7e9	-0.014020898
222	0x3de22fa1	0.11044241
223	0x3bfcaee1	0.007711277
224	0x3da27643	0.07932713
225	0x3d635fc0	0.055511236
226	0xbe701457	-0.23445259
227	0x3d733645	0.059377927
228	0x3dee5fef	0.11639392
229	0x3dfbc7de	0.12293981
230	0x3c60fad7	0.01373168
231	0x3e361513	0.17781477
232	0xbdcfcf2b	-0.10146936
233	0xbe481bc8	-0.19541848
234	0x3d9c8429	0.07642395
235	0x3d6dea17	0.058084574
236	0x3d8436b5	0.06455747
237	0x3cedb8a3	0.029018706
238	0xbdb17096	-0.08664052
239	0x3ca9f4d7	0.020746632
240	0xbe4e03b8	-0.20118606
241	0x3d1c5c6e	0.038174085
242	0x3d60a5cf	0.054845627
243	0x3cf68359	0.030091928
244	0x3d90eebb	0.07076784
245	0xbe38cb7e	-0.18046376
246	0x3d491087	0.049088027
247	0xbe042e56	-0.12908301
248	0x3dd8e2f7	0.10590165
249	0xbda4d22d	-0.080479
250	0x3e0e26df	0.13882016
251	0xbe3ad8cd	-0.18246765
252	0xbd60711c	-0.05479537
253	0x3e2ec02d	0.17065497
254	0x3e8f6fe7	0.28015062
255	0xbca98f07	-0.020698084

linear1.bias f4 [256]
0	0x3c85434f	0.016267447
1	0x3dfbb603	0.12290575
2	0x3d915815	0.070968784
3	0xbcd2d64b	-0.025736948
4	0x3d47342b	0.048633736
5	0x3d496591	0.049169127
6	0x3e18dfc3	0.14929108
7	0xbbf976b2	-0.0076130265
8	0xbcccaeed	-0.024985755
9	0x3ddf3313	0.108984135
10	0xbc2de2ff	-0.010613202
11	0x3e35c190	0.1774962
12	0x3d766a22	0.06015981
13	0x3d7e1aa5	0.06203713
14	0x3d1cd619	0.038290117
15	0x3ce52ad5	0.027974525
16	0xbdd3d35b	-0.10343047
17	0x3d0f209b	0.034943204
18	0x3e109345	0.14118679
19	0x3d51bf63	0.05120791
20	0x3d046ecd	0.03233223
21	0x3e47ae96	0.19500193
22	0x3e5be747	0.21474944
23	0x3cf04b72	0.02933285
24	0x3e53a9e5	0.20670278
25	0xba1549a3	-0.00056948717
26	0xbcb74701	-0.022372724
27	0xbc5ea1a0	-0.013588339
28	0x3d3e36ea	0.04643909
29	0x3c007373	0.007840025
30	0x3d1d2bd2	0.03837187
31	0x3e9de390	0.3083768
32	0x3e3bd1d3	0.1834176
33	0x3ad34a2f	0.0016120131
34	0xbd25a017	-0.040435877
35	0x3b9b3d35	0.004737521
36	0xbc4cbc28	-0.012496032
37	0x3d6a3771	0.05718178
38	0xbb12aa86	-0.0022379472
39	0x3d149a65	0.036280055
40	0xbd68f070	-0.056869924
41	0x3b50684d	0.003180045
42	0x3e8b63f1	0.27224687
43	0xbd5a85b5	-0.05335017
44	0x3d914ed2	0.07095112
45	0x3e881abf	0.26582906
46	0xbc87a7ac	-0.016559444
47	0x3e137bba	0.14402667
48	0x3d337096	0.043808542
49	0xbcd5b814	-0.026088752
50	0x3d47251f	0.048619386
51	0x3d6698b4	0.056297973
52	0xbb44770a	-0.002997818
53	0x3d5a6960	0.05332315
54	0x3d853896	0.065049335
55	0xbb88d3da	-0.0041756453
56	0xbce4a573	-0.027910924
57	0x3dd11423	0.10208919
58	0x3d7b2cf7	0.06132218
59	0x3db40bb7	0.08791297
60	0xbd3f347e	-0.04668092
61	0x3d788a78	0.06067893
62	0x3d2db264	0.042406455
63	0x3e605ac0	0.21909618
64	0x3df32d4d	0.11873875
65	0x3ba9d9f5	0.005183453
66	0x3d45bf99	0.048278425
67	0x3b24a7af	0.0025124361
68	0x38e2ec64	0.00010820551
69	0xbcf4a294	-0.02986268
70	0xbad204a2	-0.0016023109
71	0xbd6df52a	-0.058095135
72	0xbbe3b5b4	-0.006949151
73	0x3d9a77f1	0.07542408
74	0xbd35b5ce	-0.044362836
75	0x3d6764c3	0.05649258
76	0xbbe4eb08	-0.0069860257
77	0x3b407922	0.0029369076
78	0x3d121eba	0.035673834
79	0x3dcadd8a	0.099055365
80	0xbcbadee3	-0.022811359
81	0x3de13055	0.10995547
82	0x3d78624d	0.060640622
83	0x3d9cc9fd	0.07655714
84	0x3c4cba9d	0.012495664
85	0x3d63eb27	0.05564418
86	0x3c3a5a9d	0.011374143
87	0x3d6aaf4e	0.05729609
88	0x3d8156b2	0.06315364
89	0x3d2e5361	0.042559985
90	0xbcaabf3c	-0.02084314
91	0x3cb2e59f	0.021838007
92	0x3d716d7d	0.058942307
93	0x3e8d1544	0.27555287
94	0x3da17151	0.078829415
95	0x3d69de88	0.057096988
96	0xbbff3a0b	-0.0077889017
97	0x3defae01	0.117031105
98	0xbc28fc8d	-0.010314119
99	0xbc837fe6	-0.016052198
100	0x3e398ce4	0.18120152
101	0x3e0d43d9	0.13795413
102	0xbc88a644	-0.016680844
103	0xbd1b1fbb	-0.037872057
104	0xbd2f6b64	-0.042827025
105	0x3d723a86	0.059137844
106	0x3c5a2c4f	0.013316228
107	0x3e1ffe34	0.15624315
108	0xbdf22974	-0.11824313
109	0x3c39958d	0.01132716
110	0x3d4ed95d	0.050500263
111	0xbe02b419	-0.12764014
112	0xbbc0d969	-0.0058852923
113	0x3dfa3196	0.12216489
114	0x3d195926	0.037438534
115	0x3cfe9443	0.031076556
116	0xbc20ad48	-0.0098069385
117	0x3cba7bcf	0.022764115
118	0xbc6fb4b9	-0.01463049
119	0x3d64b81d	0.055839647
120	0x3d9e4567	0.07728081
121	0x3bf0c3a3	0.0073475405
122	0x3e1bbfc8	0.15209877
123	0x3d34bf6b	0.044127863
124	0x3d401cfb	0.046902638
125	0x3cafd70e	0.02146485
126	0x3da2c0ee	0.07946955
127	0x3db7b585	0.08970169
128	0x3e241580	0.16023827
129	0x3d3e4486	0.046452068
130	0xbc537d06	-0.012908226
131	0x3d3865be	0.045018904
132	0x3cbbf8ae	0.022945728
133	0x3d55ae57	0.052168217
134	0x3d9f71cf	0.07785379
135	0x3d99af4b	0.075041376
136	0x3d20ae7f	0.039228912
137	0x3b339499	0.0027401804
138	0x3d559567	0.052144434
139	0x3d1eae80	0.038740635
140	0x3c5d8ae2	0.013521882
141	0x3d84dcb1	0.06487406
142	0x3cc68b3e	0.024236318
143	0x3d55375e	0.052054755
144	0x3d6df862	0.058098204
145	0xbce212f3	-0.027596926
146	0xbd374ab4	-0.044748977
147	0x3e4c7665	0.19967039
148	0xbdfa6079	-0.12225432
149	0x3d9dd917	0.07707422
150	0x3da23910	0.0792104
151	0xbd401c23	-0.046901833
152	0xbac719f0	-0.0015190225
153	0xbc16c1ba	-0.009201461
154	0xbbb3c185	-0.005485716
155	0x3d818148	0.063234866
156	0x3ac43dcd	0.0014972031
157	0x3eb09637	0.34489605
158	0xbd170479	-0.0368695
159	0x3d0a6ec7	0.03379705
160	0xbc7bc185	-0.015365963
161	0x3caa39a0	0.02077943
162	0xbc0a77b1	-0.008451388
163	0x3cd79195	0.026314536
164	0x3d64b9ec	0.05584137
165	0x3e852b85	0.26009765
166	0x3d14c575	0.036321122
167	0x3d902cca	0.07039793
168	0x3d5be15d	0.05368172
169	0x3d11a716	0.035559736
170	0x3c3d7284	0.011562947
171	0x3d56935e	0.052386634
172	0x3d6a0836	0.057136737
173	0x3d5e65b0	0.054296196
174	0x3d471b78	0.04861018
175	0xbc8dcaa1	-0.017308535
176	0x3ce970e0	0.028496206
177	0x3db28a45	0.08717779
178	0x3c8da039	0.017288314
179	0x3e00c8bc	0.12576574
180	0xb959ec91	-0.0002078286
181	0xbc248c05	-0.010043149
182	0x3d39ebe8	0.045390993
183	0x3c28cb0a	0.010302315
184	0xbc8887c2	-0.016666297
185	0x3e5b324d	0.21405907
186	0xbdeb2624	-0.11481884
187	0x3c809f06	0.015700828
188	0x3d9d1871	0.076706775
189	0xbc02820f	-0.007965579
190	0x3cccceba	0.025000919
191	0x3e16bcbe	0.14720437
192	0x3cbb2aa3	0.02284748
193	0xbc922068	-0.017837718
194	0x3e1407c1	0.14456083
195	0xbc9089f9	-0.017643915
196	0x3d63f03b	0.055649024
197	0x3db985c7	0.09058719
198	0x3d0de57e	0.03464269
199	0x3ce9dac0	0.028546691
200	0x3cbb17f8	0.022838578
201	0x3d67485d	0.056465495
202	0x3dfa231f	0.1221373
203	0x3d535289	0.051592384
204	0x3d76ab25	0.06022181
205	0xbb5f59df	-0.0034080667
206	0x3b9f3f30	0.0048598275
207	0x3b102f2b	0.002200077
208	0x3dcc8eef	0.099882
209	0xbc67dc41	-0.014151634
210	0x3d6ea8f6	0.058266602
211	0x3db44f21	0.08804155
212	0xbd35ec89	-0.04441503
213	0xbbecd62f	-0.007227681
214	0x3d9198fb	0.07109257
215	0x3d2c10c1	0.042008165
216	0x3d18ba74	0.03728719
217	0x3da40270	0.080082774
218	0x3d88f6bf	0.06687688
219	0x3dd403ce	0.10352288
220	0x3e5cc6c8	0.21560204
221	0xbdd9bc88	-0.106316626
222	0x3cac6a60	0.021046817
223	0x3d93ff4f	0.072264306
224	0x3d330d68	0.043713957
225	0xbce6e7ed	-0.028186763
226	0x3d719f81	0.058990005
227	0x3e678fe4	0.22613484
228	0x3e556b9e	0.20841834
229	0x3d8db9f3	0.069202326
230	0x39ff1e26	0.00048659852
231	0xbcb7725c	-0.022393398
232	0xbca20686	-0.019778501
233	0xbb9b78f5	-0.004744644
234	0xbba6406d	-0.005073598
235	0xbd0d621d	-0.034517396
236	0xbb581142	-0.003296927
237	0x3c1a6c2f	0.009425207
238	0x3d2e0ad9	0.042490814
239	0x3d283f4e	0.041075997
240	0x3e272b73	0.16325168
241	0x3cd85c7f	0.026411293
242	0x3d7a2175	0.061067063
243	0x3c338dd7	0.01095911
244	0x3d4e1680	0.050314426
245	0x3d1d7d51	0.03844959
246	0x3d9d42d0	0.07678759
247	0x3d6ea8fb	0.05826662
248	0x3cd70171	0.026245805
249	0xbd268552	-0.040654488
250	0x3d8e02e9	0.06934149
251	0xbcac990b	-0.02106907
252	0xbcd059c2	-0.025433425
253	0x3d065344	0.032794252
254	0xba2bbbe4	-0.000655113
255	0x3cc70d17	0.024298234

final_linear.weight f4 [2, 256]
0	0x3dab2db0	0.083583236
1	0xbdc0ce4f	-0.0941435
2	0x3e2cd1b8	0.16876876
3	0xbd92fde2	-0.071773306
4	0x3e081363	0.13288645
5	0x3db9de69	0.090756245
6	0x3c6b687d	0.014368174
7	0xbd5066de	-0.05087935
8	0x3d902e83	0.070401214
9	0x3dcf2b75	0.10115711
10	0xbe0ab4eb	-0.13545577
11	0xbda754ec	-0.081704944
12	0x3d7942d5	0.06085475
13	0x3d6881dc	0.05676447
14	0xbd7c32a7	-0.061571743
15	0xbd892da0	-0.066981554
16	0xbe0284c1	-0.12745954
17	0x3e5daf78	0.21648967
18	0xbde7e134	-0.11322251
19	0x3e1f65e6	0.15566215
20	0x3d5d09c5	0.053964395
21	0xbd874550	-0.06605017
22	0x3c3bccc4	0.011462394
23	0x3c561252	0.013065891
24	0xbc1a459e	-0.009416012
25	0xbd90e282	-0.07074453
26	0x3e076f70	0.13226104
27	0xbdbd37e6	-0.092391774
28	0x3ddc4649	0.10755593
29	0x3dc963e2	0.09833504
30	0x3e4eec7a	0.20207396
31	0x3c895dd9	0.016768383
32	0xbd9a117e	-0.075228676
33	0xbd6e3063	-0.058151614
34	0x3e93eccc	0.288916
35	0x3cff3665	0.031153867
36	0xbca92b0b	-0.020650407
37	0x3c4bd479	0.012440794
38	0x3e28d18d	0.16486187
39	0x3e58f5a9	0.21187462
40	0xbd3896ba	-0.04506562
41	0x3d46d2af	0.048540767
42	0xbcc7c726	-0.024386954
43	0xbd15e68e	-0.036596827
44	0x3e8d388f	0.27582213
45	0x3c8a157a	0.016855944
46	0xbd075f02	-0.03304959
47	0x3dabdd84	0.0839186
48	0xbde2823b	-0.11059996
49	0xbe115827	-0.14193784
50	0x3e56626a	0.2093598
51	0x3e0c5ff7	0.13708483
52	0xbe1b7685	-0.1518193
53	0x3eaf1991	0.34199193
54	0x3de897b8	0.11357063
55	0xbe35b1d1	-0.17743613
56	0xbd15baf8	-0.03655526
57	0xbc0f50a0	-0.00874725
58	0x3e05c15e	0.13062045
59	0x3c1f2b23	0.009714874
60	0xbb8f9a0b	-0.004382377
61	0x3d9f4ac4	0.07777932
62	0x3d803159	0.06259412
63	0x3c37106d	0.01117335
64	0x3e4f39c0	0.20236874
65	0xbdf2bcdc	-0.11852428
66	0x3d824dc8	0.06362492
67	0x3c3a1730	0.011358067
68	0x3da85722	0.08219744
69	0xbd625a63	-0.05526198
70	0xbda656cb	-0.08122023
71	0x3d8daf4c	0.06918201
72	0xb98dad2b	-0.00027022636
73	0x3e67384a	0.22580066
74	0xbdd2ccb9	-0.10292954
75	0xbd3cd7af	-0.04610413
76	0x3e1383a0	0.1440568
77	0xbe2dbc90	-0.16966462
78	0x3d0e3345	0.034716863
79	0x3a1b1144	0.00059153535
80	0xbdb5d390	-0.08878243
81	0x3cf3eed5	0.02977697
82	0x3cae6bd7	0.021291656
83	0x3e0e2423	0.13880973
84	0x3dce075a	0.10059996
85	0x3d65e4a9	0.05612627
86	0x3cc0d689	0.023539798
87	0x3d8dd5ca	0.06925543
88	0x3d432248	0.047640115
89	0x3de95637	0.11393397
90	0xbcb86ec3	-0.022513753
91	0xbd5fa3e7	-0.05459967
92	0x3d771d1d	0.0603305
93	0xbc8ac493	-0.016939437
94	0x3eaab0f0	0.33338118
95	0xbd5a7960	-0.05333841
96	0xbde4f1f4	-0.111789614
97	0x3e0e052f	0.13869165
98	0xbd0a8866	-0.033821486
99	0x3cc6fa93	0.024289405
100	0x3d6a7ad0	0.05724603
101	0xbc806fc2	-0.01567829
102	0x3dcb01fa	0.099124864
103	0xbdc78a17	-0.097431354
104	0xbd363d5a	-0.044492103
105	0x3cd6006a	0.026123244
106	0x3da9e75e	0.08296083
107	0xbc0b012a	-0.008484164
108	0xbe3e7778	-0.18600261
109	0xbd8d5750	-0.06901419
110	0xbe28240d	-0.16420002
111	0xbdb79f30	-0.089659095
112	0xbda8ec4b	-0.08248194
113	0xbd803b45	-0.06261305
114	0x3e10b960	0.14133215
115	0xbe3f547e	-0.18684575
116	0x3deffebd	0.11718509
117	0xbe059d1a	-0.1304821
118	0x3b4091b9	0.0029383732
119	0x3e0c4212	0.13697079
120	0x3df18387	0.11792665
121	0xbd27b99d	-0.0409485
122	0x3d130661	0.035894755
123	0x3e359bfd	0.17735286
124	0x3dc6ce94	0.097073704
125	0x3dac3561	0.08408619
126	0x3e5be092	0.21472386
127	0xbd1a8ec2	-0.0377338
128	0x3d96dcf4	0.07366362
129	0x3e54f3c5	0.20796116
130	0xbdaf706b	-0.08566364
131	0x3e15af08	0.1461755
132	0xbe00c086	-0.12573442
133	0x3dbdf3b2	0.09274997
134	0x3cb7fa76	0.022458296
135	0xbd71a32f	-0.058993515
136	0x3e4a8449	0.19777025
137	0x3e0bdf02	0.1365929
138	0xbd85ec74	-0.065392405
139	0x3e1db595	0.154013
140	0xbddc3e72	-0.10754098
141	0x3e1ca1ed	0.15296145
142	0x3e892c56	0.26791638
143	0x3e73bb64	0.23801953
144	0x3dd035b4	0.10166493
145	0xbe1a9c59	-0.15098704
146	0xbda1411d	-0.078737475
147	0xbd0d99b5	-0.034570415
148	0xbe0f2eb2	-0.13982657
149	0x3e6fc8f6	0.23416504
150	0x3cc5de14	0.024153747
151	0xbdf58d0f	-0.119897954
152	0xbb5d07d2	-0.0033726585
153	0xbc813c91	-0.01577595
154	0xbe133034	-0.14373857
155	0x3d2a7904	0.041619316
156	0x3d5042e5	0.050845046
157	0x3c1c33ae	0.009533806
158	0x3cfc238f	0.030778674
159	0xbd316693	-0.043310713
160	0xbd0a9d64	-0.033841506
161	0x3d56a3b2	0.052402206
162	0xbe04fda8	-0.12987387
163	0x3e7631e7	0.24042474
164	0xbd0af4e1	-0.03392494
165	0x3bc2f5ff	0.005949735
166	0x3e2a96bd	0.16659065
167	0x3d2d6340	0.04233098
168	0x3da248df	0.07924055
169	0x3ccccc06	0.02499963
170	0xbe0bea7d	-0.13663669
171	0x3e0765af	0.13222383
172	0x3b938b14	0.0045026634
173	0x3dea191b	0.1143057
174	0x3d8e903e	0.06961106
175	0xbddcf329	-0.107885666
176	0x3e8ed289	0.27895
177	0xbd9ae87a	-0.07563873
178	0x3d9320fb	0.07184025
179	0x3df540b8	0.11975235
180	0x3d997cb1	0.07494486
181	0x3d459713	0.04823978
182	0x3e0b224a	0.13587299
183	0xbde3479d	-0.110976435
184	0xbccafba5	-0.024778197
185	0x3c2d0c6a	0.010562042
186	0xbe222ff2	-0.15838602
187	0x3cf3fb42	0.029782895
188	0x3cbf7f4a	0.023376126
189	0x3d3428d3	0.043984246
190	0xbddd1748	-0.10795456
191	0x3decf5f2	0.11570348
192	0x3e1d92d3	0.1538804
193	0xbdb067f8	-0.086135805
194	0x3dc62b9e	0.09676288
195	0xbdb5f923	-0.0888541
196	0xbd08b2cf	-0.03337365
197	0x3da92028	0.082580864
198	0x3dda264a	0.10651834
199	0x3dfc64fe	0.1232395
200	0x3d8fc22e	0.07019459
201	0x3e8736a2	0.2640887
202	0xbda90df9	-0.08254618
203	0x3e082a59	0.13297404
204	0x3d5dba6e	0.05413287
205	0x3d812ee1	0.063077696
206	0xbe15af06	-0.14617547
207	0xbd842b6f	-0.06453597
208	0x3d159237	0.036516394
209	0x3e10d171	0.14142396
210	0xbd238c35	-0.039928634
211	0x3e21c22e	0.1579673
212	0xbd982717	-0.07429331
213	0xbe066886	-0.1312581
214	0xbe65ea0d	-0.22452565
215	0xbc898e60	-0.016791523
216	0x3e05a8a9	0.1305262
217	0x3e0dbf64	0.13842541
218	0x3d22379a	0.039603807
219	0xbbeeeb63	-0.007291244
220	0xbce7e16c	-0.028305732
221	0xbdc35f2f	-0.09539639
222	0xbca9aa07	-0.020710958
223	0x3c85ed10	0.016348392
224	0x3dbddd28	0.09270698
225	0x3c4cca69	0.01249943
226	0x3dc3894d	0.095476724
227	0x3cfd33ba	0.030908454
228	0xbd815aa6	-0.06316118
229	0x3e56e7ca	0.20986858
230	0xbe032c9a	-0.12809983
231	0xbdf618b1	-0.12016428
232	0xbd55b080	-0.052170277
233	0xbd4e025c	-0.05029522
234	0xbd319bd6	-0.043361507
235	0xbde7a349	-0.11310441
236	0xbe59dc83	-0.21275525
237	0x3ded7e26	0.115963265
238	0x3e11222e	0.14173195
239	0x3dacfd22	0.08446719
240	0x3d48f368	0.049060255
241	0x3e0930ff	0.13397597
242	0xbdaae872	-0.08345117
243	0x3debc45c	0.11512062
244	0xbdb2d46a	-0.08731921
245	0x3d34e1f9	0.044160817
246	0x3da4ec63	0.080529
247	0x3dcfbc7b	0.10143372
248	0xbe068216	-0.13135561
249	0x3d1ad4d8	0.03780064
250	0x3cf1262c	0.029437147
251	0xbd6736f2	-0.056448884
252	0xbcc8295f	-0.02443379
253	0x3c709e34	0.014686156
254	0xbe1669f3	-0.14688854
255	0x3d6e5d70	0.058194578

final_linear.bias f4 [2]
0	0x3ce8feb8	0.028441772
1	0xbebed8f9	-0.37274912

linear1.weight f4 [256, 3]
0	0xbe3b34e3	-0.18281893
1	0xbe711489	-0.2354299
2	0xbf8d39f3	-1.103331
3	0xbe9df734	-0.30852664
4	0xbd9db993	-0.07701411
5	0xbf85ba02	-1.044739
6	0xbcf9b838	-0.03048335
7	0x3e2cc62f	0.16872476
8	0xbf17a421	-0.59234816
9	0xbc9251e5	-0.017861316
10	0x3d86d239	0.065830655
11	0xbc140dac	-0.009036463
12	0xbde0997e	-0.10966776
13	0x3fb11ae1	1.3836328
14	0x3ed22ade	0.4104833
15	0xbdd37a24	-0.10326031
16	0xbcda2f0b	-0.02663376
17	0xb6dd6a59	-6.5986937e-06
18	0xbe20e89a	-0.1571373
19	0x3fb4900f	1.4106463
20	0x3e698ae2	0.22806886
21	0x3e3e5c84	0.1858998
22	0xbf788827	-0.9708275
23	0x3e79cbb9	0.2439412
24	0xbe895b70	-0.26827574
25	0x3f83cac2	1.0296252
26	0x3e06a72f	0.13149713
27	0xbec1d334	-0.37856448
28	0xbdb47b70	-0.08812606
29	0xbf48ae9b	-0.78391427
30	0xbdf15507	-0.11783796
31	0x3fcce5b3	1.6007599
32	0x3eb10ff7	0.34582493
33	0x3e5c2589	0.21498694
34	0xbf70f5c6	-0.9412502
35	0x3e8b1209	0.27162197
36	0xbeac9e16	-0.3371436
37	0xbe2e9b7a	-0.17051497
38	0xbf8c3a31	-1.0955259
39	0x3e56c5e1	0.20973922
40	0xbf68b547	-0.9090161
41	0x3e72ba09	0.2370378
42	0xbda6c4fb	-0.0814304
43	0x3faf542f	1.3697566
44	0x3e88b85a	0.2670315
45	0xbd2a96b5	-0.04164763
46	0x3d8cb738	0.06870884
47	0xb58f7897	-1.0689427e-06
48	0x3e3c9629	0.18416657
49	0xbf4dc058	-0.8037162
50	0x3e5fef8f	0.21868728
51	0x3e5166a9	0.20449318
52	0xbf79f0dd	-0.97633153
53	0x3e80c6c8	0.25151658
54	0xbe00444b	-0.12526052
55	0x3fad7a1b	1.3552889
56	0x3e5e4ff0	0.21710181
57	0xbeb26163	-0.34839925
58	0xbb97d87d	-0.0046339617
59	0xbf8b3eec	-1.0878577
60	0x3e687372	0.22700289
61	0xbf4b299a	-0.79360354
62	0x3e613336	0.21992192
63	0xbe8f9368	-0.2804215
64	0xbebfd4d3	-0.3746706
65	0xbf8f5f62	-1.1200984
66	0xbead16d4	-0.3380648
67	0x3d862bdc	0.06551334
68	0x3606883e	2.004686e-06
69	0xbebac176	-0.36475724
70	0xbe0181dd	-0.12647195
71	0xbf8e5d99	-1.1122314
72	0xbead3cbb	-0.33835396
73	0x3b4491ac	0.0029994054
74	0xbf98c753	-1.1935829
75	0x3e4b7a0e	0.19870779
76	0xbf5416c0	-0.82847214
77	0x3e5ecb02	0.21757129
78	0xbe083d70	-0.13304687
79	0x3fa4e723	1.2883037
80	0x3ecb5941	0.39716533
81	0x3e3cc6cb	0.18435208
82	0xbf6624ee	-0.899001
83	0x3e7e5cf8	0.24840152
84	0x3e1f95e2	0.1558452
85	0xbf50c9a6	-0.8155769
86	0x3e5e7756	0.2172521
87	0xbed1fa67	-0.41011354
88	0xbde592ef	-0.11209666
89	0xbf8b09d9	-1.086238
90	0x3ea7809e	0.32715315
91	0x3ea4d6bf	0.32195088
92	0xbef9c226	-0.48780936
93	0xbe3fea1c	-0.1874165
94	0x3d150f80	0.036391735
95	0xb60d3b4e	-2.1045157e-06
96	0xbe9dd02e	-0.3082289
97	0xbc0d8670	-0.008638009
98	0xbf8ebf59	-1.1152145
99	0x3e0279e8	0.12741816
100	0xbf4d9315	-0.80302554
101	0x3e54fe30	0.2080009
102	0x3e61c3d7	0.22047363
103	0xbf5e997e	-0.8695296
104	0x3e63587f	0.22201727
105	0xbedd8054	-0.4326197
106	0xbe3b8463	-0.1831222
107	0xbf97d890	-1.1862965
108	0x3b85ba3a	0.004081038
109	0x3eabb22e	0.33534378
110	0xbef436f4	-0.47698176
111	0xbf57932a	-0.8420893
112	0x3f836642	1.0265582
113	0x3db54baa	0.088523224
114	0xbf48ceaf	-0.78440374
115	0x3fa4232a	1.2823231
116	0x3dda5653	0.10660996
117	0xbeac75a6	-0.3368351
118	0xbe191eee	-0.14953205
119	0xbf8fe489	-1.1241618
120	0xbe008146	-0.12549314
121	0x3fa779c0	1.308403
122	0x3ea89c9c	0.32931983
123	0x3e735387	0.23762332
124	0xbf46d3c0	-0.77666855
125	0x3e60ba9d	0.21946187
126	0x3e304111	0.17212321
127	0x3fba4da6	1.4554946
128	0xbdb69f02	-0.08917047
129	0xbdd5d7c1	-0.104415424
130	0x3fae070e	1.3595903
131	0x3e70bd1f	0.23509644
132	0x3e3c42e3	0.1838489
133	0x3ff30f2d	1.8989006
134	0xbe241934	-0.16025239
135	0xbe39b163	-0.18134074
136	0x3fa040c9	1.2519771
137	0x3ec757d9	0.3893421
138	0xbe8534b6	-0.26016778
139	0xbe193c38	-0.14964378
140	0xbf95b175	-1.169478
141	0xbf6d1802	-0.9261476
142	0x3f903f9a	1.126941
143	0x3e058e7f	0.13042639
144	0xbe7f90ad	-0.24957533
145	0xbdcfa343	-0.101385616
146	0xbf7f649d	-0.997629
147	0x3e34dd52	0.17662552
148	0xbf481793	-0.7816097
149	0x3e5c0de9	0.21489681
150	0xbd53907a	-0.051651455
151	0x3e171156	0.14752707
152	0xb63b4ff4	-2.791171e-06
153	0xbdcf63e1	-0.10126472
154	0x3d65328e	0.055956416
155	0x3469df8a	2.1781139e-07
156	0x3e9c0774	0.30474436
157	0xbf73748f	-0.9509973
158	0x3e88a2e9	0.2668679
159	0xbede0bbe	-0.43368334
160	0xbe64cbfd	-0.2234344
161	0xbf886f3c	-1.0658946
162	0xbdbe89d2	-0.09303631
163	0x3de4d17d	0.11172769
164	0xb6137a38	-2.1975848e-06
165	0xbf26707e	-0.650154
166	0x3f848990	1.0354481
167	0x3dde0eaa	0.10842641
168	0xbe0d35a6	-0.13789997
169	0x3fc67f34	1.5507569
170	0x3e89a044	0.26880085
171	0x3e8aa0e0	0.27075863
172	0x3eb4435d	0.35207644
173	0xbf0306dc	-0.5118234
174	0xbed5e493	-0.4177595
175	0xbe847597	-0.25870964
176	0xbf8e607d	-1.1123196
177	0x3c5756b3	0.013143229
178	0xbc3876b2	-0.011258768
179	0xb8170c39	-3.601259e-05
180	0xbeb2c00c	-0.34912145
181	0xbe4e32e8	-0.20136607
182	0xbf98e375	-1.1944414
183	0xbe3df01a	-0.18548623
184	0xbee1a5f3	-0.44071922
185	0xbf6bfd5b	-0.92183465
186	0xbecb194a	-0.39667732
187	0xbe08703c	-0.13324064
188	0xbf8db6c4	-1.1071401
189	0x3e32781a	0.17428628
190	0xbf59d7e4	-0.8509505
191	0x3e534360	0.2063117
192	0xbe5b3400	-0.21406555
193	0x3d133da4	0.035947457
194	0xb5ec86e5	-1.762263e-06
195	0x3e4c128f	0.19928955
196	0xbf67c055	-0.9052785
197	0x3e8950d1	0.2681947
198	0xbe4cb54c	-0.19991034
199	0xbca3e5fb	-0.020007124
200	0xbf1782cf	-0.59183973
201	0xbe21f34f	-0.15815471
202	0xbdaf7059	-0.085663505
203	0xbf4ca818	-0.7994399
204	0xbe9a1fff	-0.30102536
205	0xbda739e6	-0.0816534
206	0xbf7b0620	-0.9805622
207	0x3e83a3e1	0.25710967
208	0x400215d9	2.0325835
209	0xbe7c4205	-0.2463456
210	0xbee08d82	-0.43857962
211	0xbe1cba7b	-0.15305512
212	0xbf5cdbab	-0.86272687
213	0xbe2d8690	-0.16945863
214	0x3f997fc3	1.1992115
215	0x3e37d86a	0.17953649
216	0xbd7f888d	-0.062386084
217	0x3fa30f5d	1.2739064
218	0xbd05bc2f	-0.03265017
219	0x3d8d4779	0.06898398
220	0x3fa743e8	1.3067598
221	0xbd96a717	-0.073560886
222	0xbf18a9b1	-0.5963393
223	0x3f8e10de	1.1098897
224	0x3dfec3c7	0.12439685
225	0xbdf3f8e8	-0.119127095
226	0x3bdde8cb	0.006772136
227	0xb81f2c92	-3.7950063e-05
228	0x3ea6fd6a	0.32615215
229	0xbf5a3931	-0.8524352
230	0x3e777643	0.24166207
231	0xbd8fba7b	-0.0701799
232	0x3e054dba	0.13017932
233	0xb5d91966	-1.6175152e-06
234	0x3e5275b0	0.20552707
235	0xbf5dbe90	-0.866189
236	0x3e62d13a	0.22150126
237	0x3e47fa4f	0.19529079
238	0xbf69efc4	-0.9138148
239	0x3e7419cd	0.23837967
240	0x3d6d9a1c	0.0580083
241	0x3e5449bc	0.20731252
242	0x3c328252	0.010895329
243	0xbd8b3019	-0.06796283
244	0x3bfdf61a	0.007750285
245	0xb813d170	-3.5242585e-05
246	0x3e476c00	0.19474792
247	0xbf532421	-0.82477003
248	0x3e5fe91f	0.21866272
249	0xbe956146	-0.29175776
250	0xbe9bc173	-0.30421028
251	0xbf640216	-0.8906568
252	0x3e453ed0	0.19262242
253	0xbf5688da	-0.8380257
254	0x3e5dbae8	0.2165333
255	0x3e52fbf1	0.2060392

linear1.bias f4 [256]
0	0xbe89f627	-0.26945612
1	0x3d3c6a0b	0.045999568
2	0x3f3fb34c	0.7488296
3	0xbcd3d10e	-0.025856521
4	0x3e033ceb	0.12816207
5	0xbdd9f9f3	-0.10643377
6	0x3e12d012	0.14337185
7	0x3e394e3f	0.18096255
8	0xbd150abc	-0.03638719
9	0x3f0642fc	0.5244596
10	0x3e0c0db8	0.13677108
11	0x3e3c5520	0.18391848
12	0xbd08960a	-0.033346213
13	0x3e294a6f	0.165323
14	0x3cc5833e	0.024110433
15	0xbcbbb1f7	-0.022912009
16	0x3e30270d	0.17202397
17	0x3e33e446	0.17567548
18	0x3c4bdc3d	0.012442646
19	0x3da84ccb	0.08217772
20	0x3e1f5c5e	0.15562579
21	0xbe772ca5	-0.24138124
22	0xbcc39c44	-0.023878224
23	0x3d08cf8e	0.033401065
24	0xbcb0423d	-0.02151596
25	0x3e266f08	0.16253293
26	0x3e226f64	0.15862805
27	0x3e3cedad	0.18450041
28	0x3e3959b0	0.1810062
29	0xbdfc707e	-0.12326144
30	0x3f4d9411	0.80304056
31	0xbdc119a6	-0.0942872
32	0xbe3829a0	-0.17984629
33	0x3e42efb9	0.1903676
34	0x3e1cde88	0.15319264
35	0xbc8d46d3	-0.017245686
36	0x3f3ac384	0.72954583
37	0xbe8789d0	-0.2647233
38	0xbe604d66	-0.21904525
39	0xbc9f348f	-0.019434242
40	0x3e0aa52a	0.13539568
41	0x3e1d105c	0.15338272
42	0xbdc06c90	-0.09395707
43	0x3ce83301	0.028344633
44	0x3d31d5f2	0.043416925
45	0x3e45a3d6	0.1930078
46	0xbdc5946d	-0.096474506
47	0xbec97cd8	-0.3935306
48	0xbe502aeb	-0.20328872
49	0x3e30583f	0.17221163
50	0xbd76b5b4	-0.06023188
51	0xbd85eb61	-0.065390356
52	0x3e0eefd3	0.13958673
53	0xbcba7b07	-0.022763742
54	0xbd1e6c40	-0.038677454
55	0xbea99477	-0.33121082
56	0x3dba6f31	0.09103239
57	0x3f4ef294	0.80838895
58	0xbda56c08	-0.08077246
59	0xbe1adbf5	-0.1512297
60	0xbe3cc327	-0.1843382
61	0xbe7d24b9	-0.2472104
62	0xbdae87e1	-0.085220106
63	0x3e2f806e	0.17138836
64	0xbdfe08a1	-0.124039896
65	0x3e41b11f	0.18915223
66	0x3f3337ce	0.70007026
67	0x3f06fc64	0.5272887
68	0xbdb65e8d	-0.08904753
69	0x3e7a8598	0.24465024
70	0x3eba45cc	0.36381376
71	0x3de7700b	0.113006674
72	0xbe2ea73a	-0.1705598
73	0xbd8c90d2	-0.0686356
74	0xbdbfdbc9	-0.093680926
75	0xbcd6cc8a	-0.026220579
76	0x3e02fb9d	0.12791295
77	0xbdf81cc5	-0.12114862
78	0x3e219d70	0.15782714
79	0x3e301ce6	0.17198524
80	0xbcb1d2c6	-0.02170695
81	0xbd819824	-0.06327847
82	0x3e260882	0.16214183
83	0xbe4305ba	-0.19045153
84	0x3e26a78c	0.16274852
85	0x3e1fbecf	0.15600131
86	0x3e1d11a9	0.15338768
87	0xbe650def	-0.22368596
88	0xbdac6632	-0.0841793
89	0x3e3ab3df	0.18232678
90	0x3f2e1d1d	0.68013173
91	0x3e42f637	0.19039236
92	0x3e491758	0.19637811
93	0xbe4af648	-0.19820511
94	0xbd129091	-0.0357824
95	0x3e3a38cb	0.18185727
96	0x3e82544a	0.25454932
97	0x3e25f49f	0.16206597
98	0x3f2d0648	0.6758771
99	0x3f309c39	0.68988377
100	0xbe56d970	-0.20981383
101	0x3dc7511b	0.097322665
102	0xbd742c82	-0.05961276
103	0xbd01dbc7	-0.031703737
104	0x3dae4ab8	0.08510345
105	0x3e27dc45	0.1639262
106	0x3da1f242	0.07907535
107	0xbe428df6	-0.18999466
108	0xbe4e6165	-0.2015434
109	0x3e18142b	0.14851443
110	0xbd5c0705	-0.05371763
111	0x3e3dbc88	0.1852895
112	0xbdcc16d3	-0.09965291
113	0xbe4dff46	-0.2011691
114	0x3e38f993	0.18063955
115	0xbcc74db1	-0.024329038
116	0x3e24e10f	0.16101478
117	0xbe105e77	-0.14098535
118	0xbe46a07d	-0.19397159
119	0x3e44521c	0.19171947
120	0x3ea36783	0.3191491
121	0x3e1f7599	0.15572204
122	0xbe773f53	-0.2414525
123	0x3e28ec9d	0.16496511
124	0x3de1728f	0.110081784
125	0x3e27a892	0.16372898
126	0xbe71d9f6	-0.23618302
127	0x3f16fd75	0.58980495
128	0x3f42d6b4	0.7610886
129	0xbe80d923	-0.25165662
130	0x3e2f8b16	0.17142901
131	0xbe7e71fc	-0.24848169
132	0xbe6e7e18	-0.23290288
133	0x3e23b366	0.15986404
134	0xbe0d3bbe	-0.13792321
135	0x3e1dabdb	0.15397589
136	0x3e2423e3	0.16029315
137	0x3e257cb7	0.16160856
138	0x3e1b31e7	0.15155755
139	0x3daac42d	0.08338199
140	0x3f15a2db	0.5845162
141	0x3e18c846	0.14920148
142	0x3f199422	0.5999166
143	0xbe1ac1d0	-0.15112996
144	0x3e4b9e3d	0.19884582
145	0x3e2f3c59	0.17112865
146	0x3e1249ce	0.14285967
147	0x3f30aaa7	0.69010395
148	0xbd0121dd	-0.031526435
149	0x3dda6390	0.10663521
150	0x3e997679	0.299732
151	0xbd27587a	-0.040855862
152	0x3dc0b5fa	0.09409709
153	0xbe208f77	-0.15679727
154	0x3e24749f	0.16060112
155	0x3f27cf2c	0.65550494
156	0xbce3c4b3	-0.027803754
157	0x3edd0218	0.4316566
158	0x3e11c7a7	0.14236318
159	0xbdc9a5b2	-0.09846057
160	0x3dba32f3	0.09091749
161	0x3e37901d	0.17926069
162	0xbd9aa271	-0.075505145
163	0xbe73fb66	-0.2382637
164	0x3f1c62c0	0.6108818
165	0x3da7eae2	0.08199097
166	0x3f3d2eb7	0.73899406
167	0x3e38f008	0.18060315
168	0x3df13f86	0.11779694
169	0xbdf282c6	-0.11841349
170	0xbe9afdf4	-0.30271876
171	0xbe0556a0	-0.13021326
172	0xbddbec49	-0.10738427
173	0x3e00efb7	0.12591444
174	0xbddca870	-0.107743144
175	0xbda1b571	-0.07895935
176	0xbe80f369	-0.25185707
177	0xbe327598	-0.17427671
178	0xbe4870e9	-0.19574322
179	0x3e4c9a29	0.19980682
180	0x3e643909	0.22287382
181	0xbe48660e	-0.19570181
182	0x3e741800	0.2383728
183	0x3e276100	0.16345596
184	0x3e9a5716	0.30144566
185	0x3f35352a	0.70784247
186	0x3e1f6c9f	0.1556878
187	0xbe1a6ebb	-0.15081303
188	0xbcadc7de	-0.021213468
189	0xbd8c5be8	-0.06853467
190	0x3e0e5f89	0.13903631
191	0x3d8c72b7	0.068578176
192	0xbddf320d	-0.10898218
193	0x3f404a99	0.75113827
194	0x3db95ed5	0.09051291
195	0xbd5b3a7b	-0.05352257
196	0x3e917c02	0.28414923
197	0x3cb0eeaf	0.021598188
198	0xbe14a2a0	-0.14515162
199	0x3f08c70b	0.53428715
200	0xbe2f5d71	-0.17125489
201	0x3dd702f1	0.10498608
202	0x3db734bf	0.089456074
203	0x3e4b481e	0.1985173
204	0x3e24b516	0.16084704
205	0x3dbdb4bb	0.09262987
206	0x3e2dd889	0.16977133
207	0xbd88efff	-0.066864006
208	0xbcfcaced	-0.030844176
209	0xbe34b0ad	-0.17645521
210	0x3d8025d4	0.06257215
211	0x3e05f138	0.13080299
212	0x3dfa4e07	0.12221914
213	0x3e258b18	0.16166341
214	0xbd6c7095	-0.057724554
215	0x3e2057b9	0.15658464
216	0x3e2290d9	0.15875567
217	0x3dcff405	0.10153965
218	0x3f3cb7fc	0.7371824
219	0x3bd65b86	0.006541672
220	0x3e24dc4d	0.16099663
221	0x3d346fda	0.044051982
222	0x3e6f50aa	0.23370615
223	0xbe133ca0	-0.14378595
224	0x3f33ed98	0.70284414
225	0x3d08595f	0.033288356
226	0xbea00cec	-0.3125986
227	0x3e6a67d1	0.22891165
228	0x3e1dc7af	0.15408204
229	0x3d9625f8	0.07331461
230	0x3e1f2308	0.15540707
231	0xbe3c956a	-0.18416372
232	0x3e2a5451	0.16633727
233	0x3f40e6a1	0.7535191
234	0xbdb248e7	-0.08705311
235	0x3db87843	0.09007313
236	0x3e215d65	0.15758283
237	0x3abdab9b	0.0014470698
238	0xbe5ee54c	-0.21767157
239	0x3f503201	0.813263
240	0x3e27e601	0.16396333
241	0xbd848a09	-0.064716406
242	0x3f448226	0.7676109
243	0x3e19d692	0.15023258
244	0xbe43028e	-0.19043943
245	0x3e98269b	0.29716954
246	0x3d045d04	0.03231527
247	0x3e1feadb	0.15616934
248	0x3e196018	0.14978063
249	0x3e0c62f2	0.1370962
250	0x3db396d4	0.087690026
251	0x3d8f8629	0.07008011
252	0xbd470e73	-0.048597764
253	0xbe76c05a	-0.24096814
254	0x3f06e711	0.5269633
255	0x3de08f22	0.109648004

final_linear.weight f4 [1, 256]
0	0xbf629cde	-0.8852061
1	0xbf74d6e3	-0.9564039
2	0xbf673331	-0.90312487
3	0xbc1149c7	-0.008867688
4	0xbf17e892	-0.5933925
5	0x3d1711b1	0.036882106
6	0xbf38c402	-0.72174084
7	0x3edfdd60	0.43723583
8	0xbf0d4842	-0.5518838
9	0xbf5d6e48	-0.864964
10	0xbf3e2c87	-0.74286693
11	0x3ea2b599	0.31779173
12	0xbf637370	-0.8884802
13	0x3ef897f4	0.4855343
14	0xbf20dd6d	-0.6283787
15	0x3cdd4262	0.027009193
16	0x3ee04569	0.43802956
17	0x3f01c3fd	0.5068968
18	0xbf2a0b90	-0.6642389
19	0xbf751e6f	-0.9574956
20	0x3ef75dd5	0.48313776
21	0xbf703db8	-0.93844175
22	0x3d842d29	0.06453926
23	0xbf638247	-0.8887066
24	0xbf8d3f14	-1.1034875
25	0x3ef78e64	0.48350823
26	0xbf3a2f96	-0.7272886
27	0x3ec92ab3	0.3929039
28	0x3ef8d03a	0.48596364
29	0xbf6dc013	-0.92871207
30	0xbf570ea4	-0.84006715
31	0x3da56f0b	0.080778204
32	0xbf72ea3c	-0.94888663
33	0x3ee26507	0.44217703
34	0x3f275ee3	0.6537916
35	0xbf82a96f	-1.0207957
36	0xbf63f951	-0.890523
37	0xbf5ccc2e	-0.86249053
38	0xbf4a245c	-0.7896173
39	0xbf613362	-0.8796903
40	0xbf09b093	-0.53785056
41	0x3eda07df	0.4258413
42	0xbf5d4068	-0.864264
43	0xbf37bcd3	-0.717725
44	0xc002780e	-2.0385776
45	0xbf07f7df	-0.53112596
46	0xbf74d868	-0.9564271
47	0xbf52d831	-0.8236113
48	0xbf684954	-0.9073689
49	0x3f04c352	0.51860535
50	0x3cb75c24	0.022382803
51	0x3cdb1841	0.026744964
52	0x3ef9fa2d	0.4882368
53	0xbfa1efdf	-1.2651328
54	0x3a2f0930	0.0006677089
55	0xbf07efcd	-0.5310028
56	0xbf309162	-0.68971837
57	0xbf7347bf	-0.9503135
58	0xbf703fce	-0.9384736
59	0x3e370efc	0.1787681
60	0xbf671a4a	-0.9027449
61	0xbf6ccf8d	-0.925042
62	0xbf7d4035	-0.989261
63	0x3f36be33	0.7138397
64	0x3e0a6d48	0.1351825
65	0x3e9eac63	0.30990896
66	0xbf5e71a3	-0.86892146
67	0xbf574726	-0.8409294
68	0xbf4f44dc	-0.80964446
69	0xbfaceee1	-1.35104
70	0xbf768296	-0.9629301
71	0xbf26dbb9	-0.6517902
72	0xbf2ff5a1	-0.68734175
73	0xbf4aef51	-0.7927142
74	0xbf2c1acf	-0.67228407
75	0x3ad81e00	0.0016488433
76	0x3ec6a4b8	0.38797545
77	0x3d03d2f1	0.03218359
78	0x3f16b561	0.5887051
79	0x3f1cf5d3	0.613126
80	0x3cf7c948	0.030247346
81	0x3db56cff	0.0885868
82	0x3f156973	0.5836403
83	0xbf626df0	-0.88449
84	0x3f16e3a1	0.58941084
85	0x3f180d95	0.59395725
86	0x3f11eb17	0.56999344
87	0xbf53d1d9	-0.8274208
88	0xbf6bd6b8	-0.9212451
89	0x3ef64120	0.4809656
90	0xbf67473b	-0.90343064
91	0x3e9bf0ca	0.30457145
92	0xbf592269	-0.8481813
93	0xbf3ed6b3	-0.74546355
94	0x3d909b32	0.07060851
95	0x3ecb150a	0.3966449
96	0xbfe33974	-1.7751908
97	0x3f080390	0.53130436
98	0xbf513f92	-0.81737626
99	0xbf86c11d	-1.0527683
100	0xbf6e3949	-0.9305616
101	0xbf15524f	-0.5832872
102	0x3db45312	0.08804907
103	0x3d95f5f3	0.07322302
104	0xbf3d9585	-0.74056274
105	0x3f33f72a	0.7029902
106	0xbff9f42d	-1.9527642
107	0xbf71aadc	-0.94401336
108	0xbf542759	-0.8287254
109	0x3f1dfff9	0.6171871
110	0x3c1a88a6	0.009431994
111	0x3ee5565d	0.44792452
112	0x3d8fab07	0.07015043
113	0xbf6a575c	-0.9153955
114	0xbf3c30d4	-0.73512006
115	0x3d08a4fa	0.03336046
116	0x3f3d14a5	0.73859626
117	0x3da2fcc0	0.079583645
118	0xbf3e004a	-0.7421919
119	0x3eec3e7f	0.4614143
120	0xbf68d62b	-0.90951794
121	0xbf1f0c6d	-0.62128335
122	0xbf6f6809	-0.9351812
123	0x3f153dec	0.5829761
124	0xbef957d5	-0.48699823
125	0x3f1b22b7	0.60599846
126	0xbf731e0d	-0.9496773
127	0xbf7f03d3	-0.9961521
128	0xbf81d917	-1.0144376
129	0xbf6e799a	-0.931543
130	0x3ea7ee5f	0.3279905
131	0xbf743354	-0.9539082
132	0xbf5ee103	-0.8706209
133	0x3ef8696d	0.48517933
134	0xbf84beb9	-1.0370704
135	0x3f2eaf07	0.6823582
136	0x3f20d1d0	0.6282015
137	0x3f16f47b	0.589668
138	0x3f31e5ff	0.6949157
139	0xbfe58da9	-1.7933856
140	0xbf89f843	-1.0778888
141	0x3f272781	0.65294653
142	0xbf6f5d1a	-0.93501437
143	0x3c8f4eb8	0.01749359
144	0x3edc35e5	0.43009868
145	0xbf4815ce	-0.7815827
146	0xbff9ffd0	-1.9531193
147	0xbf8ee549	-1.1163722
148	0x3df9127b	0.12161728
149	0xbf4d6342	-0.8022958
150	0xbf512543	-0.8169748
151	0x3d3e7d28	0.046506077
152	0xbf33e14c	-0.7026565
153	0x3d9cd447	0.07657676
154	0x3f33ec6d	0.7028263
155	0xbf82d21a	-1.0220368
156	0x3e0ee786	0.13955507
157	0xbf652567	-0.89510196
158	0x3f1242a6	0.5713295
159	0xbf775df9	-0.96627766
160	0xc01eff4e	-2.4843326
161	0x3ef8e343	0.48610887
162	0xbf6146c2	-0.8799859
163	0xbf77f408	-0.9685674
164	0xbf758a13	-0.9591381
165	0xc02149ea	-2.5201364
166	0xbf662ca9	-0.89911896
167	0x3f2e8c4f	0.68182844
168	0xbf137331	-0.57597643
169	0xbf6d9705	-0.9280856
170	0xbf201cd0	-0.62543964
171	0xbf75643a	-0.9585606
172	0xbf49b41f	-0.7879047
173	0xbf47294f	-0.77797407
174	0x3d4450d2	0.04792864
175	0xbf71beff	-0.9443206
176	0xbf3c153e	-0.73469913
177	0xbf844e26	-1.0336349
178	0xbf72ceed	-0.94846994
179	0xbf2d53be	-0.67705905
180	0xbf3dba9c	-0.7411287
181	0xbf6d71b3	-0.92751616
182	0xbf4d793d	-0.8026312
183	0x3f01f9d7	0.5077185
184	0xbfbdd941	-1.4831926
185	0xbf998e12	-1.1996481
186	0x3f12cd07	0.57344097
187	0xbf73dd20	-0.95259285
188	0x3e090659	0.13381328
189	0xbf827d80	-1.019455
190	0xbf81d0d6	-1.0141857
191	0xbfe23c06	-1.7674568
192	0xbf7bfe4c	-0.984349
193	0xbf695f91	-0.9116145
194	0xbf025e42	-0.50925076
195	0xbb2166e4	-0.0024627978
196	0xbf9f57ad	-1.2448632
197	0xbf5fd9aa	-0.87441504
198	0xbc4d6af9	-0.012537711
199	0xbf51e2b1	-0.8198653
200	0xbf61f3d4	-0.8826268
201	0xbf7274c6	-0.9470943
202	0xc01c39a9	-2.4410193
203	0xc00146a5	-2.0199368
204	0x3ed2716f	0.41102168
205	0xbf5d4222	-0.86429036
206	0x3ee99598	0.45621943
207	0xbcaab861	-0.020839872
208	0x3e0c3ea1	0.13695766
209	0xbf6f8233	-0.93558043
210	0xbf2e50fa	-0.6809231
211	0xbf0bd72f	-0.5462522
212	0xbf0a6f57	-0.5407614
213	0x3f0a9a01	0.5414124
214	0x3c8e2fe8	0.017356828
215	0x3f175558	0.591146
216	0xbf26d957	-0.65175384
217	0xbf1cfe63	-0.61325663
218	0xbf811a27	-1.0086106
219	0xbf690b6a	-0.9103304
220	0x3f29c760	0.6631985
221	0xbfaef679	-1.3668967
222	0x3e9043a0	0.28176594
223	0xbf6a6a25	-0.91568214
224	0xbf856e94	-1.0424371
225	0xbf5352fd	-0.82548505
226	0xbf477628	-0.7791467
227	0xbfc9fa88	-1.5779581
228	0x3f17985b	0.5921685
229	0xbf325a5d	-0.69669133
230	0xbf1821ef	-0.5942678
231	0xbf73ac99	-0.9518524
232	0xbf1344fd	-0.5752714
233	0xbf7b0763	-0.98058146
234	0xbe61bcbc	-0.22044653
235	0xbfb10fef	-1.3832988
236	0x3f233fc7	0.6376919
237	0xbf86a1c3	-1.0518116
238	0xbf714ec5	-0.9426082
239	0xbf613d6c	-0.8798435
240	0x3f0fdd16	0.56196725
241	0x3cd7259e	0.026263054
242	0xbf801c04	-1.000855
243	0xbf0ed094	-0.55787015
244	0xbf82fdb8	-1.0233679
245	0xbf4923aa	-0.78570044
246	0xbf0b80d9	-0.5449348
247	0x3f22bfc9	0.6357389
248	0x3f191cd5	0.5980962
249	0xbf340e34	-0.7033417
250	0xbf09668d	-0.53672105
251	0xbfb93d32	-1.44718
252	0xbf7903a3	-0.97271174
253	0xbf6ff3bc	-0.93731284
254	0xbf7369c7	-0.9508328
255	0xc0124ed7	-2.286062
