option_hedging/hyperparameters/ppo_hyperparameters/year/0.0/best_ppo_model.pth (torch, 10196 bytes, 7 tensors)

linear1.weight f4 [128, 4]
0.1475832 -0.18988371 -0.061686486 0.074319534 0.314763 0.29011813 0.2700355 0.039720695
-0.1865802 -0.12432337 0.20727111 -0.4718024 0.18907148 0.19151117 0.042220388 0.0921178
0.1271355 0.42336792 0.26051775 0.09525839 0.36545473 0.43518668 0.16069607 0.0482861
0.46183813 0.10756103 0.08385528 0.15856054 -1.3672305 -0.3213902 -1.0162503 0.45011622
0.97525513 0.37454966 0.28916287 0.16911824 0.10431997 0.24243356 0.14032643 0.1266476
-0.037044477 -0.34327933 -0.12395587 -0.34329996 0.093925364 0.17215143 0.2488027 0.1201338
0.037651196 0.24052836 0.15287568 -0.24314477 0.67649925 0.2820556 0.17538176 0.21681929
0.024627449 -0.31932163 -0.03409547 -0.36130556 -0.021047411 -0.3311995 0.5322089 -0.164697
-0.09399769 -0.30847237 0.10104747 -0.5926844 0.17435066 0.22170739 0.047690332 0.11442712
-0.11891146 0.057321064 0.47520947 0.27318558 0.3170755 -0.046277124 0.2510604 0.10116026
0.15640864 -0.1528715 0.04936122 0.16755614 0.553569 0.18407549 -0.1159574 0.011379743
0.10779903 0.19280162 -0.24380636 -0.39712867 0.081918776 0.007479969 -0.26984313 -0.3885099
0.40721676 -0.00515799 0.14242405 0.12990111 0.22885814 0.07546354 0.23622523 0.27885652
-0.16430752 -0.34734592 0.033868514 -0.54057765 0.22443675 -0.23038399 -0.12903549 0.07283083
-0.13790825 0.010389876 0.009651635 0.1352611 1.0246521 0.415466 0.29043195 0.32086882
-0.028993353 -0.112085775 -0.06993848 0.04080231 0.21167426 0.03454002 0.072078586 0.14164287
0.022329424 -0.1859121 -0.20124404 0.07699103 -0.24854639 -0.3587049 -0.015467485 0.020971458
0.10592717 -0.08440285 -0.05817596 0.031564996 -0.26552334 -0.22402473 -0.009523107 0.29997948
0.07011196 -0.13578217 0.31000718 -0.52540684 1.7177 0.43600428 0.24196297 0.19741485
0.17081577 0.2634387 0.42301294 -0.3494797 0.006932753 0.38181373 0.1435688 0.07356897
0.09848335 -0.032720406 0.36566138 -0.52387506 -0.06980431 0.031710133 0.42176834 -0.015214468
-0.17425558 -0.18380871 0.06616543 0.020040536 0.26777935 -0.10341607 -0.10053275 0.069176
1.9988805 -0.10838942 0.14333236 0.21094607 -0.9512356 -0.16009729 0.36072645 0.2852285
0.22733955 0.098819405 0.31405458 0.11967285 -0.06250585 -0.118993856 0.03686864 -0.6379976
-0.773937 0.09451388 -0.23420478 0.58275235 -0.031341273 -0.30847263 -0.17359236 -0.33815405
1.7519382 0.016804332 0.33677256 0.2731464 0.08299601 0.09328363 0.09570085 -0.16737385
0.35660073 -0.3353078 -0.006232098 0.16253775 -0.07402157 0.011150038 -0.066228315 0.04595042
-0.008084222 0.02237401 -0.4322529 0.020059869 -1.0845108 -0.43719453 -0.8244599 0.19712475
0.49765247 -0.023866247 0.085865766 0.21247944 -0.49742767 0.11855057 -0.0843991 0.041232985
0.10080009 0.12388807 -0.27893826 -0.19111294 0.55843276 -0.28154936 0.07929368 0.24992076
-1.1243811 -0.5822752 -1.0115043 0.42070875 -0.10173761 -0.14728634 0.1710698 -0.40284088
0.15859787 0.15447962 0.23098852 -0.08909754 0.30150113 0.015736671 -0.042484246 0.18906647
00000000: 0d20 173e e070 42be f8aa 7cbd d734 983d
00000010: 9e28 a13e 5d8a 943e 1842 8a3e 2bb2 223d
00000020: e10e 3fbe 409d febd e13e 543e 1690 f1be
00000030: f49b 413e 811b 443e 49ef 2c3d 42a8 bc3d
00000040: cf2f 023e aec3 d83e 9562 853e d516 c33d
00000050: e21c bb3e cad0 de3e 838d 243e a5c7 453d
00000060: 0c76 ec3e f548 dc3d 51bc ab3d b25d 223e
00000070: 6901 afbf 428d a4be 7d14 82bf a275 e63e
00000080: 52aa 793f f9c4 bf3e 280d 943e 552d 2d3e
00000090: b5a5 d53d 8140 783e bbb1 0f3e e9af 013e
000000a0: f3bb 17bd 4fc2 afbe 93dc fdbd 03c5 afbe
000000b0: f15b c03d 7748 303e 23c6 7e3e b608 f63d
000000c0: 2438 1a3d 114d 763e 718b 1c3e f1fa 78be
000000d0: 0e2f 2d3f 9769 903e 4797 333e e005 5e3e
000000e0: 81bf c93c 207e a3be b1a7 0bbd 0bfd b8be
000000f0: 9f6b acbc fb92 a9be d83e 083f 55a6 28be
00000100: dc81 c0bd 17f0 9dbe faf1 ce3d 2aba 17bf
00000110: fb88 323e 4307 633e f056 433d c458 ea3d
00000120: da87 f3bd 7ec9 6a3d a84e f33e fbde 8b3e
00000130: b857 a23e 158d 3dbd fd8a 803e 1c2d cf3d
00000140: 9629 203e 598a 1cbe fe2e 4a3d d693 2b3e
00000150: b3b6 0d3f 497e 3c3e 137b edbd 1a72 3a3c
00000160: bdc5 dc3d ca6d 453e 60a8 79be 7354 cbbe
00000170: 08c5 a73d 871a f53b e128 8abe c5ea c6be
00000180: b77e d03e 5b04 a9bb 9cd7 113e cc04 053e
00000190: ca59 6a3e a18c 9a3d 07e5 713e 48c6 8e3e
000001a0: 3b40 28be 53d7 b1be b6b9 0a3d 4c63 0abf
000001b0: bfd2 653e c8e9 6bbe e121 04be 5528 953d
000001c0: d237 0dbe 4c3a 2a3c e421 1e3c e381 0a3e
000001d0: cd27 833f f6b7 d43e 7fb3 943e eb48 a43e
000001e0: 7883 edbc 3a8d e5bd e83b 8fbd 5320 273d
000001f0: 23c1 583e d679 0d3d f09d 933d d40a 113e
00000200: 32ec b63c be5f 3ebe eb12 4ebe 79ad 9d3d
00000210: f282 7ebe 2ba8 b7be 566b 7dbc 56cc ab3c
00000220: 58f0 d83d 67db acbd ea49 6ebd 4c4a 013d
00000230: adf2 87be bd66 65be ce06 1cbc e996 993e
00000240: dc96 8f3d 7b0a 0bbe 43b9 9e3e 1081 06bf
00000250: 98dd db3f f43b df3e 24c5 773e 1e27 4a3e
00000260: 54ea 2e3e 70e1 863e 2795 d83e 01ef b2be
00000270: 262c e33b 177d c33e b303 133e 54ab 963d
00000280: a3b1 c93d d505 06bd f837 bb3e ad1c 06bf
00000290: 90f5 8ebd 7ce2 013d 05f2 d73e 1b46 79bc
000002a0: 0e70 32be 5a38 3cbe be81 873d 0d2c a43c
000002b0: 601a 893e cecb d3bd 1de4 cdbd 26ac 8d3d
000002c0: 51db ff3f 46fb ddbd b8c5 123e 3f02 583e
000002d0: 2d84 73bf 8bf0 23be 23b1 b83e 7809 923e
000002e0: b3cb 683e d461 ca3d c3cb a03e 0a17 f53d
000002f0: 1103 80bd 0db3 f3bd 9203 173d d053 23bf
00000300: bc20 46bf 7e90 c13d 61d3 6fbe 422f 153f
00000310: b55f 00bd 20f0 9dbe 32c2 31be 8722 adbe
00000320: 833f e03f 3da9 893c 746d ac3e d8d9 8b3e
00000330: d0f9 a93d 7d0b bf3d cffe c33d 0d64 2bbe
00000340: 5f94 b63e 77ad abbe a136 ccbb 4c70 263e
00000350: 9f98 97bd a6ae 363c b6a2 87bd 8236 3c3d
00000360: af73 04bc b349 b73c 4150 ddbe 9854 a43c
00000370: 40d1 8abf f6d7 dfbe ce0f 53bf 12db 493e
00000380: 4ecc fe3e 2683 c3bc 64da af3d 3694 593e
00000390: d7ae febe a4ca f23d 6fd9 acbd ebe3 283d
000003a0: 4770 ce3d 07b9 fd3d ffd0 8ebe 1cb3 43be
000003b0: 73f5 0e3f 3d27 90be ba64 a23d 3aeb 7f3e
000003c0: b8eb 8fbf fd0f 15bf f978 81bf 2367 d73e
000003d0: cf5b d0bd 3bd2 16be ec2c 2f3e 2941 cebe
000003e0: 7b67 223e e82f 1e3e 4188 6c3e c578 b6bd
000003f0: 5b5e 9a3e 31ea 803c f603 2ebd a49a 413e

linear1.bias f4 [128]
0.001391658 0.22366604 0.08750885 0.073578864 0.21667841 0.2158765 0.24608402 0.0141382795
0.02947402 0.12594256 0.15181856 9.504731e-05 0.051544137 0.16780643 0.02727832 -0.00074224244
0.021781739 0.119862646 0.06333125 0.14375931 0.3931609 0.0437896 0.13005438 0.11706342
0.19355144 0.12809259 0.09541606 -0.020651871 0.17842858 0.016587166 0.017380636 0.2982341
-0.046302255 0.070241615 0.091916755 0.05363608 -0.09087996 0.008516918 0.041346196 0.06889417
0.027300125 0.15142351 0.11004115 0.23890276 0.10363682 0.27176523 0.08435528 -0.023894148
0.23992793 0.11518051 0.17542197 0.012375353 0.15000488 0.21761476 0.07334559 -0.077008076
-0.04146994 -0.18796213 0.12742361 0.14049898 0.16442327 0.04883583 0.022512997 0.12674418
-0.07817083 0.21094486 0.060109288 -0.09518302 0.046095807 0.16707608 0.058865353 0.21760495
-0.02618505 0.20638858 0.13404122 0.34698597 0.20672122 0.085858844 0.3744142 0.043619603
0.08752422 0.05482703 0.19324072 0.14611024 0.25986764 0.036018275 0.070890315 0.17220497
0.1541516 0.20640188 0.21303287 -0.2697792 -0.10741405 0.038531363 0.022154743 0.098006085
-0.0171437 0.07545166 0.25611356 -0.014921552 0.044624276 -0.1457811 0.08808859 -0.020642739
0.0111202 0.058144514 0.15817486 0.006360494 0.116098836 0.3202401 -0.027010199 0.03040565
0.20051616 0.180362 0.17665914 0.10692194 0.09430904 0.24765433 0.1192791 0.17116348
0.0927436 -0.23189738 -0.031417992 -0.044025354 0.35219118 0.30928284 0.029860241 -0.009430518
00000000: 4b68 b63a b608 653e d737 b33d 84b0 963d
00000010: f2e0 5d3e bb0e 5d3e 73fd 7b3e 3ea4 673c
00000020: 8073 f13c 16f7 003e 5376 1b3e 2354 c738
00000030: f21f 533d 73d5 2b3e c976 df3c 0c93 42ba
00000040: 9e6f b23c 8c7a f53d d0b3 813d a435 133e
00000050: 634c c93e b95c 333d fa2c 053e f2be ef3d
00000060: 5932 463e b42a 033e 7f69 c33d 1d2e a9bc
00000070: fbb5 363e cfe1 873c d661 8e3c 24b2 983e
00000080: 6fa7 3dbd d6da 8f3d da3e bc3d 82b1 5b3d
00000090: 461f babd 8b8a 0b3c a15a 293d 6318 8d3d
000000a0: 83a4 df3c c40e 1b3e 415d e13d eda2 743e
000000b0: 8b3f d43d d024 8b3e 76c2 ac3d a9bd c3bc
000000c0: abaf 753e c2e3 eb3d d1a1 333e fec1 4a3c
000000d0: e19a 193e 67d6 5e3e 3636 963d 69b6 9dbd
000000e0: 62dc 29bd 2579 40be 567b 023e f7de 0f3e
000000f0: 935e 283e 1408 483d 2d6d b83c 3ac9 013e
00000100: 0718 a0bd ee01 583e 2835 763d 51ef c2bd
00000110: f5ce 3c3d fe15 2b3e cc1c 713d d5d3 5e3e
00000120: 0882 d6bc 8757 533e 1a42 093e 25a8 b13e
00000130: baae 533e c3d6 af3d 38b3 bf3e 78aa 323d
00000140: e63f b33d 4f92 603d e5e0 453e ec9d 153e
00000150: 5f0d 853e e687 133d f12e 913d 8056 303e
00000160: ebd9 1d3e 045b 533e 4a25 5a3e 8020 8abe
00000170: e6fb dbbd 10d3 1d3d dd7d b53c 6ab7 c83d
00000180: f270 8cbc 6686 9a3d 5121 833e 8679 74bc
00000190: f2c7 363d a447 15be ca67 b43d f61a a9bc
000001a0: 8031 363c f128 6e3d 97f8 213e b16b d03b
000001b0: 3ac5 ed3d 83f6 a33e 7e44 ddbc 4515 f93c
000001c0: 1c54 4d3e d1b0 383e 22e6 343e e4f9 da3d
000001d0: 1925 c13d 1999 7d3e 9a48 f43d 7b45 2f3e
000001e0: 5bf0 bd3d 8276 6dbe 27b0 00bd ee53 34bd
000001f0: 6752 b43e 525a 9e3e 779d f43c 7682 1abc

final_linear.weight f4 [2, 128]
0.041316535 -0.18051097 -0.45468882 -0.051699407 0.35205 -0.34231374 -0.39859045 0.009235679
0.007660913 -0.19086446 0.114183545 -0.33978 0.22666201 -0.07280612 0.11100054 -0.039894912
0.0076536573 -0.04850939 -0.13775219 -0.16022907 -0.17420416 0.025054485 0.024024002 -0.38188243
-0.16814609 0.24359098 0.14787962 0.0856147 -0.056239273 0.012768613 0.041291963 0.33710483
0.12191965 0.37769473 0.015241547 0.03159025 -0.25758177 0.0242489 0.14594282 0.28548
0.020218974 0.6322092 0.53100646 0.3456645 -0.015871378 0.43779647 -0.2655437 -0.057815455
-0.04802146 0.1900897 -0.053575225 0.13584335 -0.07509734 0.2837621 -0.09343636 -0.22087164
0.19233209 -0.20699014 0.066419914 -0.17923497 0.03444089 -0.40530977 0.08055665 0.14977428
-0.30239445 0.6314866 -0.23988824 0.022156706 0.032036964 -0.028721308 -0.029414697 -0.29907426
-0.39467353 0.50547534 -0.13124408 -0.0050744596 -0.109739736 0.014914231 -0.322938 0.10252671
0.17527413 0.09931916 -0.15988216 -0.15137188 -0.092074215 0.44204435 -0.2055892 0.33310822
0.43746322 -0.28530353 -0.4528702 -0.032707904 -0.020369282 0.20071214 0.030244887 0.040697675
0.037721884 -0.25551087 0.3565123 -0.01308306 0.4145914 -0.19611658 -0.07899591 -0.14127225
-0.08784842 -0.1435953 0.1468381 -0.1349953 0.4876997 0.29358262 0.0011949125 -0.24113308
-0.19753392 -0.03276438 -0.1371665 0.20453198 -0.487307 -0.38541716 0.28538126 0.23615108
-0.009554215 -0.052872982 -0.036901433 0.0810916 0.30445355 -0.09620435 -0.3105748 0.05016423
-0.062921345 -0.25836223 0.6590217 -0.18963067 0.26988226 0.0732549 -0.349468 0.5585391
0.28520268 0.14376338 0.26029682 0.99693865 1.1505452 -0.31798798 0.5176733 1.0249139
0.57241756 -0.25801152 0.64077747 -0.26036948 -0.7252191 0.15403077 0.5578898 0.20918185
-0.5325463 0.55582863 0.7122392 -0.93797374 -0.22768784 0.303347 -0.33925143 -0.25928918
-0.47133532 -0.107772194 -0.86549085 0.75808316 0.6242983 -0.42090806 1.2232006 0.7860868
0.8167368 0.597073 0.07897002 -0.025145689 -0.5788069 -0.13907953 0.10735055 0.456005
0.96263325 -0.08919191 -0.41975904 1.0168577 -0.9959078 -0.86420214 0.6310668 0.27530152
0.51533777 0.2100628 0.21365175 -0.58159256 0.85592777 0.67376477 0.8818932 -0.52045673
0.7742138 -1.0100232 0.50277954 -0.31273404 0.75492865 0.97371006 -0.25927404 -0.5659149
0.008612787 -0.0119019 0.10598576 -1.3634847 -0.4224864 0.9005449 -0.56121325 -0.28523538
0.59049505 0.8154763 -0.035506185 -0.37447375 -0.13648663 -0.28376484 0.30317712 -0.65145195
0.27785 -0.41604108 -0.4738775 0.3815603 0.4577577 0.65460414 0.28849038 -0.8896927
-0.1382815 0.33222884 0.09015976 -0.27833477 0.26594692 0.9747807 0.016365498 0.9487359
0.7165368 0.12202876 -0.7236228 0.46817926 1.0251023 -0.8081796 0.554126 0.85152745
-0.9859189 0.5459501 0.1250344 -0.09248186 0.40830562 -0.5009099 0.6500597 -0.50898105
-0.7171097 0.76324487 0.60592604 -0.16260462 -0.13386254 -0.23736311 0.5170728 0.85607743
00000000: 873b 293d ded7 38be f9cc e8be c2c2 53bd
00000010: e63f b43e bf43 afbe 0c14 ccbe 3f51 173c
00000020: 6508 fb3b f971 43be 10d9 e93d a5f7 adbe
00000030: 161a 683e 601b 95bd 4054 e33d d968 23bd
00000040: 88cb fa3b c8b1 46bd e90e 0dbe 1713 24be
00000050: 9362 32be 103f cd3c fccd c43c 1886 c3be
00000060: 7d2e 2cbe ea6f 793e c16d 173e c356 af3d
00000070: 275b 66bd 7233 513c c321 293d 0199 ac3e
00000080: 02b1 f93d 3461 c13e aeb7 793c c764 013d
00000090: c2e1 83be a1a5 c63c 0972 153e 6f2a 923e
000000a0: 43a2 a53c 76d8 213f 0af0 073f f0fa b03e
000000b0: b104 82bc dc26 e03e 58f5 87be e6cf 6cbd
000000c0: 27b2 44bd e0a6 423e b271 5bbd 851a 0b3e
000000d0: a2cc 99bd 4449 913e 905b bfbd 2d2c 62be
000000e0: b4f2 443e 39f5 53be 2a07 883d 5f89 37be
000000f0: e411 0d3d c384 cfbe e3fa a43d 6e5e 193e
00000100: 72d3 9abe 1ba9 213f 43a5 75be fb81 b53c
00000110: 3139 033d f348 ebbc 17f7 f0bc 4320 99be
00000120: a612 cabe d566 013f d964 06be a747 a6bb
00000130: 3abf e0bd d25a 743c 2158 a5be 86f9 d13d
00000140: 107b 333e d867 cb3d 26b8 23be 3b01 1bbe
00000150: 6891 bcbd a353 e23e fa85 52be 298d aa3e
00000160: 2efb df3e 4e13 92be 9ade e7be b9f8 05bd
00000170: 7bdd a6bc 7c87 4d3e 20c4 f73c 9bb2 263d
00000180: 4382 1a3d 52d2 82be c888 b63e 555a 56bc
00000190: 5345 d43e c9d2 48be 9cc8 a1bd aca9 10be
000001a0: dfe9 b3bd a50a 13be ba5c 163e 353c 0abe
000001b0: c6b3 f93e 7650 963e 9c9e 9c3a 97eb 76be
000001c0: 5546 4abe f133 06bd 6075 0cbe d570 513e
000001d0: 4e80 f9be 6655 c5be 7e1d 923e 97d1 713e
000001e0: 4889 1cbc 5791 58bd f525 17bd 5a13 a63d
000001f0: 56e1 9b3e c906 c5bd a903 9fbe 0279 4d3d
00000200: e8dc 80bd 0e48 84be a5b5 283f 8b2e 42be
00000210: 022e 8a3e aa06 963d 78ed b2be 6bfc 0e3f
00000220: 1606 923e b536 133e a045 853e 5f37 7f3f
00000230: 1145 933f 52cf a2be 3d86 043f 6130 833f
00000240: f589 123f 161a 84be fe09 243f 264f 85be
00000250: f5a7 39bf 3eba 1d3e ded1 0e3f c433 563e
00000260: f454 08bf c94a 0e3f 4f55 363f 0c1f 70bf
00000270: 0027 69be 4c50 9b3e 5db2 adbe 8dc1 84be
00000280: dd52 f1be abb7 dcbd cf90 5dbf bd11 423f
00000290: 03d2 1f3f 4381 d7be d691 9c3f fc3c 493f
000002a0: aa15 513f c7d9 183f 09bb a13d 55fe cdbc
000002b0: b02c 14bf dd6a 0ebe 9bda db3d 7d79 e93e
000002c0: 226f 763f 40aa b6bd a8ea d6be 6528 823f
000002d0: d0f3 7ebf 5a3c 5dbf 988d 213f 52f4 8c3e
000002e0: 2ded 033f b41a 573e 86c7 5a3e 40e3 14bf
000002f0: 151e 5b3f d97b 2c3f c1c3 613f a73c 05bf
00000300: e032 463f 7148 81bf 29b6 003f ad1e a0be
00000310: 0143 413f 1045 793f 91bf 84be cddf 10bf
00000320: a61c 0d3c 3000 43bc 100f d93d ab86 aebf
00000330: 2350 d8be 1c8a 663f acab 0fbf 5f0a 92be
00000340: af2a 173f 0ec3 503f ef6e 11bd 06bb bfbe
00000350: 27c3 0bbe a049 91be 083a 9b3e 8ec5 26bf
00000360: 5b42 8e3e 5603 d5be 12a0 f2be df5b c33e
00000370: 385f ea3e 2394 273f 03b5 933e e7c2 63bf
00000380: aa99 0dbe e619 aa3e aea5 b83d e581 8ebe
00000390: 322a 883e 3a8b 793f f010 863c 5be0 723f
000003a0: f56e 373f 37ea f93d 583f 39bf 31b5 ef3e
000003b0: 8d36 833f dce4 4ebf 34db 0d3f b4fd 593f
000003c0: 2e65 7cbf 63c3 0b3f 0509 003e 2167 bdbd
000003d0: 6f0d d13e a23b 00bf 506a 263f 954c 02bf
000003e0: 8094 37bf 0464 433f f81d 1b3f d381 26be
000003f0: 4313 09be 510f 73be e25e 043f e427 5b3f

final_linear.bias f4 [2]
-0.006694629 -0.95126677
00000000: 9e5e dbbb 3886 73bf

linear1.weight f4 [128, 4]
-1.9731191 6.944017 -0.5120793 -2.3243787 -2.588553 10.309209 -1.6896508 -1.3383588
-2.065651 6.662076 -0.70428437 -2.406188 -1.3669845 7.149123 -0.5704803 -1.5123194
-0.452396 5.882242 -0.6337199 -2.9119263 -2.5644507 11.939452 -1.5437907 -1.264481
-2.7703757 11.485488 -1.576087 -0.7740443 -1.5951922 7.910473 0.14907019 -2.4435062
-0.9530939 6.476464 0.021060532 -2.8009331 -0.051508907 11.200372 2.6177807 -1.9708626
0.51227254 -6.805397 -0.8834316 -0.5495463 3.450766 -6.959475 0.026501482 0.04923088
-0.8000314 6.5743904 -0.3196434 -1.9278878 -2.7795143 11.7225 -1.3556015 -1.0356501
-1.5678604 8.501021 0.4569188 -2.418122 -1.6793184 10.778951 -0.2665587 -2.2479336
-0.8356899 5.7655025 -0.7755102 -2.8821542 0.77198035 -6.1097713 -0.814789 0.44151878
-0.82409453 4.55334 1.8368317 0.042576425 0.7735405 -6.0937014 -0.7668589 0.518774
-1.0056936 6.0308385 -0.08287644 -1.4152814 3.0671406 -6.4605937 0.02297082 0.052273978
-0.8418625 6.6973886 -0.1677243 -1.8780674 -1.2512745 9.270908 2.3515298 -1.2862563
-0.8405027 6.2688217 -0.17386854 -1.9262971 -0.7129495 6.8209376 -0.20102033 -1.918588
1.1528438 10.841192 2.463358 -2.2137682 -1.916609 8.501181 -0.020337585 -2.260815
-1.6370817 9.297047 0.1286584 -2.253554 -0.75239766 5.951967 -0.62219983 -2.9056048
-0.9214663 5.304137 -0.48437142 -2.8428276 0.40607297 7.738053 0.22608069 -4.966023
1.1804603 10.592674 1.6624773 -3.0521748 -4.1854396 11.024917 -0.007935717 2.9793527
-0.96029425 6.4897876 0.035666462 -1.8383409 -1.0980421 6.8486924 0.15446629 -1.4460658
-0.5991932 5.946168 0.75359935 -2.9484742 -0.9245173 6.5487885 -0.042220104 -2.7500525
0.41130632 -4.225808 -0.7235961 -1.4565808 -0.8233583 6.6128674 -0.04483819 -1.8202562
-2.0279117 -0.19596757 -0.6147716 -0.5720003 -1.0117909 6.8766866 0.18739752 -2.7399242
-0.5766993 6.2287507 0.15202442 -1.9158608 -0.868125 6.141883 1.6269962 -0.68534416
-0.78329086 5.6547604 -0.30430573 -2.7712262 1.1180571 -7.455231 -0.63129574 1.1258769
-1.1963876 7.4220557 -0.26076365 -1.7562916 -0.89860773 6.624797 -0.06258208 -2.707109
-1.4253212 9.679006 2.2721574 -1.2674531 -0.8426996 6.9601455 -0.1436589 -1.9606239
-0.53836656 5.8902435 -0.28333414 -2.9083939 -0.08385202 4.823063 -0.3459385 -2.6763885
3.4437613 -7.2836504 0.010684836 0.051156905 1.7156494 10.964544 2.9962938 -2.2373314
-2.1228857 9.303048 -1.607265 -1.396206 -0.28481025 4.8336062 -0.35153726 -2.870388
-0.49471372 6.38377 -0.21887515 -3.0027313 -0.8355323 6.2709193 -0.7102202 -2.7294166
3.5558732 -6.9886727 0.026568536 0.05440142 1.6683317 10.750963 2.714326 -2.1386065
3.978949 -7.5541024 0.022980813 0.070914075 1.5452709 -2.6098177 0.03393896 0.0494297
-0.81128687 5.590413 -0.24560535 -2.8714983 -0.66971314 6.3384748 0.19872205 -2.8016746
00000000: 2b8f fcbf 6335 de40 a117 03bf 9fc2 14c0
00000010: daaa 25c0 85f2 2441 7a46 d8bf 574f abbf
00000020: a033 04c0 ba2f d540 fb4b 34bf fcfe 19c0
00000030: 59f9 aebf 9ec5 e440 ff0a 12bf af93 c1bf
00000040: 73a0 e7be 543b bc40 783b 22bf 005d 3ac0
00000050: f61f 24c0 ff07 3f41 ef9a c5bf 83da a1bf
00000060: d64d 31c0 8fc4 3741 38bd c9bf c427 46bf
00000070: 422f ccbf 9822 fd40 dba5 183e 6862 1cc0
00000080: f6fd 73bf 313f cf40 2387 ac3c 7d42 33c0
00000090: 01fb 52bd b934 3341 b889 2740 3a45 fcbf
000000a0: 4b24 033f d0c5 d9c0 9328 62bf 11af 0cbf
000000b0: 5ad9 5c40 05b4 dec0 a319 d93c 52a6 493d
000000c0: dcce 4cbf 6861 d240 4da8 a3be 07c5 f6bf
000000d0: 90e3 31c0 5c8f 3b41 5a84 adbf 2f90 84bf
000000e0: a6af c8bf 2f04 0841 43f1 e93e 83c2 1ac0
000000f0: e8f3 d6bf 9576 2c41 627a 88be 25de 0fc0
00000100: c6ef 55bf ff7e b840 d687 46bf 3775 38c0
00000110: 81a0 453f 3f83 c3c0 0396 50bf c00e e23e
00000120: dcf7 52bf f6b4 9140 4d1d eb3f 9e64 2e3d
00000130: c006 463f 9aff c2c0 dd50 44bf 5fce 043f
00000140: 91ba 80bf a1fc c040 1fbb a9bd f127 b5bf
00000150: 084c 4440 2fbd cec0 4d2d bc3c 3d1d 563d
00000160: 4d84 57bf 0251 d640 ebbf 2bbe 8364 f0bf
00000170: c329 a0bf a455 1441 777f 1640 0ca4 a4bf
00000180: 2f2b 57bf 309a c840 980a 32be e790 f6bf
00000190: dc83 36bf 1f45 da40 46d8 4dbe 4b94 f5bf
000001a0: 6390 933f 8675 2d41 a8a7 1d40 61ae 0dc0
000001b0: 7253 f5bf d604 0841 029b a6bc 31b1 10c0
000001c0: e58b d1bf b4c0 1441 07bf 033e 3b3a 10c0
000001d0: 229d 40bf 8376 be40 7d48 1fbf 6ef5 39c0
000001e0: 37e5 6bbf 7ebb a940 88ff f7be e3f0 35c0
000001f0: cce8 cf3e 219e f740 b281 673e a9e9 9ec0
00000200: 5319 973f 987b 2941 0ecc d43f d556 43c0
00000210: 1fef 85c0 0f66 3041 cf04 02bc b7ad 3e40
00000220: d8d5 75bf 57ac cf40 ff16 123d c14e ebbf
00000230: a58c 8cbf 7d28 db40 692c 1e3e af18 b9bf
00000240: ba64 19bf 0247 be40 e3eb 403f cdb3 3cc0
00000250: 2aad 6cbf ad8f d140 fdee 2cbd dc00 30c0
00000260: be96 d23e d239 87c0 983d 39bf 3d71 babf
00000270: 9cc7 52bf 9c9c d340 40a8 37bd 28fe e8bf
00000280: 4ec9 01c0 b9ab 48be ac61 1dbf 9d6e 12bf
00000290: 5d82 81bf d10d dc40 23e5 3f3e eb5a 2fc0
000002a0: 91a2 13bf ed51 c740 4aac 1b3e ed3a f5bf
000002b0: 713d 5ebf 4e8a c440 6941 d03f b772 2fbf
000002c0: c085 48bf ccf3 b440 f6cd 9bbe c55b 31c0
000002d0: 7f1c 8f3f 4191 eec0 999c 21bf bc1c 903f
000002e0: 3b23 99bf 7b81 ed40 d082 85be 2ace e0bf
000002f0: 280b 66bf 56fe d340 092b 80bd 4641 2dc0
00000300: ed70 b6bf 35dd 1a41 076b 1140 e73b a2bf
00000310: 29bb 57bf 83b9 de40 521b 13be b9f5 fabf
00000320: 64d2 09bf e07c bc40 2c11 91be 2023 3ac0
00000330: 9cba abbd 8856 9a40 da1e b1be f349 2bc0
00000340: 9666 5c40 aa13 e9c0 730f 2f3c e789 513d
00000350: 669a db3f c66e 2f41 47c3 3f40 7030 0fc0
00000360: 5cdd 07c0 49d9 1441 dcba cdbf e1b6 b2bf
00000370: a6d2 91be e7ac 9a40 b1fc b3be 70b4 37c0
00000380: 1e4b fdbe d847 cc40 cf20 60be c02c 40c0
00000390: 72e5 55bf 5fab c840 fed0 35bf c3ae 2ec0
000003a0: 6d93 6340 35a3 dfc0 42a6 d93c 06d4 5e3d
000003b0: e58b d53f f203 2c41 84b7 2d40 eede 08c0
000003c0: 1aa7 7e40 35bb f1c0 4242 bc3c 663b 913d
000003d0: 70cb c53f 4107 27c0 9403 0b3d cc76 4a3d
000003e0: 7fb0 4fbf aae4 b240 f87f 7bbe a1c6 37c0
000003f0: 5272 2bbf c9d4 ca40 cb7d 4b3e a34e 33c0

linear1.bias f4 [128]
2.579571 1.9060736 2.665703 1.6448447 1.8240325 1.8238388 1.6824936 2.568427
2.7509215 1.9104695 0.3328402 0.60392165 1.9438707 1.8071189 2.582485 2.4857874
2.1179085 -0.5555958 1.4352013 -0.6032571 1.4754384 0.5740431 1.915854 1.9326993
1.957009 1.9273295 1.9501443 2.5505493 2.4314754 2.1324487 2.2751582 2.672162
2.6570547 1.8696632 1.8629335 1.5255526 2.5289092 2.6989565 0.6883975 1.8451573
-0.045753885 2.7228463 1.8855151 1.1707989 2.1920664 -1.1372021 1.8299103 2.6682668
2.003478 1.9960529 2.032298 1.4540727 0.60240144 2.2838929 1.7574723 1.7392135
2.1031394 2.098635 0.5643546 2.071106 0.5310914 0.13100109 2.283931 2.3942125
2.0573623 1.93942 2.6157687 -0.7668645 1.8197681 1.6703502 1.9188486 0.5909936
0.55745447 1.789894 1.9255047 1.9138304 -0.34193417 1.8629016 2.6999052 1.5175613
1.6473001 0.46623266 0.5225398 2.1186483 2.7433193 1.4320574 -0.59972405 1.703088
1.7181864 1.3117518 1.966074 0.5455391 1.9593982 1.9751989 2.241143 1.9286757
-0.19519548 1.7839566 -0.28689462 2.6263015 1.8995752 1.810931 1.8150479 1.3294376
0.5174448 2.6490672 1.5295253 1.9438101 2.0454247 0.4123419 2.7376187 1.936075
1.8949832 1.8619074 1.7946754 0.58894897 2.7683854 2.0886667 0.32840055 1.5405917
0.6053604 1.8574365 2.5528717 1.9449162 1.2069861 1.7246624 2.6551685 2.5822418
00000000: b117 2540 38fa f33f e19a 2a40 458a d23f
00000010: e679 e93f 8d73 e93f f35b d73f 1c61 2440
00000020: 190f 3040 448a f43f 086a aa3e 9c9a 1a3f
00000030: c1d0 f83f ac4f e73f 6f47 2540 2417 1f40
00000040: d08b 0740 873b 0ebf adb4 b73f 0f6f 1abf
00000050: 2adb bc3f 7df4 123f b43a f53f b162 f73f
00000060: 457f fa3f bcb2 f63f 549e f93f 333c 2340
00000070: 4b9d 1b40 0a7a 0840 319c 1140 b404 2b40
00000080: 2f0d 2a40 2051 ef3f 9b74 ee3f 4f45 c33f
00000090: a6d9 2140 b4bb 2c40 d23a 303f 1d2e ec3f
000000a0: 6d68 3bbd 1d43 2e40 8f58 f13f bddc 953f
000000b0: d14a 0c40 d78f 91bf 803a ea3f e2c4 2a40
000000c0: fc38 0040 a97e ff3f 2c11 0240 0e1f ba3f
000000d0: fb36 1a3f 4d2b 1240 daf4 e03f 8c9e de3f
000000e0: d699 0640 0950 0640 8b79 103f 008d 0440
000000f0: 9bf5 073f 2625 063e ed2b 1240 c73a 1940
00000100: d3ab 0340 ea3e f83f c168 2740 3b51 44bf
00000110: 29ee e83f 09ce d53f d59c f53f 5b4b 173f
00000120: 56b5 0e3f 3f1b e53f f076 f63f 65f8 f43f
00000130: ff11 afbe 8f73 ee3f 3fcb 2c40 733f c23f
00000140: bbda d23f 0cb6 ee3e 2bc5 053f ef97 0740
00000150: 8b92 2f40 a84d b73f 8487 19bf cafe d93f
00000160: 88ed db3f 7ce7 a73f 50a8 fb3f 73a8 0b3f
00000170: 8fcd fa3f 51d3 fc3f e36e 0f40 d8de f63f
00000180: 53e1 47be b158 e43f dae3 92be 5315 2840
00000190: 4825 f33f 96cc e73f 7d53 e83f 032b aa3f
000001a0: 4377 043f 518a 2940 7cc7 c33f c5ce f83f
000001b0: 3de8 0240 7a1e d33e 2535 2f40 4ed1 f73f
000001c0: cf8e f23f fb52 ee3f ecb7 e53f 5cc5 163f
000001d0: 3a2d 3140 b7ac 0540 1e24 a83e 1c32 c53f
000001e0: e6f8 1a3f 7bc0 ed3f 4062 2340 04f3 f83f
000001f0: 857e 9a3f bdc1 dc3f 48ee 2940 7343 2540

final_linear.weight f4 [1, 128]
-3.1346586 -2.6085675 -2.9070215 -2.1924264 -2.7553382 -2.8572874 -3.1550148 -3.0413709
-2.8686504 -3.4720626 -2.05424 2.1219761 -2.1520205 -3.950415 -3.0252948 -3.2579455
-2.7543256 -2.24433 -2.012994 -2.1698682 -1.8662306 1.3367252 -2.2326043 -3.2721896
-2.2254872 -2.2207773 -3.3618143 -3.1110215 -3.000056 -2.7380831 -2.8267312 -4.415613
-3.3048341 -3.9553611 -2.228306 -2.084639 -2.7598698 -2.9066176 -1.4820846 -2.1843028
-0.74028283 -2.8350809 -2.2411067 -2.773733 -2.809478 -1.7697853 -2.2905164 -2.9499679
-3.5775306 -2.2828372 -2.7652733 -2.7083502 1.8401566 -3.1435802 -2.3271685 -2.7121522
-2.746496 -2.9141207 1.6660173 -3.1034877 1.424817 0.62176204 -2.8628306 -2.7890043
-2.2674122 -3.0877037 -3.4142582 -0.50935614 -1.9683328 -2.0221763 -3.74893 2.278711
1.2562706 -2.7351398 -3.273791 -2.796693 -2.311719 -2.2737038 -2.877521 -2.097585
-2.466595 1.0697116 1.1943494 -2.972574 -2.850727 -4.117268 -2.1843157 -3.1166651
-3.1285043 -3.220283 -2.1602273 1.5994985 -3.287777 -2.200749 -2.7839446 -3.812899
-0.628515 -2.1884193 -2.4627228 -2.9474287 -3.7045789 -3.1741347 -3.8862624 -1.6486065
1.3433558 -2.9343443 -2.0261357 -2.2761767 -2.725091 -2.3142836 -2.8333883 -3.5782876
-2.2479272 -3.0843344 -2.2499795 1.9172941 -2.792333 -3.5362616 -2.0433412 -2.0698457
1.8455534 -2.2191713 -2.7071273 -2.9520113 -2.80012 -2.2116659 -2.8072934 -2.8723845
00000000: 3f9e 48c0 c5f2 26c0 a40c 3ac0 b750 0cc0
00000010: 7657 30c0 ccdd 36c0 c3eb 49c0 d2a5 42c0
00000020: f897 37c0 4636 5ec0 ab78 03c0 75ce 0740
00000030: b4ba 09c0 99d3 7cc0 6e9e 41c0 2e82 50c0
00000040: df46 30c0 1aa3 0fc0 e5d4 00c0 1fdf 0ac0
00000050: a5e0 eebf d019 ab3f fde2 0ec0 8e6b 51c0
00000060: 626e 0ec0 3721 0ec0 f727 57c0 fa1a 47c0
00000070: eb00 40c0 c13c 2fc0 2ae9 34c0 b44c 8dc0
00000080: 6782 53c0 a324 7dc0 919c 0ec0 ba6a 05c0
00000090: b5a1 30c0 0606 3ac0 f3b4 bdbf 9ecb 0bc0
000000a0: 2d83 3dbf f771 35c0 4b6e 0fc0 d784 31c0
000000b0: 7dce 33c0 5388 e2bf d297 12c0 46cc 3cc0
000000c0: 43f6 64c0 011a 12c0 3dfa 30c0 9c55 2dc0
000000d0: 408a eb3f 6b30 49c0 54f0 14c0 e793 2dc0
000000e0: 97c6 2fc0 f480 3ac0 0e40 d53f 8b9f 46c0
000000f0: 6760 b63f cc2b 1f3f 9e38 37c0 0c7f 32c0
00000100: 481d 11c0 f09c 45c0 3583 5ac0 2a65 02bf
00000110: 54f2 fbbf 566b 01c0 78ee 6fc0 67d6 1140
00000120: 7acd a03f 880c 2fc0 cb85 51c0 05fd 32c0
00000130: 34f3 13c0 5d84 11c0 4e29 38c0 d53e 06c0
00000140: b1dc 1dc0 4fec 883f 71e0 983f a73e 3ec0
00000150: 5072 36c0 a9c0 83c0 d4cb 0bc0 7177 47c0
00000160: 6a39 48c0 1e19 4ec0 2a41 0ac0 5ebc cc3f
00000170: f06a 52c0 12d9 0cc0 262c 32c0 8a06 74c0
00000180: 5ce6 20bf 100f 0cc0 409d 1dc0 aca2 3cc0
00000190: d217 6dc0 0625 4bc0 86b8 78c0 8a05 d3bf
000001a0: 15f3 ab3f 4ccc 3bc0 35ac 01c0 e1ac 11c0
000001b0: e467 2ec0 391d 14c0 3c56 35c0 aa02 65c0
000001c0: 0ade 0fc0 bc65 45c0 aaff 0fc0 e569 f53f
000001d0: 95b5 32c0 1c52 62c0 1ac6 02c0 5a78 04c0
000001e0: 183b ec3f e706 0ec0 9341 2dc0 c1ed 3cc0
000001f0: 2b35 33c0 ef8b 0dc0 b2aa 33c0 26d5 37c0
