option_hedging/hyperparameters/ppo_hyperparameters/year/0.0/best_ppo_model.pth (torch, 14804 bytes, 7 tensors)

linear1.weight f4 [256, 3]
0	0xbdbc375a	-0.09190245
1	0xbdd5a711	-0.10432256
2	0xbeaa2dcc	-0.33238065
3	0x3dbff2c8	0.09372479
4	0xbdd2245b	-0.102608405
5	0xba7444da	-0.0009318121
6	0xbdb83378	-0.08994192
7	0xbce29c11	-0.027662309
8	0xbe088f3a	-0.13335887
9	0xbd713f37	-0.058898177
10	0xbe40b14c	-0.18817633
11	0x3e4a446c	0.19752663
12	0x3d73bfcd	0.059509087
13	0x3d3090dc	0.0431069
14	0x3df8d4d1	0.121499665
15	0x3e09b096	0.13446268
16	0x3d5cd5bf	0.05391478
17	0x3dfa2c32	0.12215461
18	0x3e4019a6	0.18759784
19	0x3d9cba5d	0.076527335
20	0xbc640287	-0.013916618
21	0xbe05c141	-0.13062002
22	0xbd7e6e9e	-0.06211721
23	0xbdd73cc2	-0.105096355
24	0x3ca5dce8	0.020246938
25	0x3d0f495f	0.03498208
26	0x3e0bcb70	0.13651824
27	0x3dde07e8	0.10841352
28	0x3df10c97	0.117699794
29	0xbd06fe6c	-0.03295748
30	0x3e0e4e88	0.13897145
31	0xbe17f452	-0.14839295
32	0xbdbe4837	-0.09291118
33	0x3d9a7565	0.075419225
34	0xbe355689	-0.17708792
35	0xb974c30d	-0.00023342315
36	0xbcf6a79f	-0.030109225
37	0x3d87e651	0.06635726
38	0x3d74729e	0.05967962
39	0x3e247ae8	0.1606251
40	0x3d5f3523	0.054494034
41	0x3d613261	0.054979686
42	0x3e2ca53d	0.16859908
43	0xbcd75643	-0.02628625
44	0xbae55147	-0.0017495536
45	0x3e0218e6	0.1270481
46	0xbe82ca63	-0.25545034
47	0xbd8f27dc	-0.069900244
48	0xbc23324d	-0.009960723
49	0x3d398309	0.04529098
50	0x3ccde480	0.025133371
51	0xbce37e84	-0.027770288
52	0x3d9ffa74	0.07811442
53	0xbe2b6248	-0.1673671
54	0x3dc501d1	0.09619487
55	0xbd451f4f	-0.04812556
56	0xbafc1855	-0.0019233326
57	0x3bd2bacd	0.00643096
58	0x3c2c094c	0.010500263
59	0x3db676a5	0.089093484
60	0x3d11ef1d	0.035628427
61	0x3d91d1ed	0.07120118
62	0x3d27fbb0	0.041011512
63	0x3c583009	0.013195046
64	0xbdefc7e7	-0.1170805
65	0x39eca977	0.0004513969
66	0x3dd55325	0.10416249
67	0xbd986df8	-0.0744285
68	0xbc8ab9cc	-0.016934298
69	0x3cdc4a71	0.026890965
70	0x3c662b0a	0.014048347
71	0xbe3dfeed	-0.18554278
72	0xbcad750d	-0.021173978
73	0xbdbf3fa2	-0.09338309
74	0x3dbb9bde	0.09160589
75	0xbe0d459f	-0.1379609
76	0x3d04a287	0.03238156
77	0xbbb76d0a	-0.0055977153
78	0xbbcd3c2f	-0.006263278
79	0xbd4c8b8b	-0.049937766
80	0xbdbd9ac9	-0.092580386
81	0x3d8427f2	0.064529315
82	0xbea3b2ca	-0.31972343
83	0x3d0b059a	0.03394089
84	0x3c8bd127	0.017067505
85	0x3e568a8a	0.20951286
86	0x3b213762	0.002459966
87	0x3b848b95	0.00404496
88	0xbcff3d07	-0.03115703
89	0xbe0626ed	-0.13100787
90	0x3df560b5	0.11981336
91	0x3e60e0bd	0.21960731
92	0x3c21c4bf	0.009873568
93	0x3db22f5a	0.08700438
94	0x3ba30a54	0.0049755964
95	0xbcf92c6b	-0.030416688
96	0x3ddaa0a5	0.10675172
97	0xbe71dfe3	-0.23620562
98	0xba4a3cba	-0.00077147374
99	0xbd4af550	-0.049550354
100	0x3c0dc890	0.008653775
101	0xbc1db107	-0.009624726
102	0xbce9db6c	-0.028547011
103	0x3e296e70	0.16546035
104	0xbe2fab4e	-0.17155191
105	0x3d19f4c5	0.037586946
106	0x3c7a769a	0.015287066
107	0xbe585fc7	-0.21130286
108	0x3dfadd00	0.12249184
109	0xbd2f5568	-0.04280606
110	0xbe6ce3ce	-0.23133776
111	0x3c2ade9b	0.01042905
112	0x3e693216	0.22773013
113	0x3d306b68	0.04307118
114	0x3dd9d666	0.106365964
115	0x3cd889dd	0.026432926
116	0xbb8c1322	-0.0042747417
117	0xbddfe744	-0.10932782
118	0x3e237e45	0.15966137
119	0x3b4b35fe	0.0031007524
120	0x3e0b3939	0.13596047
121	0xbde493cc	-0.111610025
122	0x3e174087	0.14770709
123	0xbc16ffc3	-0.009216252
124	0xbe159630	-0.14608073
125	0xbe18bca9	-0.14915718
126	0x3daa74e9	0.0832308
127	0xbdfd5948	-0.12370545
128	0xbbeb3851	-0.0071783443
129	0xbdd8bed5	-0.10583273
130	0xbd9ed911	-0.07756246
131	0x3e3986f7	0.18117891
132	0xbdccbc3a	-0.09996839
133	0x3d7a81ca	0.061158933
134	0xbe8976c8	-0.26848435
135	0xbd75e62f	-0.060033973
136	0xbd1bc44e	-0.038029008
137	0xbbc193d4	-0.005907515
138	0x3bc89622	0.006121413
139	0xbc07622e	-0.008263154
140	0x3cba2bd3	0.022725975
141	0x3d54af6c	0.051925108
142	0x3e0a6888	0.13516438
143	0xbd100e25	-0.03516974
144	0xbb80db15	-0.0039323666
145	0xbc354d76	-0.011065831
146	0x3cfc6bff	0.030813215
147	0x3e0215ea	0.12703672
148	0xbe2b7497	-0.16743694
149	0xbda45ea5	-0.080258645
150	0x3c683920	0.014173776
151	0x3db7a9d9	0.08967943
152	0x3c8d70bf	0.017265676
153	0xbdbee626	-0.09321241
154	0xbd77024d	-0.06030493
155	0xbdafcea7	-0.08584338
156	0x3d85cbfa	0.06533046
157	0x3d69a432	0.057041354
158	0x3dae17ca	0.08500631
159	0xbe052762	-0.13003305
160	0x3d7769cf	0.06040364
161	0xbd1f3627	-0.038870003
162	0xbd4581a1	-0.048219327
163	0x3e176805	0.14785774
164	0x3d2c04e7	0.041996863
165	0xbd3e12f5	-0.046404798
166	0xbe221b4b	-0.15830724
167	0x3dc51168	0.096224606
168	0xbcd9704e	-0.026542809
169	0x3c522176	0.0128253605
170	0xbcfd8740	-0.030948281
171	0x3cf53e32	0.029936884
172	0xbe66a582	-0.22524074
173	0x3d9a1215	0.0752298
174	0xbd592d0d	-0.05302148
175	0x3e42f201	0.1903763
176	0x3ca312b8	0.019906387
177	0x3c17f4ad	0.009274644
178	0x3d52ae36	0.05143567
179	0x3d19026b	0.03735582
180	0xbe231219	-0.15924872
181	0x3e3f5dba	0.18688098
182	0xbd60a8f6	-0.054848634
183	0x3d809b3c	0.062796086
184	0xb8a1614d	-7.695202e-05
185	0x3d8f7993	0.0700561
186	0xbd27914e	-0.040910058
187	0x3d8baa48	0.06819588
188	0x3ca742a1	0.020417513
189	0x3c71c8e3	0.014757368
190	0xbdc76f7e	-0.09738062
191	0xba50f37b	-0.0007970852
192	0x3c4b8551	0.012421922
193	0x3cbe690e	0.023243453
194	0xbc73867f	-0.014863609
195	0xbd8d24ab	-0.068917595
196	0x3c9c061b	0.01904588
197	0x3d26a7a0	0.040687203
198	0xbdaa350c	-0.08310899
199	0xbdf14a95	-0.117818035
200	0xbe0f5ed2	-0.14001015
201	0xbdd529ff	-0.10408401
202	0xbe009d0a	-0.12559906
203	0xbd2acb17	-0.041697588
204	0xbda4b126	-0.08041601
205	0xbe788e8f	-0.24273132
206	0xbe0a8c55	-0.13530095
207	0xbd300c42	-0.04298044
208	0xbc71e73a	-0.014764601
209	0x3de07217	0.10959261
210	0xbb3e42c4	-0.0029031495
211	0x3d59330f	0.05302721
212	0xbd9d6d22	-0.07686831
213	0x3d8130e2	0.06308152
214	0x3d8bb623	0.06821849
215	0xbe4eae35	-0.20183642
216	0xbe22e70f	-0.15908454
217	0x3db05f67	0.086119466
218	0xbc389b57	-0.011267505
219	0xbd7b77ea	-0.061393656
220	0x3e482b9c	0.19547886
221	0xbc416daf	-0.011805936
222	0x3e16978f	0.14706253
223	0x3bfae503	0.007656695
224	0x3d965b8b	0.07341679
225	0x3d45bb4f	0.048274335
226	0xbe756f25	-0.2396818
227	0x3d735c73	0.05941434
228	0x3df1660d	0.11787043
229	0x3e01ccd6	0.12675795
230	0x3c56f1a3	0.013119134
231	0x3e2b1266	0.16706237
232	0xbdc90306	-0.0981503
233	0xbe489251	-0.19587065
234	0x3d8c3c2e	0.06847416
235	0x3d92d14c	0.071688265
236	0x3d8d88a7	0.0691083
237	0x3ce22fb1	0.027610632
238	0xbd9baa63	-0.07600858
239	0x3c8e2f2a	0.017356474
240	0xbe08ab04	-0.13346487
241	0x3d48f6f1	0.049063627
242	0x3d0222df	0.031771537
243	0x3d849e78	0.06475538
244	0x3dbc6058	0.091980636
245	0xbdf529f1	-0.1197089
246	0x3d3eb64b	0.046560567
247	0xbde49213	-0.11160674
248	0x3de32d44	0.11092618
249	0xbdaf5439	-0.08560986
250	0x3e0b62e8	0.13611948
251	0xbe3b06f1	-0.18264367
252	0xbd80f5b2	-0.06296863
253	0x3e30af87	0.17254458
254	0x3e8fbee2	0.2807532
255	0xbd2fcd37	-0.042920318

linear1.bias f4 [256]
0	0x3c85eca0	0.016348183
1	0x3ded7ad8	0.11595696
2	0x3d8f34f5	0.069925226
3	0xbcd7aac1	-0.026326539
4	0x3d55adab	0.052167576
5	0x3d5366d8	0.05161175
6	0x3e1da264	0.15393978
7	0xbc14a927	-0.009073532
8	0xbcd788ed	-0.026310408
9	0x3dd5a77b	0.10432335
10	0xbc1c5b4c	-0.009543251
11	0x3e32c45e	0.1745772
12	0x3d736e45	0.059431333
13	0x3d69ee5c	0.057112083
14	0x3d0f08f1	0.034920637
15	0x3c8668ba	0.01640736
16	0xbdb6e58c	-0.08930501
17	0x3d358715	0.044318277
18	0x3e0bf100	0.13666153
19	0x3d6563a5	0.05600323
20	0x3d0092c5	0.03138997
21	0x3e43b1fe	0.19110867
22	0x3e5c872f	0.21535943
23	0x3c6b7989	0.014372238
24	0x3e3ec94b	0.18631475
25	0xbb37a2de	-0.002802066
26	0xbd10c319	-0.03534231
27	0xbc643b22	-0.013930114
28	0x3d3e57f2	0.04647059
29	0xbb94338d	-0.004522747
30	0x3d1d5f03	0.03842069
31	0x3e9be637	0.30449077
32	0x3e382f1c	0.17986721
33	0xbb7695ef	-0.0037625988
34	0xbce52c97	-0.027975364
35	0x3bb38849	0.005478893
36	0xbc365ce3	-0.011130544
37	0x3d6fc0a0	0.05853331
38	0xbbd14131	-0.0063859452
39	0x3d05d431	0.032673065
40	0xbd5b3bb1	-0.053523723
41	0x3995ec56	0.0002859558
42	0x3e8b1d2d	0.27170697
43	0xbd627d3f	-0.055295225
44	0x3da64902	0.08119394
45	0x3e86d7ec	0.2633661
46	0xbda08a00	-0.078388214
47	0x3e123030	0.14276195
48	0x3d31a70c	0.0433722
49	0xbcd54247	-0.02603258
50	0x3d481205	0.04884531
51	0x3d65fc98	0.056149095
52	0xbb7889c5	-0.0037923914
53	0x3d18fa28	0.037347943
54	0x3d86a2d1	0.065740235
55	0xbc64cbdb	-0.013964619
56	0x3c0de495	0.008660455
57	0x3dbd5423	0.092445634
58	0x3d888b78	0.066672266
59	0x3db9c9ac	0.09071669
60	0xbd0df8a0	-0.034660935
61	0x3d7a5bc7	0.061122682
62	0x3d30d6d9	0.043173645
63	0x3e60d067	0.21954499
64	0x3de37fa6	0.111083314
65	0xbb2e2e7a	-0.0026577995
66	0x3d1a3f18	0.037657827
67	0x3c03da2b	0.008047621
68	0xbc34df90	-0.01103963
69	0xbcf553e8	-0.029947236
70	0xbc414859	-0.011797034
71	0xbd798677	-0.06091925
72	0xbc1b9ec8	-0.009498306
73	0x3da52c5d	0.08065102
74	0xbd3dc44b	-0.046329778
75	0x3d460fcc	0.04835491
76	0xbbc57c5a	-0.0060267868
77	0xbbe7d5d8	-0.0070750527
78	0x3d282874	0.041054204
79	0x3dc7417c	0.09729287
80	0xbd97747b	-0.07395264
81	0x3e23dbc4	0.16001803
82	0x3d71f52c	0.059071705
83	0x3d84d17b	0.06485268
84	0x3c1939d1	0.009352163
85	0x3d6d8437	0.057987418
86	0x3bd707e2	0.006562219
87	0x3d5e457f	0.054265495
88	0x3d759e73	0.059965562
89	0x3d375ec7	0.04476812
90	0xbc3a9989	-0.011389145
91	0x3c914673	0.017733788
92	0x3d685446	0.056720994
93	0x3e8c6b19	0.2742546
94	0x3dac954d	0.08426914
95	0x3d3262f7	0.04355141
96	0xbbd8abb9	-0.006612268
97	0x3df16bd5	0.117881455
98	0xbcaf548c	-0.02140262
99	0xbbc26dc4	-0.0059334952
100	0x3e39b6ad	0.18136092
101	0x3e07c8e3	0.13260226
102	0xbd0f2a80	-0.03495264
103	0xbd1f2719	-0.038855646
104	0xbd1d3408	-0.0383797
105	0x3d74dfd5	0.059783775
106	0x3bf79349	0.0075553996
107	0x3e1436b0	0.14473987
108	0xbd4f7221	-0.05064595
109	0x3c1931d5	0.00935026
110	0x3d0d5052	0.034500428
111	0xbdf360dc	-0.11883709
112	0xbb735256	-0.0037127933
113	0x3df462b5	0.11932889
114	0x3d1c1989	0.03811029
115	0x3c034359	0.008011662
116	0xbc23132e	-0.009953303
117	0x3cbdcee8	0.02316995
118	0xbc90211b	-0.01759391
119	0x3d5ccb88	0.05390504
120	0x3d9e7a32	0.07738151
121	0x3c66e321	0.014092238
122	0x3e12a093	0.14319067
123	0x3d3777a0	0.044791818
124	0x3d343f7f	0.044005867
125	0x3ca1e91c	0.019764476
126	0x3d7412a9	0.05958811
127	0x3db1a14b	0.08673342
128	0x3e2335a2	0.15938428
129	0x3d2f82d6	0.042849384
130	0x3c8726db	0.01649802
131	0x3d33c6de	0.043890826
132	0x3cd6718c	0.02617719
133	0x3d7c968f	0.06166702
134	0x3d97f2a8	0.0741933
135	0x3d92c17c	0.071658105
136	0x3d384112	0.04498393
137	0xba85ab28	-0.0010198103
138	0x3d43b8bf	0.04778361
139	0x3d2b23f0	0.04178232
140	0x3cc4f227	0.024041248
141	0x3d8ac710	0.067762494
142	0x3cd866ba	0.026416171
143	0x3d8220db	0.06353923
144	0x3d5baa35	0.05362912
145	0xbd0ee482	-0.03488589
146	0xbd4573d5	-0.04820617
147	0x3e482134	0.19543916
148	0xbd612140	-0.05496335
149	0x3da77215	0.08176056
150	0x3d944c01	0.07241059
151	0xbd3cc1de	-0.046083324
152	0x3c427268	0.011868097
153	0xbbe09568	-0.006853748
154	0xbc1ccb2d	-0.009569925
155	0x3d833e38	0.06408352
156	0x3931d288	0.00016958464
157	0x3eaf4bee	0.34237617
158	0xbcced930	-0.025250047
159	0x3d10ade8	0.0353221
160	0xbcce2632	-0.025164697
161	0x3ca083a0	0.019594014
162	0xbcf23df9	-0.029570566
163	0x3cca6263	0.024705118
164	0x3d6ae2aa	0.05734507
165	0x3e8059fb	0.2506865
166	0x3cf98dd5	0.030463139
167	0x3d8cda69	0.06877596
168	0x3d6a3636	0.057180606
169	0x3cf8bb2d	0.03036269
170	0x3c50da20	0.012747318
171	0x3d746415	0.05966576
172	0x3d73dc05	0.059536
173	0x3d64ccab	0.05585925
174	0x3d4e29d9	0.050332878
175	0xbcc8b6ab	-0.024501165
176	0x3ce5f847	0.02807249
177	0x3da6d9d2	0.08147015
178	0x3b820996	0.003968428
179	0x3e05854a	0.13039127
180	0xbc895f81	-0.016769173
181	0xbc15b9f3	-0.009138572
182	0x3d3c9d93	0.046048712
183	0x3c4533c6	0.0120362695
184	0xba98141b	-0.0011602672
185	0x3e3c059c	0.18361515
186	0xbddb7f12	-0.10717596
187	0xbbb1f747	-0.005431089
188	0x3d93f1bb	0.07223841
189	0x3c271919	0.010198855
190	0x3ca7f920	0.020504534
191	0x3e16e3f0	0.14735389
192	0x3c9a9a2f	0.018872349
193	0xbb0c8663	-0.0021442405
194	0x3e181427	0.14851438
195	0xbc8d3a79	-0.017239796
196	0x3d5a3469	0.05327264
197	0x3dcd096e	0.10011564
198	0x3d1eb2c6	0.03874471
199	0x3cc249a2	0.023716751
200	0x3d063607	0.03276637
201	0x3d625f99	0.05526695
202	0x3df2d4b0	0.11856973
203	0x3d4cc049	0.049988065
204	0x3d80d061	0.06289745
205	0xbc8fb61f	-0.017542897
206	0x3bac62f9	0.005260822
207	0x3aefc85b	0.0018293964
208	0x3dc4f583	0.0961714
209	0xbc25b41a	-0.01011374
210	0x3d459939	0.048241828
211	0x3dbc93df	0.09207892
212	0xbd1291f6	-0.03578373
213	0xbbccd988	-0.0062515177
214	0x3d8ea143	0.06964352
215	0x3d229343	0.03969122
216	0x3d174672	0.036932416
217	0x3d9a766d	0.07542119
218	0x3d855382	0.065100685
219	0x3dc0c189	0.09411914
220	0x3e56bb93	0.20969991
221	0xbde8dd5f	-0.11370348
222	0x3cc85722	0.02445561
223	0x3d9620a5	0.07330445
224	0x3d2ee775	0.042701203
225	0xbcfb5a8c	-0.030682825
226	0x3d6c1192	0.057633944
227	0x3e6a113e	0.2285814
228	0x3e517cbb	0.20457737
229	0x3da8abdf	0.08235907
230	0xbc937d37	-0.018004043
231	0xbcc187da	-0.02362435
232	0xbcdee936	-0.027210813
233	0xbb816f92	-0.003950068
234	0xbc276941	-0.010217966
235	0xbcf45a84	-0.029828317
236	0x3ade2258	0.0016947491
237	0x3c8084f4	0.015688397
238	0x3d3c8294	0.046022967
239	0x3d227c2a	0.039669193
240	0x3e2d3996	0.16916499
241	0x3d054469	0.032535944
242	0x3d624f99	0.05525169
243	0x3c836e1e	0.016043719
244	0x3d1a9e20	0.037748456
245	0x3cfdd707	0.030986322
246	0x3da142dd	0.07874081
247	0x3d6da10c	0.058014914
248	0x3d080151	0.03320438
249	0xbd41b6de	-0.047293536
250	0x3d951b44	0.07280591
251	0xbc8167b5	-0.015796522
252	0xbd0d3d64	-0.034482375
253	0x3d253a3e	0.040338747
254	0xb992a6dd	-0.00027971613
255	0x3c8ecec0	0.01743257

final_linear.weight f4 [2, 256]
0	0x3db6e799	0.089308925
1	0xbdb89051	-0.09011901
2	0x3e36de93	0.17858343
3	0xbd91975a	-0.07108946
4	0x3e071cc7	0.13194571
5	0x3db69b97	0.08916395
6	0x3c9f00fb	0.019409647
7	0xbd040d40	-0.0322392
8	0x3d953d3f	0.072870724
9	0x3de0c496	0.10974996
10	0xbe06470f	-0.13113044
11	0xbd9e06f2	-0.077161685
12	0x3d6fae9c	0.05851613
13	0x3d5ef67d	0.05443429
14	0xbd6e2aa4	-0.058146134
15	0xbd753ea2	-0.059874184
16	0xbdc92ee2	-0.09823395
17	0x3e660798	0.22463834
18	0xbde0f387	-0.10983949
19	0x3e1d90e0	0.15387297
20	0x3d4e11d3	0.050309967
21	0xbd88b29f	-0.06674694
22	0x3c85234d	0.016252184
23	0x3cd5daad	0.02610525
24	0xbc568730	-0.013093755
25	0xbd900c56	-0.07033603
26	0x3e1764a1	0.1478448
27	0xbdca0a27	-0.09865218
28	0x3dd68527	0.104746155
29	0x3dca45f3	0.09876623
30	0x3e48a842	0.19595435
31	0x3cb5a3a9	0.022172766
32	0xbd924c40	-0.0714345
33	0xbd748f35	-0.059706885
34	0x3e9ab0d4	0.30213034
35	0x3d1c6ffd	0.038192738
36	0xbc90f431	-0.017694565
37	0x3c2948bc	0.010332283
38	0x3e2e9fbf	0.17053126
39	0x3e5388b4	0.20657617
40	0xbd3239c4	-0.04351212
41	0x3d5a9c59	0.05337176
42	0xbc90e1e9	-0.017685847
43	0xbd068a3f	-0.032846685
44	0x3e90b393	0.28262004
45	0x3c8f7aa3	0.017514532
46	0xbd938941	-0.072039135
47	0x3db6b1da	0.08920641
48	0xbdecbe3e	-0.11559723
49	0xbe0aa907	-0.13541041
50	0x3e5239fa	0.20529929
51	0x3e0ec180	0.13941002
52	0xbe1bea80	-0.15226173
53	0x3eb55ac9	0.35420826
54	0x3de2d488	0.11075693
55	0xbe36a448	-0.17836106
56	0xbd17ce5c	-0.037062034
57	0xbc42e3c5	-0.011895125
58	0x3e034df0	0.128227
59	0x3bac2918	0.005253922
60	0xbc713476	-0.01472198
61	0x3d9e40cc	0.07727203
62	0x3d71c5cd	0.05902653
63	0x3c45b9df	0.012068241
64	0x3e4f5272	0.20246294
65	0xbdf9af19	-0.121916
66	0x3d91a6a5	0.07111863
67	0xb9312e60	-0.00016897311
68	0x3da7b1c2	0.081882015
69	0xbd54dc9a	-0.051968195
70	0xbd9eea70	-0.07759559
71	0x3dabbae8	0.08385259
72	0xbb26875e	-0.0025410275
73	0x3e69462e	0.22780678
74	0xbddba5ff	-0.107250206
75	0xbd4aec52	-0.04954178
76	0x3e0a19b5	0.13486369
77	0xbe2ae35f	-0.16688298
78	0x3d0354b6	0.03206321
79	0x3b725a06	0.0036979928
80	0xbdace580	-0.08442211
81	0x3d02442a	0.031803288
82	0x3c882f50	0.016624123
83	0x3e0ad60d	0.13558216
84	0x3dcd810d	0.1003438
85	0x3d6666ff	0.05625057
86	0x3cf7ce5f	0.030249773
87	0x3d8b07b6	0.0678858
88	0x3d3d004b	0.046142858
89	0x3deb131c	0.11478254
90	0xbd082ee8	-0.03324786
91	0xbd5b8449	-0.053592954
92	0x3d6b483a	0.057441927
93	0xbc45102d	-0.012027782
94	0x3eaa4170	0.3325305
95	0xbd3b5646	-0.045736574
96	0xbdf248b7	-0.118302755
97	0x3e1328e7	0.14371072
98	0xbd05b3bb	-0.032642107
99	0x3d2518c6	0.04030683
100	0x3d7f97a6	0.062400483
101	0xbc9bed28	-0.019033983
102	0x3dd7e5e0	0.10541892
103	0xbdc336fa	-0.0953197
104	0xbd4865a3	-0.048925053
105	0x3cde93ee	0.027170148
106	0x3daa7a94	0.08324161
107	0xbc304ce5	-0.010760521
108	0xbe10020d	-0.14063282
109	0xbd9ceb25	-0.07662038
110	0xbe24bbcd	-0.16087265
111	0xbd99590d	-0.07487688
112	0xbdab43f4	-0.083625704
113	0xbd745f96	-0.05966147
114	0x3e10bf28	0.1413542
115	0xbe35af3d	-0.1774263
116	0x3e004831	0.12527539
117	0xbe0a5863	-0.1351028
118	0x3b9fa24c	0.004871642
119	0x3e11bd86	0.14232454
120	0x3dda976d	0.106734134
121	0xbd13778b	-0.036002677
122	0x3d04c5bc	0.032415137
123	0x3e3227d8	0.17398012
124	0x3dd2473b	0.102674924
125	0x3db6d1b3	0.08926716
126	0x3e5f734e	0.21821329
127	0xbd213c87	-0.039364364
128	0x3da33bfe	0.07970427
129	0x3e595d22	0.21226934
130	0xbda19359	-0.078894325
131	0x3e1310c7	0.14361869
132	0xbdf7b14c	-0.120943636
133	0x3db9f4f9	0.09079928
134	0x3c99f964	0.018795677
135	0xbd6c09d3	-0.057626557
136	0x3e378fc1	0.17925932
137	0x3e101712	0.140713
138	0xbd890614	-0.066906124
139	0x3e1ad0b7	0.15118681
140	0xbdd1ffd8	-0.102538764
141	0x3e22318a	0.1583921
142	0x3e8ab092	0.27087837
143	0x3e5bda63	0.21470027
144	0x3dcd2da8	0.10018474
145	0xbe17453e	-0.14772508
146	0xbd9b99c3	-0.07597687
147	0xbcf22efc	-0.02956342
148	0xbdb947e9	-0.09046919
149	0x3e6d8358	0.23194635
150	0x3cb31984	0.021862753
151	0xbe00e72c	-0.12588185
152	0x3c3c94ec	0.011510115
153	0xbce715e4	-0.02820868
154	0xbe1e8245	-0.15479381
155	0x3d144e66	0.03620758
156	0x3d64f8ae	0.055901222
157	0x3c50616e	0.012718542
158	0x3c2fe836	0.010736516
159	0xbd2ff2f4	-0.042956308
160	0xbd0fbb4f	-0.03509074
161	0x3d42a5e8	0.0475215
162	0xbdfb2eba	-0.12264772
163	0x3e6650e1	0.2249179
164	0xbd226e04	-0.0396557
165	0x3b978077	0.0046234685
166	0x3e2f0f8d	0.17095776
167	0x3d21be9a	0.039488412
168	0x3da1b5d9	0.07896013
169	0x3d0cfa7f	0.03441858
170	0xbe0780fd	-0.13232799
171	0x3e06c0d9	0.13159503
172	0x3bb45689	0.00550348
173	0x3de6fcce	0.112786874
174	0x3d8ddd54	0.069269806
175	0xbdeabf3f	-0.114622585
176	0x3e8d611d	0.27613154
177	0xbd878645	-0.06617407
178	0x3d967f7d	0.07348535
179	0x3df95283	0.12173941
180	0x3d9e97b2	0.07743777
181	0x3d45de99	0.04830799
182	0x3e11197d	0.1416988
183	0xbde16ca1	-0.110070474
184	0x3bd252b5	0.006418551
185	0x3c90e20b	0.01768591
186	0xbe115b5c	-0.14195007
187	0x3c470c8b	0.012148987
188	0x3c9fd91c	0.019512706
189	0x3d866999	0.0656311
190	0xbde00bb7	-0.109397344
191	0x3df7515a	0.120760635
192	0x3e23ff50	0.16015363
193	0xbdae9c5e	-0.085259184
194	0x3dd3b134	0.10336533
195	0xbdc2c25c	-0.09509727
196	0xbd131918	-0.035912603
197	0x3db07a4b	0.086170755
198	0x3dd99b3a	0.1062531
199	0x3e005a97	0.12534557
200	0x3d9a6b02	0.07539941
201	0x3e8810e3	0.26575384
202	0xbd9cddef	-0.07659518
203	0x3e058b95	0.13041528
204	0x3d5b60bf	0.05355906
205	0x3d87d431	0.06632269
206	0xbe0f8f34	-0.14019471
207	0xbd2b3800	-0.041801453
208	0x3d36fe89	0.044676337
209	0x3dfafefc	0.12255666
210	0xbd313287	-0.043261077
211	0x3e241771	0.16024567
212	0xbd93dd07	-0.07219892
213	0xbe059535	-0.13045199
214	0xbe699975	-0.22812445
215	0xbc958365	-0.01825113
216	0x3e017d4b	0.12645452
217	0x3e0e9070	0.13922286
218	0x3d13e492	0.036106654
219	0xbc1e9fb8	-0.009681635
220	0xbcb2c7d2	-0.021823797
221	0xbddc3d6d	-0.107539035
222	0xbc8af4f7	-0.016962511
223	0x3c542ecd	0.012950611
224	0x3dc491c3	0.09598114
225	0x3b641022	0.0034799655
226	0x3dc0d8e8	0.094163716
227	0x3cfea075	0.031082371
228	0xbd77b668	-0.06047669
229	0x3e551822	0.20809987
230	0xbe05a4b9	-0.13051118
231	0xbdf262b4	-0.118352324
232	0xbd6b70fb	-0.057480793
233	0xbd3ed571	-0.046590272
234	0xbd2e0f62	-0.04249514
235	0xbde52b1b	-0.11189862
236	0xbe529a51	-0.2056668
237	0x3dfb3508	0.12265974
238	0x3e15bbf6	0.14622483
239	0x3dcbed8c	0.09957418
240	0x3d3c708f	0.04600578
241	0x3e07f46d	0.13276835
242	0xbda4752a	-0.0803016
243	0x3deb8b85	0.115012206
244	0xbdaa0a4a	-0.08302744
245	0x3d31e90c	0.04343514
246	0x3da8b810	0.08238232
247	0x3dc8d27f	0.09805774
248	0xbdf8b547	-0.12143951
249	0x3d37c1d3	0.04486258
250	0x3ceba514	0.028765239
251	0xbd947ab9	-0.0724997
252	0xbcea4081	-0.028595211
253	0x3c5ada1d	0.013357666
254	0xbe20b40d	-0.15693684
255	0x3d6d14a9	0.05788103

final_linear.bias f4 [2]
0	0x3cfb1807	0.030651106
1	0xbebbf4dd	-0.36710253

linear1.weight f4 [256, 3]
0	0xbe395bf9	-0.18101491
1	0xbe68d515	-0.22737534
2	0xbf8cfa24	-1.1013837
3	0xbea05d7b	-0.3132132
4	0xbd844eb7	-0.06460326
5	0xbf84e688	-1.0382853
6	0xbc696b2f	-0.014246746
7	0x3e45d240	0.19318485
8	0xbf172388	-0.5903859
9	0x3c5490ba	0.012973959
10	0x3d880207	0.06641012
11	0x3d9875e9	0.074443646
12	0xbdf2313f	-0.11825799
13	0x3fb02502	1.3761294
14	0x3ecb07e2	0.39654452
15	0xbdd0c8b7	-0.10194533
16	0xbcd83117	-0.026390595
17	0x38e357c4	0.00010840551
18	0xbe10ed9e	-0.14153144
19	0x3fb545fe	1.4161985
20	0x3e5bff63	0.21484141
21	0x3e2c6b94	0.16837913
22	0xbf7d8945	-0.9903758
23	0x3e7372a2	0.23774198
24	0xbea79173	-0.32728156
25	0x3f673afb	0.9032437
26	0x3de53c2c	0.111931175
27	0xbebf7309	-0.37392452
28	0xbd88e5e8	-0.06684476
29	0xbf471aff	-0.7777557
30	0xbdd35d45	-0.10320524
31	0x3fcd37d0	1.6032658
32	0x3ea9e4c4	0.33182347
33	0x3e44db4b	0.19224279
34	0xbf7a57d5	-0.9779027
35	0x3e8b69e3	0.27229223
36	0xbeaf3972	-0.34223515
37	0xbe2066e0	-0.15664244
38	0xbf8bdcac	-1.0926719
39	0x3e438c91	0.1909659
40	0xbf6d681e	-0.92736995
41	0x3e6d3ae1	0.23166992
42	0xbd927fed	-0.07153306
43	0x3f9e4899	1.2365905
44	0x3e80101f	0.250123
45	0xbd455133	-0.04817314
46	0x3d9625f7	0.0733146
47	0x38e986d7	0.00011135422
48	0x3e29cd9f	0.16582344
49	0xbf5248b4	-0.82142186
50	0x3e5ad501	0.21370317
51	0x3e3bfa42	0.18357185
52	0xbf7f4a4f	-0.9972276
53	0x3e7d7c82	0.24754527
54	0xbdb8a9ef	-0.09016787
55	0x3f9dfceb	1.234281
56	0x3e4c1594	0.19930106
57	0xbeb2f80f	-0.3495488
58	0x3bf4c5e1	0.007469878
59	0xbf8ad8ed	-1.084745
60	0x3e53e5b7	0.20693098
61	0xbf50a365	-0.8149932
62	0x3e56478e	0.20925733
63	0xbe8e80f3	-0.27832755
64	0xbebbf18d	-0.36707726
65	0xbf8f2171	-1.118208
66	0xbeaa9d04	-0.33322918
67	0x3d739553	0.05946858
68	0x38fedb29	0.000121524856
69	0xbebc35fd	-0.3675994
70	0xbdecec9c	-0.11568567
71	0xbf8d63e8	-1.1046114
72	0xbeacf29f	-0.33778855
73	0x3c1005bf	0.0087904325
74	0xbf9826d8	-1.1886854
75	0x3e3b0485	0.18263443
76	0xbf5870c5	-0.8454707
77	0x3e58cdc4	0.21172243
78	0xbe20e68a	-0.15712944
79	0x3fa3d403	1.2799076
80	0x3ec46eed	0.3836588
81	0x3e259715	0.16170914
82	0xbf6b8d8b	-0.9201285
83	0x3e78fe88	0.24315846
84	0x3e0e4083	0.13891797
85	0xbf555bfc	-0.8334348
86	0x3e598dad	0.21245451
87	0xbecf3110	-0.4046712
88	0xbde1443a	-0.10999341
89	0xbf8aab86	-1.0833595
90	0x3ea26d38	0.31723952
91	0x3eb52e79	0.35387018
92	0xbefc104c	-0.49231184
93	0xbe3ca957	-0.18423973
94	0x3d10d0b4	0.035355285
95	0x390901d1	0.00013066015
96	0xbe9a76d8	-0.30168796
97	0xbb4ce088	-0.003126176
98	0xbf8e6e9a	-1.1127503
99	0x3de12063	0.109925054
100	0xbf52b646	-0.8230938
101	0x3e518b07	0.20463191
102	0x3e50ba4a	0.20383564
103	0xbf63afff	-0.88940424
104	0x3e5f8dde	0.21831462
105	0xbedb0ddd	-0.42784014
106	0xbe330bca	-0.17484966
107	0xbf976480	-1.1827545
108	0x3c278d6e	0.010226591
109	0x3ebd7e0f	0.37010238
110	0xbef40e8d	-0.4766735
111	0xbefe572f	-0.4967589
112	0x3f7190ef	0.94361776
113	0x3de5b034	0.11215249
114	0xbe49ca7a	-0.19706145
115	0x3fa9eb5b	1.327495
116	0x3e0d8eb2	0.13823965
117	0xbeab83b7	-0.33498928
118	0xbe0e28aa	-0.138827
119	0xbf8f1008	-1.1176767
120	0xbe07085b	-0.13186781
121	0x3fa664a0	1.2999458
122	0x3ea1b825	0.31585804
123	0x3e5e8920	0.21731997
124	0xbf4c5902	-0.79823315
125	0x3e55c99e	0.20877692
126	0x3dfdd82f	0.123947494
127	0x3fbb0583	1.4611057
128	0xbdd1ec0c	-0.102501005
129	0xbdbf6a30	-0.093464255
130	0x3f9defad	1.2338768
131	0x3e5f0f16	0.21783099
132	0x3dfdd55a	0.12394209
133	0x3ff31654	1.8991189
134	0xbe1eb9b8	-0.15500534
135	0xbe54f9be	-0.20798394
136	0x3f9be087	1.2177895
137	0x3ec050c9	0.37561634
138	0xbe87e68b	-0.26543078
139	0xbe09e799	-0.13467254
140	0xbf953c72	-1.1659071
141	0xbec53a16	-0.3852088
142	0x3f900e4e	1.1254365
143	0x3e042812	0.1290591
144	0xbe7c8a8a	-0.24662223
145	0xbdcece8b	-0.10097989
146	0xbf7eb727	-0.9949822
147	0x3e2238eb	0.15842025
148	0xbf4d220e	-0.8013009
149	0x3e5025e8	0.2032696
150	0xbd51d945	-0.051232595
151	0x3e14fc2a	0.14549318
152	0x38eefa14	0.00011395305
153	0xbdd3550f	-0.10318958
154	0x3d70fb48	0.05883339
155	0x38eb6476	0.000112243855
156	0x3e9082f4	0.2822491
157	0xbf78fcbb	-0.97260636
158	0x3e8544b6	0.26028985
159	0xbedc9437	-0.4308183
160	0xbe5d906e	-0.21637127
161	0xbf87f8d2	-1.0622809
162	0xbdbbad60	-0.09163928
163	0x3de540bf	0.1119399
164	0xba58b61b	-0.0008266882
165	0xbe2b86d2	-0.16750649
166	0x3f8ae3dc	1.0850787
167	0x3e1021fe	0.14075467
168	0xbde38e45	-0.1111112
169	0x3fb98749	1.4494411
170	0x3e822b6e	0.2542376
171	0x3e870e76	0.2637822
172	0x3ec3c934	0.38239443
173	0xbf041375	-0.5159219
174	0xbed58015	-0.4169928
175	0xbe808bcc	-0.25106657
176	0xbf8df21c	-1.1089511
177	0x3c785eaf	0.015159293
178	0xbc439944	-0.011938397
179	0x38f61c55	0.00011735471
180	0xbeae70be	-0.3407039
181	0xbe48f404	-0.19624335
182	0xbf989edb	-1.1923479
183	0xbe4180ae	-0.18896744
184	0xbedc4345	-0.43020073
185	0xbf6b2677	-0.9185557
186	0xbec87502	-0.3915177
187	0xbe02bd08	-0.12767422
188	0xbf8d4c4d	-1.103891
189	0x3e226b3a	0.15861216
190	0xbf5ef5a3	-0.8709356
191	0x3e4b03a5	0.19825609
192	0xbe5f6005	-0.21813972
193	0x3d29113f	0.041276213
194	0x38f813b3	0.00011829231
195	0x3e35c7bf	0.17751978
196	0xbf71bcad	-0.9442852
197	0x3e8987ca	0.2686141
198	0xbe37fb15	-0.17966874
199	0x3c00a200	0.007851124
200	0xbf169539	-0.58821446
201	0xbe07113a	-0.13190165
202	0xbd6cd559	-0.05782065
203	0xbf46f372	-0.7771522
204	0xbe8f88ae	-0.28033966
205	0xbdb4a7fa	-0.088211015
206	0xbf78ca0b	-0.97183293
207	0x3e60f4e2	0.21968415
208	0x4004dcc8	2.0759754
209	0xbe795626	-0.2434927
210	0xbee41bd1	-0.44552472
211	0xbe060137	-0.13086401
212	0xbf5a25b4	-0.8521378
213	0xbe183fa5	-0.14868028
214	0x3f9256cd	1.143274
215	0x3e29a97d	0.16568561
216	0xbecbdca9	-0.39816788
217	0x3f974d84	1.1820531
218	0x3db0f637	0.08640712
219	0x3d4ee681	0.050512794
220	0x3fae8409	1.3634044
221	0xbdd60258	-0.10449666
222	0xbef6e391	-0.48220494
223	0x3f849867	1.035901
224	0x3de4eb87	0.11177736
225	0xbdfef9dd	-0.124500014
226	0x3c3c2157	0.011482558
227	0x38efd048	0.000114352035
228	0x3e9c8901	0.30573276
229	0xbf5f74e5	-0.8728774
230	0x3e701b98	0.23448026
231	0xbd8bbdb7	-0.068232946
232	0x3e04a960	0.12955236
233	0x38eca3a8	0.0001128384
234	0x3e41be18	0.18920171
235	0xbf62ca25	-0.885897
236	0x3e5832ef	0.2111318
237	0x3e34cdd0	0.17656636
238	0xbf6ebac5	-0.9325374
239	0x3e6e654f	0.23280834
240	0xbc216ba7	-0.0098523265
241	0x3e195679	0.14974393
242	0x38e47a01	0.00010894612
243	0xbd749ac3	-0.059717905
244	0x38a04147	7.6415534e-05
245	0x38ceb93a	9.8573466e-05
246	0x3e370a4c	0.17875022
247	0xbf582bc3	-0.84441775
248	0x3e543337	0.20722662
249	0xbe938434	-0.288118
250	0xbe99c195	-0.30030504
251	0xbf631e09	-0.88717705
252	0x3e3481f0	0.17627692
253	0xbf5b71dc	-0.8572061
254	0x3e533975	0.20627387
255	0x3e4273a8	0.18989432

linear1.bias f4 [256]
0	0xbe8267f0	-0.25469923
1	0x3d80990d	0.06279192
2	0x3f397c5e	0.72455394
3	0x3c2fe68e	0.010736121
4	0x3df458fa	0.119310334
5	0xbdd9f4d2	-0.10642399
6	0x3e0b7b0f	0.13621162
7	0x3e2428ad	0.16031142
8	0xbd4c8b64	-0.04993762
9	0x3f0750cb	0.52857655
10	0x3e02bddf	0.12767743
11	0x3e24e4a8	0.1610285
12	0xbcc9a3c1	-0.024614217
13	0x3e13d9fa	0.1443862
14	0x3cb917e3	0.022594398
15	0xbcee33dc	-0.029077463
16	0x3e1abaf0	0.15110373
17	0x3e1ccd8b	0.15312783
18	0x3c47d7cf	0.012197449
19	0x3db93c53	0.09044709
20	0x3e08daf8	0.1336478
21	0xbe64090a	-0.22269073
22	0xbc9f9eef	-0.019484965
23	0x3d6377cf	0.05553418
24	0xbabf42ff	-0.001459211
25	0x3e11c843	0.1423655
26	0x3e1945b1	0.14967991
27	0x3e254be3	0.1614223
28	0x3e2447ce	0.16043016
29	0xbdd5645e	-0.10419534
30	0x3f430338	0.76176786
31	0xbdb86920	-0.09004426
32	0xbe267de7	-0.16258965
33	0x3e2dd78f	0.1697676
34	0x3e082e57	0.13298927
35	0x3b2de8e2	0.0026536514
36	0x3f31ed4f	0.6950273
37	0xbdcd4be8	-0.100242436
38	0xbcd5f76d	-0.026118958
39	0x3b9df61b	0.004820598
40	0x3e02bbea	0.12766996
41	0x3e067816	0.13131747
42	0xbd7e2a63	-0.062052142
43	0x3cdeaf29	0.027183132
44	0x3ca180a5	0.019714663
45	0x3e3b85e8	0.183128
46	0xbdb30d71	-0.08742798
47	0xbdd5562a	-0.10416825
48	0xbe409314	-0.18806106
49	0x3e1ace25	0.151177
50	0xbd749ef9	-0.05972192
51	0xbd890c58	-0.066918075
52	0x3deea1f9	0.116519876
53	0xbb8c07bc	-0.004273383
54	0xbd1801cf	-0.0371111
55	0xbdbf980e	-0.09355174
56	0x3dad044b	0.084480844
57	0x3f45b76c	0.77233005
58	0xbd81ebb6	-0.063437864
59	0xbe189c1e	-0.14903304
60	0xbe25383d	-0.16134734
61	0xbe6eeeb9	-0.23333253
62	0xbd845594	-0.06461635
63	0x3e1ad9b5	0.15122111
64	0xbdfaf67e	-0.12254046
65	0x3e2a2c64	0.16618496
66	0x3f2e8a29	0.68179566
67	0x3f0d187f	0.55115503
68	0xbd08e924	-0.033425465
69	0x3e5488b1	0.20755269
70	0x3ec08a26	0.376054
71	0x3dd9dd39	0.10637898
72	0xbe3a86e5	-0.1821552
73	0x3b0576fb	0.0020365107
74	0xbd96ca2c	-0.0736278
75	0xbd0208ca	-0.031746663
76	0x3dd9650f	0.106149785
77	0xbdf2e6ad	-0.11860404
78	0x3e0cd407	0.13752757
79	0x3e1a5d22	0.1507459
80	0xbdc08426	-0.09400205
81	0xbd5d46fa	-0.054022767
82	0x3e11802d	0.14209051
83	0xbe306a20	-0.17227983
84	0x3e11d61a	0.1424183
85	0x3e0afe50	0.13573575
86	0x3e086f0d	0.13323613
87	0xbe5bf613	-0.21480589
88	0xbd808ce3	-0.06276872
89	0x3e2548cb	0.1614105
90	0x3f22182f	0.6331815
91	0x3e2baf40	0.16766071
92	0x3e57ef57	0.21087395
93	0xbe449fda	-0.19201604
94	0xbd27e6ee	-0.040991716
95	0x3e22f4f5	0.15913756
96	0x3e5190e6	0.2046543
97	0x3e113502	0.14180377
98	0x3f28ecbf	0.65986246
99	0x3f259b75	0.64690334
100	0xbe44cd62	-0.19218972
101	0x3db3c8fb	0.08778568
102	0xbd70c87e	-0.058784954
103	0xbd2c44c4	-0.042057768
104	0x3da0b37f	0.07846736
105	0x3e126067	0.14294587
106	0x3d718177	0.058961358
107	0xbe2de5fa	-0.1698226
108	0xbe3f192e	-0.18661949
109	0x3e030ae4	0.12797123
110	0xbd456e66	-0.048200987
111	0x3e2670a3	0.16253905
112	0xbdc888a5	-0.09791688
113	0xbe3cefe1	-0.18450882
114	0x3e4f575c	0.20248169
115	0xbd0acb0c	-0.033885047
116	0x3e0f4cf6	0.13994202
117	0xbe0ec03f	-0.13940524
118	0xbe3e8c9b	-0.18608324
119	0x3e2d3531	0.16914822
120	0x3ead000b	0.33789095
121	0x3e1640eb	0.14673202
122	0xbe669f20	-0.22521639
123	0x3e13f40c	0.14448565
124	0x3dd20f36	0.102568075
125	0x3e12eb44	0.14347559
126	0xbe625358	-0.22102106
127	0x3f17f2df	0.59354967
128	0x3f36f26e	0.7146367
129	0xbe7235eb	-0.2365338
130	0x3e180dd1	0.1484902
131	0xbe6e4a74	-0.23270589
132	0xbe5e482b	-0.21707217
133	0x3e0f034a	0.13966098
134	0xbdee97c8	-0.11650044
135	0x3e090f8a	0.13384834
136	0x3e0f34f0	0.13985038
137	0x3e10a680	0.14126015
138	0x3e05eb59	0.1307806
139	0x3d4a76dd	0.049429763
140	0x3f09ba6f	0.538001
141	0x3e04008c	0.12890834
142	0x3f0df75c	0.55455565
143	0xbe18fd05	-0.1494027
144	0x3e35847b	0.17726319
145	0x3e25cd5a	0.16191617
146	0x3dff3679	0.12461562
147	0x3f2b449b	0.6690156
148	0xbd07ca56	-0.033151947
149	0x3e03b6ae	0.12862656
150	0x3eafe90f	0.34357497
151	0xbd2cfd6e	-0.042233877
152	0x3da6cfab	0.08145078
153	0xbe1f3a5c	-0.15549606
154	0x3e0f64ab	0.14003246
155	0x3f1bfb16	0.6093
156	0xbcf1583a	-0.029461015
157	0x3ef15093	0.47131786
158	0x3df9c14d	0.12195072
159	0xbda8abe6	-0.08235912
160	0x3dad7b09	0.08470733
161	0x3e200dd5	0.15630277
162	0xbd8688f5	-0.06569091
163	0xbe61847d	-0.22023197
164	0x3f10931e	0.56474483
165	0x3da7c3a2	0.08191611
166	0x3f371e62	0.71530735
167	0x3e23d6db	0.1599993
168	0x3ddf2089	0.108948775
169	0xbdc5ded3	-0.09661641
170	0xbe33f8a3	-0.17575316
171	0xbde7e82a	-0.11323579
172	0xbdad964c	-0.084759325
173	0x3e1a86ae	0.15090439
174	0xbde69925	-0.11259679
175	0xbd788de9	-0.06068221
176	0xbdafc4bc	-0.08582446
177	0xbe1c7f72	-0.15282992
178	0xbe335de6	-0.17516288
179	0x3e4133ff	0.18867491
180	0x3e5a1531	0.21297146
181	0xbe3582f7	-0.1772574
182	0x3e791660	0.24324942
183	0x3e12aaf2	0.14323023
184	0x3e91bd4d	0.28464738
185	0x3f2f60d9	0.6850715
186	0x3e0a71ba	0.13519946
187	0xbe05d327	-0.1306883
188	0xbcb2c38f	-0.021821765
189	0xbd5e11c4	-0.05421616
190	0x3e221594	0.15828544
191	0x3d216b0d	0.039408732
192	0xbdb26932	-0.08711471
193	0x3f34e1f5	0.70657283
194	0x3da616d1	0.08109821
195	0xbd7ebb62	-0.06219042
196	0x3e89e0cf	0.26929328
197	0x3d1a8a99	0.037729833
198	0xbe1f1547	-0.1553546
199	0x3f07e0e6	0.5307754
200	0xbe1aa9a9	-0.15103783
201	0x3e03c16e	0.12866756
202	0x3da3b2af	0.079930656
203	0x3e13271b	0.14370386
204	0x3e0dbc63	0.13841395
205	0x3dd6a0f3	0.104799174
206	0x3e187ddf	0.14891766
207	0xbda986d4	-0.082776695
208	0xbd1e7615	-0.03868683
209	0xbe203d8e	-0.15648481
210	0x3d691f96	0.05691489
211	0x3dfaeb8b	0.122519575
212	0x3de807fb	0.11329647
213	0x3e106af4	0.141033
214	0xbd676e2b	-0.05650155
215	0x3e0b8fc5	0.13629062
216	0x3e19c1be	0.15015313
217	0x3dbe6a7e	0.092976555
218	0x3f32bbbc	0.6981771
219	0x3cbd8c8c	0.023138307
220	0x3e0fdd9f	0.14049385
221	0x3cb18dba	0.021674026
222	0x3e592b42	0.21207908
223	0xbe009dd4	-0.12560207
224	0x3f2a4e56	0.6652578
225	0x3d55cdb0	0.052198112
226	0xbe4d5618	-0.20052373
227	0x3e3f6bc9	0.1869346
228	0x3e08bf97	0.13354336
229	0x3d87dcb2	0.06633891
230	0x3e17458b	0.14772622
231	0xbe285687	-0.16439258
232	0x3e21df9d	0.15807958
233	0x3f356d1b	0.70869607
234	0xbd6a8ae4	-0.057261363
235	0x3d4f39ae	0.050592117
236	0x3e0c63a8	0.13709891
237	0x3c94b5cb	0.018153092
238	0xbe4e9025	-0.20172174
239	0x3f48f7e9	0.7850328
240	0x3e12fcd8	0.14354265
241	0xbd8ddb78	-0.06926626
242	0x3f3c5dc4	0.73580575
243	0x3e11d1dd	0.14240213
244	0xbe3061b1	-0.17224766
245	0x3eaf1f57	0.34203598
246	0x3ce07f7e	0.027404543
247	0x3e0aeb9f	0.13566445
248	0x3e04fe71	0.12987687
249	0x3e03e753	0.12881212
250	0x3d9ebb21	0.07750536
251	0x3d53e891	0.051735464
252	0xbcbf74a7	-0.023371054
253	0xbe65c5ff	-0.22438811
254	0x3f0165c8	0.5054593
255	0x3dca0a65	0.09865264

final_linear.weight f4 [1, 256]
0	0xbf60e557	-0.87849945
1	0xbf7334a2	-0.95002186
2	0xbf65e30d	-0.89799577
3	0xbd99fed6	-0.07519309
4	0xbf14a2d1	-0.5806094
5	0x3d0a65da	0.03378854
6	0xbf35a805	-0.709595
7	0x3eddd28d	0.433247
8	0xbf087cf2	-0.5331565
9	0xbf5bafc7	-0.8581509
10	0xbf3b1eea	-0.73094046
11	0x3ea006c6	0.31255168
12	0xbf6286c7	-0.88486904
13	0x3ef617c5	0.4806501
14	0xbf1c3588	-0.6101918
15	0x3ce4b10b	0.027916452
16	0x3edd214c	0.43189466
17	0x3f009195	0.5022214
18	0xbf2539b8	-0.64541197
19	0xbf745cd5	-0.9545415
20	0x3ef3d7be	0.47625536
21	0xbf6e6fa5	-0.93139106
22	0x3d90a7cd	0.070632555
23	0xbf615d30	-0.8803282
24	0xbf8c5468	-1.0963259
25	0x3ef48c97	0.47763512
26	0xbf371fd4	-0.7153294
27	0x3ec64cf7	0.38730595
28	0x3ef5fdd0	0.48045206
29	0xbf6c161d	-0.9222124
30	0xbf550ce0	-0.8322277
31	0x3db040cd	0.0860611
32	0xbf71294f	-0.94203657
33	0x3edf7455	0.43643442
34	0x3f25fc6c	0.6483829
35	0xbf81e6bc	-1.014854
36	0xbf621ffa	-0.8833004
37	0xbf551b44	-0.8324473
38	0xbf4f29c8	-0.8092313
39	0xbf5eb176	-0.86989534
40	0xbf068ac3	-0.52555484
41	0x3ed653b1	0.41860726
42	0xbf580e22	-0.84396565
43	0xbf32dfd2	-0.6987277
44	0xbffed2e3	-1.9908108
45	0xbf050fb4	-0.51977086
46	0xbf73a114	-0.9516766
47	0xbf4e61ab	-0.8061778
48	0xbf66a953	-0.9010212
49	0x3f031f2a	0.5121943
50	0x3cb59b7b	0.022168865
51	0x3cf3a2f7	0.029740794
52	0x3ef70f6c	0.48253953
53	0xbfa14bea	-1.2601292
54	0xba675e7e	-0.0008826031
55	0xbf0bec47	-0.54657406
56	0xbf2ccd3b	-0.67500657
57	0xbf7278d6	-0.9471563
58	0xbf6eb1db	-0.93240136
59	0x3e3b406a	0.18286291
60	0xbf64f030	-0.89429
61	0xbf6b1f63	-0.9184477
62	0xbf7b66d6	-0.9820379
63	0x3f3556d5	0.7083562
64	0x3e0a0394	0.13477927
65	0x3e9c6f34	0.3055359
66	0xbf5cf767	-0.86315006
67	0xbf55fd4d	-0.8358963
68	0xbf49919d	-0.78737813
69	0xbfae0882	-1.3596346
70	0xbf75397f	-0.9579086
71	0xbf23817b	-0.63869447
72	0xbf387f13	-0.720689
73	0xbf40ebe0	-0.75359917
74	0xbf29326f	-0.6609258
75	0x3c25c4ad	0.010117692
76	0x3ec31eaf	0.38109347
77	0x3d123f72	0.035705037
78	0x3f154326	0.58305585
79	0x3f1bb77c	0.6082685
80	0x3c8bd2da	0.017068315
81	0x3dbf76e7	0.09348851
82	0x3f13ed36	0.5778383
83	0xbf60b337	-0.8777346
84	0x3f14efe0	0.5817852
85	0x3f1693f0	0.58819485
86	0x3f109f06	0.5649265
87	0xbf5218e3	-0.82069224
88	0xbf6a3a77	-0.9149546
89	0x3ef3e9c0	0.47639275
90	0xbf65561a	-0.89584506
91	0x3e995ec8	0.29955125
92	0xbf58170f	-0.84410185
93	0xbf3c67b9	-0.7359577
94	0x3d8e568f	0.069501035
95	0x3ec85576	0.39127702
96	0xbfe9b870	-1.8259411
97	0x3f06ab21	0.5260487
98	0xbf5065e0	-0.8140545
99	0xbf864292	-1.0489066
100	0xbf6c8845	-0.9239543
101	0xbf11b978	-0.5692363
102	0x3db45e0b	0.08807
103	0x3d8c72c0	0.06857824
104	0xbf37b8b3	-0.71766204
105	0x3f328c8a	0.69745696
106	0xbff8025e	-1.9375722
107	0xbf70268f	-0.93808836
108	0xbf528c0a	-0.8224493
109	0x3f1c842b	0.6113917
110	0x3c49b901	0.012312175
111	0x3ee2bb88	0.442837
112	0x3d965beb	0.07341751
113	0xbf6822c4	-0.9067805
114	0xbf3a24d4	-0.72712445
115	0x3d0a7074	0.03379865
116	0x3f3b9680	0.7327652
117	0x3dae3fc1	0.08508254
118	0xbf3b6f78	-0.7321696
119	0x3ee9e934	0.45685732
120	0xbf67bb17	-0.9051985
121	0xbf1bf261	-0.60916716
122	0xbf6d66d4	-0.9273503
123	0x3f13c30f	0.5771951
124	0xbef2afe4	-0.4739982
125	0x3f19fb62	0.60149205
126	0xbf71484a	-0.9425093
127	0xbf7de2ec	-0.9917438
128	0xbf810f04	-1.0082707
129	0xbf6cd366	-0.9251007
130	0x3ea4e5c7	0.32206556
131	0xbf725f7f	-0.94676965
132	0xbf5cff7b	-0.8632733
133	0x3ef5822e	0.47950882
134	0xbf83c936	-1.029578
135	0x3f2d510a	0.6770178
136	0x3f1f4456	0.6221365
137	0x3f1570da	0.5837532
138	0x3f30b58f	0.69027036
139	0xbfdf8380	-1.7462006
140	0xbf898f96	-1.0746944
141	0x3f25e5b0	0.648036
142	0xbf6e0d7f	-0.92989343
143	0x3c982689	0.018573062
144	0x3eda1cd0	0.42600107
145	0xbf4545c0	-0.77059555
146	0xbffdadda	-1.981868
147	0xbf8e58c0	-1.1120834
148	0x3df936e7	0.12168675
149	0xbf4b6fbb	-0.7946736
150	0xbf4f6744	-0.81016946
151	0x3d43c7df	0.047798034
152	0xbf305839	-0.6888462
153	0x3d906975	0.07051364
154	0x3f328f1d	0.69749624
155	0xbf822fe8	-1.017087
156	0x3e10312f	0.14081262
157	0xbf646297	-0.89212936
158	0x3f10f971	0.5663062
159	0xbf760644	-0.9610331
160	0xc01be31a	-2.4357362
161	0x3ef6be18	0.48191905
162	0xbf5ff1bd	-0.8747824
163	0xbf75ffbe	-0.96093357
164	0xbf7447eb	-0.9542224
165	0xc01819e0	-2.3765793
166	0xbf64de82	-0.8940202
167	0x3f2d967e	0.6780776
168	0xbf101d87	-0.56295055
169	0xbf6bdc5f	-0.92133135
170	0xbf1fd861	-0.62439543
171	0xbf742539	-0.953693
172	0xbf45798b	-0.77138585
173	0xbf450aa1	-0.76969343
174	0x3d48a852	0.048988648
175	0xbf704406	-0.93853796
176	0xbf36e270	-0.71439266
177	0xbf833b05	-1.0252386
178	0xbf70aa99	-0.9401031
179	0xbf2aef85	-0.6677173
180	0xbf3b4459	-0.73151165
181	0xbf6b84a7	-0.91999286
182	0xbf4c357b	-0.79769105
183	0x3f00a44d	0.50250703
184	0xbfbe79c4	-1.488091
185	0xbf98e598	-1.1945066
186	0x3f118e82	0.56858075
187	0xbf722614	-0.9458935
188	0x3e09dc05	0.13462837
189	0xbf81c8b5	-1.0139376
190	0xbf810b5b	-1.008159
191	0xbfd9e4a5	-1.7022902
192	0xbf7a1ef2	-0.9770347
193	0xbf675607	-0.9036564
194	0xbefdf690	-0.49602175
195	0xba46c12d	-0.0007581886
196	0xbfa419dc	-1.2820392
197	0xbf5e43d5	-0.86822253
198	0xbbc1714e	-0.0059033995
199	0xbf4f95d0	-0.8108797
200	0xbf5fec34	-0.8746979
201	0xbf708e40	-0.93967056
202	0xc019b628	-2.401743
203	0xc01533bf	-2.3312833
204	0x3ecf2a3c	0.4046191
205	0xbf5c4b9d	-0.86052877
206	0x3ee6329a	0.4496048
207	0xbc224656	-0.009904465
208	0x3e0f38ac	0.13986462
209	0xbf6d64f5	-0.92732173
210	0xbf2a94e6	-0.6663345
211	0xbf08a2b6	-0.5337328
212	0xbf070b34	-0.5275147
213	0x3f08bbc3	0.534115
214	0x3c9bb629	0.01900776
215	0x3f15dd16	0.58540475
216	0xbf23d5ee	-0.63998306
217	0xbf19a4e2	-0.60017216
218	0xbf80451a	-1.0021088
219	0xbf678802	-0.90441906
220	0x3f27e1d7	0.6557898
221	0xbfa7c093	-1.3105644
222	0x3e8da8b7	0.27667782
223	0xbf685457	-0.9075369
224	0xbf84b0e0	-1.0366478
225	0xbf511e03	-0.8168642
226	0xbf46b01a	-0.7761246
227	0xbfebcc4f	-1.8421725
228	0x3f161f0e	0.58641136
229	0xbf2e8e33	-0.6818573
230	0xbf154707	-0.58311504
231	0xbf71fa4c	-0.9452255
232	0xbf106718	-0.5640731
233	0xbf796734	-0.974231
234	0xbe19b825	-0.15011652
235	0xbfa67093	-1.3003105
236	0x3f21fee7	0.63279575
237	0xbf85f783	-1.046616
238	0xbf6f8c46	-0.93573415
239	0xbf602c2b	-0.87567395
240	0x3f0e44cf	0.55573744
241	0x3cc5bd40	0.024138093
242	0xbf7f7061	-0.9978085
243	0xbf0bc673	-0.54599684
244	0xbf81b4f0	-1.0133343
245	0xbf4770cc	-0.7790649
246	0xbf06907c	-0.52564216
247	0x3f215398	0.6301818
248	0x3f17b5e2	0.59261906
249	0xbf310810	-0.6915293
250	0xbf05ff5b	-0.52342767
251	0xbfb9cefa	-1.4516289
252	0xbf76be95	-0.96384555
253	0xbf6e1797	-0.93004745
254	0xbf70b295	-0.94022495
255	0xc0100db3	-2.2508361
