option_hedging/hyperparameters/ppo_hyperparameters/year/0.0/ppo_model.pth (torch, 10072 bytes, 7 tensors)

linear1.weight f4 [128, 4]
000000 0d 5e a3 be 8f 6b d7 3d 3f c6 25 be 64 cf 59 3d
       -0.31907693 0.10518562 -0.16188906 0.0531763
000010 34 13 1b 3d 37 d7 23 3e 74 72 19 3e 0d c6 8e 3d
       0.03786011 0.16000067 0.14985067 0.06971369
000020 6d 14 aa 3e 7d e9 2e bb 58 ca 35 3e 45 14 d9 3d
       0.3321871 -0.0026689463 0.1775297 0.10599569
000030 49 af 13 bd aa f0 c2 bc a9 ae 4e bd 84 ac 7a 3e
       -0.036055837 -0.023796398 -0.050459538 0.24479872
000040 d1 05 20 3e 68 01 16 bd 9b e7 a1 3d 77 6d f1 3d
       0.15627219 -0.036622435 0.07905503 0.11788457
000050 db fe 94 bd df b7 30 be 8f 90 70 3e 95 97 8c 3e
       -0.07275172 -0.17257641 0.23492645 0.27459398
000060 36 28 8c bc 06 58 a5 be cd 34 46 3d 22 39 1b be
       -0.017109018 -0.3229372 0.0483902 -0.15158513
000070 22 97 3d bd 88 e1 af b9 2f bd 8b bc e3 80 1d bd
       -0.04628671 -0.00033546635 -0.017057983 -0.038452994
000080 14 57 76 bf 8c d1 11 be af 24 fe 3d a9 43 76 3e
       -0.9622662 -0.14240092 0.124093406 0.24049248
000090 6d 2e a6 bd 8e a9 a8 3b 45 ac a7 3d a6 b0 d5 3d
       -0.08114324 0.0051471656 0.08187155 0.10434084
0000a0 9f 6d d1 3c 53 71 77 3e 8a d9 68 3d f4 9f 83 be
       0.025564967 0.24164324 0.056848086 -0.25707972
0000b0 e4 5d 21 be a3 9d 36 bd 20 a1 e9 3d 59 90 86 be
       -0.15758473 -0.044583928 0.11407685 -0.26282004
0000c0 6e e4 78 bf 69 03 1a bf cd d3 6f bf c6 ef 50 3e
       -0.97223556 -0.60161453 -0.9368256 0.20403966
0000d0 27 a6 bf bd 2d e6 51 be ff 7b 3f 3e 33 59 dd bd
       -0.09357863 -0.20497961 0.18699645 -0.10808029
0000e0 df 85 33 bd 37 3f 06 3f 71 cc 68 bd f9 ec 22 bd
       -0.04382884 0.5244021 -0.056835596 -0.039776776
0000f0 ec c3 5b 3e 9a 53 40 be 1e f4 bc 3d 4b a7 fa 3b
       0.21461457 -0.18781891 0.09226249 0.0076493374
000100 75 ac 5e be 31 83 30 3e ba fb 55 3e 97 2c 85 be
       -0.21745475 0.17237546 0.20896807 -0.26010582
000110 6e 17 36 be 68 66 55 be 83 53 f3 bc 96 d5 b4 be
       -0.17782375 -0.20839846 -0.029702907 -0.35319203
000120 14 6f 71 be 55 16 f5 bd be 75 5c be 8e 2b 29 be
       -0.23577529 -0.1196715 -0.2152929 -0.16520521
000130 47 c1 9d bd 4b 3e 83 3e 3b 28 80 3d 7b f0 5c b9
       -0.0770288 0.25633463 0.06257673 -0.00021070421
000140 01 84 ac bd b8 e0 d4 3c d5 3c 99 bc 17 a5 96 bd
       -0.08423615 0.02598606 -0.018705765 -0.07355707
000150 28 c9 34 3e f6 65 be bc b8 0f cc bc 29 f5 a4 3c
       0.1765486 -0.023241978 -0.024909839 0.020136433
000160 44 02 18 3f 48 37 ab 3e 3c 23 25 3e 05 37 a9 3d
       0.5937846 0.33440614 0.16126722 0.08262447
000170 1c ea a1 bf 39 aa 3e 3e 79 b7 4d 3d 6b 35 4b 3e
       -1.264957 0.18619622 0.0502238 0.19844596
000180 d5 8c 09 bd 79 26 ce be f0 23 19 be 57 29 8f bd
       -0.033581574 -0.40263727 -0.14955115 -0.06990307
000190 35 a2 9e 3e 09 90 70 3e e2 9d 6d bd 8c 38 2e be
       0.3098313 0.23492445 -0.058011897 -0.17013758
0001a0 e3 20 a3 bd 08 77 20 3e af 25 a2 bd 6b 18 75 3c
       -0.07965257 0.15670407 -0.07917344 0.014959435
0001b0 26 61 35 be 02 1d 92 3e 6f 1c 5d 3e ef 7c 30 bd
       -0.1771284 0.28537756 0.21592878 -0.043087896
0001c0 96 eb c0 3e f3 cb b0 3e fb a3 36 3e f2 1d 9b bd
       0.37679738 0.345306 0.17835991 -0.07574071
0001d0 bd b7 a9 3e a1 1b 41 3f 68 d7 3d 3e 92 f9 9d 3d
       0.33147994 0.75432783 0.18539202 0.077136174
0001e0 19 eb 78 3e 0d ee 24 bc 40 e7 e8 bd e5 22 01 bd
       0.24308433 -0.010066521 -0.113722324 -0.03152742
0001f0 8a fd 0d bc e2 64 bc be 72 e3 9e bd 34 3f 66 be
       -0.008666405 -0.36795717 -0.077582255 -0.22485048
000200 22 d4 a5 3e 5c 3b bb 3e 73 0e 36 3c 52 f0 74 3d
       0.32388407 0.36568725 0.011111843 0.0597995
000210 a7 5c a2 bd 87 e4 9f 3e 3f 60 13 3e c7 c2 5c 3c
       -0.07927828 0.3122904 0.14392184 0.013474173
000220 b4 52 d9 be 5e 48 44 3e b4 4f 33 bf f3 2b 14 3e
       -0.4244591 0.19168231 -0.7004349 0.1446989
000230 9d 9c 2e bf df 56 86 be 49 d7 23 bf 8c c6 42 3e
       -0.6820772 -0.26238152 -0.64000374 0.19021052
000240 70 8b 14 3f 7b fb 1a be cc 6b 8e 3b 62 63 12 3d
       0.58025265 -0.15134995 0.0043463465 0.03573931
000250 c8 11 49 3d 32 f7 ae 3e f2 9d ce 3b 91 81 1c bd
       0.049089223 0.3417297 0.0063054496 -0.0382095
000260 af 59 c2 3d 09 c5 10 3f 8d 52 9b 3d 8c 92 de bd
       0.09489762 0.5655065 0.07584105 -0.10867795
000270 73 a9 8d 3e e5 18 34 3e 30 20 a3 3e 81 64 81 bc
       0.27668342 0.17587622 0.31860495 -0.015794994
000280 3f f5 eb 3c 0a 02 12 3e 81 35 26 3e 16 46 02 3d
       0.028803466 0.1425859 0.16231348 0.03180512
000290 d8 ce 44 3e 36 ef 25 be 21 c6 20 3d 64 cf c4 bd
       0.1921953 -0.16204533 0.03925145 -0.09609869
0002a0 17 2a 30 3e 14 7a 9d 3d bd 7d 80 bd ae d5 5a 3d
       0.17203556 0.076893 -0.06273983 0.053426437
0002b0 6f e5 eb 3e d2 aa af 3e 51 3b c2 3d 24 cd 9c 3d
       0.4607348 0.34310013 0.0948397 0.07656315
0002c0 61 e9 ca 3e 39 91 cb 3d b2 ee 93 3c a8 5a ce 3d
       0.3963118 0.099398084 0.018058155 0.10075885
0002d0 95 93 38 3e 67 5a 69 3e a6 e1 3d 3d bb 7e 1a be
       0.18025048 0.22788392 0.046357773 -0.15087406
0002e0 2a d8 25 3d e0 e1 22 3d 2f 1b a4 3d bc f2 48 be
       0.040489353 0.039766192 0.08012997 -0.19623846
0002f0 29 0a 15 be 42 9d f4 bd 3e a3 b6 3d 0c b2 83 3e
       -0.14554657 -0.11944057 0.08917855 0.25721776
000300 2b 92 3f 3e e3 2b c4 3c 9f 7f 07 bf 36 25 9b 3e
       0.18708102 0.023946708 -0.5292911 0.30301827
000310 d8 b6 8f be e7 5e 31 be 91 62 6b 3c be 38 10 3c
       -0.28069186 -0.17321359 0.014366762 0.008802591
000320 1b c3 2b be 9f 24 ce bd e2 ad aa be 0b 6f d2 3d
       -0.16773646 -0.10065579 -0.33335787 0.10275086
000330 5e 35 46 3e 2f 6f 98 3e 72 36 87 bd 9e 46 58 bd
       0.19356295 0.29772326 -0.066021815 -0.05280172
000340 70 88 74 3e d4 ea b4 bd 1e b4 a8 3d 09 32 14 3c
       0.23880172 -0.088338524 0.082374796 0.009045132
000350 df 10 91 bc 10 41 ad 3d a7 ce 53 bc 8b da 56 bd
       -0.01770824 0.08459675 -0.012927688 -0.052454513
000360 bf 7f e1 bc 53 fd c7 bd b7 17 b8 3d ac d0 a4 bd
       -0.027526734 -0.09765115 0.08988898 -0.080476135
000370 35 e0 9e 3c 99 60 0a 3f 47 39 2c 3e a0 6d 30 be
       0.01939402 0.54053646 0.16818725 -0.17229319
000380 8a c8 21 3e 59 42 03 be fd 07 8b 3d 1f 83 44 bc
       0.15799156 -0.12818278 0.06788633 -0.011994152
000390 51 3e 28 be dd 36 b6 bd aa 66 6b 3d c1 77 89 be
       -0.16430022 -0.08897183 0.057470955 -0.26849177
0003a0 35 f6 87 be 7d 53 2b be f4 34 22 bd 61 5b 58 3e
       -0.2655503 -0.16731067 -0.03960128 0.21128608
0003b0 e7 1e c3 be 3f f2 27 3e 39 e8 1e 3e 51 f9 0d 3e
       -0.38109514 0.16401003 0.15518273 0.13864638
0003c0 c4 15 dd 3e cb 80 87 bd 65 ed 3b 3c 81 b7 87 3d
       0.43180668 -0.06616362 0.0114701735 0.066267975
0003d0 ff 7c f0 3d 65 93 ee bd c2 75 50 3e 29 c5 80 be
       0.11742591 -0.11649207 0.20357421 -0.2515042
0003e0 f8 08 4b be cb d1 9c 3e a5 ae 62 be 31 91 3d be
       -0.1982764 0.3062881 -0.22136934 -0.18512417
0003f0 86 86 0e 3e ed cb 6d 3e 69 59 c1 3d bf 35 1a 3d
       0.13918504 0.23222323 0.09440882 0.037648913

linear1.bias f4 [128]
000000 de 55 c7 be e0 6b ae 3d 10 2a d8 3d f3 1c 94 3d
       -0.389327 0.08516669 0.10554898 0.07232084
000010 36 d7 7a 3e 13 f1 b7 bd d3 ac 5e 3c c4 a9 5e bd
       0.24496159 -0.08981528 0.013591009 -0.05436112
000020 b1 c0 04 be 72 b0 3a 3c 06 31 74 bd 8e e8 d8 3b
       -0.12964131 0.011394607 -0.059617065 0.0066195196
000030 0f 94 03 be 6e bc 10 bc 3b 5c f3 3d d4 4b 20 3e
       -0.12849449 -0.008833988 0.11882826 0.15653926
000040 0c af 09 be f2 f6 7e 3d 5d 7c 5c 3e 16 ac 7a 3d
       -0.13445681 0.062247224 0.21531816 0.06119927
000050 f2 56 62 bd 46 7c 60 3d 24 92 18 bd 9e 48 36 bd
       -0.0552587 0.054806016 -0.037248746 -0.044502847
000060 bb 99 11 3a 3d 4e 06 3e 19 81 ac be 9e 61 8d 3d
       0.00055542187 0.13115783 -0.33692244 0.069033846
000070 6c 7f 6e 3e d0 6f 59 3e 08 66 ed 3e 81 3b 10 bd
       0.23290795 0.2123406 0.46366906 -0.035212997
000080 28 ee 94 3d 41 0b ec 3c 25 ef 06 be cf 73 19 be
       0.07271987 0.02881396 -0.13177164 -0.14985584
000090 d7 0c d3 3e c6 b8 e8 3d 74 5b c1 3c 8a eb 1a 3e
       0.41220734 0.11363368 0.023603179 0.15128914
0000a0 3a 36 07 3c b3 7b 13 3e 19 e5 1e 3e 11 67 0d 3d
       0.008252675 0.14402656 0.15517081 0.03452212
0000b0 93 a5 6b 3d a0 f2 37 3e ff f9 97 bd 67 5d 93 3d
       0.05753095 0.17963648 -0.0742073 0.071955495
0000c0 09 87 58 be b5 7f 54 3e d8 4e da 3e ab 16 1f 3e
       -0.21145262 0.20751841 0.42638278 0.15535991
0000d0 26 58 2c 3e 01 a1 75 bd e7 aa 14 3e 91 8f 12 3d
       0.16830501 -0.059968 0.14518319 0.035781447
0000e0 36 47 bc 3d 0f 4f 13 be 1f 05 f7 3d 99 9b 4b bd
       0.0919327 -0.14385627 0.12061524 -0.049708936
0000f0 f7 dc 78 3e a4 07 81 3d 52 4b be bd 30 b0 d6 3d
       0.24303041 0.063002855 -0.0929171 0.10482824
000100 a3 63 22 3d 24 7a 5e 3d 8f 39 6e 3e 44 a2 0c 3e
       0.039645802 0.0543157 0.23264144 0.13733774
000110 b8 e3 03 3e 89 ed 0a 3e f2 f4 3b 3e f0 4e 50 3e
       0.12879837 0.13567175 0.18355158 0.20342612
000120 81 ad 41 3e 4d 5d 37 3e 22 d6 52 39 04 45 36 3d
       0.18913843 0.17906685 0.00020106931 0.044499412
000130 f6 d1 05 bd 92 3a 2e 3e 26 7a 4e 3e 8a c7 4e be
       -0.032670937 0.1701453 0.20163783 -0.20193306
000140 63 96 1d 3e 07 82 ca 3d 2a b6 d3 3d e0 53 c4 3b
       0.15389399 0.09888082 0.103374794 0.005991444
000150 17 67 89 be 78 19 11 3d 40 a2 ae bd 83 d9 a2 bd
       -0.26836464 0.03542468 -0.085270405 -0.07951643
000160 93 05 db 3d cd 88 1b bd ec 06 56 3d cc 26 5f be
       0.106944226 -0.03797226 0.052252695 -0.21792144
000170 84 cc b1 3d 8b 2a ca 3d 28 92 df bc c0 05 37 3e
       0.086815864 0.09871396 -0.027291372 0.17873287
000180 30 d6 8a bc 89 a6 e3 3d 50 f7 a5 3c f4 66 55 3d
       -0.016947836 0.111157484 0.02025953 0.052100137
000190 95 94 81 bd 12 3e af 3c fa 15 0d 3e 8b b3 73 3e
       -0.06327168 0.021391902 0.13777915 0.23798959
0001a0 5c 7f f7 3c e7 97 02 3d af 7c 48 3d 4c b6 99 3d
       0.030212097 0.031883147 0.048947033 0.075054735
0001b0 2d 7e 1a bd a7 32 3f bc 99 85 b7 3e 7b f9 f2 3d
       -0.037717987 -0.011669791 0.35844114 0.11863991
0001c0 39 78 7b 3d 02 ef 26 3e a9 81 1f 3e d5 4f 06 bd
       0.06139395 0.16302112 0.15576805 -0.032790978
0001d0 ba 36 dd 3c ca 97 d1 3e 80 e1 8e 3d a5 c6 69 3d
       0.027003635 0.40936118 0.069766045 0.057074208
0001e0 72 b5 0c be 4c c3 6e 3e c1 c2 67 3d 67 38 67 3d
       -0.13741091 0.23316687 0.056582216 0.056450274
0001f0 f3 f9 1b 3e 74 a0 51 3e 8a e7 57 3d 7d d0 b3 3c
       0.15232067 0.20471364 0.052711047 0.02195

final_linear.weight f4 [2, 128]
000000 b8 27 57 bd 82 51 c0 bd f9 7a dd bd 7c 85 ad bd
       -0.052528113 -0.093905464 -0.10814471 -0.08472726
000010 58 10 92 bc ed 82 d0 bd 4d 4c 23 3e a5 0f 2a be
       -0.017830059 -0.10181222 0.15947075 -0.1660753
000020 e4 22 23 bd cf 14 2c bd 21 38 56 3e 83 c3 6f 3e
       -0.039828196 -0.042012032 0.20919849 0.23414426
000030 47 f6 02 be f5 a3 21 3e 53 b1 c0 3e 54 ad e3 bd
       -0.1278926 0.15785201 0.37635288 -0.11117044
000040 81 dc 3d 3d 24 2a 3a 3e dd 68 68 3e 1d 17 a8 3e
       0.046352867 0.18180138 0.22696252 0.32830134
000050 96 39 f3 bd 3f 00 71 3d b0 05 2d 3e 44 ae 8c 3d
       -0.11876218 0.058838125 0.16896701 0.06869176
000060 fb d6 0e 3d b5 cc 2d 3d 29 e9 f1 bd a9 f7 d4 3d
       0.03487299 0.042431552 -0.1181205 0.103988
000070 cd 05 4e bd 88 3c e5 3e bc 6d 83 3c 32 96 59 3e
       -0.0502985 0.44772744 0.016043536 0.21248701
000080 1e fd 7a 3d 30 f6 87 3e 7d 3c 34 bd c4 2a 0b bf
       0.061276548 0.26555014 -0.044003 -0.5436213
000090 bf 77 d5 be 47 6e 88 be d9 c3 82 3e f3 55 5f 3e
       -0.41692922 -0.26646635 0.25540045 0.21810131
0000a0 19 eb ed 3c 11 6f 48 be de a1 5a 3e e7 b7 ea 3d
       0.029042767 -0.19573618 0.2135081 0.11460858
0000b0 20 06 9d 3d cd 5a 4a be 4b 13 e8 3d e1 0a 7b be
       0.07667184 -0.197612 0.11331805 -0.24515869
0000c0 32 17 8c bd b1 cf 0c 3f b5 ec 01 3f be b8 b4 3c
       -0.06840362 0.5500441 0.5075181 0.022060748
0000d0 43 63 05 be cf 62 a9 bd b4 a2 9c 3b 96 2b 29 3e
       -0.13026147 -0.08270799 0.004780138 0.16520533
0000e0 54 03 ee bd 05 1f 36 3d d1 93 e4 bd 49 31 c4 bd
       -0.116217285 0.044463176 -0.11161006 -0.09579713
0000f0 1a ce bf be 54 ae 49 3d 40 9f d6 3d 11 c1 eb 3d
       -0.3746193 0.049238518 0.10479593 0.11511434
000100 7d 8d 34 3d 9b a8 d2 3e 70 f9 65 3e 15 f7 4e be
       0.044080246 0.4114426 0.22458434 -0.20211442
000110 c8 12 4a be 2b 70 24 3e 10 8b fc bc 90 36 0f bd
       -0.19733727 0.16058414 -0.030828029 -0.034964144
000120 4c d0 0b bc 9a 8f 22 bd 27 01 9d bd 8f 02 c2 3e
       -0.008533549 -0.03968773 -0.076662354 0.37892577
000130 e7 3b d2 3d 13 0c 34 be 85 c3 80 3e 38 94 ff 3d
       0.10265332 -0.17582731 0.2514917 0.12479442
000140 43 8c b1 3e 43 e8 6f be 0e 37 b9 3c b9 b4 08 3f
       0.34677324 -0.23428445 0.02260926 0.5340076
000150 dd 0a b4 bd 3b 7a 91 bd fd ef fe bc 7f cc 5f bd
       -0.087911345 -0.07103392 -0.031120295 -0.054638382
000160 72 9a 9b be e7 e6 da 3c ab cd 91 3c de 84 d2 bd
       -0.3039127 0.026721431 0.017798265 -0.10279249
000170 93 93 8d be b5 db ae be 4b 4d 41 3e bc 6a 13 3e
       -0.27651653 -0.34151998 0.18877141 0.14396185
000180 f7 e7 41 be 3e c0 8b bd c7 24 1e 3e b5 49 88 3e
       -0.18936144 -0.06823777 0.15443717 0.26618734
000190 b2 b8 98 3d 9d 38 a1 3c ec e6 e5 bd 8e c3 a7 3e
       0.07457103 0.019680316 -0.112256855 0.32766384
0001a0 99 89 ca 3c 06 f5 01 3d 5b 7f b1 3e c2 f4 bd 3c
       0.024723815 0.031727813 0.34667477 0.023187999
0001b0 b8 40 15 be 3f 55 7f 3e 80 96 89 be d8 5e 64 be
       -0.1457547 0.24934863 -0.26872635 -0.22301805
0001c0 5d ff 11 3e 86 6f 80 bd 29 64 17 3e a7 f9 27 be
       0.1425757 -0.062712714 0.14784302 -0.16403829
0001d0 42 e6 33 3d 90 0b 0f 3f 25 58 6f 3e 5c 3a 98 3e
       0.043920763 0.5587702 0.23373468 0.29732025
0001e0 f0 67 bd bc 69 2e c0 3e 3c 46 e5 3c 1e c9 10 3e
       -0.02312085 0.37535408 0.027987592 0.1413922
0001f0 61 5f 4c be 85 65 34 3e 7a 14 0c 3d 35 02 80 be
       -0.19958259 0.17616852 0.034199215 -0.25001684
000200 a5 03 fe 3e 63 47 89 be 4e d3 63 be ef 3a e3 3c
       0.49612156 -0.26812276 -0.22248575 0.027738063
000210 3a 16 bf be 9e 22 34 3e a4 56 06 3f 7c a0 50 3e
       -0.37321645 0.1759133 0.52475953 0.2037372
000220 f1 b6 cd bc 2c 01 ac be c9 59 c0 be 29 cf 97 bd
       -0.025111647 -0.33594644 -0.375685 -0.074125595
000230 9f 35 48 3e 99 90 13 be ba d7 df be bd 1a ef be
       0.19551705 -0.14410628 -0.43719274 -0.46700087
000240 94 37 9f bd 4d b8 8b bd c5 1e c6 3e b0 8b 97 be
       -0.077742726 -0.06822262 0.3869535 -0.2959876
000250 1e 8b 67 bd d2 f2 a0 be 00 0e c0 3e 50 6c 27 be
       -0.056529157 -0.31435257 0.3751068 -0.16349912
000260 1c 59 50 3f d8 4a d7 be 15 32 0f 3f 33 3a 31 3e
       0.8138597 -0.4204929 0.55935794 0.17307357
000270 15 b5 0d bf 6b ce d3 3d 24 c6 35 bf 39 0c ed 3e
       -0.55354434 0.103421055 -0.71005464 0.46298388
000280 59 f2 61 3d 1d ed 7f 3e 55 a5 85 3e 5a c1 8d be
       0.05516276 0.24992795 0.261027 -0.27686578
000290 3e d6 4c bf 26 81 96 3d 8c 5e 34 3f 62 64 4b bf
       -0.8001441 0.07348852 0.7045677 -0.79450047
0002a0 fc 6d c9 bd 58 36 ba be 26 3a d4 bd 4b 7c 97 3d
       -0.09835431 -0.36369586 -0.103626534 0.07396754
0002b0 a1 56 09 be c2 47 0b bf 02 c7 08 bf 14 0b a2 3d
       -0.13411953 -0.5440637 -0.5342866 0.07912269
0002c0 98 96 d1 3e 1e 22 31 3e 11 a2 80 bd f0 3b ef be
       0.40935206 0.17298171 -0.06280912 -0.46725416
0002d0 31 e2 1a bf 44 db 4b 3d 0a d9 d6 be 41 61 31 3f
       -0.6050139 0.049769655 -0.41962463 0.6928902
0002e0 4c 1d ee 3d 8e 2a 88 3e 93 7e 3d bf 09 bd eb 3e
       0.11626682 0.26594967 -0.7402126 0.4604266
0002f0 65 a0 12 bf 16 8a e9 be 08 cf 9e bd 29 85 9a 3d
       -0.5727599 -0.45613164 -0.07754332 0.075449295
000300 d5 04 22 be ea 3a 98 3e 6c de a2 be 43 33 0f bf
       -0.15822156 0.29732448 -0.3181032 -0.55937594
000310 fa 7b a4 be 11 8d e4 be b7 b8 35 be e0 af 84 be
       -0.32125837 -0.44638875 -0.17746244 -0.25915432
000320 23 d7 9a be 94 ee 65 be 40 ab 79 bc a7 74 48 3e
       -0.3024226 -0.22454292 -0.015238583 0.1957575
000330 74 c8 8b 3d 91 13 0e bf f0 19 cb 3e db 87 53 be
       0.06825343 -0.55498606 0.39668226 -0.20657293
000340 ab cb 36 3f 9f 2e 24 3e c9 60 8b be d6 9c 26 3f
       0.7140452 0.1603341 -0.2722228 0.6508306
000350 b9 dc 62 3f 1a 5d a3 3e 34 99 a3 3c 39 38 e4 3d
       0.88618046 0.31906968 0.019970514 0.11143536
000360 bf 60 5c 3d 94 90 18 be 6f fd 1f be 2f e8 21 3f
       0.0538032 -0.14898902 -0.15624021 0.6324491
000370 e5 2d 94 3e d0 8a ce bd d4 39 9c 3e ea 69 18 3f
       0.28941265 -0.1008507 0.3051287 0.5953661
000380 91 07 a4 3e d8 9b 29 be 40 ff 00 be de 89 ba be
       0.32037023 -0.16563356 -0.1259737 -0.3643331
000390 7e 5e 24 3d 54 dc 13 3e 33 f1 1d bf 13 5a 0b 3e
       0.040129177 0.14439517 -0.61696166 0.1360858
0003a0 25 38 bd be b0 f1 a2 be 41 9f f2 3c 2d e7 90 be
       -0.36956897 -0.31825018 0.029616954 -0.28301373
0003b0 7a 21 27 3e 68 c5 5a bd bf 66 39 bf 3e 06 ad be
       0.16321364 -0.053410918 -0.72422403 -0.33793825
0003c0 68 c7 3f 3e e6 bd 7f be 06 07 ad be f8 fc c9 3d
       0.18728411 -0.24974784 -0.3379442 0.09862703
0003d0 1f b4 1a be 05 c6 ac be ec 64 8d bc 18 13 e4 3e
       -0.15107773 -0.33744827 -0.017260037 0.44545817
0003e0 6f 09 2e 3f c0 fb df be 17 c1 dc 3d 32 4a 7a bc
       0.67983145 -0.43746758 0.107790165 -0.015276479
0003f0 fa 0b ac be 36 3a ad be 38 ae 47 be ae d9 9a 3e
       -0.33602887 -0.33833474 -0.19500053 0.302442

final_linear.bias f4 [2]
000000 3f 74 e2 3c a9 24 31 bf
       0.027643321 -0.69196564

linear1.weight f4 [128, 4]
000000 23 0e b2 3f 3e ab 93 bd 43 df 1b 3e 16 0e 17 3e
       1.3910564 -0.07210396 0.15221886 0.14751467
000010 0d 86 80 bf e1 7e 04 40 fa 76 35 3f 37 13 da bf
       -1.0040909 2.070244 0.7088467 -1.7037114
000020 ea e1 95 bd e8 2e 97 40 d1 da 09 bd 10 7a a8 be
       -0.0731848 4.724476 -0.033655945 -0.32905626
000030 26 d7 29 bf ec 79 40 40 29 b9 be 3f a3 be 9f bf
       -0.66343915 3.0074415 1.4900256 -1.2480053
000040 e2 cd 2e 40 9a 34 8a bf 26 f2 92 3f 70 15 a2 3e
       2.731316 -1.0797303 1.1480148 0.3165698
000050 20 1a 41 bf f1 09 27 40 4d 80 19 3f 2e a3 b9 bf
       -0.7543049 2.6099818 0.59961396 -1.4502923
000060 7a 47 4f bf 90 77 a3 3e f6 16 3e 3f 7c 68 16 c0
       -0.8096844 0.31927156 0.74253786 -2.3501272
000070 25 b2 43 bf 76 3d c3 3f 52 30 bb 3e cc 1b e8 bf
       -0.764437 1.5253131 0.36560303 -1.8133483
000080 49 f5 14 3f 1d 2a cc 40 cd 67 fc be 4e 80 e1 3e
       0.58186775 6.380141 -0.49297944 0.440432
000090 03 bc 1a bf ca 0e 3a 3e 7c 14 71 3e 05 5e 17 c0
       -0.60443133 0.18169704 0.2354297 -2.3651135
0000a0 bf 77 ad 3f 3a 81 5b bf 6e d1 5f 3f 7a 8d f9 3e
       1.3552169 -0.8574406 0.8742894 0.4874075
0000b0 1a 5a a8 be 4c de 56 40 5b 31 d7 3e 4c a3 38 be
       -0.32881242 3.357318 0.42029843 -0.18031043
0000c0 88 83 3a 3f 93 32 bf be 94 e7 76 3e 55 0b 8b 3e
       0.7285695 -0.37343273 0.24111778 0.27157083
0000d0 3e b3 20 bf 9b b5 7f 40 8d 5a 58 3f 47 d3 6e bf
       -0.627735 3.9954593 0.8451317 -0.93291134
0000e0 ea 6c 3c 3f 4d 05 c6 be 4a 66 79 3e a0 2f 82 3e
       0.7360369 -0.3867592 0.24355426 0.2542696
0000f0 63 bf 55 bf 44 86 00 40 dd cf b7 3e 07 0f b4 bf
       -0.8349516 2.008195 0.35900775 -1.4067086
000100 fa a6 21 bf d6 4a 07 3f 80 5b 1e 3f 66 3c 07 c0
       -0.6314541 0.52848566 0.6185837 -2.1130614
000110 14 d1 a3 3f 28 5a 37 bf 61 94 4b 3f cb b3 89 3e
       1.279818 -0.7162194 0.79523283 0.26894984
000120 07 33 3e 3e 36 af 88 40 4c 67 10 bf 13 07 4e be
       0.18574153 4.271388 -0.5640762 -0.20119886
000130 8e b1 85 be 92 a5 26 40 8d 8f 81 3e 62 e5 24 3f
       -0.26112026 2.6038556 0.25304833 0.6441251
000140 e8 1d db be 14 dd 89 40 d4 e5 c9 3d d3 c1 19 bf
       -0.42796254 4.308237 0.09858289 -0.6006138
000150 e8 36 06 3f e5 b3 51 be ae 8f 20 3e 71 38 66 3e
       0.5242753 -0.2047878 0.1567981 0.22482468
000160 1c 32 57 bf 79 93 b8 3f 6b 5c 07 3f 65 a4 ec bf
       -0.84060836 1.4420005 0.52875394 -1.8487669
000170 68 bc 42 bf d8 0c cf 3f ca 64 9e 3e aa e2 e2 bf
       -0.76068735 1.6175795 0.3093627 -1.7725422
000180 48 93 05 be e2 ab 35 40 53 c6 34 3f 70 43 b1 be
       -0.13044465 2.838616 0.7061512 -0.34621763
000190 23 e7 0d bf 31 9a 9b 40 a8 21 a0 3f bd e8 59 bf
       -0.5543081 4.862572 1.2510271 -0.85120755
0001a0 bd 70 29 3e a0 92 5e 40 08 28 e7 3e cf b8 9f bd
       0.16546912 3.4776993 0.4514773 -0.07798921
0001b0 27 8c aa 3f e6 82 35 bf b2 05 7b 3f 2d d8 70 3e
       1.3324021 -0.7090286 0.98055565 0.23519965
0001c0 05 50 84 bf 0c 43 0f bf f3 95 ea be d1 70 f9 3e
       -1.033692 -0.5596168 -0.45817527 0.48718885
0001d0 19 17 e9 bd 8b ae 8e 40 36 a4 c9 3c 81 78 ae be
       -0.11381359 4.4588065 0.024614435 -0.34076312
0001e0 43 63 21 3c a5 e4 2c bf 84 bd 73 bf 21 7e 25 be
       0.009850326 -0.67536384 -0.9521105 -0.16161396
0001f0 09 5f 11 bf a0 1a d7 3f 08 90 8b 3f e5 e3 fd bf
       -0.5678564 1.6805 1.090333 -1.9835173
000200 d0 7a d6 3c 0b 5d 23 bf 4a 60 70 bf 18 4c 25 be
       0.026181608 -0.6381385 -0.93896925 -0.16142309
000210 62 fd 23 be a0 17 99 40 e9 e9 64 ba dc 06 ce be
       -0.16014627 4.784134 -0.0008732365 -0.40239608
000220 85 f4 60 bf 2d ad 01 3f 77 7b 04 bf 68 45 d9 3e
       -0.8787311 0.5065487 -0.5175089 0.42435765
000230 b8 b3 5e bf 4e 42 d7 3f 9b be f8 3e 96 95 f2 bf
       -0.8699298 1.681711 0.4858292 -1.89519
000240 f2 a6 4a bf 74 80 64 3f 61 26 7c 3f 61 81 cf bf
       -0.7916099 0.89258504 0.9849606 -1.6211358
000250 11 ed 8c be 85 c4 33 40 68 a9 be 3e 0b c5 6f 3f
       -0.27524617 2.8088696 0.37238622 0.9366004
000260 b7 05 1d 3d 6a 77 23 bf a3 f9 6d bf e0 6e 21 be
       0.03833553 -0.63854086 -0.9295904 -0.15764952
000270 7e 5a 33 3f 66 fd d1 3c a2 cc 8e 3f 84 de 82 bf
       0.70059955 0.025633525 1.1156199 -1.0224156
000280 91 9b 11 3f 3a 59 87 be bc 8d bc 3d 1a 26 33 3e
       0.56878 -0.26435262 0.09206721 0.17495003
000290 93 b6 bf be 03 d1 85 40 8d a0 93 3d 67 0b 0b bf
       -0.3744398 4.181764 0.07208357 -0.54314274
0002a0 fc b6 3c bf a1 ca ea 3f 1d 14 09 3f de de f6 bf
       -0.7371671 1.8343087 0.53546315 -1.9286764
0002b0 64 b5 6e be a4 da 9f 40 54 99 6e 3d 67 af f2 be
       -0.23311383 4.9954395 0.058251694 -0.47399446
0002c0 6f 91 db be 8f ae f7 3e c5 a6 05 3e bc d6 0f c0
       -0.42884395 0.48375365 0.13051899 -2.2474813
0002d0 ae 90 50 be 54 de 16 40 da 7e 27 3f a7 b7 90 be
       -0.20367691 2.3573198 0.65427935 -0.28265116
0002e0 92 f1 80 bf 40 ed 83 bc 78 0a 6b be f2 6f c3 3e
       -1.0073721 -0.01610434 -0.22953212 0.38171345
0002f0 29 39 77 bf 79 da 04 40 11 ee 39 3f 2b 76 e1 bf
       -0.96571594 2.0758345 0.72628886 -1.7614187
000300 7e fc 69 bf bf 75 be 3f d0 17 1b 3f 27 bd ed bf
       -0.914009 1.4879683 0.6058321 -1.857335
000310 7a a7 d2 be 9c 36 8b 40 47 21 82 3f 25 9d 34 bf
       -0.411434 4.350416 1.0166405 -0.70552284
000320 e1 ea a8 bf 7f 48 fb 3d 5e 2a 81 be 60 34 14 3f
       -1.3196679 0.12269687 -0.25227636 0.5789242
000330 79 01 41 bf 4e e1 30 40 2a 66 4e 3f af d0 ad bf
       -0.7539287 2.7637515 0.8062464 -1.357931
000340 f7 d1 49 bf a1 f0 05 40 71 81 c1 3f cb d1 ba bf
       -0.78836006 2.0928118 1.5117627 -1.4595274
000350 cd ae 17 40 96 00 01 3f d4 f1 ce 3e 5d 8b ec 3e
       2.370044 0.5039152 0.40418875 0.46200076
000360 a5 04 82 bf e9 4f 01 40 6e 1f 57 3f 11 9b df bf
       -1.0157667 2.0205023 0.8403233 -1.7469198
000370 c4 b7 6b bf 5c a1 0c 40 43 e4 5a 3f d2 b1 e4 bf
       -0.9207728 2.1973486 0.8550455 -1.7866766
000380 67 ef 2b bf 42 50 82 3e 16 9d 8f 3e 3d fb 11 c0
       -0.67162174 0.25451857 0.28049535 -2.2809594
000390 48 14 fc 3e ba de 1b 40 b0 28 62 bf 4f c3 6e 3e
       0.49234223 2.4354692 -0.88343334 0.23316692
0003a0 f9 94 46 bf 2a a3 f6 3f db 75 02 3e 7a 39 eb bf
       -0.77571064 1.9268544 0.12740271 -1.8376915
0003b0 b9 2d 38 3f a8 51 8b 40 3e 3f 1b bf 36 9a ea bd
       0.7194477 4.353718 -0.60643375 -0.11455195
0003c0 af f1 c4 3d 97 15 9e 40 61 d6 02 bf 22 af 88 be
       0.0961641 4.9401355 -0.51108366 -0.26696116
0003d0 e0 c2 db be ac 30 2c 40 c6 40 ef 3e d9 63 3d be
       -0.42922115 2.6904707 0.46729106 -0.1849512
0003e0 09 c2 63 3f 2c fc 05 40 d7 42 e4 3e ad d6 f4 3e
       0.8896795 2.0935163 0.44582245 0.47820035
0003f0 fc a4 68 bf da 58 00 40 bc f0 19 3f d3 a2 d5 bf
       -0.90876746 2.005423 0.60132957 -1.6690315

linear1.bias f4 [128]
000000 3c 87 2e 3e d2 ab 21 bf 03 b3 91 3d 03 0c 53 3d
       0.17043775 -0.631528 0.07114222 0.051525127
000010 25 8a 00 3f c5 f9 2b bf a3 53 1d 3e ef e6 2b bf
       0.5021079 -0.67177993 0.15363936 -0.6714925
000020 2b ee 4e 3d bc 35 ad 3d 46 af f1 3e 14 a7 98 bd
       0.050520103 0.08457515 0.47204036 -0.074537426
000030 a2 1c 57 3e e9 dd b7 3e ae e1 71 3e 0e f5 1b bf
       0.21007016 0.35911492 0.23621246 -0.609208
000040 19 48 92 3e 0b 41 a8 3e 49 dc fa 3d 55 a0 34 3f
       0.2857063 0.32862124 0.12249047 0.7055715
000050 e4 36 09 3f 89 43 4d 3e db 32 41 bf 81 2c 21 bf
       0.5359938 0.20045294 -0.75468224 -0.6295853
000060 58 41 c5 3e 6c 93 c7 bd ae 05 f5 be 7b 76 a1 3e
       0.38526416 -0.09744915 -0.47855896 0.31535706
000070 e6 54 0e be 7e 30 d8 3d 04 26 d5 ba 9a f3 14 be
       -0.13899574 0.10556124 -0.001626194 -0.14546052
000080 2c 7f 68 ba db 67 5f 3e df 70 54 3e 89 40 2b bf
       -0.0008869048 0.21816961 0.20746182 -0.6689535
000090 c3 3b 78 3e 97 ab 05 3f 04 1c a2 bb 13 c9 a2 3f
       0.24241547 0.5221495 -0.0049471874 1.2717613
0000a0 dd 14 0b 3e de f3 f4 3e bf 50 0b bf 4d 35 9a 3e
       0.13582177 0.47842306 -0.54420084 0.3011879
0000b0 d8 8e 29 be 32 80 b1 3e ee 29 19 3f a1 38 2f bf
       -0.16558397 0.34668118 0.59829605 -0.68445784
0000c0 d2 32 40 bf ee 25 c9 bd 59 4f 01 3f d9 b4 12 bf
       -0.75077546 -0.09821688 0.505117 -0.573072
0000d0 51 43 1a 3e 00 dd c9 3e 56 6f 16 bf 02 5a 2e bf
       0.15064742 0.39426422 -0.58763635 -0.6810609
0000e0 d5 83 94 bd 05 f4 ea 3e 5c d2 2e bf ff 1a bd be
       -0.072517075 0.45889297 -0.6828973 -0.3693466
0000f0 3a 0a 40 3e 38 52 c0 3e 7c ed cf 3f 83 a6 37 bf
       0.18753901 0.37562728 1.624435 -0.7173845
000100 21 32 b6 bd 81 0a 8a be 69 2e cd be 53 f0 ca 3e
       -0.0889628 -0.2696114 -0.4007447 0.39636478
000110 75 d5 a6 3f 6d 99 28 be 5d af 16 3f 8d 91 1a 3e
       1.3033892 -0.16464777 0.58861333 0.15094586
000120 7a ca b9 3f 6c 74 c2 bd 4a bf 84 3c a8 31 3a 3c
       1.4514916 -0.09494862 0.016204495 0.011364378
000130 07 3c 4b be e5 9e df 3e 44 95 27 3e 57 e0 ff 3d
       -0.19847117 0.43675914 0.16365534 0.12493961
000140 ff 3b 26 be 47 74 34 bf 84 6a a2 3e 0e b9 8d be
       -0.16233824 -0.70489925 0.3172189 -0.27680248
000150 d2 98 3d bf 9b 4d aa be ca f8 f8 3e eb aa a7 3d
       -0.7406131 -0.33262333 0.4862731 0.08186897
000160 21 c8 1f bd 58 b6 69 be 61 ec 30 be f7 b2 3c bf
       -0.039009217 -0.22823465 -0.17277671 -0.7371058
000170 b3 68 7f be 3b bd 0d 3e b2 d8 fb 3e 87 23 12 3f
       -0.24942283 0.13841717 0.49188763 0.5708546
000180 f1 ec b0 be 2f cd 1a 3f 03 b2 21 bf bd 12 53 3e
       -0.34555772 0.60469335 -0.6316225 0.20612617
000190 73 4c 49 3d 94 e7 01 bf c0 45 97 3f da 61 26 3f
       0.049145173 -0.50743985 1.1818161 0.6499306
0001a0 6c 31 43 bf 78 8f 48 3f 6d 24 d9 3e 95 18 19 bf
       -0.76247287 0.78343916 0.42410603 -0.59803134
0001b0 51 50 a3 be b8 19 47 be 2e 4c d2 be 9a ac da 3e
       -0.31897214 -0.19443405 -0.41073745 0.4270981
0001c0 21 8e c6 bd b3 58 ce 3e d5 ea 18 3f df f2 69 be
       -0.09695078 0.40302047 0.59733325 -0.22846554
0001d0 12 7c 01 be 75 e6 40 bf 62 30 a0 3e d1 b5 cb 3e
       -0.12644985 -0.7535165 0.31286913 0.39787152
0001e0 b3 be a0 3e 88 e8 09 bf d6 2d ba 3e 23 7a 07 bf
       0.31395492 -0.5387044 0.36363095 -0.5292074
0001f0 49 d3 2a bf 23 ed 99 3e d7 cc 0f bf cd ec 0c bf
       -0.66728646 0.30063733 -0.56171936 -0.5504883

final_linear.weight f4 [1, 128]
000000 ed b0 6c 3e 1a 12 e8 bf 0d a4 7e c0 df d0 fc bf
       0.23114367 -1.8130524 -3.9787629 -1.9751242
000010 67 ec 08 3f 6e da c3 bf c1 a7 da bf 8d ee f4 bf
       0.5348572 -1.5301034 -1.7082444 -1.91353
000020 4a 61 d2 bf c8 5a e0 bf 58 de d0 3e 94 c1 a5 bf
       -1.643594 -1.7527704 0.40794635 -1.29497
000030 e7 a8 78 3e 72 16 12 c0 e7 8c 89 3e 40 ea e4 bf
       0.24283181 -2.28262 0.26865312 -1.7883987
000040 3e bb cd bf 3d 0f 18 3f f3 ac 61 c0 d3 04 9e bf
       -1.6072767 0.5939825 -3.526181 -1.2345222
000050 35 76 0e c0 f7 da 54 3f 35 28 e8 bf 2d 1e f2 bf
       -2.2259648 0.83146614 -1.813727 -1.8915459
000060 5b e3 8d bf d5 85 1f c0 86 82 e1 bf ce 21 65 3f
       -1.1085008 -2.4925435 -1.7617958 0.89504707
000070 84 17 83 3f 02 32 4b c0 94 1e 7d bf 73 66 da bf
       1.0241551 -3.1749272 -0.98874784 -1.7062515
000080 85 ce 80 bf 65 cd 76 c0 7d 46 71 3f 3e fb cf bf
       -1.0063025 -3.8562863 0.9424818 -1.6248548
000090 87 9a d5 bf 31 7b 69 bf af 68 53 bf 5f 72 c3 bf
       -1.6687783 -0.912036 -0.8258161 -1.5269278
0000a0 62 2c 1e 3f b3 3a 22 c0 13 b0 d5 bf 7e b3 6c c0
       0.6178647 -2.5348327 -1.6694359 -3.6984553
0000b0 58 82 df bf 2d 2e 77 bf d2 c5 90 3f 6d a6 e7 bf
       -1.7461653 -0.96554834 1.131037 -1.8097664
0000c0 fb 20 d2 bf 07 d6 0d c0 79 49 72 3f 36 e6 e3 bf
       -1.6416315 -2.2161882 0.9464336 -1.780463
0000d0 66 d0 e2 bf fa c6 08 3f df ab e2 bf 28 81 cd bf
       -1.7719848 0.53428614 -1.7708701 -1.605504
0000e0 3c f4 f2 bf 29 62 d4 bf bc 33 c5 bf b8 2b 2f c0
       -1.8980784 -1.6592456 -1.5406413 -2.7370434
0000f0 b9 37 83 c0 d3 e1 ba bf 4f ce 3f 3f fc fc e5 bf
       -4.100552 -1.4600166 0.74924177 -1.796783
000100 87 c8 89 3f b3 c1 d5 bf 8b e9 e0 bf 27 94 41 c0
       1.0764321 -1.6699737 -1.7571272 -3.0246675
000110 5e 38 d0 bf 32 bd 12 c0 e5 6a 07 c0 83 64 24 3f
       -1.6267202 -2.2927976 -2.1158993 0.6421587
000120 83 86 bd bf 40 05 5e c0 73 e8 86 c0 b9 23 dc bf
       -1.4806675 -3.4690704 -4.215875 -1.7198402
000130 12 ba c4 bd 20 3a e7 bf a8 9b 30 3f d6 0b 68 c0
       -0.096058026 -1.8064613 0.6898751 -3.6257224
000140 df 93 d8 bf 9f 3a d7 bf 13 eb 0d 3f 82 d2 27 c0
       -1.6920127 -1.6814765 0.5543682 -2.6222234
000150 86 88 d9 bf c5 f8 ef bf a4 7d d0 bf 82 aa bb bf
       -1.6994789 -1.8747793 -1.6288342 -1.466141
000160 21 00 74 c0 df f8 61 3e 1b 92 d3 bf 11 43 f3 bf
       -3.8125079 0.22067593 -1.6528963 -1.9004842
000170 b5 ba ab be ca 7c 89 bf 12 b8 fb 3e 07 b0 ce bf
       -0.33540884 -1.0741208 0.49163872 -1.6147469
000180 35 6a df bf 90 1a 15 c0 4e 4b c4 bf 69 6a 28 3f
       -1.7454287 -2.3297462 -1.5335481 0.6578737
000190 86 37 6b c0 dd 62 db bf 45 95 d1 bf 64 0d 25 c0
       -3.675264 -1.7139546 -1.6373678 -2.5789423
0001a0 57 58 e0 bf f8 24 fb bf 43 db c4 bf fe 04 e3 bf
       -1.7526959 -1.9620657 -1.5379413 -1.7735898
0001b0 8e d1 f6 bf d5 c7 ed bf 84 c8 da bf 07 95 32 3f
       -1.9282701 -1.8576609 -1.7092443 0.6975865
0001c0 fc 0f d8 bf aa d6 1f c0 6b fd cc bf 65 87 de bf
       -1.6879878 -2.497477 -1.6014837 -1.7385069
0001d0 d7 43 e3 bf d8 57 d3 bf fa 7a 1c 3f cc ba 35 3f
       -1.7755078 -1.6511183 0.6112515 0.70988154
0001e0 b2 95 0e 3f 83 b6 eb bf 69 5e 2a c0 f6 ab ee bf
       0.55697167 -1.8415073 -2.6620123 -1.8646228
0001f0 d2 81 e7 bf cd 91 82 bf 7d 85 e9 bf 6c 67 1c c0
       -1.8086493 -1.0200745 -1.8243862 -2.4438124
