option_hedging/hyperparameters/dqn_hyperparameters/vanilla/year/0.0/best_dqn_model.pth (torch, 33742 bytes, 6 tensors)

linear1.weight f4 [64, 4]
0	0xc11e0f22	-9.878695
1	0xbfa78384	-1.308701
2	0xbf7f3021	-0.99682814
3	0xc081d39e	-4.057082
4	0xc0eb36de	-7.3504477
5	0xc139d453	-11.614337
6	0x3dafe881	0.085892685
7	0x3f2e6d34	0.6813538
8	0xc0dbab34	-6.864649
9	0xc0a49e65	-5.1443353
10	0xc039808c	-2.8984709
11	0xc08e0dd6	-4.439189
12	0xc10c2cca	-8.760935
13	0xc0f42b3d	-7.630278
14	0xbfcfae69	-1.6225101
15	0xc032ca11	-2.7935832
16	0xc134a792	-11.290911
17	0xbffbc2bd	-1.9668804
18	0xc02c6e39	-2.6942275
19	0xbf8a2e96	-1.0795467
20	0xc140f0c9	-12.058785
21	0xc0da0ffd	-6.8144517
22	0xbec86aa3	-0.39143857
23	0xbee9de16	-0.4567725
24	0xc13f478c	-11.9549675
25	0xc0ba52a8	-5.82259
26	0xbf524e6d	-0.8215092
27	0xc00e919f	-2.227638
28	0xc13c8576	-11.782583
29	0xc0c85504	-6.260378
30	0xbf6dd482	-0.92902386
31	0xc0220bcd	-2.5319703
32	0xc0386b93	-2.8815658
33	0x40656fab	3.5849407
34	0x400b5807	2.1772478
35	0xbf82890f	-1.0198077
36	0xc10c04a4	-8.751133
37	0xc0ac820b	-5.3908744
38	0xbf889754	-1.0671182
39	0xc093d76a	-4.6200457
40	0xc142b196	-12.168356
41	0xc0d00c0d	-6.501471
42	0x3e69f5fc	0.22847742
43	0xc0473cf8	-3.1130962
44	0xc149a773	-12.603381
45	0xc0af8ffd	-5.4863267
46	0xbf90fd8c	-1.1327376
47	0xc0028fe4	-2.0400324
48	0xc123b3a0	-10.231354
49	0xc013eba5	-2.3112576
50	0xbf5f7bcc	-0.87298274
51	0xbf7d7379	-0.9900432
52	0xc0d84bdf	-6.7592616
53	0xc14b190a	-12.693613
54	0xbf9a4c79	-1.2054588
55	0xbf3cbf54	-0.73729444
56	0xc0c24deb	-6.0720115
57	0x410950b0	8.582199
58	0xbf09eb14	-0.53874326
59	0x401a1d6c	2.4080458
60	0xc08f5705	-4.4793725
61	0xc14afca2	-12.686678
62	0x3f003ffc	0.5009763
63	0x3fa5c45b	1.2950548
64	0xc0fc339a	-7.881299
65	0x408d1670	4.408989
66	0xbedcda75	-0.4313542
67	0xc0694731	-3.6449702
68	0xc11db91b	-9.857692
69	0xc0ca8e36	-6.3298597
70	0xbef2adf6	-0.47398347
71	0xc020b720	-2.511177
72	0xc0928e6b	-4.579885
73	0xc1492128	-12.570595
74	0x3f0ae90d	0.5426186
75	0x3f9e30a1	1.235859
76	0xc12c21fd	-10.758298
77	0xbf164d8c	-0.5871208
78	0xbeba3d0a	-0.36374694
79	0xc05ea194	-3.478612
80	0xc091cc49	-4.556187
81	0xc144145f	-12.254973
82	0x3f08f450	0.5349779
83	0x3f9e5c55	1.2371927
84	0x3e97491a	0.2954796
85	0xc1b74b89	-22.911882
86	0xbd54fd1a	-0.05199919
87	0x3fd26bec	1.6439185
88	0xc10430ce	-8.261915
89	0xc0cd0194	-6.4064426
90	0xbfe3ba60	-1.7791252
91	0xc079cfef	-3.9033163
92	0xc094b794	-4.6474094
93	0xc1467ed4	-12.405964
94	0x3f08797b	0.53310364
95	0x3fa53351	1.2906286
96	0xc129b557	-10.606772
97	0xc0d109ea	-6.53246
98	0xbf3cf274	-0.73807454
99	0xc01e3477	-2.4719522
100	0xc15dc23b	-13.85992
101	0xc088268a	-4.2547045
102	0xbf86e607	-1.0538949
103	0xbfcfe463	-1.6241573
104	0xc115762f	-9.341353
105	0xc0e6e49a	-7.2154055
106	0xbf87a1e8	-1.0596285
107	0xc06aa5d7	-3.666372
108	0xc1712b35	-15.073049
109	0xc0ad9d89	-5.4254804
110	0xbf8b58a3	-1.0886425
111	0xbfbb6610	-1.4640522
112	0xc08b87e3	-4.3603377
113	0xc199caac	-19.22396
114	0xbd9336c1	-0.07188178
115	0x3f876605	1.0578009
116	0xc10f9397	-8.973533
117	0xc0d45c46	-6.636264
118	0xbe9c8d70	-0.30576658
119	0xc027ff3d	-2.6249535
120	0xc133335e	-11.200041
121	0xc0b1d1da	-5.5568666
122	0xbfd1f644	-1.6403279
123	0xc0068d86	-2.102388
124	0xc138fee4	-11.562229
125	0xc058678f	-3.3813207
126	0xbf9de6d4	-1.2336068
127	0xc0194a61	-2.3951647
128	0xc11a7465	-9.653417
129	0x402f273d	2.73677
130	0xbf3f6587	-0.74764293
131	0xc05d3f7d	-3.457
132	0xc18d8fc4	-17.695198
133	0xc0b4e194	-5.6525364
134	0xbf5d6de7	-0.8649582
135	0xbfc08df4	-1.5043321
136	0xc09caaae	-4.895835
137	0xc11a3882	-9.638796
138	0xbf12a8c8	-0.5728879
139	0xc06a3033	-3.6591918
140	0xc1b63727	-22.77693
141	0xc0c7c2dc	-6.2425365
142	0xbf081e7e	-0.5317153
143	0xbfb145f6	-1.3849475
144	0xc0d59011	-6.673836
145	0x407e8985	3.9771435
146	0xbe00745a	-0.12544385
147	0xc029e9c4	-2.654893
148	0xc155f623	-13.372592
149	0xbfc58500	-1.5431213
150	0xbf9575a4	-1.1676526
151	0xbf42a283	-0.76029223
152	0xc142496b	-12.142924
153	0xc0b550d1	-5.6661153
154	0xbf7ffeea	-0.99998343
155	0xc003fcff	-2.0623167
156	0xc0f1873c	-7.547758
157	0xbfebf041	-1.8432695
158	0xbd0656f6	-0.032797776
159	0xc03dc89a	-2.9653687
160	0xc106013e	-8.375303
161	0xc0b7c451	-5.7427144
162	0xbd767001	-0.06016541
163	0xc00a9699	-2.1654418
164	0xc0bd9012	-5.9238367
165	0xc0a7b57c	-5.240904
166	0xbed0d535	-0.40787664
167	0xc0bcc421	-5.8989415
168	0xc110fa35	-9.061086
169	0xc0e873e9	-7.264149
170	0xc017967e	-2.3685603
171	0xc0516c1e	-3.272224
172	0xc128a3dd	-10.540006
173	0xc08ddb60	-4.433029
174	0xbe6d0d8b	-0.23149697
175	0xc01cc78d	-2.4496796
176	0xc12fcc97	-10.987449
177	0xc08b6714	-4.356333
178	0xbf4460dc	-0.76710296
179	0xbf86766e	-1.0504892
180	0xc0916fea	-4.5449114
181	0xc14a5dbb	-12.647883
182	0x3f05165b	0.51987237
183	0x3fa0491f	1.2522315
184	0xc11323c9	-9.196237
185	0xc0e96d97	-7.2946277
186	0xbf06df97	-0.5268492
187	0xc03dc027	-2.964853
188	0xc111e915	-9.119405
189	0xc0e92e3e	-7.286895
190	0xbf79e0f7	-0.97608894
191	0xc02ff8e6	-2.7495666
192	0xc0fafac5	-7.8431115
193	0xc0a3b0d2	-5.1153345
194	0xbec5cf73	-0.38634834
195	0xbfb9e7a0	-1.4523811
196	0xc124b3c0	-10.293884
197	0xc06583fe	-3.5861812
198	0xbe840689	-0.25786236
199	0xc03c8423	-2.945565
200	0xc12b0afb	-10.690181
201	0xc087b869	-4.241261
202	0xc01c4764	-2.4418573
203	0xc0146388	-2.318575
204	0xc12860de	-10.523649
205	0xc0fb3b6b	-7.851003
206	0xbfbbf72c	-1.4684806
207	0xbf762d1a	-0.9616257
208	0xc10784d6	-8.469931
209	0xc12306f7	-10.1892
210	0xbf87f916	-1.062289
211	0xbf8e0845	-1.1096274
212	0xc117edc2	-9.495546
213	0xc0afc727	-5.4930606
214	0xbfd58048	-1.6679773
215	0xc03a772b	-2.9135234
216	0xc155bc7e	-13.358519
217	0xc0a8e286	-5.277652
218	0xbf9744db	-1.1817888
219	0xc007e6e6	-2.123468
220	0xc08c2f33	-4.3807616
221	0xc147d62e	-12.48979
222	0x3f02dab0	0.5111494
223	0x3fa57983	1.2927707
224	0xc0fc21e5	-7.8791375
225	0xc0dea6f6	-6.957881
226	0xbfdd4a1d	-1.7288243
227	0xc0b477c9	-5.639622
228	0xc0e8ad2f	-7.2711406
229	0x3f95e469	1.171033
230	0xbdda15b1	-0.106486686
231	0xc05908ff	-3.391174
232	0xc12c1287	-10.754523
233	0xc08b6bab	-4.356893
234	0xbf87d6db	-1.0612444
235	0xc0353f79	-2.831999
236	0xc0d93cfb	-6.788694
237	0xc1180381	-9.500855
238	0xbfd1f7bc	-1.6403728
239	0xc08b89d5	-4.360575
240	0xc0f7901b	-7.736341
241	0xc1045f25	-8.273229
242	0xbf281529	-0.6565729
243	0xc07d33f1	-3.9562953
244	0xc123f36b	-10.246928
245	0xc0f47666	-7.639453
246	0xc00641b1	-2.0977595
247	0xbffe1253	-1.9849342
248	0xc0d3ec23	-6.6225753
249	0xc11a76af	-9.6539755
250	0xbe329422	-0.1743932
251	0xc0938476	-4.6099195
252	0xc109bd84	-8.608768
253	0xc11fa252	-9.977129
254	0x3bf8def7	0.007594939
255	0x3f06bb19	0.5262924

linear1.bias f4 [64]
0	0xbca62bb9	-0.02028452
1	0x40df151d	6.9713273
2	0x3f471df1	0.7778006
3	0x407cb27b	3.9483936
4	0xbf06029d	-0.5234774
5	0x3ede9402	0.43472296
6	0x406c7cc4	3.695115
7	0x40583fe1	3.3788989
8	0x4130c83a	11.048883
9	0xbee06b19	-0.4383171
10	0x3ec89e4b	0.39183268
11	0x40026fb6	2.0380683
12	0x406a1130	3.657299
13	0x40163366	2.346887
14	0x4109ebb1	8.620042
15	0x41074948	8.455391
16	0x408173ab	4.0453696
17	0x40961f9e	4.6913595
18	0x410758fb	8.459224
19	0x3f7f327a	0.99686396
20	0x4105b415	8.356465
21	0x3dc4819d	0.09595034
22	0x408802db	4.2503486
23	0x4107c06e	8.48448
24	0x40851666	4.158984
25	0x40174147	2.3633592
26	0x406bd802	3.685059
27	0x3fd1e524	1.6398053
28	0x4090876a	4.51653
29	0x40ab61df	5.355697
30	0x3faa01e9	1.3281833
31	0x3fc9adb4	1.5756135
32	0x403b09e4	2.9224787
33	0x3f94783b	1.1599191
34	0x4045b1e6	3.088983
35	0x3e97fd93	0.2968565
36	0x40ccd1e3	6.400621
37	0x40276e5b	2.6161106
38	0x402475a8	2.5696812
39	0x408807c4	4.250948
40	0x40b80250	5.7502823
41	0x3fb45098	1.4087095
42	0x3ffe4458	1.9864607
43	0xbe7765af	-0.24159883
44	0x3fb4d27a	1.4126732
45	0x4107c096	8.484518
46	0x4099ebaf	4.81002
47	0xbee8c605	-0.45463577
48	0x40c2e233	6.090112
49	0xbc64036e	-0.013916833
50	0xba6429a7	-0.00087037164
51	0x3ffabdf3	1.9589218
52	0x3fb80689	1.4376994
53	0x3fb0d64c	1.3815398
54	0x3f8a8c3f	1.082405
55	0x41050281	8.313111
56	0x3f78bf0d	0.9716652
57	0x40b12cfb	5.536741
58	0xbf321977	-0.69570106
59	0x3ea4434e	0.320826
60	0x3fc29753	1.520243
61	0x4000076d	2.0004532
62	0x3f52d64b	0.82358235
63	0x40eb2617	7.3483996

linears.0.weight f4 [64, 64]
0	0x3fd5ff70	1.6718578
1	0xc01dbb2a	-2.4645486
2	0x401a604f	2.4121282
3	0x3fd8413a	1.6894906
4	0x4023e7bf	2.5610197
5	0x40262a76	2.5963416
6	0x4026bebd	2.6053917
7	0x402c8bbf	2.6960294
8	0xbd8fa65f	-0.07014155
9	0x401a0510	2.406559
10	0x400eb200	2.2296143
11	0x4067793c	3.6167746
12	0x3ff339e5	1.9002043
13	0x3ffa4c31	1.9554502
14	0xbf05cfee	-0.522704
15	0x406f1ce8	3.7361393
16	0x3f4915e6	0.7854904
17	0x4018ad5a	2.3855805
18	0x40624526	3.5354705
19	0x3fba2cb0	1.4544888
20	0x40718f11	3.774357
21	0xbe11cd51	-0.14238478
22	0x3fc40314	1.5313439
23	0x404fb231	3.245251
24	0x4023a98c	2.5572233
25	0x401bed86	2.4363723
26	0x3fd3a2ec	1.6534095
27	0x4029cac4	2.6530008
28	0xbef6d92a	-0.48212558
29	0x402ab0d6	2.6670432
30	0x3fe7a90a	1.8098462
31	0x3fecdeaf	1.8505458
32	0x3f7782a5	0.9668372
33	0x401e9f8e	2.4784884
34	0x403335d5	2.8001606
35	0x40486db2	3.1316953
36	0x3fa4fb8b	1.2889265
37	0x3fef0321	1.867283
38	0x405955ea	3.3958688
39	0x3fc5e908	1.546174
40	0x4009567e	2.145904
41	0x4011ae42	2.2762609
42	0x40406245	3.005998
43	0x402a8da3	2.6648948
44	0x40359864	2.8374262
45	0x4070ddb9	3.7635329
46	0x3ff044c2	1.8770983
47	0x405807e6	3.375482
48	0x404ab51f	3.1673048
49	0x402dc644	2.7152262
50	0x401ea8c3	2.4790504
51	0x400f19df	2.235954
52	0x40157236	2.335096
53	0x40006116	2.0059257
54	0x407958a3	3.896035
55	0x4060048b	3.5002773
56	0x400a9c5d	2.1657937
57	0x3f9bc0c3	1.2168201
58	0x3fff9a64	1.9968991
59	0x4025e54e	2.5921206
60	0x40388888	2.8833332
61	0x3fd46eaa	1.6596272
62	0x40568eef	3.352474
63	0x40a0347e	5.0064077
64	0x40375ad8	2.8649197
65	0xbf0d7363	-0.5525419
66	0x40055e19	2.0838683
67	0x40211692	2.5170026
68	0x40151e36	2.329969
69	0x40436fe2	3.0537038
70	0x4016afd0	2.3544807
71	0x400dac40	2.2136383
72	0x3fed434d	1.8536164
73	0x4018d088	2.3877277
74	0x4062acf7	3.541807
75	0x40016c82	2.0222478
76	0x3f74f98b	0.9569327
77	0x3f8daea8	1.1068926
78	0x4000845a	2.008078
79	0x4007aa22	2.119759
80	0x4029fce6	2.6560607
81	0x404dafba	3.2138505
82	0x4010a468	2.2600346
83	0x405180ea	3.2734933
84	0x4004cb05	2.0748913
85	0x3ff66233	1.9248718
86	0x40353040	2.83107
87	0x401b8cf9	2.4304793
88	0x40357cbd	2.8357384
89	0x3f7b284b	0.9810836
90	0x402eda23	2.732064
91	0x3f7762c7	0.966351
92	0x3f01070d	0.50401384
93	0x40021092	2.0322614
94	0x40587b1c	3.382514
95	0x40462a14	3.0963182
96	0x404d0ad4	3.203786
97	0xbebaf4dd	-0.3651494
98	0x3fba3426	1.4547164
99	0x4066bcd8	3.605276
100	0x3fe528c4	1.7903066
101	0x3ff6085d	1.9221302
102	0x3ff3d7e5	1.9050261
103	0x3fcc3377	1.5953206
104	0x3fcdd03a	1.6079171
105	0x3ffc6f9f	1.9721564
106	0x406cc01b	3.6992252
107	0x404539bc	3.0816488
108	0x3fab55a9	1.3385516
109	0x400ec7e7	2.230951
110	0x403dcfc9	2.9658072
111	0x403b3480	2.9250793
112	0x40045998	2.0679684
113	0x404cfb54	3.2028399
114	0x406643e0	3.5978928
115	0x40003a21	2.003548
116	0x400b0489	2.1721518
117	0x4037e75a	2.8734956
118	0x403c4462	2.9416738
119	0x400c7bbb	2.195052
120	0x40383714	2.8783617
121	0x3fb6cbe4	1.4280972
122	0x405b1a71	3.4234889
123	0x4009f23a	2.1554093
124	0x402bfc9e	2.6872935
125	0x4037a6e3	2.869561
126	0x4005535d	2.083213
127	0x408c86d2	4.3914576
128	0x40295988	2.6460896
129	0xbf910fd1	-1.1332952
130	0x403d7596	2.9603019
131	0x4013ae28	2.3075047
132	0x402ef619	2.7337706
133	0x401d18f5	2.4546483
134	0x40174099	2.3633177
135	0x400e31c8	2.2217884
136	0xbf9cc94b	-1.224893
137	0x401dcc1a	2.4655824
138	0x3fa94e54	1.3227029
139	0x403b8fc0	2.9306488
140	0x401a58c9	2.411669
141	0x403090ac	2.75883
142	0xbfb8bc27	-1.443242
143	0x4066d88a	3.6069665
144	0x3fcf4980	1.6194305
145	0x40159f01	2.3378298
146	0x405d742b	3.4602153
147	0x40026239	2.037245
148	0x405c3ee9	3.4413397
149	0xbe8438c7	-0.25824568
150	0x4017b8d9	2.3706572
151	0x405f959a	3.493506
152	0x3fe3348c	1.7750411
153	0x407a46bd	3.9105675
154	0x40165759	2.3490813
155	0x4075685c	3.8344946
156	0xbed0992f	-0.4074187
157	0x40241be0	2.5642014
158	0x3fc53f34	1.5409913
159	0x3fd2e97a	1.6477501
160	0x3fdde2bc	1.7334819
161	0x408642af	4.19564
162	0x404a4d85	3.1609814
163	0x40962dd2	4.6930933
164	0x3fb300ec	1.3984656
165	0x4040b582	3.0110784
166	0x4028b86c	2.6362562
167	0x400de77a	2.2172532
168	0x4013a623	2.3070152
169	0x403f9a9d	2.9938118
170	0x40572aca	3.3619866
171	0x40147b89	2.32004
172	0x40508523	3.258126
173	0x406280f6	3.5391212
174	0x3fe4f632	1.7887633
175	0x4031e0ad	2.7793381
176	0x40367e5c	2.8514624
177	0x401c84ba	2.445601
178	0x3fdead66	1.7396667
179	0x4024f657	2.5775354
180	0x40437b5e	3.0544047
181	0x40233c54	2.5505571
182	0x403e3759	2.9721282
183	0x406568fe	3.5845332
184	0x400aeed2	2.1708264
185	0x40177788	2.3666706
186	0x40009e71	2.0096705
187	0x405d567e	3.458404
188	0x403d200e	2.9550815
189	0x4012e354	2.295125
190	0x404c0258	3.187643
191	0x40813627	4.0378604
192	0x402ab913	2.667546
193	0xbf948d83	-1.1605686
194	0x4031c035	2.7773564
195	0x400fa887	2.244661
196	0x4043894e	3.0552554
197	0x40396bcc	2.8972044
198	0x4058d4e5	3.387994
199	0x401e6858	2.4751186
200	0xbf0ed835	-0.55798656
201	0x4046a83f	3.104019
202	0x401be0ac	2.435588
203	0x40860385	4.1879296
204	0x403f6ef0	2.991146
205	0x40176635	2.3656132
206	0xbe04dc46	-0.12974653
207	0x4077553b	3.864577
208	0x4011d5d6	2.2786765
209	0x4022bb05	2.5426648
210	0x40740de2	3.8133473
211	0x3fed26a9	1.8527423
212	0x407a9c59	3.9157927
213	0xbf88da47	-1.0691613
214	0x3ff7d631	1.9362241
215	0x4063ce8f	3.5594823
216	0x4030e9f1	2.7642787
217	0x4021939a	2.524634
218	0x4006cbb5	2.1061833
219	0x40250b48	2.5788136
220	0xbfa24037	-1.2675847
221	0x4001ec4a	2.030047
222	0x402961db	2.6465976
223	0x400c446f	2.1916769
224	0x4022f193	2.5459945
225	0x402d040a	2.7033715
226	0x40302553	2.752278
227	0x403a1005	2.9072278
228	0x3ff0f921	1.8826028
229	0x400f2bd4	2.23705
230	0x405c78cf	3.4448736
231	0x3ffe4d3e	1.9867322
232	0x4004e209	2.076296
233	0x402cf3e3	2.7023857
234	0x40597a0e	3.3980746
235	0x40174586	2.3636184
236	0x402152d1	2.5206797
237	0x406d8341	3.711136
238	0x4027da4a	2.6226983
239	0x40720a71	3.7818873
240	0x401a42eb	2.4103343
241	0x401e3eb4	2.472577
242	0x403ab082	2.9170232
243	0x401d1859	2.454611
244	0x402cdcac	2.7009687
245	0x4016fe9f	2.3592908
246	0x40a43c21	5.13234
247	0x40685888	3.6304035
248	0x4040c379	3.0119307
249	0x3fc50fb5	1.5395418
250	0x400e84b4	2.2268496
251	0x40596c56	3.3972373
252	0x404ccb16	3.1998954
253	0x400f8a60	2.2428207
254	0x4069f614	3.6556444
255	0x408982e1	4.2972264

linears.0.bias f4 [64]
0	0x3f93dee5	1.1552397
1	0x40ce98d2	6.456155
2	0xbf7e9fb2	-0.99462426
3	0x3f4e8261	0.8066769
4	0x3e2ea0d0	0.17053533
5	0x3f625e25	0.88424903
6	0xbdbb0606	-0.09132008
7	0x414222df	12.133513
8	0xbe98f69c	-0.29875648
9	0xbf63625b	-0.88821954
10	0x4023c56d	2.558925
11	0xbc9d0450	-0.019167095
12	0xbf890a32	-1.0706236
13	0xbe1ce3c0	-0.15321255
14	0x41241685	10.255498
15	0x3d896005	0.067077674
16	0x4039735c	2.897666
17	0xbe66f5fc	-0.22554773
18	0xbf86ad4e	-1.0521638
19	0x3fc5c754	1.5451455
20	0x3f7fce84	0.9992449
21	0x3f527834	0.82214665
22	0x3f5d00df	0.86329454
23	0xbfc003fb	-1.5001215
24	0xc00171be	-2.0225673
25	0x3d9c4039	0.07629437
26	0x3f8249d0	1.0178776
27	0x3f1fc080	0.62403107
28	0x3ea7cf67	0.32775423
29	0x4027207c	2.6113577
30	0x3f680ece	0.9064759
31	0x3e7c0bb6	0.24613842
32	0x3fc521c6	1.5400932
33	0x3ff46f79	1.9096519
34	0xbf9b6d9a	-1.2142823
35	0x3ec12717	0.37725136
36	0xbeceea24	-0.4041301
37	0x3e3b8d88	0.18315709
38	0xbe140686	-0.14455613
39	0x3f1d9c20	0.6156635
40	0xbb407f33	-0.0029372692
41	0xbe69a1fa	-0.22815695
42	0x414a4659	12.642175
43	0x3fa4e9e0	1.2883873
44	0xbe23750f	-0.15962623
45	0xbfc494ee	-1.535795
46	0xbf808c37	-1.004279
47	0xbf67c782	-0.905388
48	0x4023f4eb	2.5618236
49	0x3f8b9a9b	1.0906557
50	0x3f2f6a52	0.68521607
51	0x413d6493	11.837054
52	0x3f873011	1.0561544
53	0x3ef8787c	0.48529422
54	0xbf1be5e7	-0.6089768
55	0x40785e40	3.8807526
56	0x407428be	3.8149867
57	0xbfe1c08f	-1.7636889
58	0x4143fbca	12.248972
59	0x414f0248	12.938057
60	0x40b302ab	5.5940757
61	0x404c8b39	3.1959975
62	0x3ea66a3e	0.3250293
63	0x414febec	12.995098

final_linear.weight f4 [50, 64]
0	0xbd8dc896	-0.06923024
1	0x3dd21627	0.102581315
2	0x3e2c4eb3	0.16826896
3	0x3e845962	0.25849444
4	0xbdc8ba23	-0.09801128
5	0x3d382612	0.04495818
6	0x3d591012	0.05299384
7	0xbf17a5df	-0.59237474
8	0xbdec1eb4	-0.11529294
9	0x3e5d0c7f	0.21586798
10	0x3cbecf51	0.023292216
11	0xbae97069	-0.001780999
12	0x3e6b43a0	0.22975016
13	0x3ed05d7c	0.40696323
14	0xc014693f	-2.3189237
15	0x3e98d64f	0.29851004
16	0x3e82bda3	0.25535306
17	0xbde0f2a9	-0.10983784
18	0x3e176417	0.14784275
19	0xbeccb1f3	-0.39979514
20	0x3d3b996a	0.045800604
21	0xbe0c8b9e	-0.13725135
22	0x3dbadfa5	0.09124688
23	0x3e2d3d0d	0.1691782
24	0x3f00501a	0.50122225
25	0xbdd197b7	-0.102340154
26	0x3bccf76b	0.0062550805
27	0xbe200b51	-0.15629317
28	0xbd41bfa2	-0.047301896
29	0x3e0dd541	0.13850881
30	0x3e579052	0.21051148
31	0xbe84f35d	-0.2596692
32	0x3e61416c	0.21997613
33	0x3e0de16b	0.13855521
34	0x3f07ea5d	0.53091985
35	0x3da1f830	0.07908666
36	0x3d977796	0.07395856
37	0xbdfaf96a	-0.12254603
38	0x3e56ef07	0.20989619
39	0x3e4dbc43	0.20091347
40	0x3e315213	0.17316465
41	0x3de69d51	0.112604745
42	0xbf52992d	-0.8226498
43	0xbd9a6fcc	-0.07540855
44	0xbdeba2a3	-0.1150563
45	0x3de11830	0.109909415
46	0x3d60e746	0.05490806
47	0x3e8e1c4e	0.2775597
48	0x3d122ffd	0.035690296
49	0x3e12d52a	0.14339128
50	0x3da83d32	0.08214797
51	0xbf1b8bdd	-0.6076029
52	0x3dfc5da2	0.123225465
53	0x3e24d933	0.1609848
54	0x3a942e8b	0.0011305375
55	0xbe1f5a69	-0.15561832
56	0xbe3dc7d0	-0.18533254
57	0x3de28be5	0.11061839
58	0xbf18f786	-0.5975269
59	0xbf4cec89	-0.80048424
60	0xbfcb2706	-1.5871284
61	0xbd040de5	-0.032239813
62	0x3e61a409	0.2203523
63	0xbf7b8fc6	-0.98266256
64	0x3d63cc22	0.055614598
65	0xbdb954ec	-0.09049401
66	0x3e95952e	0.29215378
67	0x3ee78c01	0.45224002
68	0x3eae3522	0.34024912
69	0x3bf65416	0.007517348
70	0x3d4c12b8	0.04982254
71	0xbee449a3	-0.4458743
72	0xbc21dac4	-0.009878818
73	0x3e263118	0.16229665
74	0xbdc69762	-0.09696843
75	0x3eb60af8	0.35555243
76	0x3e0d768f	0.13814758
77	0xbd1029eb	-0.035196226
78	0xc00e8d22	-2.227364
79	0x3e1b67d2	0.15176323
80	0x3e0fbf7a	0.14037886
81	0x3e71992e	0.2359359
82	0xbd92b593	-0.07163539
83	0xbbc12d5d	-0.0058953003
84	0xbcb09a56	-0.021557968
85	0xbd18ae1f	-0.03727543
86	0xbca156d4	-0.019694723
87	0x3d0e7ea7	0.034788754
88	0x3dc38002	0.095459
89	0xbca2b466	-0.019861411
90	0xbd9ddfe8	-0.07708722
91	0x3d6e9927	0.058251526
92	0x3da47372	0.08029832
93	0x3de4e749	0.11176927
94	0x3e323d6a	0.1740624
95	0xbda8923d	-0.08231018
96	0xbe5b42cd	-0.21412201
97	0x3e94447b	0.28958496
98	0x3dfb51b7	0.12271445
99	0xbd03b0f3	-0.032151174
100	0x3c7077d3	0.014677006
101	0x3e03e927	0.1288191
102	0x3ceb7b2c	0.028745256
103	0x3c743776	0.014905801
104	0x3e19cacb	0.15018766
105	0x3da3adfe	0.07992171
106	0xbf211275	-0.6291879
107	0x3e60dbb1	0.21958806
108	0x3e072a9c	0.13199848
109	0xbc89bc70	-0.016813487
110	0x3e80079e	0.2500581
111	0x3e8092cc	0.25111997
112	0xbdeedb35	-0.11662904
113	0x3d91d6ed	0.07121072
114	0x3de051e8	0.109531224
115	0xbea56d4d	-0.32309952
116	0x3db237a8	0.08702022
117	0x3d8a2073	0.067444704
118	0x3dd295ed	0.10282502
119	0xbda482d0	-0.08032763
120	0xbea74d39	-0.32676104
121	0x3efd07be	0.4941997
122	0xbf09796d	-0.53700906
123	0xbfbfdda9	-1.498952
124	0xbff48804	-1.9104009
125	0x3dc8d63e	0.098064885
126	0xbd7a9305	-0.061175365
127	0xbf748361	-0.9551297
128	0xbe0b5b69	-0.13609089
129	0xbeae112e	-0.33997482
130	0x3e4dc7ef	0.200958
131	0xbe1dc80e	-0.15408346
132	0x3d938e6f	0.072049014
133	0x3d1b4e88	0.03791669
134	0xbb24da43	-0.0025154508
135	0xbed36cbd	-0.41293898
136	0x3e69469c	0.22780842
137	0x3d8d42a4	0.06897476
138	0x3d8e8e95	0.06960789
139	0x3d956c9a	0.07296105
140	0xbda1fe8c	-0.07909879
141	0x3cfda9db	0.030964782
142	0xc0254557	-2.5823572
143	0x3eafc6ba	0.34331304
144	0x3c425bc4	0.011862699
145	0x3daf93c4	0.08573106
146	0x3e88033e	0.26564974
147	0x3bfc77f3	0.0077047287
148	0x3e1f7278	0.1557101
149	0x3d006870	0.0313496
150	0xbcd83414	-0.02639202
151	0x3e282074	0.1641863
152	0x3ecdc42c	0.4018873
153	0xbcf628a5	-0.030048678
154	0xbdb17665	-0.0866516
155	0x3e00decb	0.12584989
156	0xbd0b8afb	-0.03406809
157	0x3e2321f7	0.15930925
158	0x3e7eaff3	0.24871807
159	0xbe259e74	-0.16173726
160	0x3de2494a	0.11049135
161	0x3dc3b2e7	0.09555607
162	0x3ee41b17	0.44551918
163	0x3d914d54	0.07094827
164	0x3e1a8317	0.1508907
165	0x3c87a964	0.016560264
166	0x3ddfd322	0.10928942
167	0x3c86eb64	0.016469665
168	0x3d94ac23	0.07259395
169	0x3de518bf	0.111863606
170	0xbf57a381	-0.8423386
171	0xbd97b720	-0.07407975
172	0x3e5a1fb8	0.21301162
173	0x3dce685a	0.10078497
174	0x3e4bb014	0.19891387
175	0x3ea78a46	0.32722682
176	0x3dd2ab0d	0.102865316
177	0x3da7c8ca	0.08192594
178	0x3e99fb6f	0.3007464
179	0xbec41f21	-0.38305
180	0xbc921319	-0.017831372
181	0x3d6eb884	0.058281437
182	0x3ea639f6	0.32466096
183	0xbca6fec0	-0.020385146
184	0xbebff1cd	-0.37489167
185	0x3cddd4a6	0.027078938
186	0xbf1ccf5a	-0.61253893
187	0xbf98e70b	-1.1945509
188	0xbfe2ffdf	-1.7734336
189	0x3ded44ea	0.1158541
190	0x3d8e8ebf	0.069608204
191	0xbf694f52	-0.9113666
192	0xba84fddb	-0.0010146456
193	0xbe4c4ed1	-0.19951941
194	0x3c4ef425	0.012631451
195	0x3d34c932	0.044137187
196	0x3ddff51b	0.10935422
197	0xbd345c6e	-0.04403346
198	0xbc5f19f5	-0.0136170285
199	0xbe967c88	-0.29391885
200	0xbdc54501	-0.09632302
201	0x3eb6d83a	0.35711843
202	0x3d4e7593	0.050405096
203	0x3d8c26a4	0.068433076
204	0x3db80847	0.08985954
205	0x3e93cd7a	0.28867704
206	0xc015a37d	-2.3381035
207	0x3d88f180	0.066866875
208	0x3db82b72	0.089926615
209	0x3d5cf3aa	0.053943314
210	0x3c1ad9f9	0.009451383
211	0x3dc321ba	0.09527917
212	0x3da41898	0.080125034
213	0xbc01aee0	-0.007915229
214	0x3dbde344	0.09271863
215	0x3e115fa8	0.14196646
216	0x3e733a20	0.23752642
217	0x3e369112	0.17828777
218	0x3e454990	0.19266343
219	0xbd6ce845	-0.057838697
220	0x3ccd363d	0.025050277
221	0xbdafbe9b	-0.08581277
222	0x3e2d1b35	0.1690491
223	0x3e804288	0.2505076
224	0x3e1829d8	0.14859712
225	0xbd76fe31	-0.06030101
226	0x3e7d1e27	0.24718533
227	0x3e348c83	0.17631726
228	0x3de907d9	0.1137845
229	0x3d1e7727	0.03868785
230	0xbd8d5136	-0.069002554
231	0x3c929fdd	0.017898494
232	0x3eff4c8f	0.49863097
233	0x3e00a524	0.12562996
234	0xbf54a4b6	-0.8306383
235	0x3e8fa7e8	0.2805779
236	0x3d9488ec	0.07252678
237	0xbd938bf8	-0.07204431
238	0x3de0ba92	0.109730855
239	0x3e57d94a	0.21078983
240	0x3e93b5ff	0.2884979
241	0xbdd934bc	-0.106057614
242	0x3dce5dec	0.10076508
243	0xbef07a4d	-0.46968308
244	0xbda4b8b1	-0.080430396
245	0xbdfd54d1	-0.12369693
246	0x3d1d9f5c	0.038482055
247	0xbe93a18b	-0.28834185
248	0xbebd5a91	-0.3698316
249	0x3e1f81c7	0.1557685
250	0xbeba6de6	-0.3641197
251	0xbfb44d3f	-1.4086074
252	0xbff75191	-1.9321767
253	0x3e2f8fea	0.17144743
254	0x3e6e69fd	0.23282619
255	0xbf81bed8	-1.0136366

final_linear.bias f4 [50]
0	0x3f0b4a5c	0.5441034
1	0xbe80d312	-0.25161034
2	0x3e4b2dd1	0.19841696
3	0x3e6d0bb3	0.23148994
4	0x3f6718ac	0.9027202
5	0x3f912ef6	1.1342456
6	0x3e3cba61	0.18430473
7	0x3f3d71d7	0.7400183
8	0x3feb13d3	1.8365425
9	0x404b3205	3.174928
10	0x3f61bfc4	0.88183236
11	0x3c813e28	0.015776709
12	0x3fcbd74e	1.5925081
13	0x40182449	2.3772147
14	0x400fd368	2.2472782
15	0x409812f5	4.752314
16	0x40278cb3	2.6179626
17	0x402300af	2.5469167
18	0x403c556b	2.9427135
19	0x40755c9a	3.833777
20	0x400ec970	2.2310448
21	0x4096859a	4.703809
22	0x4099826d	4.797171
23	0x405cb013	3.4482467
24	0x4081965c	4.0496044
25	0x408a397c	4.319517
26	0x40946f73	4.6386046
27	0x404d8883	3.211457
28	0x4093c6e1	4.618027
29	0x40b79435	5.7368417
30	0x4011bdd5	2.2772114
31	0x3ff16c77	1.8861226
32	0x407eeee8	3.9833317
33	0x402d7745	2.7104046
34	0x4074ffc6	3.8281112
35	0x4045b9d9	3.0894682
36	0x404cdeb3	3.2010925
37	0x4050b9ca	3.2613397
38	0x405be10e	3.4356112
39	0x402fcaca	2.7467523
40	0x40881e76	4.2537184
41	0x402959fc	2.6461172
42	0x4036705d	2.850608
43	0x4037cb95	2.8718007
44	0x40a1be4f	5.054481
45	0x40661aa3	3.5953758
46	0x40232f73	2.549771
47	0x4085b6a3	4.1785445
48	0x409937f5	4.7880807
49	0x40203ce8	2.5037174
