option_hedging/hyperparameters/dqn_hyperparameters/vanilla/year/0.0/best_dqn_model.pth (torch, 33742 bytes, 6 tensors)

linear1.weight f4 [64, 4]
0	0xc10a927b	-8.660762
1	0xc089e5a9	-4.3092847
2	0xbfab58b9	-1.3386451
3	0xbfd40916	-1.6565273
4	0xc012f566	-2.296228
5	0xc0a9bbfa	-5.3041964
6	0xbe81164e	-0.2521233
7	0xc0b0b2d2	-5.5218287
8	0xc0fda700	-7.9266357
9	0xc077b276	-3.8702674
10	0xbf94bd89	-1.1620342
11	0xbf92e48d	-1.1475998
12	0xbee4123d	-0.44545165
13	0xc1746477	-15.274528
14	0xbe78bf9f	-0.24291848
15	0x3ddec09c	0.10876581
16	0xc06580ff	-3.5859983
17	0xc1286251	-10.524003
18	0x3e23c39f	0.15992592
19	0x3f0a422b	0.54007214
20	0xc0ae8d8c	-5.4547787
21	0xc074058a	-3.812838
22	0xbfcc1f28	-1.5947008
23	0xc090c99a	-4.5246096
24	0xc0d2cc27	-6.587421
25	0xc086b7e6	-4.2099485
26	0x3f0c7637	0.5486788
27	0x3eb145b9	0.34623507
28	0xc0f25977	-7.573421
29	0xc08e5afc	-4.4486065
30	0xbf326f70	-0.6970129
31	0xbfe7411c	-1.8066745
32	0xc0df62c1	-6.980805
33	0xc0a4f773	-5.155206
34	0xc018a776	-2.385221
35	0xc023a137	-2.5567148
36	0xbfac5a95	-1.3465143
37	0xc171e27d	-15.117795
38	0x3f0d0b4d	0.5509537
39	0x3eb309a1	0.34968284
40	0xc100a8db	-8.0412245
41	0xc080ccd7	-4.025005
42	0xbea71bf2	-0.32638508
43	0xbfbc7acf	-1.4724978
44	0xc0bb3d0b	-5.8512015
45	0xc08ea577	-4.4576983
46	0xc0269fff	-2.6035154
47	0xc059f6fc	-3.4056997
48	0xc0dfde25	-6.9958673
49	0xc0a207ae	-5.0634375
50	0xbf1d92ed	-0.61552316
51	0xc00f434c	-2.2384825
52	0xc1349465	-11.286229
53	0xc0a58912	-5.172982
54	0xc02562af	-2.5841482
55	0xbfb13aa5	-1.3846022
56	0xc0f55e7b	-7.6677833
57	0xc0762cdd	-3.8464882
58	0xbf6afcd7	-0.91792053
59	0xbfc535b4	-1.5407014
60	0xc0628ce8	-3.5398502
61	0xc09f6a34	-4.9817142
62	0xbfd4bd71	-1.6620313
63	0xc09a182c	-4.8154507
64	0xc03297e2	-2.7905202
65	0xc0a01229	-5.002217
66	0x3e31f839	0.17379846
67	0xc0b2d693	-5.588693
68	0xc0706dc8	-3.7567005
69	0xc09aa1f9	-4.832272
70	0xbfff4658	-1.9943342
71	0xc0a5a9d6	-5.176982
72	0xc052ba97	-3.2926385
73	0xc054a399	-3.3224852
74	0x3eb654c5	0.3561155
75	0xc0b6cacd	-5.712256
76	0xc0288fd2	-2.633778
77	0xc0527e6c	-3.2889662
78	0xbfdb2931	-1.7121946
79	0xc0b5638f	-5.668403
80	0xc109c573	-8.610705
81	0xc0380d52	-2.875813
82	0xbee14726	-0.43999594
83	0xbfb6546e	-1.4244516
84	0xc0e2317d	-7.068541
85	0xc0826226	-4.074481
86	0xbf4c2166	-0.7973846
87	0xc007a05d	-2.1191628
88	0xc0be5035	-5.947291
89	0xc19098b8	-18.07457
90	0xbd523c02	-0.05132676
91	0x3fc709f4	1.5549912
92	0xc003c2b2	-2.0587583
93	0xc065d2eb	-3.5909984
94	0xbe65d089	-0.22442831
95	0xc0b3bad3	-5.6165557
96	0xc0d8a2f5	-6.769892
97	0xc0d43721	-6.6317296
98	0xbff83952	-1.9392493
99	0xc0151820	-2.3295975
100	0xc140bfa0	-12.046783
101	0xc08a3032	-4.318383
102	0xbf411e9d	-0.7543734
103	0xbf86d064	-1.0532346
104	0xc1064a8f	-8.393203
105	0xc057f623	-3.374398
106	0xbe605e16	-0.21910891
107	0xc00266e2	-2.0375295
108	0xc0aeb551	-5.4596334
109	0xc0d1b7ce	-6.553687
110	0xc0354366	-2.8322387
111	0xc0526218	-3.2872372
112	0xbfa7849c	-1.3087344
113	0x41bde8b6	23.738628
114	0xbddc3860	-0.1075294
115	0xc0064e80	-2.0985413
116	0xc1061ec0	-8.382507
117	0xc0848e96	-4.1424055
118	0x3df1303e	0.117767796
119	0xbfe88090	-1.8164234
120	0x40791a1a	3.892218
121	0x4161398a	14.076548
122	0x3f57619b	0.8413331
123	0xbff77238	-1.9331732
124	0xc10cd8b9	-8.802911
125	0xc042201c	-3.0332098
126	0xbedcc60f	-0.43119857
127	0xbf896e25	-1.0736738
128	0xc064884e	-3.5708194
129	0xc0c7839a	-6.2348146
130	0xc0131e66	-2.2987304
131	0xc091c3ff	-4.5551753
132	0xc10fe3ad	-8.993085
133	0xc04c69a0	-3.1939468
134	0x3f1e8f41	0.6193734
135	0xc00aa603	-2.1663826
136	0xc014e922	-2.3267293
137	0xc0b6ad1d	-5.708632
138	0xbdea999a	-0.114550784
139	0xc0a8d527	-5.2760196
140	0xc0b0762d	-5.5144258
141	0xc0afca1a	-5.4934206
142	0xbffc049a	-1.9688904
143	0xc0704425	-3.7541592
144	0xc0fce175	-7.9025216
145	0xc086064d	-4.188269
146	0x3d2cb71f	0.042166825
147	0xbff012e4	-1.8755765
148	0xc0dfb424	-6.99074
149	0xc0c82470	-6.254448
150	0xc029364c	-2.643939
151	0xc04199c8	-3.025011
152	0xc04497d6	-3.0717673
153	0xc0c0dc60	-6.0269012
154	0xbfd05885	-1.6277014
155	0xc08ecbdc	-4.462385
156	0xbe23aebf	-0.15984629
157	0x3f9d7b84	1.2303319
158	0x3f663c44	0.8993571
159	0xc0b0259b	-5.5045905
160	0xc0889510	-4.268196
161	0xc0c9f77d	-6.311461
162	0xc088d6cd	-4.276221
163	0xc07ff638	-3.999403
164	0xbff676c2	-1.9254992
165	0xc0bcfbea	-5.905751
166	0xbfeb9c1e	-1.8407018
167	0xc0cc3667	-6.381641
168	0xc1046e58	-8.276939
169	0xc0554ae2	-3.3326955
170	0xbf1fe69b	-0.6246125
171	0xbfa587d6	-1.2932079
172	0xc10593cb	-8.348582
173	0xc04e2951	-3.2212718
174	0xbf4e492d	-0.8058041
175	0xbffe9e42	-1.9892046
176	0xc10192ef	-8.098372
177	0xc088be01	-4.273194
178	0xbf139e9c	-0.57663894
179	0xbfc564fa	-1.5421441
180	0xc1094e51	-8.58162
181	0xc036544c	-2.848895
182	0x3dc2f8e5	0.09520129
183	0xc01271fb	-2.2882068
184	0xc0ef233d	-7.4730515
185	0xc083eedb	-4.122907
186	0xbefa2e85	-0.48863617
187	0xbfe610f9	-1.797393
188	0xc01f325d	-2.487449
189	0xc0a7fb08	-5.2493935
190	0xbf75c791	-0.9600764
191	0xc0a2e58b	-5.0905204
192	0xc089f27a	-4.310849
193	0xc0a66ed5	-5.2010293
194	0xc042add4	-3.0418596
195	0xc07e8d5d	-3.9773781
196	0xc000260f	-2.002323
197	0xc057bfb5	-3.3710759
198	0xbc7a1276	-0.0152631905
199	0xc0bae697	-5.840648
200	0xc0e00369	-7.0004163
201	0xc0c8f74d	-6.280188
202	0xbfde3879	-1.7360984
203	0xc03beec5	-2.9364483
204	0xc10b6524	-8.712193
205	0xc0524c9f	-3.2859266
206	0xbf439d7b	-0.7641217
207	0xbfb2f67f	-1.3981475
208	0xc03172ca	-2.7726312
209	0xc0a0a147	-5.019687
210	0xc0291621	-2.6419756
211	0xc0a71bf8	-5.222164
212	0xc10e6899	-8.900537
213	0xc020e65d	-2.5140603
214	0x3dc4c559	0.096079536
215	0xbfcfdd4e	-1.6239412
216	0xc1141bfa	-9.25683
217	0xc06ed8a2	-3.7319722
218	0x3b13ecd5	0.0022571583
219	0xbff9cf76	-1.9516437
220	0xc0e591a2	-7.1740274
221	0xc02d5f18	-2.708929
222	0x3d809620	0.06278634
223	0xc003ce28	-2.0594578
224	0xc07dbd6f	-3.964687
225	0xc0b85cd9	-5.761334
226	0xc029d68e	-2.6537204
227	0xc0928bdd	-4.579573
228	0xc130c252	-11.0474415
229	0xc0adb956	-5.428874
230	0xbf5adc7e	-0.85492694
231	0xbf97040c	-1.179811
232	0xc0609fc8	-3.5097523
233	0xc0b505f1	-5.6569753
234	0xc036f649	-2.858782
235	0xc0a5e325	-5.1839776
236	0xbff71a5f	-1.9304923
237	0xc0b33210	-5.599861
238	0xbf978d1a	-1.1839936
239	0xc0acd27f	-5.4006953
240	0xc10b47d7	-8.705039
241	0xc07c0560	-3.937828
242	0x3d1ef56d	0.038808275
243	0xc007acbc	-2.1199179
244	0xc04dc288	-3.2149982
245	0xc0725c64	-3.786889
246	0xbc2e907c	-0.010654565
247	0xc0c250c8	-6.072361
248	0xc00c1f9c	-2.1894293
249	0x3f9fddaa	1.2489522
250	0x3f0cfd4b	0.55073994
251	0xc0c93f3c	-6.288969
252	0xc02d8f55	-2.7118733
253	0xc0adc187	-5.429874
254	0xbeb88381	-0.3603783
255	0xc0a673ec	-5.2016506

linear1.bias f4 [64]
0	0x3f76551f	0.96223634
1	0xc09ef5bd	-4.9674973
2	0xbfaefc0b	-1.3670667
3	0x40fc870a	7.8914843
4	0x40df1c01	6.9721684
5	0xc0cbf44a	-6.3735704
6	0x40c7c400	6.242676
7	0x4002dbd3	2.044667
8	0xc00080d8	-2.007864
9	0x4101f30f	8.1218405
10	0x3d10a70f	0.03531557
11	0xc087d1c3	-4.2443557
12	0x3e39a50f	0.18129371
13	0x3eb5f365	0.35537258
14	0xbea444da	-0.3208378
15	0xc10931e2	-8.574678
16	0xc0928f6e	-4.5800085
17	0xc0d99be4	-6.8002796
18	0xc02dc15e	-2.7149272
19	0xc01e9698	-2.4779415
20	0xbfab0b2d	-1.3362786
21	0x3feaa8df	1.8332785
22	0x4081591c	4.0421276
23	0xc012e03d	-2.2949364
24	0xbfa9e232	-1.3272154
25	0x3f2053d9	0.6262794
26	0x3f09e542	0.53865445
27	0xc05775bf	-3.3665617
28	0x3fc68b12	1.5511191
29	0x3f4cb07a	0.7995678
30	0x4129675d	10.587735
31	0xbf92e955	-1.1477457
32	0xc0ebcc03	-7.368654
33	0xbe93bd77	-0.28855488
34	0xc07a608e	-3.9121432
35	0xc0a73ecd	-5.226416
36	0x40a56628	5.1687202
37	0xc0825f78	-4.074154
38	0xc0eafb5c	-7.3431835
39	0x40910d56	4.532878
40	0xc0b7b3ac	-5.7406826
41	0xc0de7045	-6.951205
42	0xbf99c151	-1.201212
43	0x3fd51b71	1.6649
44	0xbf04d20c	-0.51883006
45	0x3f9121ce	1.1338441
46	0x3f991e03	1.1962284
47	0xc0c95d5e	-6.2926474
48	0xc10d4b1a	-8.830835
49	0xbf3bc6e6	-0.7335037
50	0x3dbc4679	0.09193129
51	0xbf93de6c	-1.1552253
52	0xc0eb96d8	-7.3621635
53	0xbf3496c4	-0.7054255
54	0xbe0111bc	-0.12604421
55	0x40884072	4.257867
56	0xc0fead3b	-7.9586463
57	0x3faca2db	1.34872
58	0xc0e818b2	-7.2530146
59	0xc0cbe500	-6.371704
60	0x3f1c405f	0.6103572
61	0xc0b693fc	-5.7055645
62	0x3ff29c58	1.8953962
63	0xc0b645bb	-5.696012

linears.0.weight f4 [64, 64]
0	0x401f2b04	2.4870005
1	0x3f44dda0	0.7690067
2	0x405679f4	3.3511934
3	0x405da73c	3.4633322
4	0x4033c865	2.809106
5	0x3f178329	0.5918451
6	0x400a0dec	2.1570997
7	0x4000be49	2.011614
8	0x3fb2bc90	1.3963795
9	0x40553f9d	3.3320076
10	0x3fc0fc06	1.5076911
11	0x3f81ab93	1.0130485
12	0x3fb3f0e8	1.4057894
13	0xbf45211e	-0.7700366
14	0x3fe7f964	1.8122983
15	0xbe96dd81	-0.2946587
16	0x3f4c2bb3	0.7975418
17	0x3f8941f4	1.0723252
18	0x3ea0ba65	0.31392208
19	0x3f7046d8	0.938581
20	0x40a4c1d5	5.148661
21	0x40075282	2.1144109
22	0xc0538351	-3.30489
23	0x3ea39dee	0.31956428
24	0x3fa5f4db	1.2965349
25	0xbfd619e0	-1.6726646
26	0x3ffa7e7a	1.9569848
27	0x3fab8c45	1.3402182
28	0xbf6c2a52	-0.92252076
29	0x400b7b61	2.1794055
30	0xbf2d39b7	-0.6766619
31	0x408f35fc	4.47534
32	0x3efbd6cf	0.49187323
33	0x40380f71	2.8759425
34	0x3f96385e	1.1735952
35	0x3f49140d	0.7854622
36	0x3f56ebc2	0.8395349
37	0x3f8d640c	1.1046157
38	0x3f51d32e	0.8196286
39	0x3e7555d9	0.2395853
40	0x3f9f59b3	1.2449249
41	0x3f2f8a66	0.68570554
42	0x40478bba	3.1179032
43	0x40053513	2.0813644
44	0x4006348c	2.0969572
45	0x401ccdca	2.4500604
46	0x3fed36f0	1.853239
47	0x3f34ecb9	0.7067371
48	0xbec29fee	-0.38012642
49	0x3e045879	0.12924375
50	0x400029b3	2.002545
51	0x40a2c28b	5.086248
52	0x3e9fa875	0.3118321
53	0x40c661f6	6.199458
54	0x40098796	2.1489005
55	0x3ffca93d	1.9739147
56	0x3f27b4ef	0.6551046
57	0xbf8ce619	-1.100772
58	0x3f62dce8	0.88618326
59	0x3f0503f7	0.51959175
60	0x3fe740b4	1.8066621
61	0x3edbeae0	0.42952633
62	0x3d9f12e3	0.07767274
63	0x3f480113	0.7812664
64	0x407de25a	3.9669404
65	0x400676c2	2.1009984
66	0x3f4d0e4b	0.80099934
67	0x4060de35	3.5135624
68	0xbf1fdc6d	-0.6244572
69	0x3fc82c93	1.5638603
70	0x3fb6387e	1.423599
71	0x40052ee2	2.0809865
72	0x400ed9c1	2.2320406
73	0x4025598a	2.58359
74	0x3fed31b8	1.8530798
75	0x3ff99ee2	1.9501612
76	0x40382e4a	2.8778253
77	0xbf501055	-0.8127492
78	0x4007406a	2.1133065
79	0x3fabfbb1	1.3436185
80	0x4002cbe8	2.0436954
81	0x40352308	2.8302631
82	0x3fcc6d7b	1.5970911
83	0x3fed7f63	1.85545
84	0x40545c28	3.3181248
85	0x3fea8d54	1.832438
86	0xc04b1187	-3.1729448
87	0x3fea8b5a	1.8323777
88	0x3ffd83a5	1.98058
89	0xc0ac7fb8	-5.3905907
90	0x40047f23	2.0702598
91	0x400e4abf	2.2233121
92	0x40550522	3.3284383
93	0x4002ef01	2.0458376
94	0x3f9effc6	1.2421806
95	0x3fdcdca6	1.7254837
96	0x401b0ee5	2.422784
97	0x4095b8b9	4.678799
98	0x40099754	2.1498613
99	0x3fee73a3	1.862904
100	0xbfedb961	-1.8572198
101	0x4023705e	2.5537333
102	0x400e3530	2.2219963
103	0x3fa9230f	1.3213824
104	0x4035159e	2.8294444
105	0x402f5698	2.7396603
106	0x3f30150a	0.68782103
107	0x3ff8a133	1.9424194
108	0x401f1657	2.4857385
109	0x4019ec4f	2.4050481
110	0x400a6b90	2.162815
111	0x40130810	2.297367
112	0x3f933df1	1.1503278
113	0x3fd54c9f	1.6664008
114	0x403984e2	2.8987355
115	0x401ab16b	2.4170787
116	0x40392398	2.8927975
117	0x4065442d	3.5822861
118	0x40803dff	4.007568
119	0x3fb9dd1a	1.45206
120	0x403d7ca8	2.9607334
121	0xc028ca5c	-2.637351
122	0x4032b60f	2.792362
123	0x4028d432	2.6379514
124	0x402384d7	2.554983
125	0x3fd9084a	1.6955655
126	0x3fb0efdb	1.3823198
127	0x40111b78	2.2673016
128	0x4083158d	4.0963807
129	0x3fa80ce7	1.3128937
130	0x4032a3b6	2.7912421
131	0x4090e8a9	4.528401
132	0x40279f17	2.619085
133	0x3ed26d31	0.4109893
134	0x3fd8f657	1.6950177
135	0x402bf1d3	2.6866348
136	0x4004ddd0	2.0760384
137	0x406e506b	3.7236583
138	0x3ff97cf2	1.9491255
139	0x3fc0f5c0	1.5074997
140	0x4005aac3	2.0885475
141	0x3cd7fb76	0.026365023
142	0x4029d110	2.6533852
143	0xbea41446	-0.32046717
144	0x3fb32e67	1.3998536
145	0x3fadaace	1.356775
146	0x3f6d06b9	0.9258838
147	0x3f7bc3f5	0.9834588
148	0x409cb752	4.897378
149	0x404db5ba	3.2142167
150	0xc1018f83	-8.097537
151	0x3f67fc2f	0.90619177
152	0x4001a8cd	2.0259278
153	0xc019c45f	-2.4026105
154	0x403a2522	2.9085164
155	0x3feb1bb1	1.8367826
156	0x3f892971	1.0715772
157	0x404e5f91	3.224583
158	0xbf8bd530	-1.0924435
159	0x408f8e50	4.486122
160	0x3f7db6f3	0.99107283
161	0x40b16c79	5.5444913
162	0x3f803b92	1.001818
163	0x3fcbf851	1.5935155
164	0xbf7e27dc	-0.9927957
165	0x40122fcf	2.284168
166	0x3fbdea21	1.4837075
167	0x3e79af7a	0.24383345
168	0x3fe5261f	1.7902259
169	0x3f88311d	1.0639988
170	0x40423aed	3.0348465
171	0x4057ac75	3.369901
172	0x40229956	2.540609
173	0x4050c9a3	3.262307
174	0x402380bc	2.5547323
175	0x3f9842f4	1.1895432
176	0xbecf967a	-0.40544492
177	0x3f5cf102	0.8630525
178	0x3ff134fb	1.8844293
179	0x40ab073c	5.344633
180	0x3f93bc2f	1.1541804
181	0x40ba08ab	5.813558
182	0x409e9e5b	4.9568305
183	0x401b5d9c	2.4275885
184	0x3f957880	1.1677399
185	0xbfb429f7	-1.4075307
186	0x3fa9dd22	1.3270609
187	0x3fa59b35	1.293799
188	0x404ab970	3.1675682
189	0x3ec5cb76	0.3863179
190	0x3ddc5505	0.10758404
191	0x3fc6ad49	1.5521632
192	0x3f7457b1	0.95446306
193	0x40235224	2.5518885
194	0x3f2ee884	0.6832354
195	0x3f05b87d	0.5223463
196	0xbfc19920	-1.5124855
197	0x4023f5d9	2.5618804
198	0xbf0f8e3b	-0.560764
199	0x40073475	2.1125767
200	0x3fe871c2	1.8159716
201	0x3e1c181c	0.15243572
202	0x3ffc1f22	1.9697001
203	0x40169cb4	2.3533144
204	0x40321f7c	2.7831717
205	0xbe02203f	-0.12707613
206	0x3fd796a4	1.6842847
207	0x402dc73e	2.7152858
208	0x402a80d1	2.6641123
209	0x4060af07	3.5106828
210	0x40199f96	2.4003654
211	0x4015d56e	2.3411517
212	0xbf9d885e	-1.2307241
213	0x3f9505ec	1.1642432
214	0xbeec6774	-0.46172678
215	0x40293203	2.6436775
216	0x3ffb38a9	1.9626666
217	0x3f943a15	1.1580225
218	0x40029327	2.0402315
219	0x401b2bb2	2.424542
220	0x400cf2b6	2.202314
221	0x3fb1e435	1.3897768
222	0x402c56d9	2.6928008
223	0xbbbcea92	-0.0057652676
224	0x40596092	3.3965192
225	0x4015cb37	2.3405282
226	0x402d21a1	2.7051775
227	0x40154f5c	2.3329687
228	0xc00df156	-2.217855
229	0x403e7a95	2.9762318
230	0x40301ae2	2.7516408
231	0x401e61cd	2.4747193
232	0x402197ec	2.5248976
233	0x40506175	3.2559483
234	0x3f26ec12	0.65203965
235	0x3f56ab42	0.8385507
236	0x3ff9d329	1.9517566
237	0x3fc2d622	1.5221598
238	0x400ba183	2.181733
239	0x40343b45	2.8161175
240	0x401f8dbb	2.4930255
241	0x402f857f	2.742523
242	0x400dc522	2.215157
243	0xbec3d8e7	-0.3825142
244	0x405937c2	3.3940282
245	0xbfdd0ac9	-1.7268916
246	0x40333a27	2.8004243
247	0x3fa64bcf	1.2991885
248	0x40484e6b	3.1297863
249	0x3db9992d	0.09062419
250	0x40516831	3.2719843
251	0x40346f54	2.819295
252	0x3fde3cd5	1.7362314
253	0x4019da1c	2.4039373
254	0x40045c3d	2.0681298
255	0x403db9f4	2.9644747

linears.0.bias f4 [64]
0	0x3fa19e8d	1.2626511
1	0x3f70dfca	0.94091475
2	0x3db280f5	0.08716003
3	0xbdc5a06e	-0.0964974
4	0xbf84d527	-1.0377549
5	0xc09cef06	-4.9041777
6	0xbed7890b	-0.42096743
7	0xbfa34d26	-1.2757919
8	0x402ff6b6	2.749433
9	0x3f46de62	0.7768308
10	0xbe126e21	-0.14299823
11	0x411466b5	9.275075
12	0x40018059	2.0234587
13	0xbdabb15d	-0.08383439
14	0xbfbfe3b9	-1.499137
15	0x4036b74f	2.8549383
16	0xbf9fc7f0	-1.2482891
17	0x3f8d85e9	1.1056491
18	0xbfe15675	-1.760451
19	0x3fe0a5ce	1.75506
20	0x3fa8f61c	1.3200107
21	0xc07b80f5	-3.929746
22	0x3f973c60	1.18153
23	0xbf2ec31c	-0.68266463
24	0x4109bf1b	8.609157
25	0x40bf650d	5.9810853
26	0x3d62174d	0.055198003
27	0xbf1a4517	-0.6026167
28	0x40a6d146	5.213046
29	0xbf8ac1c3	-1.0840381
30	0x3fdeff77	1.7421712
31	0x3f9c2b6c	1.2200751
32	0x3fc4a517	1.5362881
33	0x3ff01871	1.8757459
34	0xbf3b852f	-0.732501
35	0xbebb3ac6	-0.36568278
36	0xbedec111	-0.43506673
37	0xbf53b116	-0.82692087
38	0xbf83312c	-1.0249381
39	0x3e36b32c	0.17841786
40	0xbf4e8d42	-0.8068429
41	0xbf1e3c27	-0.61810535
42	0x401cdc3f	2.4509428
43	0x3bbc6e7f	0.005750477
44	0x3f8a43cc	1.080194
45	0x3fd3bb15	1.6541468
46	0xbf8be52a	-1.092931
47	0x40777c7f	3.8669736
48	0xbe8ab739	-0.27092913
49	0xc00ba948	-2.182207
50	0xbe642145	-0.22278316
51	0x40c1ed68	6.0602303
52	0xbfc14e77	-1.510207
53	0x3f69ed96	0.9137815
54	0x3fa6f323	1.304295
55	0x3e646b41	0.22306539
56	0x40823930	4.069481
57	0x41421d11	12.132096
58	0xbeb71a2f	-0.35762164
59	0x3e1cacb2	0.15300253
60	0x3e4e609a	0.20154038
61	0x408465f1	4.137444
62	0xbf2b4aed	-0.669112
63	0x3e8751bc	0.26429546

final_linear.weight f4 [50, 64]
0	0x3ca5927b	0.020211449
1	0xbed6a96a	-0.41926128
2	0xbe76ab49	-0.24088778
3	0x3f324c41	0.69647604
4	0x3e6c57dc	0.2308039
5	0xbf04bccb	-0.51850575
6	0x3db73464	0.089455396
7	0x3e453f69	0.1926247
8	0xbdb6fa16	-0.08934419
9	0xbe49d9c9	-0.19711985
10	0x3ed7593a	0.42060262
11	0x3ee9385c	0.4555081
12	0x3eaaff27	0.3339779
13	0xbcd12610	-0.025530845
14	0x3e8fdf06	0.2809984
15	0xbf64ac2b	-0.8932521
16	0x3e886c91	0.2664533
17	0x3dd9f5de	0.106425986
18	0x3c6b1e07	0.014350421
19	0x3d125eaa	0.03573481
20	0xbe27e152	-0.16394547
21	0xbf378baa	-0.71697485
22	0xbec2e956	-0.38068646
23	0xbd8b080f	-0.067886464
24	0x3f7ff027	0.9997582
25	0xbee2d3a6	-0.443021
26	0xbd35fa9c	-0.044428453
27	0x3d312462	0.043247588
28	0x4067e12e	3.6231189
29	0xbd11123f	-0.03541779
30	0xbe54760c	-0.20748156
31	0x3f00fb5d	0.5038355
32	0xbed2cb2d	-0.41170636
33	0xbe6511bf	-0.22370051
34	0x3e48c75f	0.19607304
35	0x3e2b8c74	0.16752797
36	0x3e07c105	0.13257225
37	0x3e47a53c	0.19496626
38	0x3ddeda92	0.10881533
39	0xbe90ca8a	-0.28279525
40	0x3b9b0e90	0.0047319606
41	0x3ddea010	0.10870373
42	0xbe6f2728	-0.2335478
43	0x3d0946d8	0.033514827
44	0xbd4138e8	-0.04717341
45	0xbee2b190	-0.44276094
46	0x3ed2cd7e	0.41172403
47	0xbe3b228b	-0.18274896
48	0xbdbfb46c	-0.093605846
49	0x3eab1629	0.33415344
50	0x3df6f8df	0.12059187
51	0x3f0aabf1	0.5416861
52	0xbd92a5d1	-0.07160533
53	0xbdec02bb	-0.11523958
54	0x3c8eb32f	0.017419426
55	0x3e5d1bac	0.21592587
56	0xbeced0d6	-0.40393704
57	0xbdc576d1	-0.09641803
58	0x3f605a47	0.8763775
59	0x3e418413	0.18898039
60	0x3cf38c4b	0.029729983
61	0x3eb94eef	0.36193034
62	0xbd33990c	-0.04384713
63	0x3e4ba8a3	0.19888549
64	0xbeff4e64	-0.49864495
65	0xbe236725	-0.15957315
66	0xbeb1a2a6	-0.34694403
67	0x3f4dea89	0.80436
68	0x3e9618e5	0.29315868
69	0xbee03c87	-0.4379618
70	0xbcf33bc0	-0.029691577
71	0x3d56f183	0.052476417
72	0xbe15dc7d	-0.14634891
73	0xbc86e3fa	-0.01646613
74	0x3db3b643	0.08774998
75	0x3f46153e	0.77376163
76	0x3f0afcb9	0.54291874
77	0xbe022c6c	-0.12712258
78	0x3d7d2276	0.061800443
79	0xbf1b4230	-0.6064787
80	0x3f0fa667	0.56113285
81	0x3e86ef07	0.26354238
82	0x3e1cbe3e	0.15306947
83	0xbec9ab93	-0.39388713
84	0xbe928a3b	-0.28621086
85	0xbf549ae2	-0.8304883
86	0xbd6863b8	-0.056735724
87	0xbe322929	-0.17398514
88	0x3fa623bb	1.2979654
89	0xbf23d5f6	-0.63998353
90	0x3eb79e3a	0.35862905
91	0xbde583b2	-0.112067595
92	0x4073bca3	3.8083885
93	0x3de439cc	0.111438364
94	0xbe13325d	-0.14374681
95	0x3e810e95	0.25206438
96	0xbee9160a	-0.45524627
97	0xbe862199	-0.26197508
98	0x3d8e6ac5	0.069539584
99	0xbe738e5a	-0.23784772
100	0x3e46cfbf	0.19415186
101	0x3ea36eb4	0.31920397
102	0x3ec49853	0.38397464
103	0x3d8e8014	0.06958023
104	0x3e373fdb	0.17895453
105	0xbe10b813	-0.14132719
106	0xbf198603	-0.5997011
107	0xbd879d87	-0.06621843
108	0xbcc11152	-0.02356783
109	0xbe3b9f51	-0.18322493
110	0x3ec2f00f	0.38073775
111	0xbdaa2716	-0.08308236
112	0x3c90eca1	0.017690958
113	0x3f0da3ec	0.5532825
114	0x3b9adc95	0.0047260025
115	0x3f8341dd	1.0254475
116	0x3df298e7	0.1184557
117	0xbe8f5fdd	-0.28002825
118	0xbd6a0a36	-0.057138644
119	0xbd913b97	-0.07091444
120	0xbf4178bd	-0.75574857
121	0xbdf408b7	-0.11915725
122	0x3f6e311a	0.93043673
123	0x3ef11001	0.47082523
124	0x3e192707	0.14956294
125	0xbe28b7ad	-0.16476317
126	0x3de234e0	0.11045241
127	0x3cb8cf4a	0.02255978
128	0x3cfb8f2b	0.030707916
129	0xbf110698	-0.56650686
130	0xbdc1e49e	-0.094674334
131	0x3f8bf259	1.0933334
132	0x3f095fc5	0.5366176
133	0xbf14bce3	-0.5810072
134	0xbd813f65	-0.0631092
135	0xbd1c52e6	-0.038164996
136	0xbe2eadbc	-0.17058462
137	0xbdfb3afc	-0.1226711
138	0x3ed26ea1	0.41100028
139	0x3f1e30c6	0.6179317
140	0x3ec80273	0.3906437
141	0x3d93bd17	0.072138004
142	0x3dd2da09	0.10295493
143	0xbeeaf038	-0.45886397
144	0x3eb7a672	0.35869175
145	0x3eb20e9d	0.34776774
146	0xbda88f85	-0.08230499
147	0xbe7f46ba	-0.24929324
148	0xbdddf65e	-0.108380064
149	0xbf549503	-0.83039874
150	0xbefa2d73	-0.488628
151	0xbd031cf6	-0.03201004
152	0x3f86997f	1.0515593
153	0xbe37b2b6	-0.17939267
154	0xbdabb428	-0.083839715
155	0x3da539ab	0.0806764
156	0x4081234d	4.035559
157	0x3e1fe2d7	0.15613876
158	0x3dae35b9	0.085063405
159	0x3d5f7e23	0.054563653
160	0xbf0f9569	-0.56087357
161	0xbea7072b	-0.32622656
162	0x3e528af5	0.2056082
163	0x3cfb8f29	0.030707913
164	0x3e18436b	0.14869468
165	0x3f4b98c1	0.7952996
166	0x3e95f68a	0.29289657
167	0xbdfcb703	-0.12339594
168	0x3d5dc01e	0.054138295
169	0x3e74c010	0.23901391
170	0xbeceabf0	-0.40365553
171	0x3e7d7624	0.24752098
172	0xbf01c005	-0.50683624
173	0xbee3c5a6	-0.4448673
174	0x3ed0c954	0.407786
175	0xbe67187f	-0.22567938
176	0xbd8c756c	-0.06858334
177	0x3f31cf21	0.6945668
178	0xbe86dd8a	-0.26340896
179	0x3f1f7303	0.6228487
180	0x3e2744c2	0.16334823
181	0xbf0210ec	-0.5080707
182	0xbed9231e	-0.42409605
183	0x3ee55b54	0.4479624
184	0xbf1ccfb5	-0.61254436
185	0x3ca78503	0.020449167
186	0x3f71e7c3	0.94494265
187	0x3e9f18e3	0.31073675
188	0xbd9a5b07	-0.07536893
189	0x3e111654	0.14168674
190	0xbe7f1cb2	-0.2491329
191	0x3e1d38ae	0.15353653
192	0xbee55526	-0.44791526
193	0xbeb3295d	-0.34992495
194	0xbd3b429b	-0.045717817
195	0x3f23734f	0.6384782
196	0x3ebd4d09	0.36972836
197	0xbeacbc4d	-0.33737412
198	0xbd9d3457	-0.07675999
199	0xbcc00168	-0.02343817
200	0xbe27b8be	-0.16379067
201	0x3c2d7c7d	0.010588762
202	0x3e9ec615	0.310105
203	0x3f1f55e9	0.62240463
204	0x3f0fba9c	0.5614412
205	0xbdf435a3	-0.11924293
206	0x3e4001ba	0.18750659
207	0xbed779e0	-0.4208517
208	0x3ea83e11	0.32859853
209	0x3e9e20fd	0.30884543
210	0x3e0dbf56	0.1384252
211	0xbeba2a29	-0.3636029
212	0xbeb6c0ea	-0.35694057
213	0xbf5a4066	-0.85254514
214	0xbec3627e	-0.3816108
215	0xbd006ff9	-0.031356785
216	0x3f9a6b85	1.2064062
217	0xbec78be4	-0.38973916
218	0x3b48100e	0.0030527147
219	0x3da3bbe1	0.079948194
220	0x407ab082	3.9170232
221	0x3ebead96	0.3724181
222	0xbe413ec8	-0.18871605
223	0x3e324f7c	0.17413133
224	0xbf0d7957	-0.55263275
225	0xbeacd2f4	-0.33754694
226	0x3e6fc9bd	0.23416801
227	0xbe18532a	-0.14875475
228	0x3ec77de4	0.38963234
229	0x3f01182e	0.5042752
230	0x3e942974	0.28937876
231	0xbdd39993	-0.10332026
232	0x3e07f33e	0.13276383
233	0xbe09bdc1	-0.13451292
234	0xbec6f8e4	-0.38861763
235	0xbd22dcb4	-0.03976126
236	0xbe1bd12f	-0.15216516
237	0xbeebdad6	-0.46065396
238	0x3e91b2b7	0.2845666
239	0xbd1587e9	-0.036506567
240	0x3dd12443	0.102119945
241	0x3f2408fd	0.64076215
242	0xbdc4ef00	-0.09615898
243	0x3f4bc741	0.7960091
244	0x3d170e73	0.036879014
245	0xbed19012	-0.4093023
246	0xbda80a04	-0.08205035
247	0x3e838241	0.25685313
248	0xbf154063	-0.5830137
249	0xbd039649	-0.032125745
250	0x3f491370	0.78545284
251	0x3e0a79a3	0.13522963
252	0xbd2c4d9f	-0.042066213
253	0x3d8f8fa8	0.07009822
254	0x3cff2548	0.031145707
255	0x3df1ae85	0.11800865

final_linear.bias f4 [50]
0	0xbd832163	-0.064028524
1	0x3ebc0ccc	0.36728513
2	0xbedd861a	-0.43266374
3	0xbe552c4d	-0.2081768
4	0x3f02bcba	0.51069224
5	0xbe4dd239	-0.20099725
6	0xbf57f5f2	-0.8435966
7	0x3f1dbddb	0.6161782
8	0x3f1092e0	0.56474113
9	0xbea619d0	-0.32441568
10	0xbf822949	-1.0168849
11	0x3edaaedd	0.42711535
12	0xbfc2190d	-1.5163895
13	0xbe529c0e	-0.20567343
14	0xbe5750b7	-0.21026884
15	0x3e82a661	0.25517562
16	0xbf99199c	-1.196094
17	0x3fae99f4	1.3640733
18	0xbe87799c	-0.26459968
19	0xbf0c3826	-0.54773176
20	0xc00964e4	-2.1467829
21	0xbe914a80	-0.2837715
22	0x3ddc6310	0.10761082
23	0xbf89e7a8	-1.0773821
24	0xbe006a0e	-0.12540457
25	0xbcfd6131	-0.030930134
26	0x3c746cb4	0.014918495
27	0x3f75d9d6	0.96035516
28	0xbe8ec691	-0.2788587
29	0xbf65292c	-0.8951595
30	0xbf329701	-0.69761664
31	0xbf568cfd	-0.8380888
32	0x3e438437	0.19093405
33	0xbbc463b6	-0.005993332
34	0x3cb35113	0.021889245
35	0xbe164f53	-0.14678697
36	0xbf8c6a24	-1.0969892
37	0xbf2deeae	-0.6794232
38	0x3ed456af	0.41472384
39	0x3fd84630	1.689642
40	0x3dc427a8	0.09577876
41	0x3fb3df0f	1.4052447
42	0x3f105c40	0.5639076
43	0x3e250e18	0.16118658
44	0xbf7f9656	-0.9983877
45	0x3ed7e2ca	0.42165214
46	0xbf5b6f09	-0.857163
47	0x3f748919	0.95521694
48	0x3f8c7b89	1.09752
49	0xbeb48e55	-0.3526484
