option_hedging/hyperparameters/dqn_hyperparameters/vanilla/year/0.0/best_dqn_model.pth (torch, 585236 bytes, 8 tensors)

linear1.weight f4 [256, 3]
00000000: 8715 dcbf 6fe3 80bd 755c ca3b 8d2e 4ebf
00000010: 1377 60bf f286 14bd f0f0 a9bf 06a4 b4be
00000020: bbfe 9cbc f1da 4bbe 2234 1040 bff7 b6be
00000030: c09d 90bf 334d 873f 0044 d3bd fd7a 77bf
00000040: 1229 1840 62f2 93be 5b60 80bf 3655 0c40
00000050: 8439 87be de51 b1bf 4ca9 52be f05f acbe
00000060: 0aed c5bf f3ed 0c3f 4078 ccbe 8107 293e
00000070: 1b06 96bf aa76 273e c1c1 b1bf 26b9 e5be
00000080: 29ba b5be 545d 1fbf 7181 203b e37d 103e
00000090: 7876 00c0 a017 eabe 8754 0ebc 1314 9abf
000000a0: 6083 0840 d24c 91be 7ebc 3fbf bfc1 01be
000000b0: d512 22be 43db b7bf e484 a0be b33c a1be
000000c0: a1c1 78bf 5794 6bbf 4665 49bd 5275 94bf
000000d0: fb43 73be 231e 08bd 9319 7cbf 2e22 f8be
000000e0: d660 86bd 35b7 37bf 268e 803e b4b0 e8be
000000f0: f9bf f3bc 3f30 b83f c28f 99be 8c8a d8bf
00000100: 9936 e2be ec1f 9b3c f856 e03e 0b9c c0bf
00000110: aa54 863e c0f0 40bf 3b73 53be f3ac 3abe
00000120: 0166 a4bf f6ad 8f3f 5d3d 9bbd 259f a8be
00000130: de8f cc3f 1f54 e03e 4e5c d83e af16 ccbf
00000140: 7c2e 8c3e 4d2d b0bf d7c3 31bf c557 b3be
00000150: 84f4 84bf ab27 2040 f373 b5be 91fa 01bf
00000160: 3e7f 2f40 06ed 12bf fa62 3bbf dfc0 3440
00000170: f94e 10bf 2d27 d6bf d4e4 14be 2034 9bbe
00000180: 101e c13e 66ed d8bf 1e37 693d 000a bebf
00000190: af28 d3be 573b d1be 96a8 013e 4f1b 0fbf
000001a0: a577 4fbf 9f44 2dbf 8e4a 55be 0be5 49be
000001b0: 9f5f db3e 8f7d 07c0 5448 e53a c65a 89bf
000001c0: 4fd4 b13f c993 04be 2256 57bf 55c2 2a3f
000001d0: 62e4 4bbe a2bd 16c0 bb86 dabe b79a 28be
000001e0: c557 e6be d6ca 0640 3c9f 3abe b1a4 9dbf
000001f0: 60f4 debe 93b7 66bc 984b 9bbf 361b f9bd
00000200: a634 edba 9e6d ebbf bd66 873e 8735 bcbd
00000210: f843 e5bf 7871 c83d 2077 8cbd 4d62 0ec0
00000220: 4e72 c13c 2b76 c8bd 879b d1be 167a 0a40
00000230: 0c1f 323e d9c3 b7bf 5d7a 7fbe 4d04 a0bd
00000240: dcc1 a8bf 802c 2f3e 8937 8fbd d067 76bf
00000250: e46a e93f 5943 8cbe 5391 a7bc f471 f13b
00000260: 076b c1ba ee0b 13c0 b9da ad3c 240c 1dbd
00000270: 7792 77bf 7514 dd3f 527e 5bbe 5166 28c0
00000280: 00e0 95be 5ba3 883d 0158 e6bf 59e4 02bf
00000290: 8253 04be 9f83 bdbf b5db 883f c12d 9bbb
000002a0: 5115 05c0 2d48 653c fd07 50bc 0ebd 91bf
000002b0: 7aea 81bf af07 a1bd a5fd abbf 5e38 8b3f
000002c0: 9d7a 633c 614e b1bf a263 673f 5e73 ab3c
000002d0: 0a14 e0bf 4184 1d3c aa6f 0abf ea7d 8fbf
000002e0: a71b 06bf c4bb 3dbe eb1b a8bf 78d2 5f3f
000002f0: 9a6f c43c 793a a0bf 9f7a 43be 7de1 7fbd
00000300: 2028 ea3e afa6 e4bf 3ba4 fe3c dbaa 7abf
00000310: 0800 01bf e097 85be f7d5 35bf 39b9 dbbe
00000320: 622c febe 37f4 eabf c6cd b03e e2b8 0d3c
00000330: 81c6 42bf 3826 3b3f 448d 95be cf7b 59bf
00000340: 25f1 ca3f 4d70 c6bd 7199 d73e a6c5 dfbf
00000350: 2109 153e 1f05 a0bf a369 a83f 2b2f 93be
00000360: 41ac 1dbe 4ca1 b73d 3846 61bc 6b77 bbbf
00000370: da49 2fbf 9630 7fbc a23c da3a 7921 133e
00000380: 3caf 523e 42bf abbf dfda ab3e d3a3 12be
00000390: 9a72 0ec0 db22 983f 4956 dabd 4f4b 093f
000003a0: 634e 0ac0 03f4 693c 9985 5cbf 01e6 9d3f
000003b0: bbb7 b2be d329 d43f ef17 d73f 2e0f b83e
000003c0: d568 afbf 0eca 63be be96 cdbc 4981 cebf
000003d0: db4b 213c 75b2 0fbf 6ddc 9fbf 11be 9c3f
000003e0: 5633 80bd 5379 62bf ccaa c8bd 4018 21be
000003f0: 9ccf c1bf d604 ac3f 9e87 f4bc bdf9 0fbf
-1.719407 -0.062933795 0.0061755725 -0.8053978 -0.8768169 -0.036261506 -1.3276653 -0.3528139
-0.019164434 -0.19907738 2.253182 -0.3573589 -1.1298141 1.0570434 -0.10315704 -0.9667204
2.3775067 -0.2889586 -1.0029405 2.1927009 -0.26411068 -1.3853109 -0.20572394 -0.33666945
-1.5462964 0.5505058 -0.39935493 0.16506769 -1.1720613 0.1635386 -1.3887254 -0.4486782
-0.3549359 -0.6225178 0.0024491216 0.14110522 -2.0072308 -0.4572115 -0.008687145 -1.2037376
2.1330185 -0.28378922 -0.7489699 -0.12671565 -0.15827496 -1.4363788 -0.31351388 -0.31491622
-0.97170454 -0.92023224 -0.049168848 -1.1598303 -0.23756401 -0.033231866 -0.98476523 -0.48463577
-0.06561439 -0.71763927 0.2510845 -0.45447314 -0.029754626 1.4389724 -0.2999249 -1.6917281
-0.4418228 0.01893612 0.43816352 -1.504762 0.2623647 -0.75367355 -0.20649426 -0.18230037
-1.2843629 1.1224964 -0.075800635 -0.32933918 1.5981405 0.4381418 0.42257923 -1.5944422
0.27379215 -1.3763825 -0.6943945 -0.350279 -1.038712 2.5024211 -0.35440025 -0.5077296
2.7421412 -0.5739292 -0.731979 2.824272 -0.563705 -1.6730705 -0.14540416 -0.30313206
0.37718248 -1.6947448 0.05693733 -1.4846802 -0.41241977 -0.40865585 0.12661967 -0.55901045
-0.8104194 -0.6768283 -0.20829222 -0.19716279 0.4284639 -2.1170385 0.0017492869 -1.0730827
1.3892916 -0.12947 -0.84115803 0.6670278 -0.1991134 -2.3553243 -0.42680916 -0.16465269
-0.44988838 2.1061301 -0.18224806 -1.2315885 -0.43545818 -0.014081853 -1.2132444 -0.12163393
-0.0018097355 -1.8392828 0.2644557 -0.09189897 -1.7911367 0.097872674 -0.06858659 -2.2247498
0.023614075 -0.09788164 -0.4093897 2.1637015 0.17394656 -1.4356643 -0.24949022 -0.0781332
-1.3184161 0.17106819 -0.06993014 -0.96252155 1.8235745 -0.27395132 -0.020455038 0.0073683206
-0.0014756628 -2.2976031 0.02122246 -0.038341656 -0.9670786 1.7271868 -0.21434906 -2.631245
-0.2927246 0.066717826 -1.7995607 -0.5112968 -0.1292248 -1.4805793 1.0692049 -0.004735679
-2.079426 0.013994259 -0.012697217 -1.138582 -1.0149682 -0.07862794 -1.3436781 1.0876577
0.013884214 -1.3852044 0.903864 0.020929035 -1.7506115 0.009614051 -0.54076636 -1.1210301
-0.52385944 -0.18528658 -1.313352 0.87430525 0.023978997 -1.2517844 -0.19089745 -0.0624709
0.45733738 -1.7863368 0.03108417 -0.97916955 -0.5039067 -0.26092434 -0.7102961 -0.4291475
-0.49643236 -1.8355778 0.34531993 0.0086500365 -0.7608414 0.7310519 -0.2920934 -0.8495454
1.5854841 -0.096893884 0.42109254 -1.7482193 0.14554264 -1.2501563 1.3157238 -0.28746924
-0.15397741 0.08966312 -0.013749652 -1.4645818 -0.68472064 -0.015575549 0.001665015 0.14368238
0.20574659 -1.3417742 0.33565423 -0.14320306 -2.2257447 1.1885637 -0.10660989 0.53630537
-2.1610343 0.014279368 -0.86141354 1.2335817 -0.349058 1.6575264 1.6804179 0.3594908
-1.3703867 -0.22245046 -0.025096294 -1.6133205 0.0098447455 -0.5613168 -1.2489144 1.2245504
-0.062597916 -0.88466376 -0.09798202 -0.15731907 -1.5141482 1.3438976 -0.029849824 -0.56240445

linear1.bias f4 [256]
00000000: 4878 a3bc 10a1 dfbe 51d3 9dbd 20e0 923e
00000010: 7451 96bd edf6 66bc 4d54 6dbd e6e5 a7bd
00000020: 6992 ac3d d3d0 4f3e e738 d53b 1436 cbbe
00000030: 0cad b8bd c5b6 493c 1561 f0bd e6f7 973d
00000040: 1d69 d9be 8fa1 8ebd 4365 04be a99d 813d
00000050: fa9a 803a e7b4 c3bd cde1 e53d 3b4f 87bd
00000060: e5b2 3ebb 33aa e73e 6cd7 133e 6b76 013e
00000070: ce1d 9f3d 4dd1 fb3e 8d55 1ebc 9ca6 ab3c
00000080: 475d ef3e 0df2 e23e af58 153f aefd a5bd
00000090: 48bc 283f 0c35 d0bd 4a73 96bd f0ad ca3a
000000a0: 7538 e7bd 90ac fdbd d1b3 cebc 51f0 febc
000000b0: c233 2dbd f66d 81bd e0c2 d6be 2991 0cbe
000000c0: 596e 00bd 67d2 87bd e03c 09bc 1772 03bd
000000d0: ab9a 60bd b240 45bd e126 59bd 834e 25bc
000000e0: 1862 2bbc 52e0 ddbd 3875 6cbe af0e 20be
000000f0: eec2 f23d cd88 b5bd 37f1 6ebe f18e b4bd
00000100: 8be2 fa3e 6f9b e03d 6080 d2bd b6be c9bd
00000110: 01cc bb3e f9b6 5d3e ae34 953e bbe3 f9bc
00000120: a588 c6bb 90a1 93bd 8d4e 393f bea2 6bbd
00000130: 44eb b8bd 93f8 343f 3c08 8e3d 3966 713f
00000140: 0153 2dbd af65 823e 5df3 13be 653c 32bd
00000150: b770 f33c 9c42 07bf 7044 a93e 61ee 00be
00000160: 3245 dabd f900 d2bd b846 073f c5b0 9d3d
00000170: da7f 813e 109a 4cbd d274 8abd 3039 90bd
00000180: 8640 26be 82d0 9c3e 1025 10be 52f0 c2bd
00000190: 7f19 c6bc 7fc6 013c 9b91 1bbe d9b4 b03e
000001a0: 7859 043e 5729 02bd 4467 32be ecd2 0dbd
000001b0: b84e 87bc 6803 87bd a14f 00bf 33e1 c6bd
000001c0: 2bdb 4fbb b8a4 cdbd 621d 9dbe 6517 d8be
000001d0: a6c9 5cbc bc02 42bc 15d2 0cbd 5e48 88be
000001e0: 052d 483e 88e3 7f3e 8975 58bd 7842 00be
000001f0: 7e1d a83d a69c 2ebe 7d66 98bc f089 963f
00000200: b5e1 4b3c 8847 31be 846b 40bb d23c 3c3e
00000210: 60a0 48be 1b9c 25be 8c64 a0be 01b3 e2bd
00000220: 80fb e1bc cfda 7abd fa5e 323d 32d3 35bd
00000230: 6849 78bd 6019 0bbe 179d 013d 0ffa 0ebc
00000240: ab5e 293e 136d d3bd 83f5 70bd 1838 43bd
00000250: 8f70 e7bc d146 98bd 69bc 99bd 9012 e4bd
00000260: f434 763e 09e2 0d3e 9427 40bd 7400 c23e
00000270: 5878 79bd c176 423d b5e8 dabc 2376 82bd
00000280: 65e4 17be 3068 303d 265f 99be 08a7 f3bd
00000290: 503c ed3e 8a49 e53d 563d 753d fe1d 36bc
000002a0: 6cb1 133f 66a3 053d 3c85 833d 80ef d2ba
000002b0: bd72 bbbd 4a9e 7fbe f8dc 82be da35 373e
000002c0: 8f62 6a3e 0eef e2bd db24 a6bd f64f 02bd
000002d0: 6d30 a2be 37d0 303f 4390 46bd ce6f 9abd
000002e0: 8285 cabb 8105 c5bd 03bc 863d 55f8 cabe
000002f0: a152 8dbe 6470 8cbd 559b 4cbe 2f55 e8bd
00000300: 3454 47be ab4c ca3e 850e 183f 90e1 d63c
00000310: f02b 903e feb7 f2bd 7fab b9bd ba3f 603d
00000320: eec9 1ebd 40b0 e5bd e808 a4bd ecf3 3dbd
00000330: f2fb 193f 9122 b8be 8d0a a0bd d482 c43e
00000340: 4497 b0bd d2da ee3b b230 c43f 9a7c 5bbd
00000350: f37c 1bbe fe39 893c d6b4 39be f2e6 5d3d
00000360: 37fe 72bd f05a 8a3d eab8 7abc 2c73 91bd
00000370: 78f9 e3bd daf3 ca3d 4922 61bd f25d 213e
00000380: bbc5 6d3f f40b c03e c83d 253d 9993 2f3d
00000390: a6cc 7bbd 3bc6 333b 38a3 0bbe e2bd 15be
000003a0: e960 3abe 2b6a fdbc 5ec8 06bd 5ffa df3e
000003b0: 0cec 5dbd cc29 09be 2ebe 80bd 43ec 5bbd
000003c0: 0242 11be 993b a9bd 654f 13be 9b3d 16be
000003d0: 6cb1 b93e 6581 edbd e3d1 de3d 60d7 73be
000003e0: d33b 7f3d 2464 0c3f 331a ff3d f346 35bd
000003f0: 3674 0dbc 3c33 79be 2b71 46bd e9d4 ce3f
-0.019954816 -0.43677568 -0.07706321 0.2868662 -0.07339755 -0.014096958 -0.057941724 -0.081981465
0.08426363 0.20294504 0.0065070274 -0.39689696 -0.09017381 0.012311642 -0.11737267 0.0742033
-0.42463008 -0.069644086 -0.12929253 0.063288994 0.0009811812 -0.09555989 0.11224709 -0.06606909
-0.0029098329 0.4524704 0.14437646 0.12642829 0.07769357 0.4918312 -0.009663952 0.020953469
0.46750852 0.44325295 0.58338445 -0.08105026 0.65912294 -0.10166368 -0.073462084 0.0015463214
-0.11290065 -0.12386429 -0.025232228 -0.031120451 -0.04228569 -0.063198015 -0.41945553 -0.13727249
-0.031355236 -0.06631928 -0.00837633 -0.032091226 -0.054835003 -0.0481574 -0.053015593 -0.010089519
-0.010460399 -0.10833801 -0.2309159 -0.15630601 0.11853586 -0.08863983 -0.23334204 -0.088163264
0.49000964 0.109671466 -0.10278392 -0.09850828 0.3667908 0.2165183 0.29141754 -0.030504098
-0.0060587698 -0.0720855 0.72385484 -0.05752825 -0.09029248 0.70691794 0.06935164 0.94296604
-0.042315487 0.25468203 -0.14448304 -0.043514628 0.029716833 -0.5283601 0.33060026 -0.12590934
-0.10657729 -0.10254092 0.52842283 0.07699732 0.25292856 -0.049951613 -0.06760563 -0.07042158
-0.16235551 0.3062783 -0.14076638 -0.09518494 -0.02418208 0.00792086 -0.15192263 0.34512976
0.12924755 -0.031777706 -0.17422205 -0.03462498 -0.016517028 -0.065924466 -0.50121504 -0.09710922
-0.0031716328 -0.10041183 -0.3068648 -0.4220535 -0.013475811 -0.011841472 -0.034380037 -0.26617712
0.19548424 0.2498914 -0.052846465 -0.12525356 0.0820875 -0.17051944 -0.018603558 1.1760845
0.0124439495 -0.17312443 -0.002936096 0.18382576 -0.19592428 -0.16172831 -0.3132671 -0.110692985
-0.027585745 -0.06124383 0.043547608 -0.044390865 -0.06061688 -0.13583899 0.031643953 -0.008726611
0.16540019 -0.10323539 -0.05882789 -0.047660917 -0.028251914 -0.07435382 -0.075066395 -0.11136353
0.24043638 0.13855757 -0.046912745 0.3789097 -0.060905784 0.047476534 -0.026722291 -0.06370189
-0.1483322 0.04306811 -0.29955405 -0.11897093 0.46335077 0.11195667 0.059872948 -0.011115549
0.576926 0.032626532 0.06421897 -0.0016093105 -0.09152744 -0.24962726 -0.2555921 0.17891636
0.2288916 -0.11080752 -0.081124984 -0.031814538 -0.3167757 0.6906771 -0.048477422 -0.07540856
-0.006180466 -0.096201904 0.06578829 -0.39642587 -0.27602103 -0.06857374 -0.1998113 -0.113443725
-0.19465715 0.39511618 0.59397155 0.026230603 0.28158522 -0.118515 -0.090659134 0.054748274
-0.038766794 -0.11215258 -0.08009511 -0.0463752 0.60150063 -0.35963872 -0.078145124 0.38381064
-0.08622602 0.007289269 1.5327361 -0.053585626 -0.15184383 0.016751286 -0.1813539 0.054175325
-0.05932447 0.06755626 -0.015302876 -0.071020454 -0.11131567 0.09909792 -0.054964337 0.15758494
0.9287984 0.3750912 0.040342122 0.04286537 -0.061474465 0.0027431387 -0.13636482 -0.14623216
-0.18201031 -0.030934414 -0.03290593 0.43745705 -0.05418019 -0.1339485 -0.06286274 -0.053692114
-0.14185336 -0.082633205 -0.14385755 -0.14671938 0.36268175 -0.11596946 0.108798765 -0.23812628
0.062312912 0.548403 0.12456169 -0.044257116 -0.008633664 -0.2433595 -0.04844777 1.6158725

linears.0.weight f4 [256, 256]
00000000: cb37 e83d 9e9e 093d 83cc d43e 05ec 98bd
00000010: c389 bcbd 2e92 853c 904b 95be 8632 f33e
00000020: 3502 513e a967 1a3e 390c 623b 5d39 babe
00000030: 36d7 a1bd cd42 51be f7cb 273e 8859 993d
00000040: 99ad ef3d cbfb e73e 2359 d2be 9868 8d3e
00000050: 0788 c73c 1d1b 48be 651e e03d 8a84 a93e
00000060: fba2 543e 3cda 49bd 747a 1e3e 16bf 963e
00000070: 7ae7 253e e8d8 973d 44fe df3d aa5d 093e
00000080: cd4d 2e3e 63e4 bebe b63b d43e 0c38 7e3e
00000090: eabb 0c3e 6182 babc 93ed 9f3d 0702 2c3f
000000a0: 49fa 21be 2658 553c d6a9 4c3e ec2c 863e
000000b0: 2aca d43e 777c 91bd ddbd 07be db92 5fbe
000000c0: bfc4 003e 666a 90bd 2bb8 0a3e 7df0 dbbd
000000d0: c09a 56bd 534b 563e d1b5 0b3e 3fb6 613d
000000e0: 7e35 52be 01c9 ae3d a42f 0e3e 722e 6f3d
000000f0: e387 833d 116d c53e d5d4 f4bd 2b89 2abe
00000100: 5176 973e 7b87 903d 3b32 6a3e 955d 8c3d
00000110: 5e2d ef3e 7c1f 573c 70d5 a53d 59d9 e13c
00000120: 9acf e2ba 860a 7c3e b025 d53d e398 0d3f
00000130: 682c 7d3e d3e6 063d 9ff7 473e ae63 4bc0
00000140: ac0f 7a3d f912 31be e052 40bd 2b57 863e
00000150: 99da 723e e91f 793d 29f2 013e daf7 453e
00000160: 8ba1 8d3b 7571 20be 16d8 883c 0d6c ee3d
00000170: 9d7c 463e 8ae5 e73e b60b bfbc 77c2 5e3e
00000180: 81ca 0a3e 35b3 cb3e e5cc 8a3c 0ded 8abd
00000190: f6d4 7a3e a646 543d 8cd7 143e e629 9c3d
000001a0: 9b1d 0a3e 49a3 f43d 6710 5d3e 4ce8 f9bc
000001b0: 4db0 dfbb 453f a5be 6ba4 3bbc d004 33be
000001c0: ff01 5cbd 3449 61bd d380 b73d 39c6 6cbd
000001d0: e24b 2dbe 4d7d febd 1fdc 70bc f40e 6f3e
000001e0: 8f58 983e c9ce 85be b730 0d3e e228 783e
000001f0: 43fc 563e c2b2 d13e 9506 5b3e 1a18 41c0
00000200: 5932 753d d31e b63e f6e7 e5bd 4bd1 833e
00000210: d09c 98be 30c3 dbbd a006 553d 5146 38be
00000220: 19aa 883e ca55 adbc b26f 01bd 7a8b 843d
00000230: 8c85 343e 3310 f83d bbe9 7d3d 4607 ba3e
00000240: e363 563e 1964 83bd b37a 5dbd 0cf0 c03d
00000250: e754 f6bb 4202 c63e 0484 31be b15a 7cbe
00000260: aaeb cb3d 637b 043e c8c3 d4bc c1f3 b53d
00000270: a86c 1abe 06dc 353e b829 463e 0d18 303e
00000280: 7a7e 253e e410 4e3d 8656 85be cd92 8d3e
00000290: ef15 5dbe 3fd8 833e 2b6c fc3e 8377 003d
000002a0: a109 753e 43d3 0f3e d5ef 1f3c a894 353e
000002b0: 3a1f 423e c2bd 56bd 447f 43be 4326 203e
000002c0: 6e61 3abd 6e79 803e f1b0 dd3d b61d 44be
000002d0: 8134 4b3e d217 803e ad13 3a3e ac11 373e
000002e0: eff2 75bc 6be8 523e a362 f1bd aba5 0e3e
000002f0: 419d e03e 043c a2bd aaea b83d 019e 73be
00000300: 4ac9 953e 6d03 283d b5b7 5a3e 92b1 3fbd
00000310: c5b5 673d ce2d 0c3e 7658 a33e 8f7d 893e
00000320: f4cc 18be 1659 073f e312 82bc 013b 033e
00000330: d84c 5a3e 4cd1 223e 6b72 53bd 1e50 4d3d
00000340: 151c be3d 23cc 5a3e 433c 3ec0 7d09 e23e
00000350: 9df3 a4bd 186d afbd 4229 45bd e558 093e
00000360: 9b0f 793e 3e95 143f 0213 a73d ac25 863d
00000370: f636 2abb b680 b8bd 9d10 4b3e d106 103e
00000380: 11c3 3cc0 9df4 6b3e 32e9 c4bc 0e37 603e
00000390: ab7f 9b3e f05b faba e8ec b7be 887c 01be
000003a0: cca9 90b8 100a a33e 4cf0 ae3d f66b 2a3e
000003b0: 46f6 1a3c 9983 93bd bfdb 783e e669 f2bd
000003c0: 1704 1cbb 0481 3b3d 01e4 b23b b83e 263e
000003d0: 11ee bd3d f3b5 733e 213d ae3c 9df7 c7bc
000003e0: 178c b0be 5978 043e cd1b b33e 6df6 d4be
000003f0: f119 183c 1e71 593e 0b4a e3bd d014 6cbf
0.11338767 0.033598535 0.4156228 -0.07466892 -0.092059635 0.016305055 -0.29159212 0.47499484
0.20410998 0.15078606 0.0034492149 -0.3637189 -0.07902376 -0.20435639 0.163864 0.0748778
0.11703033 0.4530929 -0.4108363 0.2761886 0.024356855 -0.19541593 0.10943297 0.33108932
0.20765297 -0.04928039 0.154764 0.29442662 0.16201583 0.074144185 0.10937169 0.13414636
0.17021866 -0.3728362 0.41451806 0.24826068 0.13743559 -0.022767248 0.078089856 0.67190593
-0.15818132 0.0130215045 0.19986662 0.26206148 0.4156049 -0.07103818 -0.13256021 -0.21833365
0.12575053 -0.07051544 0.13546817 -0.10739229 -0.052393675 0.20927171 0.13643576 0.055105444
-0.20528218 0.08534432 0.13885361 0.058393903 0.06422403 0.38559774 -0.11954657 -0.16653888
0.29582456 0.07057091 0.22870724 0.06853787 0.467143 0.013130065 0.080973506 0.02756946
-0.0017304302 0.2461339 0.10407579 0.5531141 0.24723971 0.032934975 0.19528054 -3.177959
0.061050102 -0.17292394 -0.046954036 0.2623838 0.23716201 0.060821448 0.12690033 0.19332829
0.004322236 -0.1566828 0.0167046 0.11641703 0.19383474 0.45292312 -0.023321014 0.2175387
0.13553812 0.39785162 0.016943404 -0.06783495 0.244953 0.051825188 0.1453535 0.07625179
0.13487856 0.11945207 0.21588288 -0.030506276 -0.0068264366 -0.32274833 -0.0114527745 -0.17482305
-0.05371284 -0.055001453 0.08960118 -0.057806227 -0.16923478 -0.12426243 -0.014700918 0.23345548
0.29755065 -0.26134327 0.13788114 0.24234346 0.20994668 0.40956694 0.2138923 -3.017096
0.05986247 0.35570392 -0.11225884 0.25745615 -0.29807138 -0.107305884 0.05200827 -0.17995574
0.26692274 -0.021159071 -0.03160066 0.064719155 0.17629069 0.12112465 0.06199048 0.36333674
0.20936541 -0.064155765 -0.054072093 0.09420785 -0.0075174454 0.38673598 -0.17335516 -0.24643971
0.09957059 0.12937693 -0.025972262 0.08884383 -0.15080512 0.17759714 0.19351852 0.17196675
0.16161528 0.050309077 -0.26042575 0.27651063 -0.21590398 0.2575092 0.49301276 0.031363975
0.23929454 0.14045434 0.00976177 0.17732489 0.18957224 -0.05242706 -0.19091517 0.15639596
-0.045503072 0.25092643 0.108247645 -0.19151959 0.19844247 0.25018173 0.18171568 0.17877835
-0.015011533 0.20596473 -0.117863916 0.13930385 0.43869975 -0.07921603 0.090291336 -0.23790742
0.29255134 0.041018892 0.21359141 -0.046800204 0.056569833 0.13689348 0.31903428 0.26853606
-0.14921933 0.5287031 -0.015878147 0.12815477 0.21318376 0.15900153 -0.05162279 0.050125234
0.092827 0.21366934 -2.972428 0.44147864 -0.08054278 -0.0856573 -0.04813505 0.13412817
0.2432236 0.58040226 0.08157922 0.06550154 -0.00259727 -0.09008925 0.19830556 0.140651
-2.949406 0.23042531 -0.024036977 0.21896002 0.3037084 -0.0019100886 -0.35922933 -0.12645161
-6.898082e-05 0.31843615 0.08541927 0.16642746 0.00945813 -0.07202835 0.24302576 -0.11836605
-0.0023806149 0.045777336 0.005459309 0.16234863 0.09273923 0.23799877 0.021269383 -0.024410063
-0.3448188 0.12936534 0.34982148 -0.41594258 0.009283529 0.21234557 -0.11098107 -0.9221926

linears.0.bias f4 [256]
00000000: 3532 603e 73c9 c63d 692d 093e 2521 7e3e
00000010: 2c66 8ebc c46f 95bd 0da1 683e ac5d fdbc
00000020: 3b5c 0a3f 178e 323e 165c 8a3d 73f5 6b3e
00000030: 4a2d 6a3e 76da 803d 8179 6b3e 82e6 9bbd
00000040: 8ed0 563e 5868 07bd 2aa3 853e a06e a83e
00000050: 9162 9c3e 8568 563e 6c06 3f3e 7f41 4a3e
00000060: 0c50 8d3e 2348 593e 137b 433e daa6 74bb
00000070: c3a0 473d a57a eb3e c4e4 593e 7c99 f33d
00000080: d5f7 5c3e 98b4 aa3e bbbd 723e 9ad3 e63d
00000090: 48fc ab3e 1740 813e 989f 513e 1f62 733e
000000a0: 35a8 933e 48b9 823e 0ad5 223d dd7c 773e
000000b0: 0613 a83d f7ce ba3e 0a8a 783e 1b59 043e
000000c0: 4a09 acbd 7203 533e 7d5a aa3d fa6d 4f3e
000000d0: 4e21 183e 7b94 883e 64b9 3f3e 545e 863e
000000e0: df0e e63d f056 593e 92f0 853e 5c50 243e
000000f0: ccbd 313e ae00 b53a 6ae6 5e3e b5b1 2b3f
00000100: a8d3 253f b719 913e b430 743e c445 0e3d
00000110: fbbe c4bb 75b9 803e cc4c bdbd 1bb8 c73e
00000120: 532a 4c3e 23ce 52bd cbe8 663e bb2a 413e
00000130: 380d 573e dca3 1d3e d995 743e bd93 8e3e
00000140: 2271 7e3e c036 a93e 5fe5 323e d958 933e
00000150: ca8c 563e 6c85 213e b417 973e 446b 203f
00000160: 0ae2 b03d 05d5 453e 70ff 373e 6fc2 c33d
00000170: f5e6 553e d67f ff3e 19c6 0a3e 3b15 8b3e
00000180: 0ca4 623e ca3e c1be b7dc 833e d862 4a3e
00000190: 5154 873e da23 923e 6dc4 4b3d f27c 4a3e
000001a0: 1c0d 7a3e ab8a 6e3e 92b2 303e b411 07bd
000001b0: daf7 2f3e bbe4 423e 5982 683e 5917 06be
000001c0: a8fb 693e c4fa 313e 25d5 cb3c da06 903e
000001d0: 06e4 af3e a077 503e 4eeb 7f3e 6db4 443e
000001e0: 2d4f 7f3e 3fc7 353e 9b26 833e 4021 713e
000001f0: 9058 123d a085 e73c f7ca 2c3e 4ec5 c33d
00000200: a4d4 963e 5923 223e df8d 943f 4322 a23e
00000210: 86fc ce3e 016a 853e 34cd dfbd d612 df3d
00000220: d636 1f3e 6e6b 69bb 2193 723e 0166 683e
00000230: 58b8 033f 3113 6f3e 3c4a 2c3c 472d 383e
00000240: d46f 623e 08da 473e 718c ca3d bf7b 863e
00000250: 454c 623e ebf8 b0bd c0aa 633f 17f9 1abe
00000260: 7437 c33d 0986 253e c522 403e ccfe 733e
00000270: b97f c0bd 3122 373e de73 423e 43f0 023e
00000280: d423 823e 73fc 213e dee1 4a3e b98f 623d
00000290: 01c8 a93c 6e14 a53e 4d8c 473e 8e36 893e
000002a0: fa13 353e ef1b 843e e429 6b3e f055 51be
000002b0: 7bad 603e 5054 0ebe 3edb 693e 2502 a33d
000002c0: f85c 833e 3ace 883e 49f6 073f 3fc6 acbd
000002d0: 7cb7 813e f0b2 a7bd 9678 093e f9a1 613e
000002e0: 5174 c53d 6eb3 883d 60b0 d53c 7782 5e3e
000002f0: 85a6 753e bacd 8b3e 0a1c 9e3e c681 683e
00000300: 9b1f f53c ea1e 983e 2cfb 6c3e 6e51 593e
00000310: 2743 04bf b2c1 883e 72f0 ff3d 0a56 3d3e
00000320: 24f0 833f d28a 613e 0e09 053e bb69 683e
00000330: e0b9 5b3e 909f 813e 1f58 573e 59bb cb3e
00000340: 7621 90bd e1b8 c13e de0b 613e e874 9f3d
00000350: bca6 583e 4d9a 833e ee3c 393e 0540 eabb
00000360: 83e6 663e 9dd2 723e d06d 3d3e 52b6 3c3e
00000370: f3b4 733e 4c79 7b3e 4a9f 2f3e 319a 98bc
00000380: 72af 2f3e 290f b83d 1ff7 393e 6c8d 4c3e
00000390: 14a2 9cbd b4b4 853e 4bc0 243e 732d 0fbb
000003a0: 1e3f 1f3d 1c01 533e ca8e 803e aea9 283e
000003b0: f34a 043d 4e04 693e d5b8 3fbb f40a 5f3e
000003c0: 637f 833e c9d3 4ebc ac21 1d3f daa0 8b3e
000003d0: c758 503f d955 e53d 5abe 2f3e 602b 593e
000003e0: d907 793e 5bf6 233e c328 063d bd58 ac3d
000003f0: c33e 91bd 73e6 903e 3efa 583e 3935 3f3e
0.21894152 0.09706392 0.13396229 0.24817331 -0.017382704 -0.07296708 0.22717686 -0.030928455
0.5404698 0.17437015 0.06755845 0.2304285 0.22868839 0.06291668 0.22995569 -0.07612325
0.20977995 -0.033058494 0.26101047 0.328969 0.3054395 0.20938309 0.18654794 0.19751547
0.27600133 0.21218924 0.19089918 -0.0037330897 0.0487373 0.45992008 0.21278673 0.11894509
0.21578915 0.33340907 0.23705189 0.112708285 0.33590913 0.2524421 0.20471036 0.23767899
0.2883927 0.25531983 0.03975395 0.24168725 0.082067534 0.36486027 0.24271408 0.12924616
-0.08400209 0.20606783 0.083180405 0.20256796 0.14856455 0.26675782 0.18723065 0.26243842
0.11233305 0.2122457 0.26160103 0.1604628 0.17357558 0.0013809407 0.21767583 0.67068034
0.64776087 0.2833993 0.23846704 0.034734502 -0.006004212 0.25141492 -0.092431635 0.3900765
0.1993802 -0.05146612 0.22549741 0.18863957 0.21001136 0.15394539 0.23885287 0.2784709
0.24847844 0.33049583 0.1747031 0.28778723 0.20952144 0.15773553 0.29510272 0.62663674
0.086368635 0.19319542 0.17968535 0.0955857 0.20888884 0.4990222 0.13552131 0.27164635
0.22132891 -0.37743217 0.2575433 0.19764268 0.26431516 0.28542978 0.049747873 0.19774225
0.24419063 0.23295085 0.17255619 -0.032975867 0.17184392 0.19032566 0.22705974 -0.13094844
0.22849905 0.17380816 0.024881909 0.28130227 0.34353656 0.20358133 0.24992105 0.19209452
0.24932547 0.17751788 0.2561539 0.2354784 0.03572899 0.02826196 0.168743 0.09559117
0.29459107 0.15833797 1.1605796 0.31666765 0.40427035 0.26057437 -0.10927811 0.108922645
0.15548262 -0.0035617012 0.23688938 0.22695161 0.5145316 0.23347165 0.010515746 0.17986022
0.22112972 0.19516766 0.09890068 0.26266286 0.22099407 -0.08641227 0.8893242 -0.15134083
0.09532061 0.16164412 0.18763264 0.23827666 -0.09399361 0.17884137 0.18989512 0.12786965
0.2541796 0.15818958 0.19812724 0.055312846 0.020725252 0.3224215 0.19487114 0.26799434
0.17683402 0.25802562 0.22965199 -0.20442939 0.21941178 -0.1389935 0.2283754 0.079593934
0.25656867 0.26719838 0.53110176 -0.0843625 0.253353 -0.081884265 0.13424906 0.22034444
0.09641326 0.066748485 0.026085079 0.21729456 0.23989303 0.27305394 0.30880767 0.22705755
0.029922297 0.29711086 0.2314269 0.21222469 -0.51664966 0.26710278 0.12497033 0.18489853
1.030766 0.22025612 0.12991735 0.22696583 0.21457624 0.2531705 0.2102971 0.39791372
-0.07037632 0.37836364 0.21977183 0.0778597 0.21157354 0.2570366 0.18089649 -0.007148745
0.2254887 0.23713155 0.18498921 0.18428925 0.23799495 0.2455799 0.17150608 -0.018628212
0.17156771 0.089872666 0.18160675 0.19975823 -0.076481014 0.26114428 0.16088979 -0.0021847158
0.038878553 0.20605892 0.2510894 0.16470978 0.03229804 0.22755548 -0.0029254456 0.21781522
0.25683126 -0.012623736 0.61379504 0.27271158 0.81385463 0.11198015 0.17162457 0.21207952
0.243194 0.16011946 0.032753717 0.08415363 -0.07092049 0.2830082 0.2118921 0.18672647

linears.1.weight f4 [256, 256]
00000000: 4b61 eb3e a8b0 943e a8a6 9a3e 0e67 a23e
00000010: 39c3 a53e 88ed ad3e 99c0 ec3e 4c39 a23f
00000020: 8789 843e d215 9b3e 6ceb da3e 6b93 a03e
00000030: b3c0 8e3e bbc8 143e 43a1 f43e 2925 583e
00000040: 7911 903e 7fab c43e 394a 7b3e 5ac7 b33e
00000050: 818d b23e e2cb a33e c94c 563e ed58 fe3e
00000060: b844 8f3d bc19 6d3e 77b7 b53e 11d5 23bd
00000070: e856 d33e 8814 983e 0293 813e eee8 f13e
00000080: e0e1 c53e 80ec 913e 2166 9d3e 66cd da3e
00000090: dfd7 b43e 7be0 863e c091 8e3e a442 953e
000000a0: 07f6 8b3e 2212 c23e 218b c13e cc52 42bf
000000b0: f529 9a3e 5ec7 963e d255 b23e 6aa3 943e
000000c0: 4bb7 9f3e 9275 c33e 4bb0 6d3e 38e8 893e
000000d0: 6d04 693e 6bd9 d43e f2fc bc3e d61d ad3e
000000e0: 3542 c53e 3f35 813e ac9b ea3e 95f7 783e
000000f0: 2987 c93e a0a0 e83e f017 a53e 4d91 383e
00000100: 73c9 793e 897b 7c3e 0e2d a13d 404e 2d3e
00000110: b202 563d 85a2 9a3e ac22 c33e 2082 8abf
00000120: b98f 903e a97e d43e f89c 2e3e 6956 993e
00000130: 7431 c73e 6fef af3e 4892 5f3e d072 813e
00000140: 7c70 d63e 8a92 843e cc3e 9b3e cfc7 d13e
00000150: f946 653e c26f b83e 15fd b53e 53a9 863e
00000160: 0fde 10bf 4797 333e 3281 f13e 15b4 783e
00000170: a4b6 953e 4361 8c3e a492 9e3e 2103 7b3e
00000180: 3eab bc3e 6630 b73d 520e 3f3e 1967 363e
00000190: e015 b33e f202 ad3e 62d0 b23e 203f a43e
000001a0: 3234 bd3e 3945 4c3e 300e 963e b3be 873f
000001b0: 1d5f b73e c372 993e e834 a83e 7457 bb3e
000001c0: 5c02 913e ad4b b63e 6da0 a93e a41c d53e
000001d0: b334 bc3e cb8f 913e ca29 8e3e c7ed 923e
000001e0: e02c b43e e682 8b3e c408 d73e 8dbf c93e
000001f0: 45ca da3e e612 953e cd1a c33e e827 823d
00000200: 9247 b53e 9ef6 a83e d513 53be 008f 2ebf
00000210: 68e3 db3e efba 8c3e 3cd9 fc3c d0e3 603e
00000220: 3fee 643e e155 c93e d65b b93e 47e9 8b3e
00000230: 6790 8dbf 76ad a53e 5a1c c33e 17cb c63e
00000240: f5b9 a23e 9680 c43e bfce 183e 2b96 973e
00000250: 0f07 c73e 9198 cf3e e1cc 94bc 9525 ee3e
00000260: 389c 95bf 3479 8d3e 813f 9f3e d48d a33e
00000270: b726 e73e a889 e63e 6e85 0a3f 2e20 5e3e
00000280: c2ac 923e 851b 8d3e 4189 843e b9c9 c43e
00000290: 489f 973e e0e7 013f b173 a83e 0fc9 c53e
000002a0: 008c 923e ec2d c43e 4808 c13e c57e d33d
000002b0: de6b a73e 98a3 c2bf 4c70 933e 448e 813e
000002c0: 6e40 863e 8530 df3e 45a7 a1bf 099f 8d3e
000002d0: d862 a33e ab29 a73e ac71 473e 7918 b43e
000002e0: 1fa0 8b3e 7116 6f3e 4bd6 26c0 9bf4 a5bf
000002f0: 6a3e 8a3e d74c a73e 3067 823e 148f 8f3e
00000300: 6f82 41bd 7aa9 8fbf 5a0f ae3e 3bd2 853e
00000310: 0bb9 8a3c b276 dd3e 4b54 ae3e 69f3 913e
00000320: c34c 9cbe 49ec d03e 692e 8e3e fcff 643e
00000330: 97d5 da3e 61be 8e3e ea34 a43e b3d4 a1bf
00000340: 3fa6 bf3e c125 a93e 07aa 7a3e 0f7d a93e
00000350: 2db0 8c3e 2448 863e eddd 7a3e ae78 c73e
00000360: c155 a23e 960a 6e3e 3dde bd3e 1b1e a83e
00000370: 9954 693e b958 c83e 8c4b ad3e 20ca ad3e
00000380: 30be b33e 6acf 763e 040c ab3e f3ce 923e
00000390: 561f 0a3f df6f b23e eac5 ab3e f14c 1f3d
000003a0: 60cb 0e3e 90cb 723e 0ec0 2cbf 201e b13e
000003b0: 730d be3d 5f7c 8d3e 2327 ac3e 084c c43e
000003c0: e2af cd3e 314c ef3e 2536 a3bf f5c1 993e
000003d0: 9aee 44bd 3a24 8f3e 4f55 a33e 0ae2 eb3e
000003e0: ebb0 af3e 2af7 903e 0057 8f3e 07c7 933f
000003f0: 5aac 9b3e d140 b83e cbb1 9f3e 9215 ba3e
0.45972666 0.29041028 0.30205274 0.3171925 0.32375506 0.33970284 0.4624069 1.2673736
0.25886175 0.30290085 0.42757738 0.3136247 0.27881393 0.14529698 0.47779283 0.21107925
0.2813833 0.3841209 0.24540032 0.3511303 0.34873584 0.31991488 0.20927729 0.4967722
0.06995529 0.23154348 0.35491535 -0.039998118 0.41277242 0.29703164 0.2530747 0.47248024
0.3864889 0.28500748 0.3074198 0.42734832 0.35320947 0.2634314 0.27845573 0.29152405
0.2733614 0.3790446 0.3780146 -0.7590759 0.30110136 0.2944898 0.348311 0.29030925
0.3119453 0.38175637 0.23211782 0.2693498 0.22755595 0.41572127 0.36911732 0.33811826
0.38527074 0.25235936 0.45821893 0.24313195 0.39360932 0.45435047 0.32244825 0.18024178
0.24393253 0.246565 0.078699216 0.16924381 0.052248664 0.30202118 0.3811239 -1.0820961
0.28234652 0.41502884 0.17052066 0.29948738 0.38904917 0.3436236 0.21833146 0.25282907
0.41882694 0.2589305 0.30321348 0.40972754 0.22390355 0.36022764 0.3554465 0.2630106
-0.56588835 0.17538176 0.4716888 0.24287446 0.29240906 0.27417955 0.30971253 0.24512912
0.36849397 0.08944778 0.18657807 0.17812766 0.34977627 0.3379131 0.34924608 0.3207941
0.36953884 0.19948281 0.293077 1.0605072 0.35814753 0.2997037 0.32852864 0.3659016
0.28322113 0.3560461 0.33130208 0.41623414 0.36758956 0.28430018 0.27766258 0.28697035
0.35190487 0.27248305 0.41998875 0.39403954 0.42732444 0.2911598 0.38106385 0.06355268
0.35406166 0.33000654 -0.20613034 -0.6818695 0.42946935 0.2748637 0.030865304 0.21961904
0.22356509 0.39323333 0.36202878 0.27326414 -1.1059693 0.32358903 0.38107568 0.3882682
0.317825 0.38379353 0.14922617 0.29606757 0.38872573 0.40546086 -0.0181641 0.46513048
-1.1688299 0.27631533 0.31103137 0.31944144 0.45146725 0.45026898 0.5410985 0.21691963
0.2864743 0.27560058 0.25885966 0.38435152 0.2961371 0.5074444 0.32900766 0.38629958
0.28622437 0.38316286 0.3770163 0.10326914 0.32699484 -1.5206175 0.28796613 0.25303853
0.2622103 0.43591705 -1.2629172 0.27660397 0.3191135 0.32648978 0.19476956 0.3517492
0.272706 0.23348404 -2.6068294 -1.2965273 0.27000743 0.32675812 0.2546935 0.28038847
-0.04724353 -1.1223595 0.33996087 0.26136956 0.016933938 0.4325462 0.34048685 0.2850602
-0.30527315 0.4080527 0.27769783 0.22363275 0.4274108 0.27879623 0.3207162 -1.2643036
0.37431523 0.33036616 0.24478923 0.33103225 0.2747816 0.26226914 0.2449872 0.3895926
0.3170605 0.23246226 0.37083617 0.3283547 0.22786178 0.3913019 0.338467 0.33943272
0.3510604 0.2410256 0.33407605 0.28673515 0.53954065 0.34850976 0.33549434 0.038891736
0.13944769 0.23710465 -0.6748055 0.34593296 0.09279909 0.2763395 0.3362361 0.38339257
0.4017325 0.46737817 -1.2750899 0.3003079 -0.04807911 0.27957326 0.31901023 0.46070892
0.34314665 0.2831357 0.27996063 1.1545113 0.3040493 0.3598695 0.31190333 0.36344582

linears.1.bias f4 [256]
00000000: 3305 3fbd 2c68 83bc 38de b7bd c255 21bd
00000010: 72de 98bc 9ba3 9ebd 8d74 1a3d 24a7 19bd
00000020: 9024 8c3f 5742 6dbc c859 cebc ac2a b03f
00000030: a233 7dba 0000 0000 78b8 a73f 614d 10bb
00000040: 0147 58be 1e7e 72bd 8b3e 56bc 63b9 163a
00000050: 9b88 3f3c 1a81 a6bc dcad 64be f70d 2abc
00000060: 58b0 1abe 0d94 70bd cd17 31bb 3cd3 a53f
00000070: 78c9 47bb 2c96 bcbc c050 85bc 9729 60bd
00000080: 17f3 38bd 6a1c 5ebd b1cb 37be 5c47 6fbc
00000090: 838c 053e 2744 09bd caeb 19bd c311 d9bb
000000a0: 5eb4 60bb 98a9 3cbb 4b5e dfbb a0e3 40bb
000000b0: f7ec e1bb 7442 1bbd 736a f2bd 5698 88bb
000000c0: 0f63 c3bd 9cb4 313f 61cb 0439 b045 17bd
000000d0: 02c4 10bd 32af 39bc c870 c03a e1e6 853f
000000e0: 5b9a 143a 6f93 1fbd a1f8 22bd ed93 dcbd
000000f0: a136 2abd 699d 43bc b78e 00be 1ef5 68bd
00000100: 57e2 89bd 9ff8 ecbc fa16 11be 931f 4dbd
00000110: c3e6 b53f 75bc d6bd 3003 cf3c 3def a1bd
00000120: 510e b1bc a958 64bd daa0 8b3f 2521 72bd
00000130: 0000 0000 4ac8 e73b 6bbe 943f d416 9d3f
00000140: c290 1fbc 1c2b a23f 4a87 ae3f 3c76 3ebd
00000150: 552c 00bd 5ca1 f73e e0eb 12bc a4a1 56bb
00000160: 4286 a73e 6ea1 a9bc ab43 73bd 87c0 74bc
00000170: c733 c93c 2552 8f3e eeed 86bd 6d63 08bd
00000180: 80e0 b73f 7056 9d3e db29 71bd 9cc8 28bc
00000190: c560 8abc 478d cabd cd09 283f 2ba9 0f3d
000001a0: 90a2 8fbd bae7 d73b 7717 aabb 69b3 85bb
000001b0: c02c 6e3f bc47 9dbc 5884 f4bc 0000 0000
000001c0: 6b3a a03d 1ebb 663c 6799 2bbd f7ee 2dba
000001d0: 8ecf 273c 1a79 b9bc 9ea7 50bb 0e9f 17be
000001e0: 7e3b dbbc 7bc0 b23f bb38 2fbd 613e 59bd
000001f0: 69ba 80bd 12c2 c63b 6cc3 4cbc 89b8 9b3c
00000200: b085 5abd 278d 7e3f 7298 d8ba 18d2 32bd
00000210: 304d e0bd 9caa 80bc 84e9 86bd 9347 07bd
00000220: b12e 3fbd d1d5 54bd 0f92 8ebd 84d5 e1bc
00000230: 5f96 3abc 99e3 55bd c98e 86ba 450e 5fbc
00000240: 640f b4bb 7341 adbc 0000 0000 f2dd 2bbd
00000250: d174 033e 0ea1 36bd 3d1f ea3d 40d3 36be
00000260: b7d7 c6bd d86b 7bbc 2210 55be 3f8c 513c
00000270: 87cb 6dbd 7078 0fbd 64b5 3a3c 39bd 4ebc
00000280: 108d 8b3c b84f f9bc 942f 2d3c 509b 3dbd
00000290: 5b17 6e3f f46e 3fbe 0000 0000 739c c8bb
000002a0: 7750 043d 5edb 173f 2566 273d 5089 3cbd
000002b0: 5668 16bb e565 9dbd 1036 b93b e3a4 28bd
000002c0: a720 13bb 4966 163f 1cb7 82be f4ed 903f
000002d0: b17c 30be 0000 0000 1ef3 45bd 167c c0bb
000002e0: ca2e 1bbe 6147 58bd ed71 d33c 5088 75bd
000002f0: 8249 c83c 80ef a0bb 2a94 35bd 9a8e 15bc
00000300: cddd 5fbd 1ee3 8bba 8b68 f0bd a0e1 813e
00000310: 46cb 8cbc 2979 17bc e796 0cbd 2e85 5ebd
00000320: 85d0 37bd 8f0b 84be 5374 49bd 3d33 ffbd
00000330: f46c efbd 0000 0000 2f24 48bf 9352 853c
00000340: 0000 0000 0000 0000 1665 f8ba 33c6 8a3b
00000350: c120 2abc 036a 933f 96e2 46bd 4c3a 78bd
00000360: 89d5 a33f b735 20bd ba5b 6ebd 0293 0bbd
00000370: 218b f83e ec9a e63b 127a 16bc 3b6e e0bc
00000380: ae5e babc 8e15 173e bcb6 63bc fed5 d3bc
00000390: 09fd a2bd 238c 6abd 1eb1 3ebd e935 843e
000003a0: 0055 57bd 4ddb d73a 69e7 a0ba 5bd9 673c
000003b0: 823d 31be f82b 49bd a7dc 5fba ab49 5dbd
000003c0: aedb 2cbb 558d 92bc 6094 4abd cd3a 34bb
000003d0: 6a40 a7bd cf2a ca3b 8ede 0dbd d436 1dbd
000003e0: eab8 85bd 6218 43bd ef9a ba3f e2c6 0d3f
000003f0: 425f 05bd fd76 74bc 1c6d dabd a41c 9b3b
-0.046635818 -0.016040884 -0.08977932 -0.039388426 -0.018660758 -0.07746049 0.037708808 -0.037512913
1.0948658 -0.014481149 -0.025189295 1.3763022 -0.0009658878 0.0 1.310317 -0.0022018778
-0.21120836 -0.059202306 -0.013076435 0.00057496707 0.011690284 -0.020325232 -0.22331947 -0.010379306
-0.15106332 -0.058734942 -0.0027022243 1.2955089 -0.0030485075 -0.023020826 -0.016273856 -0.054727163
-0.045153704 -0.054226317 -0.17948796 -0.014604416 0.13041882 -0.03351226 -0.03757838 -0.006624432
-0.0034287195 -0.002878761 -0.0068166605 -0.002943255 -0.0068947035 -0.03790517 -0.1183671 -0.0041685505
-0.09540378 0.69416213 0.00012664266 -0.036931694 -0.035343178 -0.011333274 0.0014682049 1.0461084
0.0005668753 -0.038958963 -0.039787892 -0.10770402 -0.041556004 -0.011939385 -0.12554441 -0.056874387
-0.06732624 -0.028927146 -0.14168921 -0.05007894 1.4211048 -0.10485164 0.025270075 -0.07906959
-0.021613272 -0.055748615 1.0908463 -0.05911364 0.0 0.007073437 1.1620611 1.2272592
-0.009739103 1.2669406 1.3635037 -0.046499476 -0.03129228 0.48365295 -0.00896737 -0.0032750154
0.32719618 -0.020706858 -0.059390705 -0.01493848 0.024560822 0.2799236 -0.0658835 -0.033297945
1.4365387 0.3073001 -0.058877807 -0.010301735 -0.016891846 -0.09890228 0.65639955 0.03507344
-0.07013428 0.0065889033 -0.0051907855 -0.0040802252 0.93037033 -0.019199245 -0.029848263 0.0
0.07823642 0.014082698 -0.041894343 -0.0006635035 0.010242356 -0.022640754 -0.003183819 -0.14806768
-0.026761767 1.396499 -0.04277871 -0.053038005 -0.06285555 0.0060656155 -0.012497764 0.019008892
-0.05335015 0.9943413 -0.0016524924 -0.043657392 -0.10952222 -0.015706353 -0.06587508 -0.033027243
-0.046675388 -0.051961724 -0.06961452 -0.027567632 -0.01138839 -0.052219007 -0.0010265942 -0.013614242
-0.005494999 -0.021149373 0.0 -0.04195971 0.1283753 -0.044587187 0.114317395 -0.17854023
-0.09709113 -0.015345536 -0.20806935 0.012789785 -0.058055427 -0.035026968 0.011395786 -0.012618356
0.017035037 -0.03043352 0.010570426 -0.046290696 0.9300439 -0.18694669 0.0 -0.006122166
0.0323033 0.593191 0.040868897 -0.04602939 -0.0022950373 -0.076854505 0.0056521967 -0.041172873
-0.0022449882 0.58749825 -0.25530326 1.1322618 -0.17235066 0.0 -0.048327558 -0.005874167
-0.15154567 -0.052802447 0.02581116 -0.05994445 0.024449114 -0.004911363 -0.044330753 -0.009128237
-0.054654885 -0.0010672545 -0.1173869 0.2536745 -0.017186772 -0.009245195 -0.0343236 -0.05432623
-0.044876594 -0.25790069 -0.0491832 -0.12460945 -0.11690703 0.0 -0.7818021 0.016274726
0.0 0.0 -0.0018951024 0.004235053 -0.010383786 1.1516727 -0.048555933 -0.06060247
1.2799541 -0.039113726 -0.058192946 -0.034075744 0.48543647 0.007037511 -0.009184377 -0.027396312
-0.022750225 0.14754316 -0.013898548 -0.025858875 -0.07958419 -0.05726255 -0.04655563 0.2582238
-0.052571297 0.0016468555 -0.0012275997 0.014150943 -0.1730862 -0.049114197 -0.00085396547 -0.054025333
-0.0026376056 -0.017889658 -0.049457908 -0.0027500868 -0.08166583 0.006169654 -0.034636073 -0.038382366
-0.0652941 -0.047630675 1.4578532 0.55381596 -0.032561548 -0.014920947 -0.10665342 0.004733639

final_linear.weight f4 [50, 256]
00000000: 50cd b93e e1ac 8b3e 0f82 cb3e 54a4 d63e
00000010: 891d a23e c992 e73e 76ec b83e d14d be3e
00000020: adf8 0a3f d861 c13e 8dc8 6d3e cd8c 12be
00000030: 1991 edbc 9b88 843d 8b0b 8abe aabd 2e3d
00000040: 8381 0f3f cc99 fb3e a0d1 af3e 492c 9c3e
00000050: f8bc f63e 60b1 d83e 0a3b 063f 6ac8 c03e
00000060: 2529 8e3e 3403 cc3e ae3d 3cbe bf09 e1bd
00000070: 024b db3e 6c59 d83e dbab b53e 8605 053f
00000080: c487 dc3e 36ed df3e a8e7 193f ac4b 963e
00000090: 6007 373f 5951 5a3e d86d b23e 1e2f be3e
000000a0: 503d be3e 63ca d53e bdf4 a83e b76e dfbd
000000b0: d9d7 dabd 432d c43e 4ea8 c53e 83e0 923e
000000c0: 699a 4e3e 99e6 593f a906 e83e ed52 ce3e
000000d0: 9bf6 0a3f 2b90 913d b1ae d93e 7abc 35be
000000e0: 7031 9b3e 9a3f 523e e32b bd3e 3a9e 7e3f
000000f0: a861 b73e 920f ed3e 9e57 893f 5e37 413e
00000100: ec4a 153f b944 cd3e defc da3e 6deb b93e
00000110: 54c2 40be 95ca 673f 896e 6a3e 3d94 bd3e
00000120: fd58 d03e 29a3 a63e 0db1 c93e 0818 d23e
00000130: c85d 9e3d 7a14 dc3e 7fb8 21be c940 c1bc
00000140: b11c ef3e 516d 55bd 8efd 99bd 7421 e33e
00000150: f5d8 ba3e 6185 ab3e 72a4 d23e fae4 9a3d
00000160: 83c3 ae3e 5a68 f03e 8fbf af3e 155a dc3e
00000170: 5df7 bf3e 82d0 593f 13ad e63e 1749 fb3e
00000180: 460a 8dbe ddef b43e 4c73 bd3e b95b 5abd
00000190: d851 fdb9 be55 a63e 3450 7b3f d7f7 323e
000001a0: 37a2 a93e 1989 013f 450e c63c 71a2 dd3e
000001b0: c7e0 06be cdfc 063f 5750 e03e 17b2 cb3d
000001c0: d491 973f 85db cc3e 73bc c83e 8ce7 ff3e
000001d0: e752 0a3f 3cd1 0f3f fc5b f13e 705d 153f
000001e0: 86ab 973e a8fb 6cbe 2d56 bd3e b3e9 e43e
000001f0: 8941 c73e 2443 fc3e fb02 493f a2f0 b83e
00000200: 65a9 973e 7f89 d53e c8a6 b03d 44cb d83e
00000210: 5f98 e83e ada9 d53e cbdb 833e edd4 fb3e
00000220: 237f e53e 55de d63e f7bf 853e 23aa b53e
00000230: 1e52 8d3e 6951 a53e dd6d c33e 420c 033f
00000240: 024c 563e ad53 793e 080a 36bd 5efe 823e
00000250: bcf0 233f ef8c bd3e b1f0 933f 9db5 143f
00000260: e20c ea3d 7a9d 123f 2c09 033f 3433 a83e
00000270: ca57 0b3f e2d7 9a3e 445e cc3e 67ab ad3e
00000280: c111 343d cc93 043f b6fc b2bc ff2f d83e
00000290: 33b3 81be e2c9 0e3e 1bce 01bc b29a e63e
000002a0: d770 3dbd 9706 aa3e ea94 b43e 22fa b13e
000002b0: 82d1 fe3c b547 e93e 4f10 ee3e 0df3 ab3e
000002c0: dc67 ca3e 91c3 a7bd 1fe7 fc3e 2236 2fbe
000002d0: 3b62 d23e e30e 903c 74dd c13e 316b ee3e
000002e0: f8c9 473f 052b 633e 8210 7cbc c19a d03e
000002f0: 9a1a ff3e 3cc7 bcbd 28b3 943e 161f 853e
00000300: af17 db3e a070 9e3e 8d01 b53e 42c8 a03e
00000310: d529 d33e 1763 e43e d955 e73e f7f3 c83e
00000320: ea71 cc3e a9e5 bb3e 3c65 a83e 68fb 3d3d
00000330: 352c 233f 0f22 8d3b e43a a43e 7056 ea3e
00000340: 858f 113e 1a24 4a3c ff68 573e ca41 bf3e
00000350: a868 4ebd 1ccf 19be 923a e73e dd19 dc3e
00000360: f407 a2be 6547 9b3e fb42 aa3e 95ee b63e
00000370: 4222 1dbe 5234 6f3d 736a d73e d8fc cd3e
00000380: 059c b83e 6b54 c93e 732a b13e 3083 bb3e
00000390: 8ad1 0c3f 52b5 773e d90f c73e 7475 8a3f
000003a0: 823e c73e 4523 08bd 0e41 dd3e 5007 af3e
000003b0: 9823 1c3f d119 8a3e 8b52 df3e 13b2 c73e
000003c0: a46f d43e 9526 ed3e bba0 8c3e 39e7 a23e
000003d0: b47a 813e 46b9 c53e 420d 063e 4eac d03e
000003e0: 284f f83e 96d6 513e a2dc 87be 411c 1b3f
000003f0: ea63 c33e c9d0 d33e 9054 ae3e 7d70 c43e
0.36289454 0.27280334 0.39747664 0.41922247 0.3166316 0.45229176 0.36117905 0.37168744
0.542857 0.3776996 0.23221035 -0.14311524 -0.028999852 0.06471368 -0.26961932 0.042661346
0.56056994 0.49140775 0.3433962 0.30502537 0.48191047 0.42322826 0.52433836 0.37652904
0.27765766 0.39846194 -0.18382904 -0.10988187 0.42830664 0.42255723 0.35482678 0.51961553
0.4307233 0.43735665 0.60119104 0.29354608 0.7149563 0.21320094 0.3484943 0.37145323
0.37156153 0.4175597 0.3299922 -0.10909789 -0.10685701 0.38315782 0.3860497 0.28686914
0.2017609 0.8511749 0.4531758 0.40297642 0.5428254 0.07107576 0.4251609 -0.1774768
0.30311155 0.20532075 0.36947545 0.99460185 0.35816693 0.46300942 1.0729864 0.18868777
0.58317447 0.40091494 0.42771047 0.36312428 -0.1882413 0.9054349 0.22893728 0.3702716
0.40692893 0.32546356 0.39392892 0.4103396 0.07732731 0.42984372 -0.15793036 -0.023590462
0.46701577 -0.052106205 -0.07519065 0.4436146 0.3649365 0.33500198 0.41141087 0.07563205
0.3413354 0.46954614 0.34325835 0.43037477 0.3749341 0.8508378 0.4505392 0.490792
-0.275469 0.3533925 0.37002027 -0.05331013 -0.000483169 0.3248729 0.98169255 0.17477356
0.33131573 0.5059982 0.024176726 0.43287995 -0.13171683 0.52729493 0.43811294 0.09946077
1.1841378 0.4001123 0.39206275 0.49981344 0.5403275 0.5617864 0.4714049 0.583457
0.2962305 -0.23142874 0.3697981 0.44709548 0.38917187 0.49269974 0.7852017 0.36121088
0.29621425 0.41706464 0.08625561 0.4234258 0.4542875 0.41731015 0.25753626 0.49185887
0.4482356 0.419665 0.2612302 0.35481367 0.27601713 0.32288674 0.38169757 0.5119058
0.20927432 0.24348326 -0.04444316 0.25584692 0.64039207 0.37021586 1.1557828 0.5808962
0.114282385 0.5727154 0.5118587 0.32851565 0.5443083 0.3024283 0.3991567 0.33919832
0.043962244 0.5178802 -0.021849018 0.42224118 -0.2533203 0.139442 -0.0079226745 0.45039898
-0.04625019 0.33208153 0.35269862 0.3476115 0.03110576 0.4556252 0.46496817 0.3358387
0.39532363 -0.08191598 0.4939508 -0.17110494 0.4109057 0.017585224 0.37864268 0.46566156
0.78042555 0.2218438 -0.015384795 0.40743068 0.49824983 -0.092176884 0.29042935 0.2600028
0.42791507 0.309453 0.35352746 0.31402785 0.41242853 0.4460685 0.45182684 0.3924863
0.3993066 0.36698654 0.32889736 0.046382338 0.6373933 0.0043070386 0.3207618 0.45769072
0.14214905 0.012337709 0.21036147 0.3735488 -0.050392777 -0.15020412 0.45161873 0.42988482
-0.31646693 0.30327907 0.33254227 0.357289 -0.153451 0.058399506 0.42073402 0.40231967
0.36056533 0.39322218 0.346027 0.36623526 0.5500723 0.24190262 0.38879278 1.0817094
0.38914877 -0.03323676 0.43213695 0.34185266 0.6099181 0.2697282 0.43617663 0.39003047
0.41491425 0.46318498 0.27466378 0.31817034 0.25288928 0.38617915 0.13090995 0.40756458
0.4849789 0.20492014 -0.26535517 0.6058999 0.38162166 0.41370228 0.3404889 0.38367072

final_linear.bias f4 [50]
00000000: e0e6 873e c744 393f bca5 833e 3631 513e
00000010: bc86 803e 1405 d83e da27 493e 81e4 023f
00000020: 654b 803e d967 be3e f7d6 633e ea3b 163f
00000030: 4cb6 953e 876a 053f 250c 1e3e 584b 023f
00000040: b811 873e ad1d f83e dd73 b73e ced0 043f
00000050: 0f45 403c 9ae5 203f cc15 1c3f 7df5 363f
00000060: b4c5 303f b60c 123f 3d14 673f fa3c 393f
00000070: 4de8 313f 6dbb 0e3f 54ea 083f eff2 633f
00000080: e055 163f dbd5 013f b83d 3e3f f243 353f
00000090: f6e1 ed3e 4d26 613f a7f2 663f b59b 453f
000000a0: d670 1e3f 0caa 763f 3f44 513f 3b7d a03f
000000b0: 5b49 7d3f e460 5f3f 1510 c83f c031 963f
000000c0: bcee b53f 5763 b43f
0.2654333 0.7237057 0.25712383 0.20428929 0.25102794 0.42191374 0.19644108 0.5112992
0.2505752 0.37188604 0.22249971 0.5868517 0.29240644 0.5211567 0.1543432 0.50896215
0.26380706 0.4846014 0.35830584 0.5188111 0.011735215 0.62850344 0.6097076 0.71468335
0.6905167 0.57050645 0.90265256 0.7235867 0.6949509 0.5575474 0.53482556 0.8904256
0.58724785 0.5071694 0.74312925 0.708068 0.46461457 0.8794907 0.9021401 0.77190715
0.61890924 0.9635322 0.8174476 1.2538217 0.98940057 0.8725722 1.5629908 1.1733932
1.4213481 1.4092816
