option_hedging/hyperparameters/dqn_hyperparameters/vanilla/year/0.0/best_dqn_model.pth (torch, 163860 bytes, 8 tensors)

linear1.weight f4 [128, 3]
0	0xbfdc248b	-1.7198652
1	0x3e8c069d	0.27348796
2	0xbe88aeef	-0.26695964
3	0xbbfd2778	-0.0077256523
4	0xc00fc311	-2.246281
5	0x3de73f08	0.11291319
6	0xbfb7c5e1	-1.4357263
7	0xbeeff7de	-0.46868795
8	0x3ca8ba2c	0.020596586
9	0x3e932ef3	0.28746757
10	0xc06c1453	-3.6887405
11	0x3f43cab9	0.76481205
12	0xbf84664c	-1.0343719
13	0x3fee170c	1.8600783
14	0xbe5cc6c8	-0.21560204
15	0xbea47b90	-0.3212552
16	0x3fbb95a8	1.4655046
17	0x3ec75cdf	0.38938043
18	0xbfb15f1a	-1.3857148
19	0x40170286	2.359529
20	0xbeb3c258	-0.3510921
21	0xbf5a4139	-0.8525577
22	0xbce29b65	-0.027661989
23	0xbf696209	-0.91165215
24	0xbcf714d5	-0.0301613
25	0x3ff8520b	1.9400038
26	0xbf14d59b	-0.58138436
27	0xbd69ae6f	-0.05705112
28	0xbfdc1fe6	-1.7197235
29	0x3ec3d448	0.38247895
30	0xbf7ba90e	-0.9830483
31	0x3ff44dee	1.9086282
32	0xbee9412c	-0.45557535
33	0xbf80a3e2	-1.0050013
34	0xbf302844	-0.6881144
35	0xbe8234f6	-0.2543103
36	0xbee82d27	-0.45346949
37	0x4025c538	2.5901623
38	0xbf927072	-1.1440566
39	0xbf80b757	-1.0055951
40	0x3fc0fff3	1.507811
41	0xbee7aa49	-0.45247105
42	0xbeebcbe1	-0.46053985
43	0x3fd321f3	1.6494735
44	0x3e056606	0.130272
45	0x3d4aad11	0.049481455
46	0xc017b471	-2.3703883
47	0x3dfba6bf	0.12287664
48	0xbf77b96c	-0.96767306
49	0x40037ff8	2.0546856
50	0xbe0da2fd	-0.13831706
51	0xbf90d8c2	-1.1316149
52	0xbeac7184	-0.33680356
53	0xbd9377c6	-0.07200579
54	0x3e2ead31	0.17058255
55	0xc0043725	-2.0658658
56	0x3d40ea87	0.047098663
57	0xbe1c941e	-0.15290877
58	0xc001f304	-2.0304575
59	0x3e78b1c6	0.24286565
60	0xbf937c00	-1.1522217
61	0x4000116d	2.0010636
62	0xbefec39b	-0.4975861
63	0xbfc3d013	-1.5297874
64	0xbecd121e	-0.40052885
65	0xbd86c105	-0.06579784
66	0xbd5e14ea	-0.054219164
67	0xbfe85eba	-1.8153908
68	0x3ecb7223	0.39735517
69	0xbe5e14d5	-0.21687634
70	0x3faa4c4d	1.3304535
71	0x3f51f2c6	0.8201107
72	0xbf869ea6	-1.0517166
73	0x40165a48	2.3492603
74	0xbeb5a38f	-0.35476348
75	0xbf5acc8f	-0.8546838
76	0x3eba688b	0.36407885
77	0xbdbb9abd	-0.09160373
78	0x3e965e15	0.29368654
79	0xbffd934c	-1.9810576
80	0x3e9306d4	0.28716147
81	0xbe5bb528	-0.21455824
82	0xbfa9c512	-1.3263266
83	0xbedd2f81	-0.43200305
84	0xbf9e0de5	-1.234799
85	0x400fb60a	2.2454858
86	0xbe62f08e	-0.22162077
87	0xbec3b4ea	-0.38223964
88	0x3fe49c63	1.7860225
89	0x3e6cb8e9	0.23117413
90	0xbd8dc19f	-0.06921696
91	0x4068a785	3.6352246
92	0xbeb699d1	-0.35664228
93	0xbf7ed1a2	-0.99538624
94	0xbe88c7db	-0.26714978
95	0xbf116b15	-0.5680402
96	0xbfa8ba8a	-1.3181927
97	0xbedcc707	-0.43120596
98	0xbe40fff4	-0.18847638
99	0xbf96e4d8	-1.1788588
100	0x3e64948e	0.22322294
101	0xbdba3831	-0.09092749
102	0xbf97c550	-1.185709
103	0xbecbd79b	-0.3981293
104	0xbf0211e4	-0.5080855
105	0x3ea6df55	0.32592264
106	0xbffc1aeb	-1.9695715
107	0x3cf09952	0.029369984
108	0xbfdcc706	-1.7248237
109	0xbecc6359	-0.39919546
110	0xbd63a5c9	-0.055578027
111	0xbfbc02e3	-1.4688381
112	0x400b8ec0	2.1805878
113	0xbe8e7758	-0.27825427
114	0x3e586420	0.21131945
115	0x3f8037bf	1.0017012
116	0xbf1b7e6f	-0.607398
117	0xbfb7c657	-1.4357404
118	0x4006cbc0	2.106186
119	0xbe62ab20	-0.22135592
120	0xbd8147c5	-0.06312517
121	0x3fc09e2c	1.504827
122	0x3f1c88ab	0.6114604
123	0x3e0e46a5	0.13894136
124	0xc00e976b	-2.2279918
125	0x3d7680f1	0.06018156
126	0xbfaa35e0	-1.3297691
127	0xbebd1370	-0.36928892
128	0xbf1b1c4b	-0.60590047
129	0xbf03d69d	-0.5149935
130	0x403a9727	2.9154756
131	0x3ee75239	0.45179918
132	0xbff91b4b	-1.9461454
133	0xbd1544aa	-0.036442436
134	0xbdcdabef	-0.10042559
135	0xbfe4b4ae	-1.7867639
136	0xbeaadbaf	-0.3337073
137	0xbe13f967	-0.14450608
138	0xbf85506e	-1.041517
139	0x40026236	2.0372443
140	0xbef7da2b	-0.48408636
141	0xbfe9eb7d	-1.827499
142	0xbe82e8dc	-0.25568283
143	0xbdfb874f	-0.122816674
144	0xbf99bc05	-1.2010504
145	0x4044c988	3.0748005
146	0xbf2146d7	-0.6299872
147	0xbfa6e821	-1.303959
148	0x3fc65254	1.5493875
149	0xbe1eeb23	-0.15519385
150	0xbf9cda1f	-1.2254065
151	0x4021e097	2.5293329
152	0xbeb77791	-0.3583341
153	0xbf8bfeab	-1.0937093
154	0xbf12e394	-0.57378507
155	0xbf1765db	-0.59139794
156	0xbf25b9b4	-0.64736485
157	0x3fe7efa0	1.8120003
158	0xbe534218	-0.20630682
159	0xbff7f435	-1.9371401
160	0xbf63a87a	-0.8892895
161	0x3e16c067	0.14721833
162	0xbfa12224	-1.2588544
163	0x4019ab3b	2.401076
164	0xbe8f744c	-0.28018415
165	0xbf5bcbe4	-0.8585799
166	0xbffc1016	-1.9692409
167	0x3c57ee0e	0.013179315
168	0x3e32fd26	0.17479381
169	0xbfebda1f	-1.842594
170	0x3e0349b3	0.12821083
171	0xbeeb960f	-0.46012923
172	0x3f435b96	0.76311624
173	0x3eb0461e	0.34428495
174	0xbe205ece	-0.15661165
175	0x3e2de1f3	0.16980724
176	0xbbfd8396	-0.0077366335
177	0x3db5fc6b	0.088860355
178	0xc00eb447	-2.2297533
179	0xbeb76137	-0.35816357
180	0xbf9ac0fb	-1.2090143
181	0xbeccd7de	-0.40008444
182	0xbec1b819	-0.37835768
183	0xbe896942	-0.26838118
184	0x3fd6a2b8	1.6768408
185	0x3eb45da5	0.35227695
186	0x3e80f531	0.25187066
187	0xc01a39c8	-2.4097767
188	0x3ee7d296	0.45277852
189	0x3f214774	0.62999654
190	0xc00af31a	-2.1710877
191	0xbcc37e4f	-0.02386394
192	0xbf8c9d78	-1.0985556
193	0xbee50946	-0.44733638
194	0xbef9804e	-0.487307
195	0x3dfa1951	0.1221186
196	0xbff6ca96	-1.9280574
197	0x3ea72625	0.3264629
198	0xbed57edc	-0.4169835
199	0xbf9b4c98	-1.213275
200	0x3e82e681	0.25566486
201	0xbf78c079	-0.9716869
202	0xbf90e18d	-1.1318833
203	0xbf1be45b	-0.6089532
204	0xbfb87553	-1.4410805
205	0xbe575a2c	-0.21030492
206	0xbd64edff	-0.055891033
207	0xbf629463	-0.8850767
208	0x3fdd54d9	1.7291518
209	0xbe01504d	-0.12628289
210	0xbf9742c4	-1.181725
211	0xbebf45a8	-0.3735783
212	0xbd59fc30	-0.05321902
213	0xbf7a538b	-0.97783726
214	0xbec1702e	-0.377809
215	0xbd22dddb	-0.03976236
216	0xbe594a75	-0.2121981
217	0x3dfd77b6	0.12376349
218	0xbcb15033	-0.021644687
219	0xbf6cc274	-0.9248421
220	0xbf7caa5b	-0.9869744
221	0xbf1f8651	-0.62314326
222	0xbc7b1906	-0.01532579
223	0xbfc43168	-1.5327578
224	0x3eddfa23	0.43354902
225	0xbfb21f1e	-1.3915746
226	0x3fb4a75f	1.4113578
227	0xbe240ee2	-0.16021302
228	0xbfa3c044	-1.279305
229	0x4011b03b	2.2763813
230	0xbe874a33	-0.26423797
231	0xbfbde492	-1.4835379
232	0xbdc91026	-0.09817533
233	0xbe1ff55b	-0.1562094
234	0xbf60a69a	-0.87754214
235	0x3fcd45a0	1.6036873
236	0xbf129f81	-0.57274634
237	0xbf17927f	-0.5920791
238	0xbfdae56f	-1.7101268
239	0xbf08b171	-0.53395754
240	0xbf1eae5d	-0.6198481
241	0x40256804	2.5844736
242	0x3eba6d66	0.3641159
243	0xbf80a77e	-1.0051115
244	0x3e2e22b1	0.17005421
245	0xbf61a02a	-0.88135016
246	0x3eb97301	0.36220554
247	0xc02d8be5	-2.7116635
248	0x3f6b8ca9	0.92011505
249	0xbf88d189	-1.0688945
250	0xbe8c2b30	-0.273767
251	0xbf73c626	-0.95224226
252	0xbf9ebf6b	-1.2402166
253	0x3fac357e	1.3453825
254	0xbc960387	-0.018312229
255	0xbf3fabea	-0.74871695

linear1.bias f4 [128]
0	0x3bbab313	0.005697617
1	0x3f1f7eec	0.6230304
2	0xbe01c38d	-0.12672253
3	0xbde582da	-0.112065986
4	0xbdbe18b7	-0.09282058
5	0x3f450105	0.7695468
6	0xbd4ba958	-0.049722046
7	0x3e80a8ec	0.25128877
8	0x3e41bddc	0.18920082
9	0x3f232e6b	0.63742703
10	0x3f0a6e42	0.5407449
11	0xbd28be6d	-0.04119723
12	0x3ef0c4fc	0.47025287
13	0x3e0946e6	0.13405952
14	0x3f71b650	0.9441881
15	0x3f1dd293	0.61649436
16	0xbe53d9a7	-0.20688497
17	0xbe1f480c	-0.15554827
18	0x3f3eaa04	0.74478173
19	0x3f0accf1	0.54218966
20	0x3e820851	0.2539697
21	0xbde57baf	-0.112052314
22	0x3f1ac51c	0.60457015
23	0x3f2404b3	0.6406967
24	0xbe24a091	-0.16076876
25	0xbd1cb478	-0.038258046
26	0x3d9c575c	0.0763385
27	0xbc8cf506	-0.01720668
28	0xbe1bea8d	-0.15226193
29	0x3f5298cb	0.82264394
30	0xbe0e99b1	-0.13925816
31	0xbe4ad334	-0.1980713
32	0xbe887daf	-0.2665839
33	0xbd76ef64	-0.060286894
34	0xbe8763ef	-0.2644343
35	0x3f55cfcf	0.83520216
36	0xbdf695b1	-0.1204027
37	0xbda819fd	-0.08208082
38	0x3f9f38b3	1.2439178
39	0xbe03f733	-0.12887268
40	0x3ef32fbe	0.47497362
41	0x3f43e094	0.76514554
42	0xbe0a31c7	-0.13495551
43	0xbe9e7bec	-0.3095392
44	0xbdad9b7d	-0.08476923
45	0xbe06dc5b	-0.13169996
46	0x3d4653f4	0.048419908
47	0xbdc455e2	-0.09586693
48	0x3e89b242	0.26893812
49	0xbdd25759	-0.102705665
50	0xbe228222	-0.15869954
51	0x3c7623b5	0.015023162
52	0x3e30ac5a	0.17253247
53	0xbc7989e1	-0.015230627
54	0xbe1c1382	-0.15241817
55	0xbe20bcc1	-0.15697004
56	0xbe19443c	-0.14967436
57	0x3f44f151	0.7693072
58	0xbccfb04b	-0.025352618
59	0x3eef6ea0	0.46764088
60	0xbe90b5e2	-0.28263766
61	0x3f48b29c	0.78397536
62	0x3e273e0f	0.16332267
63	0x3f8851af	1.0649928
64	0xb9db757c	-0.00041858468
65	0x3e708849	0.23489489
66	0x3f171029	0.59009033
67	0x3e8dd9f4	0.27705348
68	0x3e388fff	0.1802368
69	0xbe281bca	-0.1641685
70	0xbe6340f1	-0.22192742
71	0xbea29118	-0.31751323
72	0xbbcb6b17	-0.0062078345
73	0x3d790c56	0.06080278
74	0x3f438343	0.76372164
75	0xbd97888e	-0.073990926
76	0xbde6aa3b	-0.11262938
77	0xbdd1f84a	-0.102524355
78	0xbe04ebf4	-0.12980634
79	0x3dd56dac	0.10421309
80	0xbf07d275	-0.53055507
81	0xbbea00d7	-0.0071412134
82	0xbec03e8f	-0.37547728
83	0xbdb19220	-0.08670449
84	0xbdc8a9f9	-0.09798045
85	0xbdce5f44	-0.10076764
86	0xbe3459bf	-0.1761236
87	0x3f29efb1	0.66381365
88	0x3f54e0a8	0.831553
89	0x3f321c87	0.6957478
90	0xbe9bc9f2	-0.3042751
91	0x3e052765	0.13003309
92	0xbe0c9589	-0.13728918
93	0x3ceda572	0.029009555
94	0xbe1366aa	-0.14394632
95	0x3f5169e4	0.818022
96	0x3ff5303a	1.9155343
97	0xbe11f38e	-0.14253065
98	0x3f174165	0.5908416
99	0x3ef19800	0.4718628
100	0xbdda605b	-0.106629096
101	0x3e7f5cae	0.24937698
102	0xbe888cd7	-0.26669952
103	0x3f2fcde1	0.6867352
104	0xbf0cc244	-0.54983926
105	0xbf2bba6d	-0.6708134
106	0xbf5210d9	-0.8205696
107	0x3f341cc0	0.7035637
108	0xbe7e8382	-0.24854854
109	0xbdc7b1b6	-0.097506925
110	0x3f2c1cc6	0.67231405
111	0x3c82995b	0.015942266
112	0xbd187831	-0.037224
113	0x3ef02652	0.46904236
114	0xbe72e293	-0.23719244
115	0x3f73c374	0.9522011
116	0x3f95a1c9	1.1689998
117	0xbd51bd6f	-0.05120605
118	0xbdcfd4d1	-0.101480134
119	0x3f63e5c2	0.8902246
120	0xbe34c0ea	-0.17651716
121	0x3e92fc1d	0.28707972
122	0x3f29f670	0.6639166
123	0x3f4090f9	0.7522121
124	0xbea5f51c	-0.32413566
125	0xbe37dfe1	-0.17956497
126	0xbeb610fb	-0.3555983
127	0x3ff66511	1.9249593

linears.0.weight f4 [128, 128]
0	0x3ecf0fc5	0.4044172
1	0x3c908f77	0.017646534
2	0x3f0a8f10	0.54124546
3	0xbde71160	-0.11282611
4	0xbe5822ed	-0.21107073
5	0x3e22027e	0.15821263
6	0xbdc41da6	-0.095759675
7	0x3e2f75a0	0.17134714
8	0x3e4c8452	0.19972351
9	0x3e869eb7	0.26292965
10	0xbf198259	-0.5996452
11	0xbf1e618e	-0.61867607
12	0x3e81630c	0.2527088
13	0xbee5049a	-0.44730073
14	0xbf31152e	-0.6917294
15	0x3b54f61e	0.003249533
16	0x3e0df7f1	0.13864113
17	0x3f304ceb	0.6886737
18	0xbc750b4f	-0.014956309
19	0x3ea5c4cf	0.32376716
20	0xbf0e048a	-0.55475676
21	0xbe3f2295	-0.18665536
22	0x3e50acb6	0.20378384
23	0xbe713c2a	-0.23558107
24	0xbe53c527	-0.20680676
25	0x3f280cef	0.65644735
26	0x3ef4be73	0.4780155
27	0x3d2645e4	0.040593997
28	0x3e020614	0.12697631
29	0xbd39ad9f	-0.045331594
30	0xbe96bcf2	-0.2944103
31	0x3f1695fb	0.588226
32	0x3ef3a019	0.47583082
33	0x3f3b6756	0.73204553
34	0x3f026d4a	0.5094801
35	0x3c5cb2d6	0.013470372
36	0x3eb3a782	0.35088736
37	0x3cffdadc	0.03123229
38	0xbee17b5b	-0.44039425
39	0x3e649e73	0.22326069
40	0xbf0f661a	-0.5601517
41	0x3dbab2a5	0.09116105
42	0x3f5cb5be	0.86214817
43	0xbe06766b	-0.1313111
44	0x3e145cef	0.14488576
45	0x3eaaa54a	0.3332923
46	0xbe1a36ab	-0.15059917
47	0xbeba67c1	-0.36407283
48	0xbeca12b8	-0.39467406
49	0xbf0896c2	-0.5335504
50	0x3d7bc1b3	0.061464023
51	0xbb77019d	-0.003769017
52	0xbf0d41a9	-0.55178314
53	0xbf14ba57	-0.5809683
54	0xbb7358b2	-0.0037131724
55	0xbe071bdb	-0.1319422
56	0xbf3cd015	-0.7375501
57	0xbf10e472	-0.5659858
58	0x3dc84b29	0.09779961
59	0x3dc8b90a	0.098009184
60	0x3f701dcc	0.93795466
61	0xbd36ff0f	-0.044676837
62	0xbd269e88	-0.04067853
63	0x3dbf1732	0.09330596
64	0x3f670c5b	0.9025323
65	0x3e88c050	0.26709223
66	0xbebc2439	-0.36746386
67	0xbebbc06b	-0.3667024
68	0xbe65e2fc	-0.22449869
69	0xbe07ba7c	-0.13254732
70	0x3eb7c279	0.35890558
71	0x3f1b3f8b	0.60643834
72	0xbc0f5f75	-0.008750786
73	0x3df67392	0.12033762
74	0x3e3bd861	0.18344261
75	0xbe7b7019	-0.2455448
76	0xbdeb6f97	-0.114958934
77	0xbe4b9ae5	-0.19883306
78	0x3dd2629c	0.102727145
79	0x3d864177	0.06555455
80	0xbdb6eee9	-0.08932287
81	0x3edd423c	0.43214595
82	0xbe2e265f	-0.17006825
83	0x3ecedfe9	0.40405205
84	0xbe278f60	-0.16363287
85	0x3e5b9937	0.21445166
86	0x3f1aaf03	0.60423297
87	0x3dd44b8f	0.10365974
88	0x3db5149c	0.088418216
89	0x3ed6410a	0.41846496
90	0xbe20490b	-0.15652864
91	0xbcd7a01a	-0.02632146
92	0x3e5561f6	0.2083815
93	0x3dfaedf0	0.12252414
94	0x3db75a4a	0.08952768
95	0xbd87a190	-0.066226125
96	0xc0432eb3	-3.0497253
97	0x3f27a410	0.65484715
98	0xbe920106	-0.28516406
99	0xbefde5b0	-0.495893
100	0x3ec98a1d	0.39363185
101	0x3d35140a	0.044208564
102	0x3d7c2a2a	0.06156365
103	0x3e699d7d	0.22813983
104	0xbf199970	-0.5999975
105	0xbe6b804d	-0.22998162
106	0xb9994f71	-0.00029241623
107	0xbdbc05e8	-0.09180814
108	0xbe02608d	-0.12732144
109	0xbe86fa0d	-0.2636265
110	0xbc2b8b5d	-0.0104702385
111	0xbe46849d	-0.19386525
112	0x3f213f87	0.6298756
113	0x3ce3d2b8	0.02781044
114	0xbcf4227c	-0.0298016
115	0xbf55c35f	-0.8350124
116	0xbf696d13	-0.9118206
117	0x3f333b43	0.700123
118	0x3d2c8c47	0.042125966
119	0xbf668a1d	-0.90054494
120	0xbd255bea	-0.04037086
121	0x3e27bc8a	0.16380516
122	0x3d1cb5be	0.03825926
123	0x3e627d66	0.22118148
124	0x3f6cb080	0.9245682
125	0x3f795101	0.9738923
126	0x3f61b191	0.8816157
127	0xc016e737	-2.3578622
128	0x3e594924	0.21219307
129	0x3d6d354d	0.05791216
130	0x3e255cc3	0.16148667
131	0x3ea85ae3	0.3288184
132	0xbc9b7f39	-0.018981563
133	0x3d95b6fe	0.073102936
134	0x3e2af685	0.16695602
135	0x3e2a4401	0.16627504
136	0x3ecb47b8	0.39703155
137	0x3c4c68c2	0.012476148
138	0x3d4fee7d	0.05076455
139	0x3e12b6a3	0.14327483
140	0x3d8a4ea9	0.067532845
141	0xbccbf496	-0.024896901
142	0x3e05cee6	0.13067207
143	0x3b8dc778	0.004326757
144	0x3e000fda	0.12506047
145	0x3edaf30c	0.42763555
146	0xbdd29dbd	-0.102839924
147	0x3d6e6e19	0.058210466
148	0x3d1aa169	0.03775159
149	0x3e9083d6	0.28225583
150	0xbdb5ae2f	-0.088711135
151	0xbd842ab9	-0.06453461
152	0x3e147c21	0.14500476
153	0x3f2d0a05	0.67593414
154	0x3e17ab45	0.14811428
155	0x3e18194d	0.14853401
156	0xbd0e5561	-0.034749392
157	0x3e12f163	0.14349894
158	0x3daa9d17	0.08330744
159	0x3ecf77ed	0.40521184
160	0x3ed29b71	0.41134217
161	0x3f4cfb15	0.8007062
162	0x3cb6f7c6	0.022334944
163	0x3df58916	0.11989038
164	0x3ea58159	0.32325247
165	0x3df66965	0.12031821
166	0xbd04ab27	-0.032389786
167	0x3dcadb0d	0.09905062
168	0x3ca76dc7	0.020438088
169	0xbcb307a4	-0.02185423
170	0x3ef3373f	0.47503087
171	0x3d89467d	0.06702898
172	0xbd385d29	-0.04501072
173	0x3e627191	0.22113635
174	0x3e5c144d	0.21492119
175	0x3be0c504	0.0068594236
176	0x3ea45a24	0.32100022
177	0xbe4e3671	-0.20137955
178	0x3e9c569e	0.30534834
179	0x3e9f3c6f	0.31100795
180	0x3e22be3d	0.15892883
181	0x3daeeb40	0.08540964
182	0x3e85eee2	0.26158816
183	0x3e0fad7b	0.14031021
184	0xbea5df4c	-0.32396924
185	0x3ecd2275	0.4006535
186	0xbd3c7207	-0.046007182
187	0x3e133a7b	0.14377777
188	0x3f229dd4	0.63522077
189	0x3e099444	0.13435465
190	0x3e78d2c6	0.24299154
191	0x3d3877c3	0.04503609
192	0x3ec9a074	0.3938023
193	0x3dd57172	0.104220286
194	0x3ee6a484	0.4504739
195	0x3df3d392	0.11905588
196	0x3e392151	0.18079115
197	0x3e2aaca5	0.16667421
198	0x3f5e40a1	0.86817366
199	0x3f716adf	0.943037
200	0x3d3d6386	0.04623749
201	0x3ea4ce29	0.32188538
202	0xbd83ff03	-0.06445124
203	0x3e1eca15	0.15506776
204	0x3df125c5	0.11774782
205	0x3d8c32de	0.0684564
206	0x3daff340	0.08591318
207	0x3bc0ce6a	0.0058839815
208	0xbdb037da	-0.08604403
209	0x3e28e41b	0.16493265
210	0x3d192b16	0.037394606
211	0x3e048261	0.1294036
212	0x3d95c14b	0.07312258
213	0xbc39efa6	-0.011348641
214	0x3e7458da	0.23862019
215	0x3d33a2f6	0.043856584
216	0x3e31c003	0.17358403
217	0x3d931f5c	0.07183716
218	0x3e83811d	0.25684443
219	0x3e87af84	0.26501095
220	0x3e6c7c0c	0.23094195
221	0x3e8c344c	0.2738365
222	0xb9a7943a	-0.0003196316
223	0xbce46a6b	-0.027882775
224	0xc018bdd2	-2.3865857
225	0x3f16bdb6	0.58883226
226	0x3dfa4e7f	0.12222003
227	0x3d6c550f	0.057698306
228	0x3e70c804	0.235138
229	0x3ebb4f28	0.3658383
230	0x3cb6b473	0.022302842
231	0x3db4bc2f	0.08824956
232	0xbe0ef9c9	-0.13962473
233	0xbd060b03	-0.032725345
234	0xbd8d9781	-0.06913663
235	0xbc609e9b	-0.0137096895
236	0xbdce6f85	-0.100798644
237	0x3e165456	0.14680609
238	0x3bf8aa31	0.007588648
239	0xbc2186ba	-0.0098587815
240	0x3f3fb57e	0.7488631
241	0x3e1e9e90	0.15490174
242	0xbdbb1680	-0.09135151
243	0x3db85192	0.08999933
244	0xbcf9caca	-0.030492205
245	0x3f5c52eb	0.8606402
246	0x3e4efb81	0.20213129
247	0xbf584a1e	-0.84488094
248	0xbd1e8da2	-0.03870929
249	0xbc9d864e	-0.01922908
250	0xbd0ca8a0	-0.0343405
251	0xbd1a10ef	-0.037613805
252	0x3ebdcc93	0.3707014
253	0x3f188f07	0.5959324
254	0x3eddc2a9	0.43312576
255	0xc01e54d1	-2.4739268

linears.0.bias f4 [128]
0	0xbd0d5877	-0.034508195
1	0xbe81043e	-0.2519855
2	0x3eba7c37	0.36422893
3	0x3e8f5f68	0.28002477
4	0xbe8ac72d	-0.27105084
5	0x3eba2401	0.36355594
6	0x3e215307	0.15754329
7	0x3ec3d892	0.38251168
8	0x3e2b21fd	0.16712184
9	0x3ed820ae	0.42212433
10	0x3cdc29ba	0.026875366
11	0xbbb8124d	-0.005617416
12	0x3d9cb2a9	0.07651264
13	0x3eca29e0	0.39485073
14	0x3b46ecac	0.003035347
15	0xbdbb1e91	-0.091366895
16	0x3f484c65	0.7824157
17	0x3f0e5cf8	0.5561061
18	0xbe3906e2	-0.18069032
19	0xbd0e5585	-0.034749527
20	0x3de1c75f	0.11024355
21	0x3e87a67a	0.264942
22	0x3dc548aa	0.09633
23	0x3d5eacf1	0.05436415
24	0x3f6d30dc	0.9265268
25	0x3e73a2bb	0.23792545
26	0xbcb474a1	-0.02202827
27	0x3d1136f0	0.035452783
28	0x3d323dea	0.043516077
29	0xbdca0164	-0.098635465
30	0x3da78531	0.08179701
31	0x3bdecfb3	0.006799662
32	0xbeab9635	-0.33513036
33	0xbe55ded2	-0.2088578
34	0x3e304c3a	0.17216578
35	0xbc08246b	-0.008309464
36	0x3e31e6b8	0.17373168
37	0x3cdf1d79	0.027235733
38	0x3f0eb3cc	0.557431
39	0x3d43dcc8	0.047817975
40	0x3df06e3d	0.11739776
41	0xbdae0f51	-0.08499015
42	0x3e8509d4	0.2598406
43	0x3dd5f652	0.104473725
44	0xbcad1f34	-0.021133043
45	0xbb2f425b	-0.0026742432
46	0x3ed0122b	0.4063886
47	0xbbd16add	-0.006390913
48	0x3c07737e	0.008267282
49	0xbc6b326c	-0.014355283
50	0x3ddcddab	0.10784467
51	0xbe14acd2	-0.1451905
52	0x3e41c677	0.18923365
53	0x3de907a4	0.113784105
54	0x3f416a3f	0.75552744
55	0xbdb0f99c	-0.08641359
56	0x3ddffc29	0.109367676
57	0x3ca2e6e0	0.01988548
58	0x3e184794	0.14871055
59	0x3e174447	0.1477214
60	0x3e5e7532	0.21724394
61	0xbddc3756	-0.10752742
62	0x3eb28f90	0.34875154
63	0x3f13ae53	0.5768787
64	0x3ea48d4c	0.3213905
65	0x3f2d003c	0.6757848
66	0xbcfb5c21	-0.030683579
67	0xbd270489	-0.04077581
68	0xbc8521be	-0.016251441
69	0x3c551b25	0.01300696
70	0xbe8a08dd	-0.26959887
71	0xbe19a51d	-0.15004392
72	0xbd96e7a9	-0.073684044
73	0x3e0b67f6	0.13613877
74	0x3da04ddc	0.078273505
75	0x3f17ff31	0.59373766
76	0xbda9d849	-0.08293206
77	0x3e5c22e4	0.21497685
78	0xbe10b8d4	-0.14133006
79	0xbddda5a4	-0.10822609
80	0x3e1f35f6	0.15547928
81	0x3d8881f6	0.06665413
82	0x3da24fee	0.07925402
83	0x3dff689f	0.12471127
84	0xbce46721	-0.027881207
85	0x3f350f49	0.7072645
86	0x3dfc3612	0.123150006
87	0x3d30d7a3	0.043174397
88	0xbe88f559	-0.26749685
89	0x3f653c6e	0.89545333
90	0x3e1016ca	0.14071193
91	0x3d0983bf	0.03357291
92	0x3f481952	0.78163636
93	0x3da8e350	0.082464814
94	0xbd918bba	-0.07106729
95	0xbe1277cd	-0.14303513
96	0x3b9d7c3c	0.0048060697
97	0x3e024090	0.12719941
98	0xbd9489a5	-0.07252816
99	0x3cbce692	0.023059163
100	0xbd1a2beb	-0.03763954
101	0x3f577d3a	0.84175456
102	0x3f2d2d4f	0.6764726
103	0xbe0b2a83	-0.13590436
104	0xbd104a18	-0.03522691
105	0xbd8e368f	-0.06944
106	0x3d2ef4e7	0.042714026
107	0xbe1a5f6a	-0.1507546
108	0x3ee2c888	0.44293618
109	0xbeaf3403	-0.3421937
110	0xbf30556b	-0.6888034
111	0x3d7edf00	0.062224388
112	0xbcc9bfd0	-0.024627596
113	0xbd215ec5	-0.03939702
114	0xbe314037	-0.17309652
115	0xbe1b2f3c	-0.15154737
116	0x3ca79e0f	0.02046111
117	0x3f0c2991	0.54750925
118	0xbe7b5f2a	-0.24548021
119	0x3ea5d6bd	0.32390395
120	0x3eb5b108	0.35486627
121	0x3f3af32d	0.73027307
122	0x3fadf454	1.3590188
123	0x3daa09cf	0.08302652
124	0x3f445338	0.7668948
125	0xbdc47604	-0.09592822
126	0x3fab9675	1.3405291
127	0x3d089fe5	0.033355612

linears.1.weight f4 [128, 128]
0	0x3f09d2c1	0.5383721
1	0x3e7f865a	0.24953595
2	0x3e8717b4	0.26385272
3	0x3eac8fff	0.3370361
4	0x3ea4f16b	0.32215437
5	0x3e919992	0.28437477
6	0x3ec89d6c	0.39182603
7	0x3ec8968e	0.39177364
8	0x3e7bd02d	0.24591132
9	0x3eaa6df3	0.3328701
10	0x3ed0351c	0.4066552
11	0x3e927aef	0.28609416
12	0x3e890654	0.2676264
13	0x3e47ce2c	0.19512242
14	0x3eb37267	0.3504822
15	0x3e0c1860	0.13681173
16	0x3e9e1c47	0.3088095
17	0x3e9c84a3	0.30569944
18	0x3e5e8728	0.21731246
19	0x3ece8db2	0.4034248
20	0x3ec63b65	0.3871719
21	0x3ea5b2c7	0.3236296
22	0x3e3468ca	0.17618099
23	0x3ed48701	0.4150925
24	0xbf570bd9	-0.84002453
25	0x3e3605fb	0.17775719
26	0xbe717fe1	-0.23583938
27	0x3e08aaab	0.13346355
28	0x3ea5df45	0.32396904
29	0x3e86eac2	0.2635098
30	0x3e3d62ec	0.18494767
31	0x3efb4c06	0.4908144
32	0x3edef887	0.43548986
33	0x3e8f4854	0.2798487
34	0x3e99d5ef	0.3004603
35	0x3ed4c0b7	0.4155328
36	0x3e906fb2	0.28210217
37	0x3e83f3b6	0.25771874
38	0x3ea0bef8	0.31395698
39	0x3e9ae800	0.30255127
40	0x3e8e21c5	0.2776014
41	0x3ed69e19	0.41917494
42	0x3ed5d735	0.41765752
43	0x3ebfddc5	0.37473884
44	0x3ee95c16	0.45578068
45	0x3eb59ab9	0.35469607
46	0x3ed28836	0.41119546
47	0x3ea22cb0	0.3167472
48	0x3e81bc9a	0.25339204
49	0x3ec6306b	0.38708815
50	0x3ed25e12	0.41087395
51	0x3ea0f2a3	0.31435117
52	0x3e3c207b	0.18371765
53	0x3edff1b1	0.43739083
54	0xbf3bb947	-0.73329586
55	0x3ed658dd	0.41864672
56	0x3ed5096a	0.41608745
57	0x3e80dd67	0.25168917
58	0x3ed9bfc5	0.4252912
59	0x3e7f29af	0.24918245
60	0x3eeddb88	0.46456552
61	0x3ee46505	0.44608322
62	0x3eba051a	0.36332017
63	0x3ee0e1ee	0.4392237
64	0x3e562f9d	0.209166
65	0x3e84828d	0.25880852
66	0x3c9777c4	0.018489726
67	0x3eb106e9	0.34575585
68	0x3ebb791a	0.3661583
69	0x3ddfcc5f	0.109276526
70	0x3ea5e905	0.32404342
71	0x3e84c236	0.2592942
72	0x3e84a4eb	0.25907072
73	0x3ecb04e2	0.39652163
74	0x3db00bd0	0.08596003
75	0xbfa764c9	-1.3077632
76	0x3ed611a9	0.4181035
77	0x3ec9ed47	0.3943884
78	0x3e4ba5d4	0.19887477
79	0x3e9ce61a	0.30644304
80	0x3eef2cc4	0.4671384
81	0x3e70ac20	0.2350316
82	0x3ea4b5d9	0.3216999
83	0x3ed032a2	0.4066363
84	0x3e4e50a0	0.20147943
85	0xbf8e4322	-1.1114237
86	0x3ecf2098	0.40454555
87	0x3e4b7a1f	0.19870804
88	0x3ed325c1	0.4123974
89	0xbf9270be	-1.1440656
90	0x3ef72a5a	0.482745
91	0x3e14a690	0.14516664
92	0x3e951ef7	0.29125187
93	0x3e81fa4c	0.25386274
94	0x3e8e0815	0.2774054
95	0x3e6e4e06	0.23271951
96	0xbc7f62ec	-0.01558755
97	0x3eee2418	0.46511912
98	0x3e14396a	0.14475027
99	0x3e47b75f	0.19503544
100	0x3eb3d8d3	0.3512636
101	0xbf42d549	-0.761067
102	0x3ec2a6c3	0.38017854
103	0x3d0b7650	0.03404838
104	0x3ebf24ef	0.37332866
105	0x3e312968	0.17300951
106	0x3eb31ddc	0.34983718
107	0x3e0860a9	0.13318123
108	0x3ead6951	0.33869413
109	0x3e943824	0.28949082
110	0x3ead6e43	0.33873186
111	0x3ea3780f	0.31927535
112	0x3e91e1b6	0.28492516
113	0x3eb482c7	0.35256025
114	0x3e8de84b	0.27716288
115	0x3eef7c35	0.4677445
116	0x3eb64e92	0.3560682
117	0x3e9259c6	0.28584117
118	0x3e8ca7cd	0.27471772
119	0x3ea15a9d	0.31514445
120	0x3e7b8aeb	0.24564712
121	0xbf5cd4e2	-0.86262333
122	0x3ef862d7	0.4851291
123	0x3ed411d5	0.41419855
124	0x3f0072fd	0.5017546
125	0x3e923971	0.2855945
126	0x3ee3d46d	0.44498006
127	0x3e929c9f	0.28635117
128	0x3ec573ab	0.3856481
129	0x3ec103d9	0.37698248
130	0x3ebdfb0d	0.371056
131	0x3f00522e	0.50125396
132	0x3ef31150	0.47474146
133	0x3e981c2e	0.29709
134	0x3ec51346	0.38491267
135	0x3e35dce7	0.17760049
136	0x3e5bd4f6	0.21467957
137	0x3f034c98	0.5128875
138	0x3ed5f11a	0.41785508
139	0x3eb81356	0.35952252
140	0x3e8c7fa5	0.27441135
141	0x3eabd75a	0.33562738
142	0x3e87d7d0	0.2653184
143	0x3ecac012	0.39599663
144	0x3ecda1d3	0.40162525
145	0x3ed38447	0.41311857
146	0x3dc805e5	0.09766749
147	0x3ec2a0b9	0.38013247
148	0x3ee88f97	0.4542205
149	0x3ee94d02	0.45566565
150	0x3eaec23e	0.3413257
151	0x3ef9f0e9	0.48816612
152	0xbf8a45da	-1.0802567
153	0x3e9205a2	0.28519922
154	0xbed06a0c	-0.40705907
155	0x3e0c68aa	0.13711801
156	0x3ed17c87	0.4091532
157	0x3e9a9268	0.30189824
158	0x3ed6e0e8	0.41968465
159	0x3e4a8905	0.19778831
160	0x3e98eaba	0.29866582
161	0x3e8f6589	0.28007153
162	0x3e9911e5	0.29896465
163	0x3eb85aba	0.3600672
164	0x3e9915e8	0.29899526
165	0x3f1dc5d3	0.6162998
166	0x3ede377c	0.43401706
167	0x3ee6b228	0.45057797
168	0x3e9b3eef	0.30321452
169	0x3edd14c9	0.4317992
170	0x3ef6fc5b	0.48239407
171	0x3f002d0c	0.50068736
172	0x3eb9d33b	0.3629397
173	0x3ea348ec	0.31891572
174	0x3ea1fa26	0.3163616
175	0x3e71c9e6	0.23612174
176	0x3e87b4c0	0.2650509
177	0x3f0f2a4a	0.55923903
178	0x3e6058ef	0.21908925
179	0x3e8c3ceb	0.27390227
180	0x3eb0fe7b	0.34569153
181	0x3e8d9e75	0.27659956
182	0xbf831aa5	-1.0242506
183	0x3ef172d7	0.47157928
184	0x3e6dff6d	0.23241968
185	0x3e490310	0.19630075
186	0x3eac4ce8	0.33652425
187	0x3ec88a2a	0.3916791
188	0x3eb32d07	0.3499529
189	0x3ea9221a	0.3303383
190	0x3eaf44a0	0.34232044
191	0x3ec01128	0.3751309
192	0x3dd6c4c6	0.1048675
193	0x3ede6107	0.434334
194	0x3ed8fea4	0.42381775
195	0x3eaad6d3	0.33367023
196	0x3ee52eea	0.44762355
197	0x3ebdf79c	0.37102973
198	0x3eb9957d	0.36246863
199	0x3ec6ac08	0.38803124
200	0x3ea0b11a	0.31385118
201	0x3efe57f1	0.4967647
202	0x3e789ce6	0.24278602
203	0xbfbffe79	-1.4999534
204	0x3ee511fb	0.4474028
205	0x3eb46501	0.3523331
206	0x3eb90739	0.36138323
207	0x3ef35d4e	0.47532123
208	0x3ea9b8fe	0.3314895
209	0x3eb85a6c	0.36006486
210	0x3e7a11e6	0.2442089
211	0x3ec7e362	0.39040667
212	0x3e984d3e	0.2974643
213	0xbfa637d6	-1.298579
214	0x3ea59435	0.32339635
215	0x3ece1823	0.4025279
216	0x3ead4331	0.33840325
217	0xbf923d78	-1.1425009
218	0x3ed33b69	0.41256264
219	0x3e8806ec	0.2656778
220	0x3e689554	0.22713214
221	0x3eed4764	0.4634353
222	0x3eb09dd1	0.34495404
223	0x3e9af5e9	0.3026574
224	0x3d896106	0.06707959
225	0x3e5c8d34	0.2153824
226	0x3e976580	0.29569626
227	0x3eb6c633	0.3569809
228	0x3f16ae91	0.5886012
229	0xbf58efb0	-0.84740734
230	0x3ecb0333	0.39650878
231	0x3d54b0d4	0.05192645
232	0x3ec78adf	0.38973138
233	0x3e57e7b0	0.21084476
234	0x3edd6796	0.43243092
235	0x3e9f0666	0.3105957
236	0x3eb23cd3	0.3481203
237	0x3e8ddc68	0.2770722
238	0x3e8f562e	0.27995437
239	0x3ee4c935	0.4468476
240	0x3edc7034	0.43054354
241	0x3ee7a241	0.45240977
242	0x3e80ad7c	0.25132358
243	0x3ec23568	0.3793137
244	0x3e928a6b	0.2862123
245	0x3e8f92d7	0.28041717
246	0x3ea7a8dd	0.3274602
247	0x3ef23812	0.47308403
248	0x3ebe0cc3	0.3711911
249	0xbf6871e7	-0.907988
250	0xbd8d3b66	-0.06896095
251	0x3e8e7a3b	0.2782763
252	0x3ec4a7b2	0.3840919
253	0x3eba79b0	0.36420965
254	0xbd773e32	-0.06036205
255	0x3ee7995d	0.45234194

linears.1.bias f4 [128]
0	0xbcf1ea0f	-0.029530553
1	0xbd1af7d0	-0.03783399
2	0x3c825f8f	0.015914707
3	0xbdb67b39	-0.089102216
4	0xbac4013a	-0.0014953979
5	0xbc82d443	-0.015970355
6	0x3d82ab3f	0.06380319
7	0xbc423f50	-0.011855915
8	0xbd87973c	-0.066206425
9	0xbd863f46	-0.06555037
10	0xbda4b892	-0.080430165
11	0xbd4fa4d0	-0.050694287
12	0x3d5f0f8d	0.05445819
13	0x3d05020a	0.032472648
14	0x3c760686	0.015016204
15	0xbcafa0d9	-0.021439003
16	0x3d0a3daa	0.033750214
17	0x3cc8b80b	0.024501821
18	0xbda050d8	-0.0782792
19	0x3d5d1aa1	0.053980473
20	0x3f7457d4	0.95446515
21	0x3bd75498	0.0065713637
22	0x3c5771a4	0.013149653
23	0x3f4b770c	0.79478526
24	0xbd505ec4	-0.050871626
25	0x3d524e2c	0.05134408
26	0xbc030b98	-0.00799837
27	0x3d138f37	0.036025252
28	0xbc507083	-0.012722137
29	0x3ea86dcc	0.32896268
30	0xbd2caa09	-0.042154346
31	0xbcd101e0	-0.02551359
32	0xbb34593c	-0.0027519008
33	0xbdbecd02	-0.09316446
34	0xbd6d2032	-0.057892032
35	0xbd8adc71	-0.06780327
36	0xbd67d4c9	-0.056599412
37	0xbd5b88db	-0.053597312
38	0xbd6ce6a2	-0.057837136
39	0xbda11f57	-0.07867306
40	0xbd36bbe2	-0.044612773
41	0xbd9824e4	-0.07428911
42	0xbd5143b5	-0.05108996
43	0x3ee017aa	0.43768054
44	0xbb3c2f0f	-0.0028714573
45	0xbd71c335	-0.059024055
46	0x3f972ffd	1.181152
47	0xbd2dc882	-0.042427547
48	0xbd2566ff	-0.040381428
49	0xbd812c19	-0.06307239
50	0xbd8f717c	-0.07004067
51	0xbc096381	-0.00838554
52	0xbd9526cf	-0.07282793
53	0xbcd37de1	-0.02581686
54	0x3f6da4df	0.928297
55	0xbd9978b0	-0.074937224
56	0xbd655ea9	-0.055998478
57	0xbd339f08	-0.043852836
58	0xbd1959ff	-0.037439343
59	0xbc4020ed	-0.0117266
60	0xbd8b8efd	-0.06814382
61	0xbd91375d	-0.07090638
62	0xbd42f8a9	-0.047600422
63	0x3f9b6f79	1.2143394
64	0xbc0dcd01	-0.008654834
65	0xbd4c2ca8	-0.049847275
66	0xbd7e78cc	-0.06212692
67	0x3facb486	1.3492591
68	0x3bc752b7	0.0060828584
69	0x3e119b9b	0.14219515
70	0xbd8ad170	-0.06778228
71	0x3e79e154	0.24402362
72	0xbdbc6c7d	-0.0920038
73	0xbcb86529	-0.022509174
74	0xbc89d628	-0.01682575
75	0xbd443283	-0.047899734
76	0x3e1c37de	0.15255687
77	0x3d103e47	0.035215642
78	0x3d0039dd	0.031305183
79	0xbd4be362	-0.049777396
80	0xbd985736	-0.07438509
81	0xbdaeb07f	-0.08529758
82	0xbd8da033	-0.06915321
83	0x3d610a0b	0.05494122
84	0x3d72c2d8	0.05926785
85	0xbd7a8d1c	-0.06116973
86	0xbd85b549	-0.06528718
87	0x3fa2b5fc	1.2711787
88	0x3c828445	0.015932212
89	0x3cdf503c	0.027259938
90	0xbda62261	-0.08112026
91	0x3f8f16c7	1.1178826
92	0xbd042e89	-0.032270942
93	0xbc580975	-0.0131858485
94	0x3d427195	0.0474716
95	0xbd7ff39e	-0.06248819
96	0x3dd50b12	0.10402502
97	0xbd844898	-0.06459159
98	0x3e858ab4	0.26082385
99	0xbc88e73e	-0.016711827
100	0xbd9c5677	-0.07633679
101	0xbcb28f8a	-0.02179696
102	0x3f836bc4	1.0267262
103	0xbd12c5eb	-0.03583328
104	0x00000000	0.0
105	0xbb9905dc	-0.004669888
106	0xbdb2e10c	-0.087343305
107	0x3e6d3387	0.23164187
108	0xbd8d6170	-0.0690335
109	0xbcd5ff08	-0.026122585
110	0xbd3b1162	-0.045670874
111	0x3eb1d71c	0.34734428
112	0xbc85ef39	-0.016349422
113	0xbd87775c	-0.06614563
114	0xbc211dae	-0.009833736
115	0xbcdd8a07	-0.027043356
116	0xbd1d463d	-0.038397063
117	0xbe8e8ad8	-0.27840304
118	0xbd75d57f	-0.06001806
119	0x3ec0ba28	0.37642026
120	0x3dfa3514	0.12217155
121	0xbd804338	-0.06262821
122	0xbd6bb09a	-0.057541467
123	0x3c6c4307	0.014420277
124	0xbbef63d5	-0.007305602
125	0x3fa0b51c	1.255527
126	0x3fb50754	1.4142861
127	0x3cc60a68	0.024174884

final_linear.weight f4 [51, 128]
0	0x3e9a1881	0.3009682
1	0x3e00e015	0.1258548
2	0x3db57e4e	0.08861981
3	0x3e995542	0.2994786
4	0x3e2187d7	0.15774475
5	0x3f16f176	0.5896219
6	0x3f170f6f	0.59007925
7	0x3ea3ff8e	0.3203091
8	0x3e8abeee	0.27098793
9	0x3e9f185a	0.31073266
10	0x3e04aced	0.12956591
11	0x3eb76a1b	0.3582314
12	0xbd3ce2db	-0.046114784
13	0x3ec87440	0.39151192
14	0x3e638a20	0.2222066
15	0x3d37e730	0.044898212
16	0x3ec63a6b	0.38716444
17	0x3ef3e0ab	0.47632346
18	0x3e589b07	0.21152888
19	0x3e34fc6e	0.1767442
20	0xbe0af2b8	-0.13569152
21	0x3eaafc8a	0.33395797
22	0x3ed417dc	0.41424453
23	0xbe305259	-0.17218913
24	0x389f0c88	7.584045e-05
25	0x3f0e5f48	0.5561414
26	0xbc232d3b	-0.009959514
27	0x3eca033d	0.39455596
28	0x3ed82aab	0.42220053
29	0x3f0def60	0.5544338
30	0x3e89fc9f	0.26950547
31	0x3ee3001e	0.44336027
32	0x3d520be3	0.051280867
33	0x3ead50db	0.3385075
34	0x3f0c3abb	0.54777116
35	0x3e41fa51	0.18943144
36	0x3eab1544	0.33414662
37	0x3d6f5d83	0.05843879
38	0x3e5441b8	0.20728195
39	0x3e93c2f5	0.28859678
40	0x3e8c2a2d	0.27375928
41	0x3ec62084	0.38696682
42	0x3e6aea60	0.2294097
43	0x3de67dc8	0.112544596
44	0x3e245384	0.16047484
45	0x3e9ac5cc	0.30229032
46	0xbec937cc	-0.39300382
47	0x3e097c8e	0.1342642
48	0x3ec4f15f	0.38465402
49	0x3ee6e541	0.45096782
50	0x3ec84479	0.3911474
51	0x3e818fb9	0.25304964
52	0x3f03169f	0.5120639
53	0xbe1d6941	-0.15372182
54	0xbdbe975d	-0.09306214
55	0x3ea658de	0.32489675
56	0x3e6222de	0.22083613
57	0x3e08c4fc	0.13356394
58	0x3e8b488d	0.2720379
59	0x3f2043d0	0.62603474
60	0x3eab7406	0.33486956
61	0x3ed00a8d	0.4063305
62	0x3e83026a	0.2558778
63	0xbd8eb7d4	-0.06968656
64	0x3e51fe42	0.20507148
65	0x3ed219ec	0.41035402
66	0x3e7649d5	0.24051602
67	0xbecd3a92	-0.40083748
68	0x3c9c24d7	0.019060535
69	0x3e01f2b2	0.12690237
70	0x3e1ea5f5	0.15492995
71	0x400c99ec	2.1968946
72	0x3e95efd7	0.29284546
73	0x3e503b30	0.20335078
74	0x3e8f27a5	0.27959934
75	0x3e9edc78	0.3102758
76	0x3f0d5f84	0.5522387
77	0x3f22699b	0.6344239
78	0x3eb781d9	0.35841253
79	0x3f0ebc79	0.55756336
80	0x3ec2540f	0.37954757
81	0x3ef6dbee	0.48214668
82	0x3ed26dbb	0.41099343
83	0x3ed173b8	0.409086
84	0x3eaba2e6	0.3352272
85	0x3ecb3a10	0.39692736
86	0x3eae1a71	0.34004548
87	0xbe48b8f6	-0.19601807
88	0x3e9d121c	0.3067788
89	0x3ed28e87	0.41124365
90	0x3e900908	0.2813189
91	0xbe7e7514	-0.2484935
92	0x3e73218e	0.23743269
93	0x3d94322e	0.072361335
94	0x3ef21c03	0.47286996
95	0x3ee88097	0.45410606
96	0x3e1ce58e	0.15321943
97	0x3ec6dee1	0.38841918
98	0x3edf95c7	0.4366896
99	0x3e8897f8	0.26678443
100	0x3ead116f	0.33802363
101	0x3e0fe701	0.14052965
102	0xbdc8422d	-0.09778247
103	0x3ed6ac21	0.419282
104	0xbdab39b4	-0.083606154
105	0x3ec00842	0.375063
106	0x3eb502e4	0.35353768
107	0x3f089628	0.5335412
108	0x3d578bd6	0.052623592
109	0x3ed18c8e	0.40927547
110	0x3ec686de	0.3877477
111	0x3f495441	0.78644186
112	0x3eefc7d1	0.46832135
113	0x3eb2a37b	0.3489035
114	0x3e86ce4e	0.26329273
115	0x3ebf9509	0.37418392
116	0x3eee7d7e	0.46580118
117	0x3ec32ff1	0.38122514
118	0x3ed0e6bf	0.40801045
119	0x3f263e9c	0.64939284
120	0x3ef3e4a9	0.4763539
121	0x3e49d9e9	0.19712032
122	0x3e89ac78	0.26889396
123	0x3ec6c936	0.38825387
124	0xbbbe2775	-0.0058030435
125	0xbe0f9cf6	-0.1402472
126	0xbe4b6cfe	-0.19865796
127	0x3e85d569	0.26139382
128	0x3e772a76	0.24137291
129	0x3edf3c5f	0.43600747
130	0x3e92aece	0.2864899
131	0x3eb841bc	0.3598765
132	0x3e8fcc19	0.28085402
133	0x3f02d8cd	0.5111206
134	0x3edd0601	0.43168643
135	0x3ef35d05	0.47531906
136	0x3eabff0e	0.3359303
137	0x3edf6972	0.43635136
138	0x3efa123c	0.48842037
139	0x3e8d5992	0.276074
140	0xbd508d8b	-0.050916236
141	0x3f148504	0.58015466
142	0x3ea86549	0.32889774
143	0x3e0eaea4	0.13933808
144	0x3f2fdb44	0.6869395
145	0x3e00d2ed	0.12580462
146	0x3e4df506	0.20113
147	0x3e3ebcc8	0.18626702
148	0xbd672bb1	-0.05643815
149	0x3ea6f608	0.32609582
150	0x3e86cd87	0.2632868
151	0x3c83c764	0.016086288
152	0xbc880837	-0.01660548
153	0x3f3169f2	0.69302285
154	0x3ec57cee	0.38571876
155	0x3e79fef2	0.2441366
156	0x3f1c1626	0.60971296
157	0x3ed414ae	0.41422027
158	0x3ee58105	0.44824997
159	0x3e7a38ef	0.24435781
160	0xbdb8ef00	-0.09029961
161	0x3efeb647	0.49748442
162	0x3e8b3ba4	0.2719394
163	0x3ecc4ce2	0.39902407
164	0x3e816ec1	0.2527981
165	0x3e9dc6b9	0.30815676
166	0x3e9a2623	0.3010722
167	0x3eda04cb	0.42581782
168	0x3e8d1721	0.27556708
169	0x3eb2e586	0.34940737
170	0x3ebe360e	0.37150615
171	0x3f2a2e7a	0.6647717
172	0x3ec5ee57	0.386584
173	0x3e844d22	0.25840098
174	0xbde718d8	-0.112840354
175	0x3e3782d7	0.17921005
176	0x3e82db15	0.2555777
177	0x3e4faf79	0.20281781
178	0x3e9eae29	0.3099225
179	0x3e363d01	0.17796709
180	0x3eaa4b68	0.33260655
181	0x3e8420d1	0.25806287
182	0xbe1bc421	-0.15211536
183	0x3ee3745c	0.44424713
184	0x3e87c2f7	0.26515934
185	0x3def0e36	0.116726324
186	0x3ec13578	0.37736106
187	0x3eb8fa1f	0.36128327
188	0x3f086567	0.5327973
189	0x3e669dbd	0.2252111
190	0x3e4a7cf7	0.19774233
191	0xbea090b9	-0.31360415
192	0xbd95b73e	-0.07310341
193	0x3e8858fc	0.2663039
194	0x3e6533e7	0.2238308
195	0xbe2e486e	-0.17019817
196	0x3cc1d6aa	0.02366193
197	0x3e13e104	0.14441305
198	0x3eee0a11	0.46492055
199	0x401de67e	2.4671931
200	0x3ea8523e	0.32875246
201	0x3e485bda	0.19566289
202	0x3e93c0ec	0.28858125
203	0x3de1de85	0.1102877
204	0x3f143cf9	0.57905537
205	0x3eeb8061	0.45996383
206	0x3ebc2337	0.36745617
207	0x3ed5a761	0.41729262
208	0x3ef98329	0.4873288
209	0x3ec05e99	0.37572172
210	0x3dcf461b	0.101207934
211	0x3f0e9cd3	0.55708045
212	0x3e97814a	0.29590827
213	0x3eada2ca	0.3391326
214	0x3ed8150b	0.42203555
215	0xbe3c760f	-0.18404411
216	0x3e20bcef	0.15697072
217	0x3e5f6b6e	0.21818325
218	0x3e875341	0.26430705
219	0xbe8a37f7	-0.26995823
220	0x3ed9df0b	0.4255298
221	0xbc92bbff	-0.01791191
222	0x3f131f57	0.57469696
223	0x3ec0012d	0.37500897
224	0x3e59f3cc	0.21284407
225	0x3e51c0f9	0.2048377
226	0x3ebcded0	0.36888742
227	0x3e96a588	0.29423165
228	0x3ee97387	0.45595953
229	0x3e2efc2d	0.17088385
230	0xbe67003c	-0.22558683
231	0x3ea800de	0.32813162
232	0xbb888a61	-0.0041668867
233	0x3e5e385c	0.21701187
234	0x3ed0c7a4	0.40777314
235	0x3ed21bd8	0.41036868
236	0x3df771a0	0.12082219
237	0x3d6c4913	0.057686877
238	0x3ecac303	0.39601907
239	0x3f7f7cb8	0.9979968
240	0x3ed78698	0.42094874
241	0x3ee0ee04	0.43931592
242	0x3e79e7ae	0.24404785
243	0x3eb1db4e	0.3473763
244	0x3e0afe3d	0.13573547
245	0x3d7870c2	0.06065441
246	0x3eb224d5	0.34793726
247	0x3f0dad70	0.5534277
248	0x3f18879b	0.5958192
249	0x3df80f4f	0.12112295
250	0x3e704edb	0.23467581
251	0x3e3efa49	0.18650164
252	0xbde2fbdd	-0.11083195
253	0xbe4cbb44	-0.19993311
254	0xbede1681	-0.43376544
255	0x3eae487a	0.3403967

final_linear.bias f4 [51]
0	0xbf2a3a51	-0.66495234
1	0xbcc7bca8	-0.02438195
2	0xbd76552b	-0.060139816
3	0x3e6ee49a	0.23329392
4	0xbedf0653	-0.43559512
5	0xbcdcc106	-0.02694751
6	0x3e74e46e	0.23915264
7	0xbc2e89f5	-0.010653009
8	0xbd72cf37	-0.059279647
9	0x3c3c0e5d	0.011478034
10	0x3e23cb6f	0.15995573
11	0x3f2f3699	0.68442684
12	0x3e611d59	0.21983851
13	0x3eefefd2	0.46862656
14	0x3ef488e7	0.47760698
15	0x3f4d6551	0.8023272
16	0x3e529bdf	0.20567273
17	0x3ef98d51	0.48740628
18	0x3f013035	0.50464183
19	0x3f728fc1	0.947506
20	0x3f10bff4	0.565429
21	0x3f98cb2e	1.1937006
22	0x3f7aef5c	0.98021483
23	0x3f888016	1.0664089
24	0x3f0c5928	0.5482354
25	0x3f673bb8	0.903255
26	0x3f97053a	1.179847
27	0x3f46c8e8	0.7765031
28	0x3f99ca03	1.2014774
29	0x3fa43c62	1.2830927
30	0x3f42810e	0.7597817
31	0x3f443b42	0.7665292
32	0x3f97f4f0	1.1871624
33	0x3f81bd8e	1.0135972
34	0x3f4be3b7	0.7964434
35	0x3f9644ef	1.1739787
36	0x3f9397b4	1.1530671
37	0x3f357f62	0.70897496
38	0x3f654231	0.89554125
39	0x3f985c98	1.1903257
40	0x3f460e1b	0.77365273
41	0x3f3e774b	0.74400777
42	0x3f83c7e0	1.0295372
43	0x3f259d80	0.6469345
44	0x3f3e702d	0.74389917
45	0x3f22eaec	0.6363971
46	0x3ee37937	0.44428417
47	0x3f66da7e	0.9017714
48	0x3f58f5f9	0.84750324
49	0x3f2528e3	0.64515513
50	0x3f5be325	0.8589347
