option_hedging/hyperparameters/dqn_hyperparameters/vanilla/year/0.0/dqn_model.pth (torch, 33628 bytes, 6 tensors)

linear1.weight f4 [64, 4]
0	0xc0d8f8f8	-6.7803917
1	0xc0620f7e	-3.5321956
2	0xbec3c821	-0.38238624
3	0xbf406206	-0.7514957
4	0xc0296e93	-2.647374
5	0xc0fab569	-7.834645
6	0x3e634aa5	0.22196443
7	0x3f617af8	0.8807826
8	0xc1335d40	-11.210266
9	0xc088c9b2	-4.274621
10	0xbf25de6c	-0.64792514
11	0xbf11a320	-0.56889534
12	0xc02e883e	-2.7270656
13	0xc102a14c	-8.164379
14	0x3e83e857	0.257632
15	0x3f74aab2	0.9557296
16	0xc06875a2	-3.6321797
17	0x408f801d	4.484389
18	0xbcc79652	-0.02436367
19	0xbffb5b6d	-1.9637276
20	0xbeb32555	-0.3498942
21	0x401a2151	2.4082835
22	0x3deacc7f	0.11464786
23	0xbf9498ae	-1.1609094
24	0xc0a72d4f	-5.224281
25	0x3fae2d39	1.3607551
26	0x3ecb6968	0.39728856
27	0xbea2eaec	-0.31819856
28	0xc029ff37	-2.656202
29	0xc1045927	-8.271766
30	0x3e87b0e5	0.26502147
31	0x3f7b69a7	0.9820809
32	0xc0e6dd74	-7.214533
33	0xc05b94b8	-3.430952
34	0xbed42fd9	-0.41442755
35	0xbf87308e	-1.0561693
36	0xc09351b7	-4.603725
37	0xc0b7f64b	-5.748815
38	0x3cc11635	0.02357016
39	0x3e9773bc	0.29580486
40	0xc0c520be	-6.160247
41	0xc0640939	-3.563063
42	0xbe91c5c3	-0.28471193
43	0xbe7bd3fe	-0.24592587
44	0xc05e8211	-3.4766886
45	0xc14abf3c	-12.671688
46	0x3e1fab77	0.15592752
47	0x3f3af770	0.7303381
48	0xc0b029ad	-5.5050874
49	0xc07eb038	-3.9795055
50	0xbef968a5	-0.4871265
51	0xbff9cc16	-1.9515407
52	0xc0b5dd59	-5.68327
53	0xc085a2e1	-4.1761327
54	0xbf2629d0	-0.6490755
55	0xbff9b8f8	-1.9509573
56	0xc0f9e54a	-7.8092394
57	0xc0182781	-2.3774111
58	0xbf355f79	-0.70848805
59	0xbf0bafd5	-0.54565173
60	0xc0c9751d	-6.295546
61	0xc06ba992	-3.6822248
62	0xbee4d9a1	-0.44697288
63	0xbf9a0961	-1.2034112
64	0xbebf806f	-0.37402675
65	0x3ffe3d50	1.9862461
66	0x3f670f77	0.9025797
67	0xbf5e6782	-0.8687669
68	0xc0281851	-2.6264842
69	0x41016bfb	8.088862
70	0x3e14bfe1	0.14526321
71	0x3ffea686	1.9894569
72	0xc096ed88	-4.7164955
73	0xc0046755	-2.068807
74	0xbf81693c	-1.011024
75	0xc03ae3ec	-2.9201612
76	0xc09be39f	-4.871536
77	0xc079ff78	-3.9062176
78	0xbd864e57	-0.06557911
79	0xbff95d3f	-1.9481581
80	0xc09b52ff	-4.8538814
81	0x3e7fbafc	0.24973673
82	0x3eddda98	0.43330836
83	0xc03f0294	-2.9845324
84	0xc0ce717b	-6.4513526
85	0xc073ae2f	-3.8075063
86	0xbee79ca2	-0.4523669
87	0xbf6d915a	-0.92799914
88	0xc0aaee57	-5.341594
89	0xc0616686	-3.5218825
90	0x3e09432c	0.1340453
91	0x3e88fe9d	0.26756755
92	0xc026adc2	-2.6043553
93	0xc0f50a0c	-7.6574764
94	0x3e5cadce	0.21550676
95	0x3f600c76	0.87519014
96	0xc094c861	-4.6494603
97	0xc0800aae	-4.0013037
98	0xbe3c1d28	-0.18370497
99	0xc04641e4	-3.0977716
100	0xc027b1f6	-2.6202369
101	0xc16c864d	-14.782788
102	0x3d3a9fe7	0.04556265
103	0x3f6d5bb0	0.9271803
104	0xc083f057	-4.1230884
105	0x41277221	10.4653635
106	0xbf3428fb	-0.7037503
107	0x3faa0576	1.3282917
108	0xbf427f76	-0.7597574
109	0x401cd04b	2.4502132
110	0x3fb29259	1.3950912
111	0xbf665e88	-0.89987993
112	0xc0f10d56	-7.532878
113	0xc060416c	-3.503993
114	0xbeaf960a	-0.34294158
115	0xbfa61be4	-1.2977262
116	0xc0869e69	-4.206837
117	0xc0147c54	-2.3200884
118	0xbf1819fb	-0.59414643
119	0xc030eff9	-2.7646468
120	0xc077ad21	-3.869942
121	0xc135fcde	-11.374235
122	0xbe5671b2	-0.20941809
123	0x40092630	2.1429558
124	0xc0187198	-2.3819332
125	0xc1045ee5	-8.273168
126	0x3e749399	0.23884429
127	0x3f7911ea	0.9729296
128	0xc02dd40d	-2.7160676
129	0xc0fc096e	-7.876151
130	0x3e86c60d	0.26322976
131	0x3f70a4bc	0.94001365
132	0xc02e4c58	-2.7234097
133	0xc10399d6	-8.225058
134	0x3e9287e2	0.28619295
135	0x3f7d24da	0.98884356
136	0xc0cf39b8	-6.4757957
137	0xc0b28cbf	-5.579681
138	0xbee5a8b9	-0.44855288
139	0x3e39a037	0.18127523
140	0xc0a8a88e	-5.2705755
141	0xc08521f4	-4.1603947
142	0x3e5dbfef	0.21655248
143	0xc018eeb5	-2.3895695
144	0xc0be63c1	-5.949677
145	0xc024b389	-2.573458
146	0xbf227784	-0.63463616
147	0xbfe37415	-1.77698
148	0xbee988c9	-0.4561217
149	0x40254168	2.582117
150	0x3fa12158	1.2588301
151	0xbf6dbca2	-0.92865956
152	0xc09ef1bb	-4.967008
153	0xbf353535	-0.7078431
154	0xbe1b5ea1	-0.15172817
155	0xc06e8f1c	-3.7274847
156	0xc0a46892	-5.137765
157	0xc00bb465	-2.1828854
158	0xbd9efc0c	-0.07762918
159	0xc059ef1d	-3.4052193
160	0xc025f8cc	-2.5933104
161	0xc0fd0d4b	-7.9078727
162	0x3e7cda03	0.2469254
163	0x3f6b73d8	0.9197364
164	0xc0b9fb5c	-5.8119335
165	0xc07b8687	-3.930086
166	0xbead11ba	-0.33802587
167	0xc009d491	-2.153599
168	0xc0bd9a23	-5.9250655
169	0xc073b015	-3.8076222
170	0xbf3f0f1a	-0.7463242
171	0xbfced3ca	-1.6158383
172	0xc0769797	-3.8530023
173	0xc0ac53a7	-5.3852115
174	0xc0302802	-2.752442
175	0xbfa70cb5	-1.3050753
176	0xc09112cb	-4.533544
177	0xc07bd2cd	-3.9347413
178	0xc0694e6b	-3.6454113
179	0xbfe640a2	-1.7988474
180	0xbfa0bf8e	-1.2558458
181	0xc181bcbd	-16.217157
182	0xbd4f6166	-0.050629996
183	0x3f7b695b	0.98207635
184	0xc0bc8bb3	-5.892053
185	0x4064f9f2	3.5777555
186	0x3e513b9e	0.20432898
187	0x3e8cc5ab	0.2749456
188	0xc07e1e1c	-3.9705877
189	0x40ab53d4	5.353983
190	0x3d364b37	0.044505324
191	0xc0275a0e	-2.6148715
192	0xc0cbc8cb	-6.368261
193	0xc04cf86f	-3.2026632
194	0xbe4c665f	-0.19960926
195	0xbf1704be	-0.5899161
196	0xc015caa5	-2.3404934
197	0xc1067833	-8.4043455
198	0x3dbfd94b	0.09367617
199	0x3f79f020	0.97632027
200	0xc1107d25	-9.030553
201	0xc0992d9b	-4.786817
202	0xbecd6ef8	-0.40123725
203	0xbe640313	-0.22266798
204	0xc0939ded	-4.613028
205	0xc0a59caa	-5.175374
206	0xbf6c3b58	-0.9227805
207	0xc0397fba	-2.8984208
208	0xc0b9dbba	-5.808072
209	0xc04e76a7	-3.225992
210	0xbf4ec728	-0.8077264
211	0xc034c2eb	-2.8243968
212	0xc0306e3b	-2.756728
213	0xc103dc7d	-8.24133
214	0x3e83f36c	0.25771654
215	0x3f7250cf	0.94654554
216	0xc0a00404	-5.00049
217	0x3f626535	0.8843568
218	0x3ef41edb	0.4767979
219	0xbf068c5b	-0.52557915
220	0xc0a410cb	-5.12705
221	0xc04394ef	-3.0559652
222	0xbfe2931e	-1.7701147
223	0xc0217912	-2.5230145
224	0xc0b55889	-5.6670575
225	0xc085fd62	-4.1871805
226	0xbf39c1e3	-0.7256147
227	0xc000a005	-2.0097668
228	0xc0e15b05	-7.042361
229	0xc05ad2e1	-3.419121
230	0xbe7aca69	-0.24491276
231	0xbf4a77c9	-0.7908903
232	0xc0dede39	-6.964627
233	0xc0832a42	-4.0989084
234	0xbe409958	-0.18808496
235	0xbf8a1aeb	-1.0789465
236	0xc0d3457a	-6.602231
237	0xc06968c3	-3.6470191
238	0xbe03a911	-0.12857462
239	0xbf5b3810	-0.8563242
240	0xc0932bfc	-4.599119
241	0xbffc2484	-1.9698644
242	0xbf2c2f7a	-0.67259943
243	0xc03c7d21	-2.9451373
244	0xc11883c5	-9.53217
245	0xc0536828	-3.3032322
246	0xbecdac53	-0.40170535
247	0xbf33c1ae	-0.70217407
248	0xc0ed5e15	-7.4177346
249	0xc0b98b2a	-5.798238
250	0xbf00f9dd	-0.5038126
251	0xbbbe7bbf	-0.0058130915
252	0xc0aa5d21	-5.3238683
253	0xc0b37a75	-5.6086984
254	0xbfabcc32	-1.342169
255	0xbff0483e	-1.8772047

linear1.bias f4 [64]
0	0x40222ad7	2.5338647
1	0x40a3c375	5.1176095
2	0x3f118a93	0.5685207
3	0x40aa2e88	5.31818
4	0x4091b2b0	4.5530624
5	0x40d0a201	6.519776
6	0x40b1b30f	5.5531077
7	0x40a9ac8a	5.302312
8	0x3f691131	0.91041857
9	0x40893458	4.2876396
10	0x404169e3	3.0220878
11	0x4054a1ee	3.3223834
12	0x3ec24b38	0.37948012
13	0xbeca3163	-0.39490804
14	0x3f35f328	0.7107415
15	0x3fbf9206	1.4966438
16	0x40d84b69	6.7592053
17	0x40d4e598	6.6530266
18	0x3fa1d555	1.2643229
19	0x4041085d	3.0161355
20	0x4014d06a	2.3252206
21	0x3ff18468	1.8868532
22	0x4081ee08	4.0603065
23	0x40a14c69	5.0405774
24	0x4000210c	2.002017
25	0x40214c6b	2.5202892
26	0x40a6cc84	5.2124653
27	0x40db7dcd	6.8591065
28	0x3e91d907	0.2848589
29	0x403ce12f	2.951244
30	0x3ffce1d9	1.9756423
31	0x40a1c10d	5.054816
32	0x40a6fc4a	5.218297
33	0x40ab78f0	5.358513
34	0x401abb40	2.4176788
35	0x3f7b42e8	0.98148966
36	0x3fd2aecc	1.6459594
37	0x40e01caf	7.0035014
38	0x3ed0d12a	0.4078458
39	0xbf9013c4	-1.1256032
40	0x40a361f6	5.105708
41	0xbeefe3e8	-0.46853566
42	0x3fbeb1a1	1.4897958
43	0x3fd0bb92	1.6307242
44	0x3f6ba010	0.9204111
45	0x3f8098ec	1.0046668
46	0x40ac6eb4	5.3885136
47	0x405f9b77	3.4938638
48	0x402cd704	2.7006235
49	0x409e4b4d	4.946692
50	0x3faa7124	1.3315778
51	0x40060a63	2.094384
52	0xbfe33829	-1.7751514
53	0x40aa85cc	5.3288326
54	0x40c09948	6.018711
55	0xbfb3b3be	-1.4039228
56	0xbee979af	-0.4560065
57	0x4003a3e8	2.056879
58	0x3f7be16f	0.9839086
59	0x3fba91bb	1.4575723
60	0x3ffed515	1.9908777
61	0x3f6825a6	0.90682447
62	0x3fe56598	1.7921629
63	0xbef1c2db	-0.47218975

linears.0.weight f4 [64, 64]
0	0x3fc0f86a	1.507581
1	0x3f9bd2fb	1.2173761
2	0x3fbfc06d	1.4980599
3	0x3fa812db	1.3130754
4	0x3f88d74b	1.0690702
5	0x3f93172b	1.1491445
6	0x3fbc7f84	1.4726415
7	0x3f88ecc7	1.0697259
8	0x3ffc1b32	1.9695799
9	0x3fe4ac28	1.7865038
10	0x3f86d323	1.0533184
11	0x400043cf	2.0041387
12	0x3fe5a0e4	1.7939725
13	0x3fecb782	1.8493502
14	0x3fd904bf	1.6954573
15	0x3fe0ba2f	1.7556819
16	0x3fa862f9	1.3155204
17	0x3fb1d20b	1.3892225
18	0x3fedab1a	1.8567841
19	0x3fc6b2fd	1.5523373
20	0x3fd73981	1.6814424
21	0x3ff178a0	1.8864937
22	0x3f8b36d4	1.0876107
23	0x3f788615	0.9707959
24	0x3fd6c33b	1.677833
25	0x3ffb32fd	1.9624935
26	0x3fb9bb98	1.4510374
27	0x3fbbd01c	1.4672885
28	0x3f2ce6b1	0.6753951
29	0x3ffb4065	1.9629027
30	0x3fa25f9f	1.2685431
31	0x3faa92f5	1.3326098
32	0x3f966d7d	1.1752163
33	0x3f916567	1.135907
34	0x3e9a7e80	0.30174637
35	0x3fe61d27	1.7977647
36	0x402b4324	2.675973
37	0x3fa90fe0	1.320797
38	0x3fc0daa2	1.5066721
39	0x3fae442a	1.3614552
40	0x3fb3c742	1.4045184
41	0x3fb12042	1.3837969
42	0x3f907800	1.1286621
43	0x3fd2072c	1.6408439
44	0x3ff179ab	1.8865255
45	0x4000dbc4	2.0134134
46	0x3fcd87ca	1.6057065
47	0x3fc243ce	1.5176942
48	0x3fdbc096	1.7168148
49	0x3f1b8694	0.60752225
50	0x3d787091	0.060654227
51	0x3ff23c9c	1.8924747
52	0x3fb0923f	1.3794631
53	0x3fa30ef6	1.2738941
54	0x3fbe6d2d	1.4877068
55	0x3fc95b44	1.5730977
56	0x3ff5cc17	1.9202908
57	0x3fe39e36	1.7782657
58	0x3fe3dda2	1.7802012
59	0x400a4af2	2.1608243
60	0x3fe6aa11	1.802065
61	0x3f7915da	0.9729897
62	0x3effc1cb	0.4995254
63	0x3fb6103e	1.4223707
64	0x3fc5fc79	1.5467674
65	0x3fd2dba2	1.6473277
66	0xbd3b7bb5	-0.045772273
67	0x3fdfbce6	1.7479522
68	0x3f762477	0.9614939
69	0x3e7ca026	0.24670467
70	0x3f8eaa61	1.1145746
71	0x3fff17d9	1.9929153
72	0x3ffbfbb2	1.9686186
73	0xbe9cf3ab	-0.30654654
74	0x3fb748ed	1.431913
75	0xbfc5f839	-1.5466377
76	0x3fe1d0c8	1.764184
77	0x3fe25b43	1.7684101
78	0x3f863765	1.0485655
79	0x3fc4c936	1.5373905
80	0x3f11cf81	0.5695725
81	0xbe8d07d2	-0.2754503
82	0x3fe09e7e	1.7548368
83	0x3fae41bb	1.3613809
84	0x3fb060a6	1.3779495
85	0x3fc4066a	1.5314457
86	0x3fe4a0f7	1.7861623
87	0x4000739f	2.007057
88	0x3fee31e8	1.860898
89	0xbfbab149	-1.4585353
90	0xbd85c2e7	-0.06531315
91	0x3e45d46a	0.19319311
92	0x3ffd8f8f	1.9809436
93	0x3fb350f7	1.4009084
94	0xbeae606d	-0.34057942
95	0x400a09cb	2.1568477
96	0x3ff4d670	1.9127941
97	0x3fed4a5d	1.8538319
98	0x3ef3e8a3	0.47638425
99	0x3ff2fb30	1.8982906
100	0x3fdd47b4	1.7287507
101	0x3eae1feb	0.34008726
102	0x3fcad459	1.5846053
103	0x3fce2d5a	1.610759
104	0x3fe1875f	1.7619437
105	0x4010532a	2.255076
106	0x3fdd1eed	1.7275063
107	0x3fdf3c00	1.7440186
108	0x3fda1349	1.7037135
109	0xbfa0106d	-1.2505013
110	0x3f53ff34	0.82811284
111	0x3ec666ef	0.38750407
112	0x3fc2620c	1.5186172
113	0x3fe38229	1.7774097
114	0x3f02e443	0.5112955
115	0x3ff21d64	1.8915219
116	0x400dff59	2.2187102
117	0x3fe182ac	1.7618003
118	0x3fc05a52	1.5027564
119	0x400885ad	2.133159
120	0x4019b7b0	2.4018364
121	0x3fbe71f2	1.4878523
122	0x3fd06693	1.6281303
123	0x3fb10063	1.3828243
124	0x3fb976f9	1.4489433
125	0x3ef7b955	0.48383585
126	0x3e9538ba	0.2914484
127	0x40291c4d	2.6423523
128	0xbd2de977	-0.042458978
129	0x3e590a0f	0.21195243
130	0x3f16b23e	0.58865726
131	0xbde0ea31	-0.109821685
132	0x3ee905ce	0.4551224
133	0x3fc1794e	1.5115144
134	0x3f862032	1.0478575
135	0x3dfdd5d8	0.12394303
136	0x3fa4b2b8	1.2867041
137	0x3f92730b	1.1441358
138	0x3f9bf548	1.2184229
139	0x400755de	2.114616
140	0x3e995e56	0.29954785
141	0x3fb6fca2	1.4295847
142	0x3fe29cac	1.7704062
143	0x3f93cf2b	1.1547598
144	0x3fc85ff4	1.5654283
145	0x4032f3b4	2.7961245
146	0x3eae0cb4	0.33994067
147	0x3f2a2607	0.66464275
148	0xbf09ad28	-0.5377984
149	0x3f8c6e52	1.0971167
150	0x3f6282f7	0.88481086
151	0x3e6ce114	0.23132735
152	0x3f3d081d	0.73840505
153	0x40388f7b	2.8837574
154	0x40340180	2.8125916
155	0x3fe0d5ba	1.7565224
156	0x3f4f6278	0.81009626
157	0xbf0b6ad3	-0.54459876
158	0x403c50c6	2.94243
159	0xbe1daa5b	-0.15397017
160	0x3e927053	0.28601322
161	0x3ae93375	0.0017791825
162	0x3f0739c8	0.5282254
163	0xbeac55fd	-0.33659354
164	0x3f852939	1.0403205
165	0x3fbd1af8	1.4773855
166	0x3f22a3cf	0.635312
167	0x3f4bc9bf	0.79604715
168	0x3da903ab	0.08252653
169	0x3fc6d393	1.5533317
170	0x3fbf808a	1.4961102
171	0x3d81d6fd	0.06339834
172	0x3f261b41	0.64885336
173	0x405cf8a9	3.452677
174	0x3faaf259	1.3355209
175	0x3dd922e5	0.10602359
176	0x3eba40fc	0.36377704
177	0x3e5b5359	0.21418513
178	0x3c12511f	0.008930474
179	0x3ed7149d	0.42007914
180	0x3fb11057	1.3833112
181	0x3de3c051	0.11120666
182	0x3faab0b8	1.333518
183	0x3fc459aa	1.5339863
184	0x3f97d347	1.1861352
185	0x3f5b74e6	0.8572525
186	0x3fb3fcac	1.4061484
187	0x3fd0ac9d	1.6302677
188	0xbd4efdd0	-0.050535023
189	0x3e71f135	0.2362717
190	0x3f0e2dd1	0.5553866
191	0x3fb098fd	1.3796688
192	0x3f89a08a	1.0752118
193	0x4019ba5e	2.402
194	0x3e077764	0.13229138
195	0x4020396e	2.5035052
196	0x3de4e971	0.11177338
197	0xbeb3dfca	-0.35131675
198	0x3fce35ec	1.6110206
199	0x401b9bd5	2.4313862
200	0x3eabd06a	0.33557445
201	0x3f8f0a9c	1.1175113
202	0x3f87802e	1.0585992
203	0xbf0151cf	-0.50515455
204	0x3fc81c64	1.5633664
205	0x3fad09bc	1.3518596
206	0x3f96a88b	1.1770185
207	0x3f2e9540	0.6819649
208	0x3da2c74b	0.07948168
209	0xbeb2ad4c	-0.3489784
210	0x4006dd71	2.1072657
211	0x3fb58cc7	1.4183587
212	0x3f9d3ec7	1.2284783
213	0x3f8c0c57	1.0941266
214	0x3f1ecb61	0.6202908
215	0x400f0a2d	2.234996
216	0x3fa12504	1.2589421
217	0xbf532276	-0.8247446
218	0x3f0a0030	0.53906536
219	0x3e28d89a	0.16488877
220	0x3fcf3838	1.6189032
221	0x3fe975f2	1.8239119
222	0xbedc8e92	-0.43077523
223	0x401f92f4	2.4933443
224	0x4024ccd0	2.5750008
225	0x401088bc	2.2583456
226	0x3f8ce6b4	1.1007905
227	0x40019626	2.0247893
228	0x3f2b09bc	0.6681173
229	0xbe8913c5	-0.26772895
230	0x3ff77dd0	1.933527
231	0x3fc14189	1.5098125
232	0x4012fb11	2.2965739
233	0x3f9667fe	1.1750486
234	0x3fee3509	1.8609935
235	0x3fb81b0f	1.4383258
236	0x3fee8104	1.8633122
237	0xbfb19af0	-1.3875408
238	0x4005f170	2.0928612
239	0x3efb414e	0.4907326
240	0x3fa69d5e	1.3016775
241	0x4006a873	2.1040313
242	0x3fbd82db	1.4805559
243	0x3fb8b6e7	1.4430817
244	0x3f84eb45	1.0384299
245	0x400e5d7e	2.2244563
246	0x3f75c71a	0.9600693
247	0x3f7d27c9	0.9888883
248	0x3fce8893	1.6135429
249	0x3f96236e	1.1729562
250	0x3f6b8357	0.91997284
251	0x3f52d9df	0.82363695
252	0x3fda9edb	1.7079729
253	0x3e8a32ac	0.26991785
254	0x3f513e38	0.81735563
255	0x3fa989c8	1.3245173

linears.0.bias f4 [64]
0	0x4001afd9	2.026358
1	0x3fa2551e	1.2682226
2	0x4085cf71	4.1815724
3	0x3ea28d89	0.31748608
4	0x3f721860	0.94568443
5	0x40b64501	5.6959233
6	0x404af2d0	3.17107
7	0x3fc75085	1.5571448
8	0x3f3460b7	0.70460075
9	0x3fbdd33b	1.4830087
10	0x3e96b33b	0.29433617
11	0x4005274f	2.0805242
12	0x3fb071bf	1.3784713
13	0x3fecab48	1.8489771
14	0x3fff75c5	1.9957815
15	0x3ec0a899	0.3762863
16	0x40edfe7f	7.4373164
17	0x3f273fe6	0.65331876
18	0x3f499424	0.7874167
19	0x3f023bc3	0.5087244
20	0x3fd0d270	1.631422
21	0x3fb2ef8c	1.3979354
22	0x40a0b760	5.0223846
23	0x3ea1e56f	0.31620356
24	0x3e2fc896	0.17166361
25	0x3f82ccdf	1.0218772
26	0x402d55cc	2.7083616
27	0x4014a293	2.3224227
28	0x3fc152df	1.5103415
29	0x3f88c45a	1.0684922
30	0x3fef3f99	1.8691283
31	0x402484bc	2.5706015
32	0x3eff9c84	0.499241
33	0x3f41a879	0.75647694
34	0x40138f73	2.3056304
35	0x409d4c3b	4.9155555
36	0x3e005aad	0.1253459
37	0x40e8b960	7.272629
38	0x3fa53cc3	1.2909168
39	0x3f28764e	0.6580552
40	0x4006275e	2.0961528
41	0x402fecce	2.7488284
42	0x3fe13cca	1.7596676
43	0x3f582b38	0.84440947
44	0x3fc50767	1.5392884
45	0x3ff8d0e0	1.9438744
46	0x3f953e45	1.1659628
47	0x3f5343c9	0.82525307
48	0x3f2a4aba	0.66520274
49	0x3f813cf9	1.0096732
50	0x3fb42404	1.4073491
51	0x3fb95a38	1.4480658
52	0x3fa6e509	1.3038646
53	0x3fe1e6c6	1.7648551
54	0x400c8fe6	2.1962829
55	0x4012e120	2.2949905
56	0x3fd7696b	1.6829046
57	0x3eb7a720	0.35869694
58	0x3fde3aba	1.7361672
59	0x40248c4b	2.5710628
60	0x3f4b1320	0.7932606
61	0x3e892863	0.26788625
62	0x3f2cc94b	0.6749465
63	0x3f948353	1.1602577

final_linear.weight f4 [50, 64]
0	0xbe47436b	-0.19459312
1	0x3db4d3ca	0.08829458
2	0xbe1a442a	-0.15065065
3	0x3cdf5a60	0.027264774
4	0x3eb0ef4e	0.34557575
5	0xbf106760	-0.5640774
6	0xbe620970	-0.22073913
7	0x3d1ce512	0.038304396
8	0x3f08f20c	0.53494334
9	0x3dcc3f9f	0.09973072
10	0x3db80c58	0.089867294
11	0x3d2b3a33	0.04180355
12	0x3dcf9776	0.10136311
13	0xbe8c5f9e	-0.274167
14	0x3e238552	0.15968826
15	0x3e340c8f	0.17582916
16	0xbf1d482a	-0.6143824
17	0x3e6da664	0.23208004
18	0x3d828d80	0.06374645
19	0x3e62cc41	0.22148229
20	0x3decaf3f	0.11556863
21	0x3ebc67b2	0.36797863
22	0xbf9d75bb	-1.2301553
23	0x3e8f19c2	0.2794934
24	0x3bb0319b	0.005377007
25	0x3de94794	0.113906056
26	0x3deecf9e	0.116606936
27	0x3dd7accf	0.105310075
28	0xbb894661	-0.004189298
29	0xbe24d931	-0.16098477
30	0xbe318ae3	-0.17338137
31	0xbe3bc19f	-0.1833558
32	0xbc438ed1	-0.011935906
33	0x3e0058f5	0.12533934
34	0xbe67e3ba	-0.22645465
35	0xbf9160be	-1.1357648
36	0x3eebe7b7	0.46075222
37	0xbefae556	-0.49003094
38	0xbe242e76	-0.16033348
39	0x3e6b2949	0.22964968
40	0xbd91bd60	-0.071161985
41	0x3ed9e97c	0.42560947
42	0xbe4da049	-0.20080675
43	0x3e08824b	0.13330953
44	0xbe89f9ce	-0.26948398
45	0x3e96d712	0.2946096
46	0x3db3e77d	0.08784387
47	0x3e9d4fc1	0.3072491
48	0x3e8a6554	0.27030432
49	0xbe1e4f6f	-0.15459989
50	0xbe0429c1	-0.12906553
51	0xbd2f95de	-0.042867534
52	0x3d87f0f4	0.06637755
53	0xbe093e73	-0.13402729
54	0x3d039b19	0.032130335
55	0xbed301cf	-0.41212317
56	0xbdb1410d	-0.086549856
57	0x3d3c5541	0.045979742
58	0xbe173644	-0.14766794
59	0xbebcf315	-0.36904207
60	0x3d94c2eb	0.0726374
61	0x3f0aa5c4	0.5415919
62	0x3e930c40	0.28720284
63	0x3e194be2	0.14970353
64	0x3d9ea9ab	0.07747205
65	0x3c1f9592	0.00974025
66	0xbe57b247	-0.21064101
67	0xbdac8549	-0.084238596
68	0x3d6276e4	0.055289164
69	0xbf27eda2	-0.65596974
70	0xbe0d78fc	-0.13815683
71	0xbd96882b	-0.07350191
72	0x3e8331ab	0.2562383
73	0x3d9b005d	0.07568429
74	0x3e615d87	0.22008334
75	0xbe256c78	-0.16154659
76	0xbe31d90c	-0.17367953
77	0xbdffaee7	-0.12484532
78	0xbde6a0df	-0.112611525
79	0x3e6ae9cc	0.22940749
80	0xbf258f21	-0.6467152
81	0x3e1e1fa4	0.15441757
82	0xbd0c63d4	-0.03427489
83	0x3f02ed21	0.5114308
84	0xbe4a6d9a	-0.19768372
85	0xbd4e4004	-0.05035402
86	0xbf9f3467	-1.2437867
87	0x3ecf173c	0.40447414
88	0x3ecbdc52	0.3981653
89	0xbeb06a88	-0.34456277
90	0x3d930404	0.071785
91	0x3dd76ce4	0.10518816
92	0xbd37c7dc	-0.044868335
93	0x3e3af8ce	0.18258974
94	0xbe53f37a	-0.20698348
95	0xbe6aba4d	-0.2292263
96	0x3e3084a1	0.17238094
97	0x3ecfb424	0.40567124
98	0x3b6852d9	0.0035449772
99	0xbf8ca527	-1.09879
100	0x3e9f07f9	0.3106077
101	0xbf01fa1e	-0.50772274
102	0x3d98de92	0.07464327
103	0x3e8d33fb	0.2757872
104	0xbe14010f	-0.14453529
105	0x3e8d3cf2	0.2758556
106	0x3cd9b301	0.026574614
107	0xbd92b319	-0.071630664
108	0xbd4e13cf	-0.05031186
109	0xbe9577a6	-0.29192847
110	0x3ebf7acc	0.37398374
111	0x3e45074e	0.19241068
112	0x3e3bfeaa	0.18358865
113	0xbe589cae	-0.21153519
114	0xbdbd68fa	-0.09248538
115	0x3e05540f	0.13020347
116	0xbcbf5aa5	-0.023358652
117	0x3e217cc6	0.15770254
118	0x3e004000	0.12524414
119	0xbe946831	-0.28985742
120	0x3df24209	0.118290015
121	0x3e72ff12	0.23730114
122	0xbd9434f3	-0.07236662
123	0xbe995f15	-0.29955354
124	0x3e7b6602	0.24550632
125	0xbd078d36	-0.033093654
126	0x3ee5e948	0.44904542
127	0x3d8cf389	0.06882388
128	0xbdc021d4	-0.09381452
129	0x3f078e9f	0.52952
130	0xbee34d76	-0.44395036
131	0x3e09910b	0.13434236
132	0x3d4ebe32	0.050474353
133	0xbf346e5e	-0.70480907
134	0xbe4577e9	-0.19284023
135	0xbe8e8bc7	-0.27841017
136	0xbc6a0bf5	-0.014285077
137	0xbd5a539f	-0.053302404
138	0x3d94a1e4	0.07257441
139	0xbe3bfcb7	-0.18358122
140	0x3d8cede6	0.06881313
141	0xbd1123c2	-0.035434492
142	0x3ce6c3f1	0.028169604
143	0x3de2e626	0.110790536
144	0xbeec1696	-0.46110982
145	0xbe0965a1	-0.13417675
146	0x3e31efe7	0.17376672
147	0x3e68af03	0.22723012
148	0xbf0212c1	-0.50809866
149	0xbde3a831	-0.11116064
150	0xbf9b668a	-1.2140667
151	0x3e9114fa	0.28336316
152	0x3e147b3f	0.1450014
153	0x3e1c43be	0.15260217
154	0x3cea753b	0.028620353
155	0xbdc72196	-0.09723203
156	0x3e391a9b	0.18076555
157	0x3e07476a	0.13210836
158	0xbda2ee42	-0.079556
159	0xbe3bad47	-0.18327819
160	0xbd85bca0	-0.06530118
161	0x3e2d0194	0.16895133
162	0x3ca466da	0.020068575
163	0xbf845c17	-1.0340604
164	0x3ed7a1a8	0.4211552
165	0xbefe83df	-0.49709985
166	0xbe059dc2	-0.13048461
167	0x3e695f50	0.22790265
168	0x3c828f42	0.015937451
169	0x3e872e26	0.26402396
170	0x3dfb115c	0.122591704
171	0x3d50052f	0.050786193
172	0x3ceff721	0.029292645
173	0x3d9825de	0.074290976
174	0x3e167be9	0.14695705
175	0x3d7ed204	0.062212005
176	0x3e982932	0.2971893
177	0x3e8e37ba	0.2777689
178	0x3e985461	0.29751876
179	0xbda03706	-0.07822995
180	0xbc7a2ac1	-0.015268982
181	0x3e5b33ca	0.21406475
182	0xbe3c6b37	-0.18400274
183	0x3d97a306	0.07404141
184	0xbe463053	-0.19354372
185	0x3e211d20	0.15733767
186	0xbe91d1eb	-0.28480467
187	0xbe93c1fb	-0.28858933
188	0x3f02bda6	0.5107063
189	0x3eacb541	0.33732036
190	0x3e991533	0.29898986
191	0xbce3adbf	-0.02779281
192	0x3d5c6030	0.05380267
193	0x3ebc1972	0.36738163
194	0xbe780859	-0.24221934
195	0xbdb67cc2	-0.089105144
196	0x3e23394f	0.1593983
197	0xbea84800	-0.32867432
198	0xbe942167	-0.28931734
199	0xbddf46d3	-0.109021805
200	0x3df47e58	0.11938161
201	0x3e63d1be	0.22247979
202	0x3e8e1bcc	0.27755582
203	0x3da892eb	0.082311474
204	0xbcef8e7c	-0.029242747
205	0xbe1af35f	-0.15131901
206	0xbe5dcd00	-0.21660233
207	0x3e0e1af0	0.13877463
208	0xbf256727	-0.64610523
209	0xba6b71bf	-0.0008981488
210	0x3e88df1f	0.26732728
211	0x3eadb85e	0.33929724
212	0xbd276c44	-0.040874735
213	0xbea8e7f4	-0.32989466
214	0xbfb9546c	-1.4478889
215	0x3d9f8d66	0.077906415
216	0x3ecc64f4	0.3992077
217	0xbe7083c6	-0.23487768
218	0x3cbcd77d	0.023051972
219	0xbd088cdc	-0.03333746
220	0x3d8c0f63	0.06838872
221	0x3e95a24a	0.2922538
222	0x3e39375b	0.18087523
223	0x3c0e4785	0.008684044
224	0x3e7459e5	0.23862417
225	0xbe990a04	-0.29890454
226	0xbec7be36	-0.39012307
227	0xbf936700	-1.1515808
228	0x3ecf3649	0.40471104
229	0xbebee695	-0.37285295
230	0x3e884787	0.2661707
231	0x3ee0bfea	0.4389642
232	0xbd9bbc6a	-0.076042965
233	0x3d9cb65a	0.07651968
234	0x3e3c0fdb	0.18365423
235	0x3c430a89	0.011904367
236	0x3e86169f	0.26189134
237	0x3ded2ddc	0.115810126
238	0xbd9d76e8	-0.07688695
239	0xbc83279b	-0.016010096
240	0xbdbf4468	-0.09339219
241	0x3d93c061	0.07214428
242	0xbdb3f51d	-0.08786986
243	0x3d4c64f7	0.049900975
244	0x3e17891c	0.14798397
245	0x3e571dfe	0.21007535
246	0x3e1b5421	0.15168811
247	0xbcb089f3	-0.021550154
248	0xbe37500b	-0.17901628
249	0x3d8f3061	0.069916494
250	0x3e17c972	0.14822939
251	0xbeb5e697	-0.3552749
252	0x3b1034d6	0.002200415
253	0x3e3a76e8	0.18209422
254	0x3e8ac457	0.2710292
255	0x3da103d1	0.07862056

final_linear.bias f4 [50]
0	0x3e34b830	0.17648387
1	0x3f1613b6	0.58623827
2	0x3efd27eb	0.49444517
3	0x3f3086b3	0.68955535
4	0x3f175aa9	0.5912271
5	0x3fc2f5ce	1.5231264
6	0x3febfd8c	1.8436751
7	0x3f7ab7bf	0.97936624
8	0x3f22b190	0.6355219
9	0x3fba4c18	1.4554472
10	0x3f59a699	0.8501983
11	0x3fade8da	1.3586686
12	0x3f82884c	1.0197845
13	0x3fda2ea8	1.7045488
14	0x3f7a68fb	0.9781644
15	0x401e0524	2.4690638
16	0x3f83180d	1.0241715
17	0x3f5a0f63	0.8517973
18	0x3f7a80b5	0.9785264
19	0x3e40b86e	0.18820354
20	0x3ee830e0	0.4534979
21	0x3f659b76	0.8969034
22	0x401f4051	2.4883006
23	0x3f81fe49	1.0155727
24	0x3fa91974	1.3210893
25	0x4002b7b4	2.0424623
26	0x3fff8a3b	1.996406
27	0x3f67236e	0.90288436
28	0x400ec2d0	2.2306404
29	0x4014db1c	2.3258734
30	0x3f792b07	0.9733128
31	0x3fc2ed3b	1.5228647
32	0x3faf6594	1.3702874
33	0x40101270	2.2511253
34	0x3f97875a	1.1838181
35	0x3fbba9fe	1.4661252
36	0x3fe67746	1.8005149
37	0x3ffdda5b	1.9832262
38	0x400d5f29	2.208933
39	0x3fad8636	1.3556583
40	0x3fb8aec3	1.4428333
41	0x3fdf7e88	1.7460489
42	0x3fa56b79	1.2923423
43	0x3fe6ff24	1.8046613
44	0x3fda7f2b	1.7070059
45	0x3fe979da	1.8240311
46	0x3f789637	0.9710421
47	0x40376d0e	2.8660312
48	0x3fcbef01	1.5932313
49	0x3ff5bf7a	1.9199059
