option_hedging/hyperparameters/ddpg_hyperparameters/vanilla/year/0.0/ddpg_model.pth (torch, 6244 bytes, 6 tensors)

linear1.weight f4 [64, 3]
00000000: 6f0f 80be baa4 b73e f067 10be 7b42 6abe
00000010: 27df a13d e2ab 903d db8d 5c3e 3be3 353d
00000020: 1157 85bd 82c4 333e 78a6 833e f751 ac3e
00000030: 35cc 0dbd 344b b3bc 81ef dbbd 42be 6cbe
00000040: 96a0 d8bd bcdb 463c e53b 5c3e b342 8c3e
00000050: 2f54 b0bd 9dd0 853c b00d d8bb 6dd1 a03e
00000060: 3510 3e3e 9ce6 e43d 2ca4 35bd b6e3 c1bc
00000070: 39db 2c3e 6c72 6f3e a261 733e b2cb 183e
00000080: aff1 bd3c db35 53bd badf 463c 454a b63e
00000090: 00c0 2dbc 30c7 0abd d24f 00be 4cb4 833c
000000a0: 025f 1abe 16d3 733e 2cf6 14bb f558 4d3d
000000b0: 1f7f 173e 9c83 78bd f2b5 3c3e 3902 dabe
000000c0: 850b 9b3e 8a23 553d c7fd 49be 71b5 133e
000000d0: c7a7 8d3e ef15 b4bc d222 eebd 8ef8 173e
000000e0: 0964 19bc 9cba 3b3d 9fa5 dabd ff99 643c
000000f0: 9101 c63d 8f28 223d 73f0 9c3e ce81 d93d
00000100: 6dc6 f0bc 8310 573e 2c60 c83c ee28 d43d
00000110: f97f bf3e 04a2 abbe 7f1e a13d 3f65 4bbc
00000120: eb2f 12be 2aac 3abe b46b bcbe 1696 323e
00000130: a408 96be 07f1 b8bd 6241 abbd 51e0 ecbd
00000140: 86f8 863e 8baf 5a3e 363a 873d ea8c 20be
00000150: bd2c 9b3c 79dc 3fbd 9239 0cbe a34c 0ebe
00000160: 56a2 97be 5bf6 9f3d d716 783c a892 b23e
00000170: 41f3 1f3e 9b35 fe3d 396d c33e 0082 6bbe
00000180: 6487 99bd f4e7 97be 89b2 79be 729e 84bc
00000190: de05 5e3d e421 5aba b210 7cbd 9d97 88bc
000001a0: eb6f 8d3e 407d 7d3d 9329 bd3c 8b79 ab3e
000001b0: 46b7 1e3d 45d7 393c 7caa 9d3e e7e6 543e
000001c0: 254d 873e b390 59be 67d9 3b3d 7194 be3d
000001d0: 7a63 a3bd 5367 c8bc 04af 0dbe 8795 40be
000001e0: 04e4 f1bd 8d8c f2bd b4a9 2e3e 9da1 513e
000001f0: ce8c 5a3e 4634 a7be d568 14be 7cba a4bd
00000200: 4080 093e e1d9 13be ff54 1abe 1aae 9cbe
00000210: 2f24 933e c248 fcbd 08c3 76be 31b1 0c3e
00000220: de6e f13e 1a83 dbbd df52 163e 1164 b0be
00000230: 933a 1e3c fb75 7bbe 4a50 163e 4dc7 04bd
00000240: 70cd 373e 1f88 0f3e 5bd0 10be 8385 d53d
00000250: 0311 0c3e 8235 8fbe 4bba 013e b023 a53d
00000260: 91da e0bd f256 613e f7f7 183e 27bc 15bd
00000270: 321a 083e 31d6 8dbe 9e2a eb3d 7e7e 0ebc
00000280: 0ff5 c1be 1798 33be 877a 213e 4d31 9d3c
00000290: f1e1 92be f65d 54bd c7fc 203e a409 37be
000002a0: 8e42 763e df3e 503d 5922 a83c 11b5 f0bc
000002b0: 2b19 7ebe 8570 033d 251f e23d c539 84be
000002c0: b7f6 ba3e a4c5 983c 0f5e a63d 4294 febd
000002d0: 260d 223e dc78 803e 00c5 b3bc c344 71be
000002e0: 5f32 953d 8086 283e 9c66 4fbe b6b2 55bd
000002f0: a418 343e 0225 03bd c710 16bf e959 2a3e
-0.25011775 0.35867864 -0.14102149 -0.22876923 0.07903891 0.07064034 0.21538489 0.044406157
-0.06510747 0.1755543 0.25712943 0.33656284 -0.034618575 -0.021886446 -0.10739041 -0.23119453
-0.10577504 0.01213735 0.21507223 0.27394637 -0.08609807 0.016334826 -0.0065934286 0.3140978
0.1856087 0.11176798 -0.04434602 -0.023668151 0.16880502 0.23383492 0.23767713 0.14921454
0.023186533 -0.051565032 0.0121383015 0.35603538 -0.010604858 -0.033881366 -0.12530449 0.016077183
-0.15075305 0.23810992 -0.0022729738 0.050133664 0.14794587 -0.060672387 0.18428782 -0.4257982
0.30282226 0.052035846 -0.19725715 0.14424683 0.27667066 -0.021983115 -0.11627735 0.1484091
-0.009362229 0.04583226 -0.10676121 0.013952731 0.096682675 0.03958946 0.30652198 0.106204614
-0.029391492 0.21002392 0.02445992 0.10359369 0.37402323 -0.33522046 0.07867145 -0.012414276
-0.14276092 -0.18229738 -0.3680092 0.17440066 -0.29303467 -0.09030347 -0.0836208 -0.115662225
0.26361483 0.21356027 0.066029 -0.15678754 0.018942231 -0.04684112 -0.13693836 -0.13896422
-0.2961604 0.078106605 0.015142164 0.34877515 0.15620138 0.12412568 0.38169268 -0.2299881
-0.07496527 -0.29669154 -0.24384512 -0.016188834 0.054204814 -0.000832109 -0.06153936 -0.016673857
0.2762445 0.061887026 0.023091113 0.33491167 0.038749002 0.011342828 0.30794132 0.20791207
0.26426044 -0.21246605 0.045861628 0.09305657 -0.07977958 -0.024463331 -0.13836294 -0.1880704
-0.11811069 -0.11843214 0.17056924 0.20471807 0.21342775 -0.3265707 -0.14493115 -0.080433816
0.1342783 -0.14438583 -0.15071486 -0.3060158 0.28738543 -0.12318565 -0.24097836 0.13739468
0.47154897 -0.10718365 0.1468005 -0.34451345 0.00965752 -0.24556725 0.14679065 -0.03241663
0.17949462 0.1401677 -0.14141981 0.10425856 0.13678364 -0.2797051 0.12668721 0.080634475
-0.10979188 0.22005823 0.14938341 -0.03655639 0.13291243 -0.27702478 0.11482738 -0.00869715
-0.37882277 -0.17538486 0.15769397 0.019188548 -0.28688005 -0.05184742 0.15721427 -0.17874771
0.24048826 0.05084121 0.02052419 -0.029383214 -0.24814288 0.03208973 0.110410966 -0.25825325
0.36516353 0.01864893 0.08123409 -0.12430622 0.15825328 0.25092208 -0.021944523 -0.23561387
0.07284998 0.16457558 -0.20253986 -0.052172385 0.17587525 -0.032017715 -0.5861935 0.1663586

linear1.bias f4 [64]
00000000: 1c27 be3b 5297 9f3c 41ba d33d 4ac5 0bbc
00000010: 7520 023d db9a 01bd 96d2 ea3d 2d50 633b
00000020: 500e c63d 574b 93bd ccac ab3d d2da b0bc
00000030: da4e 983d e87e c53d d7f3 d93d ffba d43d
00000040: 7ac4 6c3e e443 e63d 1a7f 87bb 10e7 6bba
00000050: 3ccd 813d 650e 1b3c ccee cb3d 019d 6dbc
00000060: 953d 19bd 007e ee3c 7e4c c63d 2888 423e
00000070: 174b 8a3d 3c30 8d3b 7f27 b13d 7b42 113e
00000080: 6a22 f43d bd8f 29bc d9e6 8fbd 4925 2e3c
00000090: 985e b63b a890 a53e 8012 6c3d 6dc5 423d
000000a0: c25f bcbd 09ef b43b 7c42 55be cbac c0bc
000000b0: 0c18 013e 04a1 443e 2193 3b3b 08bc ba3c
000000c0: 1760 553e 59ef 273c 04d5 463d 37cc af3d
000000d0: eccb d439 7b6d 803d 9053 a03d f640 e13d
000000e0: 97ee bf3d a8c6 233e ecd4 443c 0977 903d
000000f0: 945e cc3d 9a66 7ebd cbf3 89be da3f ff3c
0.005803002 0.019481335 0.103382595 -0.008530924 0.031769235 -0.031641822 0.11465947 0.003468524
0.09670699 -0.07192104 0.08382568 -0.021588717 0.07436915 0.09643346 0.10642212 0.10387229
0.23121825 0.11243418 -0.0041350247 -0.00089989696 0.063379735 0.009463881 0.09957656 -0.014502765
-0.037412245 0.029112816 0.096825585 0.18997252 0.067526035 0.0043087285 0.086501114 0.14185517
0.119206265 -0.010349211 -0.070264526 0.010629007 0.0055654757 0.32336926 0.05763483 0.04755156
-0.09197952 0.0055216593 -0.20826143 -0.023519894 0.1260683 0.19202048 0.0028621631 0.022794738
0.20837437 0.010249936 0.04854299 0.08583873 0.00040587725 0.06270882 0.07828438 0.109987184
0.09371679 0.1599375 0.012013655 0.07053954 0.09978977 -0.062109567 -0.26943812 0.031158376

final_linear.weight f4 [1, 64]
00000000: 1a84 15be e936 82be 6c2f d13e 64c7 03be
00000010: 36e1 b83c 97f5 4cbe 5978 b23e 156f e1be
00000020: 254a ca3e f2cc 95be 2c2e 9b3e e3f6 bcbe
00000030: 68e7 eebd baf6 833e 234d a83e 5f65 3c3d
00000040: 4358 343e fd08 5e3e d654 a3bd 486a d1be
00000050: 55b3 b93e 343c ddbe 7672 813e 064a 473e
00000060: c2ac 6ebe 4bd5 81bd 3647 683e 4630 aa3e
00000070: a077 8fbe 898f b5bd 6326 e83e 50e1 8c3e
00000080: acea a63e d96f c3be 67d2 7dbe dafe 93be
00000090: d8d0 b2be d1f4 bd3d 4e36 7abd f146 8f3c
000000a0: 945c d6be 86b0 453e 5cc8 263f 24e2 6fbe
000000b0: 55b2 cd3e 4405 773e db91 7fbd 8471 2a3c
000000c0: b374 9f3e e37b 903e 7b5e 96be 5a5c a03e
000000d0: 06b2 babd f577 d83c e323 8d3e a281 c43e
000000e0: 9b54 5b3e 0889 b93e b236 9bbe dc77 b6be
000000f0: 9654 bb3e d951 9fbe 582c 013f 0e5d d6bd
-0.14601174 -0.25432518 0.40856493 -0.1286903 0.022568326 -0.2001556 0.34857443 -0.4403006
0.39509693 -0.29257923 0.30308664 -0.3690711 -0.11665231 0.25774175 0.3287135 0.045995113
0.17611794 0.21683116 -0.079751655 -0.409014 0.36269632 -0.43209994 0.2528264 0.19461831
-0.2330809 -0.063395105 0.22683415 0.33239955 -0.28020954 -0.08865268 0.45341787 0.2751565
0.32600915 -0.3817127 -0.24787293 -0.28905374 -0.3492496 0.09275211 -0.061086945 0.017489882
-0.41867507 0.1930562 0.65149474 -0.2342611 0.4017512 0.24123102 -0.062394958 0.010403041
0.31143722 0.28219518 -0.29368958 0.3132046 -0.091159865 0.026424387 0.27566442 0.38380152
0.21418993 0.3623736 -0.30315167 -0.3563832 0.3658797 -0.31117132 0.5045829 -0.104669675

linear1.weight f4 [64, 4]
00000000: e3f3 623f cf0a af3e eb0d 8f3e 78d6 78bd
00000010: 93b7 3d3f 82d4 293f 16e3 04bd 9b69 403d
00000020: 381d c73e 69d8 f63e 3e95 973e d4d2 c03e
00000030: 79b8 183f 7c05 ab3e 7734 a33e 9f60 f23d
00000040: 3d19 143f 9737 ff3e aa53 923d 4d7c aa3e
00000050: 3603 0b3f ae86 3d3f 7d66 d83e 3d87 8dbe
00000060: d1a3 4abe c450 a63d 1f6c 89bd 57e9 fabb
00000070: 8df8 1dbe 39f5 23be d5ea 89bd f648 90bc
00000080: d27f da3e 3b2c e83e b649 b23e 54ef 38be
00000090: 92f1 013f 0052 d63e 76d3 e03d 1d1b 10be
000000a0: cc1c 333f 07a0 cb3e 1f3a b4be 7584 66be
000000b0: 0bb1 3b3f 5c3b 153f cf28 efbe 043e 50be
000000c0: 6dfc 853e 0cbe 0f3e e0a2 403f 9a51 673e
000000d0: 3b80 c53e d483 143f 78e8 90be f6b4 583e
000000e0: 6343 553f 108c a93e 550e 0cbe 2157 223d
000000f0: 9076 93be 4822 b03d 4061 8bbd 6993 edbd
00000100: 82aa 263f 4b8c 423f 199d 04bf 2408 ffbe
00000110: 244a 79be db8e 52be 6af0 a4be 5c4b b83c
00000120: 3e9b 503f f437 8e3e 1405 fe3c 8ccd 90bc
00000130: 0186 3f3f aa11 0a3f 1979 2ebd a5e6 773e
00000140: a447 0abd aba3 1cbe 8c6f 72bd fb73 0bbc
00000150: 2bf3 133f d76a b23e a3c6 a73d c9ec 17be
00000160: 3233 1f3f bda2 0b3f b3fe d93d 4800 12bf
00000170: 7aa3 df3e 5aac d2bd eaca 8d3e 3e64 3f3e
00000180: afc7 e13e c70c f73e e9f4 80be 9b5d 103f
00000190: 92da 8fbc c7e4 a4bd 34a5 6ebd 037e ea3c
000001a0: a9a9 703f 6ef7 be3e 70ff 003e c6a6 8dbe
000001b0: 39f7 543f 0711 0e3f 43e2 c6bd 93e5 13be
000001c0: e4cb 863f da89 fb3e 1034 40be e64f 853d
000001d0: e201 fb3d d8f1 96bd 2886 15bd 0620 99bc
000001e0: e593 32bc 225f 60be e7c2 94bd 58a3 68bd
000001f0: 6488 7ebe b706 63be 1cf0 12be d7fc ebbc
00000200: d850 413f 34f0 d43e 75af c23d c33b 14be
00000210: b255 183f 9f6e 233f dc27 883d 7762 2dbd
00000220: 442b 263f aa17 5cb8 22b9 ca3e 5fe9 aa3e
00000230: 23f0 553f faf1 b43e 7cd0 a03d 19b6 96be
00000240: 4972 76be afdd e7be 015a 66be 08ff 8abd
00000250: 7f6d 663f cf2b 753e 5a72 93bd 9345 733d
00000260: 15f9 163f 7720 0b3e 0615 ca3d 4942 a43e
00000270: 3365 0b3f 51a5 253f 7fe9 f1be a95b 55be
00000280: e543 e0bc 4f8a 5c3e 6153 0f3d 1074 a73d
00000290: 8930 90bd 66b4 f6bd 1d8a 1bbe d75d 71bc
000002a0: 397e 06be 7879 ecbd ad80 41bd 16b2 1fbc
000002b0: 993d 843c 3752 063e e146 113d 49b4 733d
000002c0: 895b b4bd 3b3b dabd 96ac 783d 860c 83bc
000002d0: ffda 033f cb9c febc f3b0 c1bd 158d 713e
000002e0: bc52 f13e a6c4 0c3f 6ab7 07bf 7dda 26bf
000002f0: 9be8 8abe dca4 54be 12d5 dfbd 90d5 95bd
00000300: 5dc7 48be 3cda 81be f02b 5a3e 3948 92be
00000310: 3bb4 23be 3624 3ebe 8248 c6bd ce5a 20bc
00000320: 0be9 fd3e e399 3f3d 5845 c2be da6b e53e
00000330: 8adb 313f e0f1 ad3e dc50 5fbe 4fad 8d3e
00000340: 4e9d 5bbe eaf7 813b d4bf 8abd ab64 a43c
00000350: 95a4 353f 0000 d33e 6a33 a8bd fc27 83bc
00000360: ffa8 7cbe 41b2 873a 929a f2bd 19fa 773d
00000370: ea1d 343f 2eb2 843e b372 4d3d 25ac 873d
00000380: 8e76 39be e31c 51be dbfa 37bd 97a2 dbbd
00000390: 6777 6ebe ecdf c2bd fcb9 22be 9674 34be
000003a0: c586 5c3d 10df 68be c9f4 e53e 878c 943e
000003b0: e526 063f 96c2 1e3f 00ea ca3d 4529 993d
000003c0: 31a3 23bd 3e4c 2abe 81f7 04bd db13 3f3d
000003d0: 3659 b0be 2ece 053d a4df 8bbe 513e 863e
000003e0: 8abc 0f3f fea7 583e c766 c1be 8667 25be
000003f0: b142 543f d526 0b3f f77c febc c5b0 04bf
0.8865339 0.34187934 0.27940306 -0.06075141 0.7410824 0.66339886 -0.03244313 0.046975713
0.3888948 0.48211983 0.2960605 0.3766085 0.5965648 0.33402622 0.31875965 0.11834835
0.5785101 0.498471 0.07144864 0.3329796 0.54301775 0.7403363 0.42265692 -0.2764224
-0.19789053 0.081208736 -0.067100756 -0.007657211 -0.15426846 -0.16011514 -0.06734244 -0.017612915
0.42675644 0.45346245 0.34821862 -0.18060046 0.5075923 0.41859436 0.10977833 -0.14072843
0.69965816 0.3977053 -0.35200593 -0.22511466 0.7331702 0.582937 -0.46710822 -0.20336157
0.26169148 0.14037341 0.7524853 0.22589722 0.38574395 0.58013654 -0.2830236 0.21162781
0.8330595 0.33114672 -0.13677342 0.039633874 -0.28801394 0.08600289 -0.06805658 -0.11600382
0.65103924 0.7599532 -0.5180221 -0.49810898 -0.24344689 -0.20562308 -0.3221467 0.022496872
0.8148688 0.27777064 0.03100828 -0.017676137 0.7481385 0.53933203 -0.042595956 0.24209078
-0.033759728 -0.1529681 -0.05918841 -0.008511539 0.5779292 0.34847137 0.08192184 -0.1483642
0.6218749 0.54545194 0.10644283 -0.5703168 0.4367941 -0.1028678 0.27693874 0.18690583
0.4409766 0.48251936 -0.25186852 0.5639283 -0.017560277 -0.08051448 -0.05826302 0.02862454
0.9400888 0.3729815 0.12597442 -0.276663 0.8318973 0.5549473 -0.09711125 -0.14443044
1.0530972 0.4912861 -0.1876986 0.0650938 0.122562185 -0.07370347 -0.036504894 -0.018692028
-0.010899519 -0.2191129 -0.07263737 -0.0567964 -0.24856716 -0.2217053 -0.14349407 -0.028807087
0.7551398 0.4158951 0.09506122 -0.14475922 0.5950576 0.6384067 0.066482276 -0.04233023
0.6490977 -5.2474126e-05 0.3959437 0.33381173 0.83569545 0.35340863 0.07852265 -0.29435804
-0.24067034 -0.4528632 -0.22495271 -0.067869246 0.9001083 0.23942493 -0.07199545 0.059392523
0.5897382 0.13586603 0.09867291 0.32081822 0.5445129 0.6470538 -0.47248456 -0.20835747
-0.027376125 0.21537136 0.034991626 0.08176434 -0.07040507 -0.12046127 -0.15189405 -0.014731846
-0.13134088 -0.11546606 -0.047241855 -0.009747049 0.016142653 0.131173 0.035467986 0.059498105
-0.088065214 -0.106558286 0.060711466 -0.015997183 0.51506037 -0.031080624 -0.094575785 0.23588975
0.47133434 0.5498756 -0.5301424 -0.65177137 -0.2713059 -0.20766014 -0.10929312 -0.073161244
-0.19607301 -0.25361812 0.21305823 -0.28570727 -0.15986721 -0.18568501 -0.096817985 -0.0097872745
0.4959186 0.046777617 -0.3794353 0.44808847 0.69475615 0.33973598 -0.21808189 0.27671286
-0.21446726 0.0039663212 -0.067748696 0.020067533 0.7095426 0.41210938 -0.082129315 -0.016010277
-0.24673842 0.0010352806 -0.11845888 0.060541246 0.70358145 0.2591719 0.050158214 0.06624631
-0.18111631 -0.20421176 -0.04491697 -0.10724371 -0.23287736 -0.09515366 -0.1589126 -0.17622599
0.053839464 -0.22741342 0.4491332 0.29013464 0.524031 0.62015665 0.09907913 0.07478575
-0.039950553 -0.16630647 -0.0324626 0.046649795 -0.34443063 0.03266733 -0.27319062 0.2621942
0.5614706 0.21157834 -0.37773725 -0.16152772 0.82914263 0.5435613 -0.031065447 -0.5183223

linear1.bias f4 [64]
00000000: 4e9b 0e3f fe26 223f 5d5b e03e a476 133f
00000010: c5da 1d3f e30d 1d3f 1341 3c3c 16be 3d3c
00000020: 2144 1d3f df49 123f 589e 0f3f fc64 193f
00000030: 960b 0c3f e089 193f 57b9 1f3f 1225 d53c
00000040: 60e0 de3e c7f3 e0bc 909c 133f e4fc 113f
00000050: 1dfe a1bc 717c 163f 8403 153f 3255 cb3d
00000060: 00bd 253f 957e 63bd d2b4 243f dda8 153f
00000070: e961 163f 447b f0bd 669f 6dbd 3c57 133d
00000080: 2260 103f 2163 1e3f ebc1 e03e 8824 1e3f
00000090: b70a 473d c29f 0a3f 2ea9 c33e 78e1 093f
000000a0: fc23 a6bd fe6d 8cbd eccc 573b cb2d c8bd
000000b0: 5a6c bebd be7e 993d 4462 123f f420 983d
000000c0: 2110 51be 17d9 863b f523 1e3f 3b9f 153f
000000d0: 5aa3 48bc afc1 0a3f 1ed4 0fbc b1d2 af3e
000000e0: 7cae 383b 32a6 a4bd dabe d23e 9644 163f
000000f0: 0d73 2d3d acf0 03be f86c 123f 8ef7 083f
0.55705726 0.6334075 0.43819705 0.57602906 0.6166194 0.61349314 0.011490124 0.011580965
0.6143208 0.5714397 0.5610099 0.59919715 0.5470518 0.59976006 0.6239218 0.026018653
0.4353056 -0.027459992 0.5766077 0.57026505 -0.019774491 0.5878363 0.5820849 0.09928359
0.64741516 -0.05554064 0.6433841 0.5846079 0.5874315 -0.11742261 -0.058013342 0.035971865
0.5639669 0.6187001 0.43897948 0.6177449 0.048594203 0.5415002 0.3821501 0.53859663
-0.08112332 -0.06856917 0.003292854 -0.09774359 -0.0929801 0.07494877 0.5718119 0.0742816
-0.20416309 0.0041152346 0.61773616 0.5844609 -0.012245977 0.5420179 -0.0087786 0.34340432
0.0028180173 -0.08039512 0.41161233 0.58698404 0.04234605 -0.12884778 0.57197523 0.5350274

final_linear.weight f4 [1, 64]
00000000: ec5d 46bf d7fe 14bf 5f6f 02bf 62f1 5cbf
00000010: 6ce5 31bf 69f0 1bbf bdfd ae3e 1305 cb3e
00000020: 6e20 26bf 474f 75bf 2665 3cbf 451a 16bf
00000030: 9352 4dbf c613 5bbf fe76 12bf 0970 a93e
00000040: a584 e3be 8af7 503e 89af 30bf c9be 37bf
00000050: b38a 4f3e 9866 45bf 5f8c 21bf 9180 80be
00000060: 3f4b 2dbf 3b86 203e d511 0fbf 1894 21bf
00000070: 4f59 1ebf e862 1d3e fdb3 7d3e 6301 5c3f
00000080: 1f63 3cbf a723 1fbf 74df 00bf 7fad 15bf
00000090: bdc8 403f a62f 07bf 3f2c f5be dcbd 5dbf
000000a0: 34af cd3e d78e ec3d c503 fa3e 2100 d03e
000000b0: 6473 4b3e 81c6 7dbe 6d83 0fbf 6079 233f
000000c0: 28fb a63c a109 8a3e 4346 49bf 881c 35bf
000000d0: f219 fe3e 0777 6fbf da95 ca3e 0f92 d9be
000000e0: b3cc 183f 526a dc3d 24d0 2ebf 87d0 39bf
000000f0: 3cf1 b4be a759 f53d 3a61 4cbf b936 fcbe
-0.77487063 -0.58201355 -0.5095119 -0.8630582 -0.69490695 -0.6091371 0.34177962 0.3965231
-0.64893234 -0.9582409 -0.7359184 -0.58633834 -0.80204123 -0.85577047 -0.5721282 0.3309329
-0.44437137 0.20406929 -0.69017845 -0.7177549 0.20267753 -0.7710967 -0.63104814 -0.25098088
-0.6769294 0.15676205 -0.55886585 -0.631166 -0.61855024 0.15369761 0.24775691 0.85939616
-0.73588747 -0.62163776 -0.5034096 -0.5846786 0.753063 -0.5280708 -0.4788532 -0.8661783
0.40172732 0.11550682 0.48831 0.40625098 0.19868237 -0.24782754 -0.56059915 0.6385708
0.020383433 0.2696047 -0.78622836 -0.7074666 0.4962917 -0.93540996 0.39567453 -0.42494246
0.59687346 0.107624665 -0.6828635 -0.7258381 -0.35340297 0.119799905 -0.79835856 -0.492605
