option_hedging/hyperparameters/dqn_hyperparameters/dueling/year/0.0/best_dqn_model.pth (torch, 164890 bytes, 9 tensors)

linear1.weight f4 [128, 4]
00000000: b978 963d 1097 dbbe 1578 b3be 761d 3cbe
00000010: e1b9 c23c fe5f efbd 56cf 63bd 7631 05be
00000020: d480 ce3d f627 8ebe dcb0 18be 11dd d13e
00000030: 1153 893e 0baa c6be 7875 583e f2ed d03d
00000040: 6eb9 12be bb1b 7b3f e369 a43d 0717 323e
00000050: 3bf4 6fbd b2dd afbe 5a4f a1bd b5d6 80be
00000060: 0cf6 b4be b231 bdbe f5d4 083e a08e c6bd
00000070: 2551 25be d0cf 17be cae5 1dbd 0e9b c7be
00000080: 6ba4 28be 9d52 fcbc 0226 dbbd 2b28 eabd
00000090: eae1 783d 06a0 fabe cda5 193e 7437 cf3d
000000a0: 9626 e1be 7db0 273c 1d79 86bc 517c 04be
000000b0: b32c f43d d48b 7a3e 7feb 1ebd e0e3 69be
000000c0: 6e71 f73d eb6e 373e b2cd b03d 244a 47be
000000d0: 54f0 883e c038 d63d 67d8 823d 8583 00be
000000e0: 3686 4cbe a015 233f 9ae0 8ebc 81b4 8c3d
000000f0: 75d7 e93c 4303 893e d419 ee3c c0ca 74be
00000100: 65b0 11bc f985 e1bd 7ea8 d03d 48ed 9fbe
00000110: 3c2d 18be 1b1a 0abe e98f 3a3d 88b8 8abe
00000120: 08bf 53be 420b 99bd 4c5e a73c 4ace 8fbe
00000130: ed61 053e 138f a83d 8383 8c3d c5b6 3dbe
00000140: beef f53d e847 44be 8cc5 a8be 9a2a c13c
00000150: 10fe 94bd 00c4 a13f 9ec7 dbbc 12eb 0bbc
00000160: 3351 3a3e d2b7 f6be f732 4d3e cfaa d23d
00000170: 3432 26bd ca9f a63d bf98 843d c1b8 8bbe
00000180: b2ac 643d 3552 bcbe b6ef a2bd c4da 15be
00000190: 0207 bf3d eedb c4be e58a f03d 6184 953d
000001a0: 1669 5dbe 9784 4ebd fc78 2a3d 3657 94be
000001b0: ebd3 7e3e 376e 863d 50bc 5cbe 2ed3 fbbd
000001c0: 9739 c03e c750 723e 4573 393e 1edd 93be
000001d0: 2c3e da3c 3d3e bebe 30ac 3e3e dba8 963d
000001e0: 06a7 fd3e cdf2 233e 5a3b 903e bfee 05be
000001f0: 6c50 58bd 5ec5 83be b1ca 82bb 71cf 13be
00000200: 1336 51be d06d 143f 4825 5cbd 2f5a 0e3e
00000210: 4165 4cbe 3384 8b3e 7d0d 6cbe 5efb 34be
00000220: 86b0 0cbd a7b7 92bd f093 1cba b665 50be
00000230: a682 ac3b 66cc 783e e311 e5bc 4704 5abe
00000240: e92c dabd 5dcb 5f3f 07ef 1e3d b382 1f3e
00000250: 58eb 6dbe 0c6d 423f 7114 69bc 8952 563c
00000260: 7576 773d 1389 94be a9a9 92bc 13e2 dbbd
00000270: 514f 463e 4d4a bc3e e78b 883d 5b26 5cbe
00000280: 274c 223d 2a8c 5d3f 957e 00be 7259 103e
00000290: 18f1 d13b 8296 363f 1ca7 23be a044 313e
000002a0: e996 33bd aea9 b5be b8e8 9fbd 4eec 443d
000002b0: 0484 b7be ab1f be3d 37b1 02be 99aa 8a3e
000002c0: 4a9d a7be c1db 19be 9ee6 ddbd db57 12be
000002d0: 17dc bbbe bded 6a3e c533 adbd 7511 243e
000002e0: 8b38 05be 1e33 ca3b f999 15be d533 22be
000002f0: be88 383d 24e5 293d 6eb6 07bd 0e57 5fbe
00000300: d9c5 713d e88a a9be 158e 64bd a5d9 0ebe
00000310: 988b 8d3d 8be4 f33d f5b0 58be bb10 debd
00000320: a657 7d3d 2532 d6be 0fa2 e0bd 1b29 0dbe
00000330: 512f 72bd de55 01bf 83b9 01bc d17e 623d
00000340: 7bb9 07bd 175d 9f3f 6ae3 51bd d05d 663d
00000350: 3660 01be 49f3 573e 2e21 9f3d 1947 94be
00000360: f78f 6cbe b1f7 5b3e 9675 9dbc 4568 15be
00000370: e0d6 523e 9401 0e3e a0d4 b33e b616 3ebe
00000380: 6845 413e 27c0 013d c00d a0be a518 5d3c
00000390: 157c 1d3e afc3 973f 3c4f adbc d302 583e
000003a0: 9ee6 c7be 4786 81be b4b0 c8bd cd86 0abe
000003b0: 9274 883e 72eb 6c3e 49c4 07bd edc5 07be
000003c0: 5ede 94be 6964 7bbe 3d33 663d cbd3 bf3c
000003d0: 4dd5 debc 2f51 b7be 2e3e adbd 74a9 bbbe
000003e0: 8573 14bc 2030 983e 774f 5c3d ad78 99be
000003f0: 356c 81bd 0dd2 053e 452f d53e 4661 9cbe
0.07347245 -0.4288869 -0.35052553 -0.18370613 0.023770275 -0.11688231 -0.055617653 -0.13007149
0.10083166 -0.27764863 -0.14911216 0.40988973 0.26821187 -0.38801607 0.21138561 0.102016345
-0.14328548 0.9808919 0.08028009 0.17391597 -0.058582526 -0.34348828 -0.07876463 -0.25163808
-0.3534397 -0.36951977 0.13362487 -0.09695172 -0.16144235 -0.14825368 -0.038549222 -0.38985485
-0.1646897 -0.030801112 -0.10700609 -0.11433443 0.060762323 -0.48950213 0.15004654 0.10117999
-0.4397475 0.010234949 -0.016415173 -0.12938048 0.11922588 0.24467403 -0.038798805 -0.22840834
0.12082182 0.17913406 0.08632983 -0.19461876 0.26745856 0.10460043 0.06388932 -0.1255017
-0.19973072 0.6370487 -0.017441083 0.06870366 0.02854512 0.267603 0.02906505 -0.23905468
-0.008892153 -0.110118814 0.10188387 -0.3123572 -0.14861006 -0.13486521 0.0455474 -0.2709391
-0.20678341 -0.074728504 0.020430706 -0.28087074 0.13025637 0.08230414 0.06861021 -0.18526752
0.12008618 -0.19168055 -0.32963216 0.023579884 -0.07275021 1.263794 -0.026828583 -0.008539932
0.18195038 -0.4818712 0.20038973 0.102864854 -0.04057522 0.08135946 0.064744465 -0.27289394
0.055828758 -0.3678147 -0.079558775 -0.14634234 0.093275085 -0.38449043 0.11745242 0.0730064
-0.21622118 -0.050419416 0.041619286 -0.28972787 0.24885528 0.065639906 -0.2155621 -0.12296139
0.37543938 0.23663627 0.18110378 -0.28879637 0.026640974 -0.3715686 0.18620372 0.073564254
0.4954149 0.1601059 0.28170282 -0.13079356 -0.05281107 -0.25736517 -0.003991448 -0.14434601
-0.20430784 0.5798006 -0.05374649 0.1390159 -0.199605 0.27249297 -0.2305202 -0.17674014
-0.034348033 -0.07163935 -0.0005972972 -0.203513 0.005264598 0.24296722 -0.02796263 -0.21290694
-0.10653097 0.8741968 0.038802173 0.15577202 -0.23234308 0.7594764 -0.014226065 0.013081201
0.060415704 -0.2901083 -0.017903166 -0.107364796 0.19366194 0.36775437 0.06667309 -0.21499006
0.039623406 0.86542 -0.12548287 0.1409662 0.0064069144 0.71323407 -0.15981716 0.17311335
-0.04384509 -0.35481018 -0.078080595 0.04807692 -0.35842907 0.09283384 -0.12762915 0.2708328
-0.3273719 -0.15025236 -0.10835002 -0.14291327 -0.36691353 0.22942252 -0.0845714 0.16022284
-0.1300985 0.0061706444 -0.14609517 -0.15840085 0.045052283 0.04147829 -0.033132963 -0.21810552
0.059026573 -0.3311379 -0.055799562 -0.13950212 0.06911391 0.119088255 -0.21161254 -0.10843035
0.061851166 -0.41835132 -0.1096841 -0.13785212 -0.059127156 -0.5052165 -0.007917765 0.055296723
-0.033135872 1.2450284 -0.05124227 0.05624181 -0.12634358 0.210889 0.077700004 -0.28960493
-0.23101793 0.21481206 -0.019221108 -0.14590557 0.20589781 0.1386779 0.35123158 -0.18563351
0.18874133 0.03167739 -0.3126049 0.013494645 0.15379365 1.1856593 -0.021155946 0.21094827
-0.39043134 -0.25297758 -0.097993284 -0.13527985 0.26651436 0.2313669 -0.033146176 -0.13259096
-0.29075903 -0.24550022 0.05620121 0.02341642 -0.02720132 -0.35804126 -0.084591255 -0.3665272
-0.009060745 0.29724216 0.05378672 -0.2997488 -0.06319467 0.1306841 0.41637626 -0.30542964

linear1.bias f4 [128]
00000000: 9c26 8a3e 3421 83be 8b88 3a3e 30de ac3e
00000010: c90b 413e ca85 65be 16a0 143f 0ee4 d43d
00000020: 8b22 b2be ab27 613e 0fff 903e c525 34be
00000030: 47bd 283e 6654 713e b0f3 883e 16c4 febd
00000040: 3fed 0abd 55d8 133e 93c2 7ebe 4df3 21bc
00000050: 8cc5 bc3e 7222 a13d e22e c43e fa8a c6bd
00000060: 1a40 60be 34bf 793e b35d fabc 660a 003e
00000070: 9074 ed3c ac9d 123e cc02 5e3e 936d 1dbe
00000080: 8a58 b03e 4e23 86be d5b8 41be 8b56 0dbe
00000090: 1e39 673e cdf2 8a3e 102b 6cbe 7f17 78bd
000000a0: b726 733e b990 453e f083 3f3e ed46 103e
000000b0: 3357 dc3e ce56 9d3c 9eec 873c 17bd 24be
000000c0: 7a03 7cbe f191 46be b67d 42be 04ef 4d3e
000000d0: 94d3 cb3d 8b66 91bd e10d 83be 960e bd3e
000000e0: 30e5 963e cb4a c23d 1978 dc3e 7e16 153e
000000f0: 5f52 893e fc80 13be 16cd 65be 3eaf c13d
00000100: 6288 84bd 2257 adba c394 2e3e ad1b 37be
00000110: 7133 443e b64b bd3c 73a5 153e 2189 4d3e
00000120: f178 11be 191b 83be 89e9 303e 6d09 9cbd
00000130: 8dc6 44be e573 6a3e eaac 79bd b0fa b4bc
00000140: 1b0b 713e 4a35 643e a9ef 92bc ee01 9b3e
00000150: 85ab 3a3e 3573 243e fb93 f5bd 5e44 943d
00000160: a3f4 a5be b26e cf3b d8ae 0f3e 2933 adbd
00000170: 886d d83d beb5 a6be f8b6 7abe b240 563d
00000180: c326 28be 9299 613e 4c08 f43d 30ab 063e
00000190: d212 343e 1a02 e4bd a1f4 7c3e 29f6 013e
000001a0: 1e22 1c3e 9cf2 383e c2ab 123e b28a eaba
000001b0: 94ee 5e3e 8044 5ebe eafc 0b3e 124b 133e
000001c0: 2d1c 3c3e 4a46 30be 4ff7 3b3e b3d1 15bd
000001d0: 4118 203e 80b7 0e3e 86d7 46bc 6a64 423e
000001e0: 0c8d 61be d477 d2bb 5eb4 3d3e ab59 debd
000001f0: 9f2f 61be 6e29 9c3e 8d7d 453e bb61 0b3e
0.26982582 -0.2561127 0.1821615 0.33763266 0.18852152 -0.22414318 0.5805677 0.103950605
-0.3479198 0.21987788 0.28319594 -0.17592533 0.16478454 0.23567352 0.2674842 -0.12439744
-0.03391766 0.14437993 -0.24878912 -0.009884668 0.36869466 0.07867898 0.3831702 -0.096944764
-0.21899453 0.24389344 -0.030562257 0.12503967 0.028986245 0.1431796 0.21680754 -0.1537383
0.3444255 -0.2619881 -0.18918164 -0.13802545 0.22580382 0.27138367 -0.23063302 -0.060569283
0.23745237 0.19293489 0.18702674 0.14089556 0.43035278 0.01920643 0.01659232 -0.16087757
-0.24610701 -0.1939161 -0.18993267 0.20110708 0.09952465 -0.07099637 -0.25596526 0.3692519
0.2947173 0.09486922 0.43060377 0.14559361 0.26820657 -0.14404672 -0.22441515 0.09457253
-0.064713255 -0.001322482 0.17048936 -0.17881651 0.19160248 0.02310739 0.14613895 0.20071842
-0.14206292 -0.2560661 0.17276587 -0.07618985 -0.19216366 0.22895773 -0.06095592 -0.022092193
0.23539393 0.22285953 -0.017936544 0.3027491 0.18229492 0.16059573 -0.11991116 0.072396025
-0.32413206 0.0063303346 0.14031541 -0.08457024 0.105677664 -0.32560533 -0.2448386 0.052307792
-0.16421036 0.22031239 0.11915645 0.1315124 0.17585304 -0.11133213 0.24702694 0.12691559
0.1524739 0.18061298 0.14323333 -0.0017894118 0.21770698 -0.21705818 0.13670698 0.14384106
0.18370123 -0.17214313 0.1835606 -0.036576938 0.15634252 0.13937187 -0.012136346 0.18983617
-0.22026461 -0.006422976 0.18525836 -0.108569466 -0.21990822 0.30500358 0.19286175 0.136115

linears.0.weight f4 [128, 128]
00000000: fc75 cbbe 74be 083e e954 e53c d2b6 f5be
00000010: 4303 a6bd 667e 2b3e a8ad 05be f5bc 82bd
00000020: 2b52 303e b043 bfbe c622 73be e6c6 673d
00000030: 8ccb 8e3d efc8 223d 1cd2 3fbe 20ba 873d
00000040: eb6e 2a3d 79e0 4b3e 6f05 243c 1072 643e
00000050: 2e67 99be ec05 55bd dbb5 debe 4d61 533d
00000060: cfe0 9e3d ffdf ffbe bd47 1c3e 17f0 71bc
00000070: c6fb fd3d 7879 1fbe 3983 4e3e ea3e 063e
00000080: d486 bbbd 4fc8 823c 7ad3 ae3e e24a 933d
00000090: a4cb 0cbe 0fc3 37be 2540 883e a550 683e
000000a0: 8ac7 68be e769 35be 821b 0dbf 9039 56bd
000000b0: 48c0 363e 5cec 67bd fd08 adbe 7fe7 fe3d
000000c0: 10ef e4bb e26a c03c 6f10 913e 6478 febe
000000d0: a441 58be 7843 9b3e 4f69 3f3e 939f 70be
000000e0: 6082 91be bca6 09be e4e7 e33d 3915 e43c
000000f0: 3f20 0ebf 7fe9 0e3e c01d ea3d 0d36 903d
00000100: 5cea 903e d50f e6be 2879 03be a589 853d
00000110: 32da 02bf 7f20 873c 4d44 edbe b6f6 c53d
00000120: 77b8 a23d 8e2e 7f3e 0c77 6dbe 69f1 703c
00000130: 0650 443e 1aa7 1fbf 2170 963d f95a 9e3d
00000140: 5552 15be cc9c 92be 8c9e 8b3d 52af 1ebd
00000150: 05ed ddbb 118b 813d 569d 4b3d 64f4 c33d
00000160: 421c 0b3e c625 133e 25db 04bf 34a4 cd39
00000170: f0bf 983c 433e c93d 7dd7 7a3e b903 bfbe
00000180: 9771 a13b f671 dfbe 0577 ebbd 153d ed3c
00000190: 34af a43d ffbf 8c3d 8cc1 403d 5f33 18bd
000001a0: bf67 0dbf bcea a4bd eb3d cf3d 0ce2 a4be
000001b0: 742f 00bf fcb3 133c 31a6 aabd 2169 a1bc
000001c0: 5c1d d4be 234d 693d db7c 9ebc 6b5c 9bbd
000001d0: 98f0 d3be ebfb 6ebe 333e 703d 1a17 babe
000001e0: 40f1 1c3e e6e7 6bbe 9660 d1be 2566 743e
000001f0: e611 153e cda6 f8bc e0ff 0a3e 7ae3 a5be
00000200: ad4e c7be ab61 503e 7999 22bf 56e3 f5bb
00000210: 0837 653d 6c4f 87bc d655 debd ae65 a6bd
00000220: aefc ce3d 4f7d e3bd 091a 64be ff98 c23d
00000230: a306 00bd 35e0 523e a8ae db3e 0315 143e
00000240: a3ba c03d 3364 1ebe 5443 2ebe f4fc 333d
00000250: 825a a1be 239b 6b3f ddf8 1abe ba94 05be
00000260: ca3e 0fbe b5e0 83be 38da d3bd 6cfb 763d
00000270: 7331 143e ff20 45be 477d 0c3e 80c6 05be
00000280: 2950 183d 2559 46bd 742d 84be ef9b 6e3e
00000290: a5fa 3c3e 3c1e ab3e 329b e33c 7b90 283e
000002a0: 1ed5 a03e ab28 323e 8ce5 46bf 400e 0cbf
000002b0: 4ccf e7bd d647 c2be 3b77 cebe 0043 26be
000002c0: ae20 9d3e 03f6 d13c 0aa6 f03c 4917 28bf
000002d0: ad3f 1a3f d79a 3e3d 29b0 253d dfa4 98bd
000002e0: 0009 2abe 57bb 993e 341a 11be 9d38 513e
000002f0: 88f3 0cbf 17bc b5bc 6247 e13b 44dd 583d
00000300: 07f7 bb3d aaba d2be 1166 a03e d772 72bd
00000310: 7757 cdbe c5ce a83d ae90 d0be d47c 8e3d
00000320: c5ad 9d3d 1997 5c3e bd36 183f 279d 583e
00000330: e8df 83bd 5571 17bf 6581 cdbd e3b5 1b3b
00000340: 79c0 8a3e 77d7 07bc 5640 fd3c b6c5 b23e
00000350: 43a3 64bf b5f6 8abe 7a39 5abe 47f3 053e
00000360: 0328 c43d d967 2e3e e52e 16bf 9c39 46bd
00000370: adee a2be 847b 8fbd d915 4abe 844e 06bf
00000380: 5ee2 423d a918 e4be c105 2dbe 093f e53c
00000390: 25bb 433e 8834 723d 9a4e 52bd a8c1 f6bd
000003a0: fbc0 30bf 72af c43d deea b3bb d9ce 16bf
000003b0: 1e38 bdbe 899a 393d e7b7 983e b50d 3e3b
000003c0: bb9f 083c 164c dd3d e314 563d 018d 633e
000003d0: 6154 38bf 1fd4 9a3e b506 ef3d 817b e2bd
000003e0: b13c 0abe 8aab 063f cb9e 02bf 53c6 64be
000003f0: 021c 0dbd f996 3ebf 97cf 94bd c860 c2bd
-0.39738452 0.13353902 0.02799459 -0.47991043 -0.08106091 0.16747436 -0.13054526 -0.06383697
0.17218845 -0.3735633 -0.23743734 0.05658617 0.06972417 0.039742406 -0.18732494 0.066272974
0.041609686 0.19909848 0.010011061 0.22309136 -0.29961532 -0.0520076 -0.4349812 0.051606465
0.077577226 -0.49975583 0.15261741 -0.014766715 0.124015376 -0.1557368 0.20167245 0.13109937
-0.09156576 0.015964655 0.3414572 0.07192017 -0.13749558 -0.17945503 0.26611438 0.22687013
-0.22732368 -0.1771618 -0.551201 -0.05230099 0.17846787 -0.056621894 -0.3379592 0.12446498
-0.0069865063 0.023488466 0.2833285 -0.49701226 -0.2111879 0.30324912 0.18692516 -0.23498373
-0.2841978 -0.1344251 0.11128214 0.027842151 -0.55517954 0.13956259 0.114314556 0.07041559
0.28303802 -0.44933954 -0.12839186 0.06520394 -0.5111419 0.016494988 -0.46341172 0.09666197
0.0794534 0.24920103 -0.23189944 0.014705994 0.19171152 -0.6236435 0.07345606 0.077321954
-0.14582188 -0.28635252 0.0681735 -0.038741417 -0.0067726397 0.06325353 0.049710594 0.09568098
0.13584998 0.14369878 -0.5189689 0.00039222988 0.01864621 0.098263286 0.24496265 -0.37307528
0.004926871 -0.43641633 -0.114973105 0.02895979 0.0804123 0.06872558 0.04705958 -0.037158366
-0.5523643 -0.080525845 0.10119232 -0.3220371 -0.5007241 0.00901508 -0.0833248 -0.01970345
-0.4142865 0.05695833 -0.019346645 -0.07585987 -0.41394496 -0.23338287 0.058653068 -0.3634575
0.15326405 -0.23037681 -0.40894002 0.2386709 0.14557609 -0.030352974 0.13574171 -0.32400113
-0.38927212 0.20349757 -0.6351543 -0.007503907 0.055960685 -0.016517363 -0.10856216 -0.081248626
0.101067886 -0.11107885 -0.22275557 0.09501838 -0.03125633 0.2059334 0.4290669 0.1446114
0.09410598 -0.1546791 -0.17017871 0.043942407 -0.31514364 0.92033595 -0.15133996 -0.13045016
-0.13988796 -0.25757375 -0.10344356 0.06029837 0.14471988 -0.19250868 0.13719665 -0.13064003
0.03718582 -0.04842486 -0.25815928 0.23301671 0.18454988 0.33421504 0.027783964 0.16461365
0.31412596 0.17398326 -0.7769401 -0.54709244 -0.113188356 -0.3794543 -0.4032534 -0.16236496
0.30688995 0.025630003 0.029376049 -0.6566053 0.6025341 0.046534386 0.040451203 -0.07453322
-0.16604996 0.3002574 -0.14170152 0.20431753 -0.550591 -0.022184415 0.0068749646 0.05294539
0.09177976 -0.41158038 0.3132787 -0.05919155 -0.40105793 0.08242563 -0.40735382 0.06957403
0.076991595 0.21542014 0.59458524 0.21153699 -0.06439191 -0.59157306 -0.10034446 0.0023759536
0.2709997 -0.008291117 0.030914467 0.34916466 -0.8931162 -0.27141348 -0.21310988 0.13081084
0.09577944 0.17031802 -0.58665305 -0.048394784 -0.3182272 -0.070059806 -0.19734897 -0.52463555
0.04757916 -0.44550064 -0.16896726 0.027984159 0.19114359 0.05913213 -0.05134449 -0.12048656
-0.69044465 0.09603776 -0.005490645 -0.58909374 -0.36956877 0.04531339 0.29827806 0.002899987
0.008338864 0.10805528 0.052266013 0.22221757 -0.7200375 0.3023996 0.11671201 -0.11058713
-0.13499714 0.526055 -0.5102355 -0.2234128 -0.03445054 -0.74449116 -0.07266157 -0.09491116

linears.0.bias f4 [128]
00000000: f1b5 80be 6e6c 29be a4bc a93d d6f6 08be
00000010: 7e8d 0c3e 6fe7 8cbe 6b9a a23d f5f9 343e
00000020: 4546 b6bd ae58 1c3e 608f 6e3e ae1c a93d
00000030: 0e96 cebd 8c52 51be 82e0 c1bc 5751 56bd
00000040: 3724 ad3d 824d 8b3d d588 7e3d 27dc a4bd
00000050: 34cc cc3e e7fc 0d3e 0337 103e 5d86 d13d
00000060: 5bf4 e2bd 783f d93d 4332 7f3e d3bf 77bd
00000070: e444 133e 07f5 463e 167b f93d 02ab e03d
00000080: 502e e8bd 417d 3ebd 3e02 c83d 36f6 763c
00000090: a7a9 e03d 9fde ec3d f43d cdbc 509f 443e
000000a0: 4c41 08bc babc 453e d7b6 343e cfd4 a73d
000000b0: 02f8 b2bd 1d4d 3d3d 7f5b 3c3e 10d7 443d
000000c0: e749 753d 2d52 02bd 090c bb3d ac77 a9bc
000000d0: eef9 e53d 7cda 103e fe3c 5e3b d6f3 683d
000000e0: b5e7 debc d333 883c 440e ea3d f18d 433e
000000f0: 2da2 3dbe 3c00 dc3d 62f9 70bc 746b 973d
00000100: c7ee 543d f657 823c 2ad1 533e 7390 3b3d
00000110: 863b d93d 8141 94bc 5714 4dbd 8450 e13d
00000120: 5a3a 343e 1f5e 2cbc 57ee ca3e a195 0f3e
00000130: 54be 3b3d f4ed 7cbc 040d 893e 1ddb be3d
00000140: 0e1c dd3d e6f6 2b3e 673b 3cbc 4d41 7a3e
00000150: a333 04bd 0000 0000 d0e3 023e 56e2 a63d
00000160: 6484 00be 02cd 433e 835a 023e a6a7 ac3d
00000170: d928 843e 13ab 013e 2df5 ee3d affb b13e
00000180: a2f1 f33d 8efa 11be d7f2 a53d af6b 8bbe
00000190: 7ffe 6c3e d21d 49be af39 2abd e21d 963d
000001a0: 08bc 013e 2fca 503e 9b93 08bd 6795 4c3e
000001b0: 38d7 93bc a4c4 a0bd 6ef2 ff3d 4211 e1bc
000001c0: d5e6 543e 4646 dfbd 8210 f3bd 9dad 48bc
000001d0: 950c 1b3f 0ae0 7b3e f56f e43d 94ae 193e
000001e0: 0ff6 a53d 64b0 4fbe 993b 283e 551c d23d
000001f0: 986c e23c 839c 803d bd6c e03a 8751 ca3d
-0.2513881 -0.16545269 0.082879335 -0.1337541 0.1372585 -0.2752032 0.07939609 0.17673476
-0.089001216 0.15268204 0.2329688 0.08257423 -0.100872144 -0.20441645 -0.023666624 -0.052323665
0.08454173 0.06801893 0.062142212 -0.08049803 0.39999545 0.13866006 0.14083485 0.10230706
-0.11081763 0.10607809 0.24921517 -0.060485672 0.14381748 0.19429408 0.1218168 0.10970117
-0.113369584 -0.04650617 0.09766053 0.01507335 0.109698586 0.11565899 -0.025053956 0.19201398
-0.008316349 0.19310275 0.17647873 0.08194887 -0.0873871 0.04621612 0.18394278 0.048056662
0.059884932 -0.03181665 0.09133155 -0.020686947 0.11229311 0.14145845 0.0033910866 0.056873165
-0.027210096 0.016626274 0.11428502 0.19097115 -0.18518896 0.10742232 -0.014707895 0.07393542
0.05198553 0.015911084 0.20685259 0.045792054 0.10607056 -0.018097641 -0.050068226 0.11001685
0.17600384 -0.010520487 0.39634964 0.14021923 0.045835808 -0.015437592 0.26767743 0.09319136
0.10796367 0.16793403 -0.011488772 0.24438973 -0.032275807 0.0 0.12782216 0.08148639
-0.12550503 0.19121173 0.1272984 0.08430414 0.25812414 0.12662916 0.11667857 0.34762332
0.11911322 -0.14255735 0.08102959 -0.27230594 0.23143958 -0.19640282 -0.041558918 0.073299184
0.12669384 0.20389627 -0.033343893 0.19978867 -0.01804696 -0.07850006 0.12497412 -0.02747405
0.2079118 -0.109020755 -0.11868383 -0.012248424 0.60566074 0.24597183 0.111541666 0.15008003
0.081035726 -0.20282131 0.16428985 0.1025931 0.027639672 0.06279852 0.001712225 0.09878831

linears.1.weight f4 [128, 128]
00000000: bdbd 333e bf53 d1be 1688 9a3e fb78 5c3e
00000010: 1139 493e 77d8 e9be 8849 9b3e 24ed 563e
00000020: 2a38 71bd 74dd 3b3e a754 5d3e c278 79be
00000030: 86d7 81bd 7749 f1bd 1f2a 9e3e de4d 49bd
00000040: 3012 ee3e 00d1 0c3e 48fc 003e af46 a2bc
00000050: 6758 3b3e 9ef3 963d fbf0 8cbd 4733 5c3e
00000060: 618b 20be 6806 e5be 9489 843e d72a e4bc
00000070: 2c8c b23e a979 743d 11cf 383e c7b5 053f
00000080: 9066 873c 0589 8a3d bfbd 243e 18bb 53be
00000090: 5a3b 7e3e e0f6 c33d 22aa 833c 40fb 043e
000000a0: 15f8 8c3d e9d2 8a3e bac5 303e 0d91 743d
000000b0: 80cd e53d d34e f0bd aedb 8c3d f4ed be3d
000000c0: 91ed 7b3c a33f 203e a7eb cc3e 8e5b c13d
000000d0: 4b27 5fbd cc3f 8d3e 7a4b 813d 74dd 2b3e
000000e0: 5bcd 7b3e 5973 013d 8b68 ee3e e543 07be
000000f0: 9010 84bd de16 bb3e 3332 123b 998c 943e
00000100: 1ced 823e d015 773b fe22 35be dd3b 263e
00000110: 57ef 873e 6351 463c 2643 f83d 1cc0 2a3e
00000120: 2f7f fb3d 3a92 683e a1c3 8dbd db19 3e3e
00000130: 12f1 5f3e 64d5 0b3e 5f7d 833d 1b29 833e
00000140: 8ba7 dc3e 5831 c13d 7812 a33d 631c b43e
00000150: fdfb 83be 2a44 713d f3c4 ff3d c9b5 67bc
00000160: 4424 443d 9a88 52be fcb5 013f 94d7 c73d
00000170: ddae 683e f4a1 8bbc b81b e83d c317 293c
00000180: baa7 a93e d80b 6bbd f055 4e3e 5757 d5bd
00000190: a227 763e ca9c c63e ad05 67bd 4ee3 2e3e
000001a0: 589f 363e 1e4d 0c3b 8499 d03d 1a1d b9bd
000001b0: 91b0 5e3e 3c27 443d cd40 313e 1cb1 793d
000001c0: 8d0b ac3d dc45 fe3d 1caf 71bd f72f 853e
000001d0: 47c0 783e cee9 7fbd 4276 643e 1593 9bbd
000001e0: cb7f 473d 374d 5abe f263 873e 6776 e13e
000001f0: affe 8c3e 56cb 873d e895 003e acd0 913d
00000200: b5b2 903e 3d06 4e3f d16d afbe 4c9f 353f
00000210: ad6b b33e 1edc 513f ec78 26be 4471 233d
00000220: ddad 003f 1261 ae3e 7c25 9e3e c202 e7be
00000230: 67e3 e63e d28f 893e d8df 3ebc e43e 443e
00000240: 3ee0 dabe 4f69 8d3e 481a fdbe fa16 193f
00000250: eaa3 af3e 944f 993e 6c78 5a3e 5981 c33e
00000260: be67 2d3f 7bef 263f e368 713e c6be 8a3e
00000270: 6613 ed3c 5be1 553e 18b7 e93c 9d74 bcbe
00000280: 9f68 c63d a65e da3d aebb 47be 8bdd 2e3f
00000290: a118 5abe 1ad5 eb3e f035 303e 75eb af3e
000002a0: 77d6 063e 0be4 af3e 907b aa3e cd31 a83e
000002b0: dbd9 1a3f 6448 ae3d 4a4b 933d 6f24 8c3d
000002c0: 6fdf 173e 06e0 803e d0ce cfbe 6ae0 393d
000002d0: 81b1 7a3e b3d3 443e 24cc 11be b33d 763e
000002e0: 9ccb 0f3e b776 ae3c 458b 63be 5099 863e
000002f0: 6d7c 883b df4d 83be 300d 43bd ca0d 8ebe
00000300: 0ded 3bbf 06f6 583e a6fd 873e 9fff 0c3e
00000310: 2a6f 1ebe 9037 af3e ce78 2b3e 1cdf 7ebe
00000320: 3ebf 463e 217e b63e f9ec febc 892c 1e3e
00000330: 10e7 5e3e 42e0 f23d 1023 803e 4beb 8bbe
00000340: 761f 7bbe 8745 793e c301 4f3d 2f20 823e
00000350: 37c1 b7be 98ac 5abd a05b 033e 8fac 9a3e
00000360: 8ce0 193f d76c fa3d 3b85 1abe f954 44be
00000370: 2cf5 c83d 340f 893e 1b76 773e 56b9 5f3e
00000380: 7836 febd 5315 123f e9ae 5ebe ad23 eb3d
00000390: c04d f63e 275f 7bbd b771 223f f00e f0be
000003a0: d8cd 883e f99d e23d c85d 3a3e 9827 3d3e
000003b0: 2b91 1a3d b508 b43d 1ceb 393e c455 883e
000003c0: 5f82 9e3e 286b 313f 3ae9 bf3e b294 e13d
000003d0: 31d9 443e 404a 753e d23b 7abe 35a8 5b3e
000003e0: 1bbe 843e 93ca 653e da32 5a3e 98dd a6be
000003f0: 6d08 303e e132 133e 39d0 b93c e3bf 913e
0.17552848 -0.40884206 0.3018195 0.21530525 0.19650675 -0.45672962 0.30329537 0.209889
-0.058891453 0.18346196 0.21614324 -0.24362472 -0.06339936 -0.117815904 0.3089151 -0.049146526
0.4649825 0.13751602 0.12596238 -0.019809095 0.18295442 0.07370685 -0.06881901 0.21503936
-0.15678169 -0.4473145 0.25886214 -0.027852459 0.34872568 0.059686337 0.1804774 0.52230495
0.016528398 0.06764416 0.16088007 -0.2067684 0.24827328 0.09568572 0.016072337 0.1298647
0.068832554 0.27114037 0.17262927 0.059708644 0.11220837 -0.117337845 0.06877838 0.0932273
0.015376464 0.15649275 0.40023538 0.09441291 -0.054480832 0.27587736 0.06313224 0.16783696
0.24590056 0.031604145 0.46564135 -0.13209493 -0.064484715 0.36540884 0.0022307753 0.29013517
0.25571525 0.003770221 -0.1768913 0.16233774 0.2654979 0.012104365 0.121221825 0.16674846
0.12280118 0.22712031 -0.06922079 0.1856455 0.21869305 0.13655621 0.06420397 0.25617298
0.43096575 0.0943324 0.07962507 0.35177907 -0.2577819 0.058902897 0.12488737 -0.014142462
0.047886148 -0.20559922 0.5066831 0.09757915 0.22722955 -0.017044999 0.11333412 0.010320607
0.33135778 -0.057384342 0.2014997 -0.104170494 0.24038556 0.38791496 -0.056401897 0.17078897
0.17834222 0.002140827 0.10185531 -0.09038754 0.21747042 0.04788898 0.17309876 0.06095992
0.08400641 0.12415668 -0.059004888 0.26013157 0.24292098 -0.062478833 0.22310737 -0.07596413
0.048705857 -0.21318518 0.2644344 0.44035646 0.27538058 0.0663058 0.12557185 0.07119879
0.28261343 0.8047827 -0.3426347 0.7094619 0.35043088 0.819765 -0.16257066 0.03990294
0.50265294 0.34058434 0.30887973 -0.45119292 0.4509537 0.2686754 -0.011650048 0.19164616
-0.42749208 0.27619407 -0.49434114 0.59800684 0.34304744 0.29943526 0.21335 0.38184622
0.67736423 0.6520917 0.23575167 0.27098674 0.028939914 0.20886748 0.028529689 -0.3680772
0.09687924 0.10662584 -0.19505188 0.683068 -0.21298458 0.4606102 0.17208076 0.34359327
0.1316775 0.3435367 0.33297396 0.32850495 0.6048867 0.08509901 0.071920946 0.06842887
0.14831327 0.25170916 -0.40587473 0.045380034 0.24481775 0.19221382 -0.1423803 0.24046974
0.14042515 0.021296842 -0.22221096 0.26288843 0.0041652233 -0.25645348 -0.04762 -0.27744895
-0.73408586 0.211876 0.26560706 0.13769387 -0.15472093 0.34222078 0.16745302 -0.24889797
0.1940889 0.35643104 -0.031118857 0.15446676 0.21767831 0.1185918 0.2502675 -0.27327952
-0.2452372 0.24342929 0.05053879 0.2541518 -0.358896 -0.053387254 0.12827921 0.30209777
0.60108256 0.12227791 -0.15089886 -0.1917304 0.09812388 0.26769412 0.24166147 0.21848044
-0.12412733 0.5706379 -0.2174641 0.11481414 0.48106194 -0.06137004 0.63454765 -0.46886396
0.26719546 0.11065287 0.18199837 0.18472135 0.0377361 0.08790723 0.18156093 0.26627934
0.3095884 0.6930413 0.37482625 0.110146895 0.19223477 0.23954105 -0.24436882 0.21450885
0.2592629 0.22440557 0.21308461 -0.32590938 0.17190714 0.14374878 0.022682296 0.2846671

linears.1.bias f4 [128]
00000000: 0afd 9d3e c30d b43d 1738 823e b13a 1e3e
00000010: 5c32 14be fa47 c73e 23af e23d 0211 ac3c
00000020: aeca 85bd c6c8 2dbe e585 5b3d ba56 1a3c
00000030: 75c1 6d3e 378c 023d 4c37 44bd d808 f2bb
00000040: 2812 0d3e ddee 453e 2fbc dbbc deab 91bd
00000050: 4148 693e 8e21 0bbe 8c4c 9a3d 29ec 75bc
00000060: 3ee3 d73d a478 6c3c 92cf 763c a05d 9bbb
00000070: bd19 0abe 8b13 813d 75ff c6bb 8eae 293e
00000080: 0b7b 543e 937a 123d 0c5c ac3e ee73 823e
00000090: 51f0 88bd 82d5 e13d 3ca2 553c d89e 75bb
000000a0: b5f9 41be d086 aebe 31ca babd a1f2 77bd
000000b0: 6db3 9d3c d187 70be 29d1 de3d 9d4c 2f3c
000000c0: 7287 593c 9f77 083a 9e9b 8cbd 5046 04bb
000000d0: a135 b13d d30c 52bd 29cd 913e 0cd7 45bc
000000e0: f3e6 41bd 5562 c73d 14d2 903d c364 223e
000000f0: 75e6 57be 4913 533e c162 6dbc 57b8 383e
00000100: 1ebf 783e 774b d2bd e9ce d9bd 98cf dc3d
00000110: f6ef 81be a3d9 a43d f171 07be 3c2b 47be
00000120: a642 a0be 1356 933d 14d5 6cbd 1551 1dbe
00000130: 59be 743e 9977 7a3d 3208 03be ab8f 313e
00000140: 5107 43bd 6e27 83bc 00e7 833d 2f0e c73d
00000150: e918 793e e162 2f3e 5410 7a3d df81 c5bd
00000160: 5fe7 0bbd 83f0 b23d aca9 9a3e 4363 363e
00000170: 4ff9 21be 3fab a0bb 6673 51bc 284c fc3d
00000180: 5a92 42bd f476 aabd 3034 09bd 6c34 1fbd
00000190: 85f5 34be 35e2 953d a1dc 143e 6626 043e
000001a0: 1790 c2bc 0000 0000 e399 a9be 2ec6 913d
000001b0: ce5a a0bd 42e9 aabc f611 b93e 4511 493e
000001c0: 1ce2 413e c2d4 62be 04db 8bbe 16a2 2b3e
000001d0: 975b 9d3e c64b 7d3e b8b6 4f3e 3129 6cbd
000001e0: 8ffc 56bd cae1 273d 021d c2bd d72c 763e
000001f0: b7e0 9fbd 661e 6e3e 3f78 d63c 7f4b 8dbd
0.30857116 0.08791687 0.25433418 0.15452076 -0.14472336 0.389221 0.11068561 0.021004204
-0.06532799 -0.1697112 0.05359449 0.009420091 0.23218329 0.031872 -0.047904298 -0.007386308
0.13776457 0.193294 -0.026823131 -0.07112859 0.22781469 -0.13587019 0.075341314 -0.015009918
0.1054139 0.01443306 0.015064137 -0.0047413856 -0.13486381 0.06302556 -0.0060729333 0.16570494
0.20750062 0.035761427 0.33663976 0.25479072 -0.06686462 0.110270515 0.013039168 -0.0037478711
-0.18942912 -0.3408723 -0.09120596 -0.060534123 0.019250596 -0.2348931 0.10879738 0.010699418
0.013276922 0.0005205813 -0.06865619 -0.002018351 0.08652807 -0.05128176 0.28476837 -0.012075197
-0.04733939 0.09735552 0.07071319 0.1585875 -0.21084006 0.20612825 -0.014488877 0.1803907
0.24291655 -0.102683 -0.10635168 0.10781783 -0.25378388 0.080493234 -0.13227059 -0.19450086
-0.3130085 0.07194152 -0.057820395 -0.15362962 0.23900737 0.061149213 -0.12796095 0.17339961
-0.0476144 -0.016010012 0.06440544 0.09719502 0.24325909 0.17127563 0.061050728 -0.096439116
-0.0341562 0.0873728 0.30207574 0.17811303 -0.1581776 -0.0049032266 -0.012783861 0.12319213
-0.047502853 -0.0832347 -0.033497036 -0.038868353 -0.17671783 0.07318536 0.14537288 0.12905273
-0.023750348 0.0 -0.3312522 0.07117878 -0.078298196 -0.02086318 0.36146516 0.19635494
0.1893391 -0.22151473 -0.27315533 0.1676105 0.3073394 0.24735937 0.20284545 -0.05765647
-0.052486952 0.040986814 -0.09478189 0.24040543 -0.07806533 0.23253784 0.026180385 -0.06899165

V.weight f4 [1, 128]
00000000: 781f 313e 5e77 02bf eb8e 1abf f5d6 e8be
00000010: a026 0fbf 0796 3f3e 5ed0 cfbe 78f7 3abf
00000020: 02e3 c1be 647f 0abf 586a f7be f36f c73e
00000030: 9cb7 c7be 6365 9f3e 90c1 dbbe ac5c ce3e
00000040: 9615 ad3e 59c7 b23e 83c5 d0be d841 f1be
00000050: e414 a03e 64ef 723e a992 d33e 26b1 c3be
00000060: e03c 29bf 04e6 0f3d 6c39 31bf 0f60 f93d
00000070: dd32 a93a fbbe cb3d cf2d efbe 0800 ee3e
00000080: 20c1 663e 8832 6a3e 2612 053f ecdf 2bbf
00000090: ad24 953d 9250 22bf cf3b cebe 83ed c3be
000000a0: 24fc 18bf a442 71be 1a12 debe 4b5a 04bf
000000b0: 0903 ffbe 9983 773c c7b0 03bf 3f1f 00bf
000000c0: a69d 623f 9697 e33e 4cd6 843e e436 ef3e
000000d0: 65bc de3e 31ae 43bf 7929 233e 8ea0 30bf
000000e0: 4b74 dbbe 2c87 08bf e090 c5be 6fde 443f
000000f0: e564 eabe 86d2 a23e 1d4c f8bd eb91 f83e
00000100: 9626 eb3e fc6b 283e da15 bbbe 9934 06bf
00000110: 29f9 0abf 7a4e 14bf 6593 20bf ed18 49be
00000120: 1bd0 11bf 9aca ddbe 3c74 d8be 83ec 0ebf
00000130: 08b9 5c3e 8dcc 0c3f 848e 26bd e9f7 093f
00000140: f47b f83e d6f1 383e 6ff8 d73e fd37 56be
00000150: 31de c83d a3a9 df3e daaa 003e 560d aebe
00000160: 1cdf 4ebd 5946 8f3e b184 13bf dfb4 8f3e
00000170: 64bf b6be 2e49 a43d d8bf 153f 4b4d ef3e
00000180: 19b0 fcbe 61cf c73e 958c 23be 9538 95be
00000190: 4fbc 0abf 3d9e 0dbf ab5c 7b3f 8160 cf3e
000001a0: 8c43 fabe 7512 393e 89c5 0dbf ef59 01bf
000001b0: 67ed 063f 7cc4 343f 8945 673e 00bc a43e
000001c0: f994 df3e 727a dd3d 4b45 1bbf 1066 a7bc
000001d0: 221e 003f ad7b f33e 1071 893e 920b b63e
000001e0: fa66 c4be 9ef9 e9be 8c67 693d 7ae9 8dbd
000001f0: 4ffc 50be 7abd 973e f01a 8a3e e618 d8be
0.1729716 -0.5096339 -0.60374326 -0.454765 -0.5591831 0.18709575 -0.4058866 -0.7303386
-0.37868506 -0.5410063 -0.4832332 0.38952598 -0.3900727 0.3113204 -0.42921114 0.40305078
0.3380553 0.34917715 -0.4077569 -0.47120547 0.31265938 0.23724133 0.4132283 -0.3822109
-0.6610851 0.03513147 -0.69228244 0.12176525 0.0012908835 0.09948536 -0.46714637 0.464844
0.22534609 0.22870839 0.5198082 -0.6713855 0.07282386 -0.6340419 -0.40280005 -0.38267145
-0.59759736 -0.23560578 -0.43373185 -0.51700276 -0.49807003 0.015107059 -0.51441616 -0.5004768
0.885218 0.44451588 0.25944746 0.46721566 0.4350311 -0.7643767 0.1593379 -0.68994987
-0.42862162 -0.53331256 -0.38587093 0.76901907 -0.457801 0.31801242 -0.121238925 0.48548827
0.45927876 0.16447443 -0.3654011 -0.5242401 -0.5428644 -0.57932246 -0.62724906 -0.19638415
-0.5695817 -0.43318635 -0.4227618 -0.5582964 0.21554959 0.5499962 -0.040663257 0.53893906
0.4853207 0.18061003 0.42181727 -0.20919795 0.09808005 0.4368411 0.12565175 -0.3399455
-0.050505742 0.27983359 -0.57624346 0.2806768 -0.35692894 0.080217704 0.58495855 0.46738657
-0.49353102 0.39025405 -0.15971597 -0.2914473 -0.54193586 -0.5531958 0.98188275 0.40503314
-0.4887966 0.18073447 -0.5537954 -0.5052785 0.52706 0.7061231 0.2258512 0.32174683
0.43668345 0.1081437 -0.6065261 -0.02043441 0.5004598 0.47555295 0.26844072 0.35555702
-0.38359815 -0.45698255 0.056983516 -0.06929298 -0.20408748 0.29636747 0.26973677 -0.42206496

A.weight f4 [50, 128]
00000000: 974c 3b3f 58bc 003f 7768 813f 4844 663f
00000010: 0bcd d33e b6d0 4c3f 8656 e93e 4489 253f
00000020: bf0d 4b3f b757 153f bcb5 fc3e dae5 383e
00000030: dc83 403f 54b3 443f 6f70 163f 212c 7e3e
00000040: 7ac8 443f f1e1 883f 2827 e33e 0b50 073f
00000050: 0050 a73f e2a3 43be 32c2 163e 2d26 a63e
00000060: 8e05 193f 1cbb 4c3e a240 3f3f 1684 5f3d
00000070: 30a7 1b3e 3ec2 273e 281a e63e 9041 793f
00000080: 8ae1 553f be8a 273f 21b2 753f 46d0 623f
00000090: 2ac1 283f 6ec7 f83e e067 eb3e 5bb2 383f
000000a0: 5138 ec3e 0338 523f 5d84 0b3f a012 893e
000000b0: cb38 e13e 8a09 ed3e e6a7 b63e aa5d 163f
000000c0: a7d4 0c3f 6fd6 373f 132c ef3d 4f26 9d3c
000000d0: 31f0 653f d4b3 d43e 2305 583f d0bf f83e
000000e0: 6880 043f 8624 193f 1c18 a43e b036 463f
000000f0: f968 b63e 74f7 643f 793c 7b3e fc55 503f
00000100: 25f0 753f 96a9 023f ea9a 8e3e 0d51 093f
00000110: e338 0f3f 1773 c53e 4643 043f dc13 0a3e
00000120: 757a 483f cea7 c33e 9942 e03e 7c87 063f
00000130: 22e9 2a3f 42de fc3e 4417 a3bd 9435 783f
00000140: cc40 c6bd 048d 183b 0f0a ea3e a497 7c3f
00000150: 5b14 0b3f 83cb 303f bacd 073f 781b 1a3f
00000160: fcbb 6f3e e784 023f 9e23 4a3f d529 583f
00000170: 626d 163f 3599 443e fdd0 663e fc8c 503f
00000180: 0943 023f 485a c3bc d1ec 143f f638 a73f
00000190: 5092 053f 1e14 4c3f bd44 083f 5ba6 6b3f
000001a0: 2519 9d3e 1535 15bd e561 e33e 03f6 973f
000001b0: acde 47be 4fbd ca3d d1c2 863f 20dd 673f
000001c0: 2715 623f 33bd 1d3e 1311 1f3f 3acb 053f
000001d0: 11f6 8c3f 3a72 593f d8fd 733f 2dc7 4dbe
000001e0: 2337 fd3e acad 003f 21ca e13e 292b 6b3f
000001f0: 32f0 523f 9ae0 203f be96 043f 073f ec3e
00000200: 7df4 343f ee72 df3e 2d76 693f d8eb 3e3f
00000210: 4691 153f d166 6e3f 22d7 e53e 563d 093f
00000220: 9102 5c3f 7a55 0d3f 0230 813e ca18 c93e
00000230: 8452 8f3f dc3c 153f 6f18 b83e 1b38 ef3d
00000240: cc6b 673f 0da1 683f a584 ee3e b50b df3e
00000250: 0dca 793f 906d 133d a1c3 e73d 2fe5 053f
00000260: 5dfa 9c3e 29c5 6a3e 3b0f 593f a1d2 50bd
00000270: 65db 943e d4f2 b83d 0a93 4e3e e0b4 483f
00000280: a44a 343f 352c 003f b41a 6d3f 5242 5c3f
00000290: e078 5e3f 033e 773f e0b4 f73e 89f2 193f
000002a0: 4c73 8f3e a193 683f 5e4a ca3e c998 ef3e
000002b0: 4ea8 e33e 8825 643e a001 bd3e 35e7 f03e
000002c0: cb29 213f 235a 003f 50e6 5c3c de73 45be
000002d0: 7ad0 703f 5135 683e 97fb 4b3f 64d7 283f
000002e0: 4cdd 9b3e 21b1 2b3f c481 be3e fdc5 593f
000002f0: 5946 d23e ae82 4e3f 5c7b 663c e68f f93e
00000300: b7a9 513f eb00 053f cbbb c53e bed6 0c3f
00000310: a444 ba3e 6793 113f feca 3f3f c2c1 5d3e
00000320: 3a25 133f b72d f33e 3e73 023f 272d da3e
00000330: 4c26 143f 8f49 213f 2c53 8f3e 6bbb 7e3f
00000340: 8f66 0e3c 7186 16bd 2cf2 b33e 0ebb 573f
00000350: 8956 4b3f 4d7d 0c3f 0197 723e ec1a ab3e
00000360: 58c6 dc3d 56b7 1a3f 18a6 7d3f 9999 503f
00000370: 151c 2f3f 94da 83ba b684 3a3e a9c6 1d3f
00000380: 0300 103f acdd bf3d 2959 0b3f cd3a c93f
00000390: e988 c63e 93a0 103f 1e66 e63e 49cc 3b3f
000003a0: 62dc 673e 0f9a 923c 6cfd c23e 4c07 723f
000003b0: 966c 703d 7b9b fbbd 0a7c 893f 33c8 8b3f
000003c0: d40e 523f c6f3 f03d 3526 cc3e 4117 273f
000003d0: 55ea 643f c416 143f b415 753f 4adf 6cbe
000003e0: 38c5 df3e 4657 073f e508 9c3e 993f 893f
000003f0: 99c1 333f 3597 1c3f cd95 343f 8433 da3e
0.7316374 0.5028739 1.0110005 0.8994794 0.41367373 0.8000597 0.45573825 0.64662576
0.7931785 0.5833697 0.49357402 0.18056431 0.752012 0.76836133 0.5876531 0.24821521
0.768684 1.0693952 0.4436581 0.5285651 1.3071289 -0.19105485 0.14722517 0.32451
0.597741 0.19993252 0.74707997 0.054569326 0.15200496 0.16382691 0.4494183 0.97365665
0.8354727 0.6544608 0.9597493 0.8859905 0.65919745 0.48589653 0.45977688 0.7214715
0.46136716 0.8211672 0.54498845 0.26772022 0.43988642 0.4629634 0.3567497 0.5873667
0.5501198 0.71811575 0.11678328 0.019183306 0.8981963 0.41543448 0.8438284 0.4858384
0.5175843 0.59821355 0.32049644 0.77427197 0.35626963 0.89440084 0.24534787 0.813812
0.96069556 0.5104002 0.27852565 0.536393 0.5594618 0.3856437 0.5166515 0.13484138
0.78311855 0.38213962 0.4380081 0.5255048 0.6676198 0.4938832 -0.07963422 0.96956754
-0.09680328 0.0023277411 0.457108 0.98668885 0.54327935 0.69060534 0.5304829 0.60198164
0.23411554 0.5098404 0.789606 0.8443883 0.58760655 0.19199069 0.2254066 0.81465125
0.5088354 -0.02384676 0.58173853 1.3064258 0.5217638 0.79718196 0.53229886 0.92050713
0.30683246 -0.036427576 0.44410625 1.1871952 -0.19518536 0.09899389 1.0528203 0.90571785
0.88313526 0.15404205 0.6213543 0.52263224 1.1012594 0.8493992 0.9530921 -0.20095511
0.49456128 0.50265 0.44099525 0.9186273 0.8239776 0.62842715 0.51792514 0.46141836
0.7068556 0.43642372 0.91195947 0.7457862 0.58424795 0.93125635 0.44890696 0.53609216
0.85941416 0.5520855 0.2523194 0.39276725 1.1197057 0.5829599 0.3595614 0.11680623
0.9039886 0.90870744 0.46585575 0.4356362 0.9757393 0.03599316 0.1131661 0.5230283
0.30659762 0.22926773 0.84788865 -0.05098212 0.29073635 0.09030691 0.20173278 0.78400993
0.7042639 0.50067455 0.9261887 0.86038697 0.8690319 0.96579 0.48380184 0.60135704
0.28017652 0.90850264 0.39509863 0.46796253 0.44464344 0.22279942 0.36915302 0.47051397
0.62954396 0.5013754 0.013482645 -0.19282481 0.9406811 0.22676589 0.7968077 0.6595366
0.30442274 0.6706715 0.37208378 0.8506773 0.41069296 0.8066815 0.014067497 0.48742598
0.8189959 0.51954526 0.38619837 0.5501517 0.36380494 0.56865543 0.74919116 0.21655944
0.5747868 0.47495815 0.50957096 0.42612574 0.57870936 0.63002867 0.27993143 0.9950473
0.008691444 -0.036749307 0.351457 0.842698 0.7942892 0.54878694 0.23690416 0.33418977
0.107800186 0.60436 0.99081564 0.8148437 0.68402225 -0.0010059648 0.18214688 0.61631256
0.5625002 0.093684524 0.5443292 1.572107 0.3877633 0.56495017 0.44999784 0.7335859
0.22642663 0.017895726 0.3808397 0.94542384 0.058697306 -0.12285515 1.0740979 1.0920471
0.82053876 0.11765246 0.398729 0.6526986 0.8942006 0.5784724 0.9573624 -0.23132053
0.43705153 0.52867544 0.30475536 1.0722533 0.7021728 0.61168224 0.7054108 0.42617428

A.bias f4 [50]
00000000: 682e 6b3f ff75 7b3f 86e6 793f e714 843f
00000010: e928 8c3f 877b 9d3f b818 913f aadf 993f
00000020: 69ec 9b3f 8432 983f 8faf 943f 1e04 973f
00000030: ad6b a63f e318 9c3f 740d ab3f e064 a93f
00000040: c5e6 b23f b8ba b43f 65bd a93f ddf4 b03f
00000050: 1b06 b73f 670f ac3f 83c3 b93f b049 b63f
00000060: 9d33 983f 47cb bd3f 5e24 bd3f ffe4 af3f
00000070: 82f1 a43f 8466 913f 44db aa3f 3846 8c3f
00000080: 2dff b03f d7c3 9f3f 8b06 9e3f 8834 8b3f
00000090: db9d 9b3f fe77 943f 3ca9 903f f914 923f
000000a0: c8e2 8e3f 24cd 903f e48a 8f3f 4f4e 7e3f
000000b0: 72a1 7e3f b0fb 8b3f 6ea9 653f 54ea 7a3f
000000c0: 2baf 7b3f 3e8e 833f
0.91867685 0.9822692 0.97617376 1.0318879 1.0949985 1.2303323 1.1335669 1.2021382
1.2181522 1.1890416 1.1616076 1.1798131 1.300161 1.2195095 1.336348 1.323391
1.3976675 1.4119482 1.3260924 1.3824726 1.4298738 1.34422 1.451279 1.4241238
1.1890751 1.482766 1.4776723 1.3741759 1.2886202 1.135941 1.3348165 1.0958929
1.3827873 1.248164 1.2345747 1.0875406 1.2157549 1.1599119 1.1301646 1.141265
1.1162958 1.1312604 1.1214261 0.9933824 0.99465096 1.0936184 0.89711654 0.98013806
0.9831416 1.0277784
