option_hedging/hyperparameters/dqn_hyperparameters/dueling/year/0.0/best_dqn_model.pth (torch, 97748 bytes, 7 tensors)

linear1.weight f4 [128, 3]
00000000: a6e8 99bd 0fa0 7bbd 4fd5 39bf ab2b 89bf
00000010: bcac ed3d 19af d6be c7aa febe 9b11 eb3e
00000020: bdf4 2abe 8e5e 623e 5c7d 613f 6786 443f
00000030: fd67 463e ebc7 f63f e30a cf3e 53c0 003f
00000040: 3621 1940 1ea9 95bd ee06 933d 2e2c 0640
00000050: 881f 0dbe 24c2 50bf 97d8 673c 459d e2be
00000060: d75b a23e d37a 0040 2dc7 a63e b61a 9bbe
00000070: 2255 b63f 36fe 89be 6d0e 283e 57c4 f23f
00000080: 2806 bdbd 1b74 c1be 0f96 c1be 45cb 72be
00000090: 5448 53bf 7454 25bf a57b c8be 6fb6 9a3e
000000a0: 71f9 1f40 66bf 57bd 65aa 08be 0215 f73f
000000b0: 6d8c 74be 1c30 80be f323 383f f3ed 6dbe
000000c0: 3049 06bf 3336 ce3f 6a44 4fbe 72bc a9bf
000000d0: 7a4b 4e3e 5ac5 74be ccaf 69be a8a7 84bf
000000e0: e7f5 88be bff6 57be df73 0840 58fc 83be
000000f0: 6bfe 0bbf dbb4 d03f cb31 53be 5e05 19bf
00000100: b563 503e 8624 0abf 000b 7abf f1aa 9f3d
00000110: 4539 3abe a7c4 2ebf ee9e e73f 5ca0 8cbf
00000120: 7da9 bf3e 264c cabf e2b4 ef3e de53 44be
00000130: e2a7 333d 61f2 0bbc ddb8 d63e 3d62 b7bf
00000140: 7ab9 a13e 8039 213f 7220 06c0 0e52 853e
00000150: bfa8 01bf 2b89 be3f 8097 5abe 847f c3be
00000160: 7453 c53f ca88 3abe a38c 87be d168 e73f
00000170: 8cce 92be 3634 2dbf 1b98 8c3f 2028 3dbe
00000180: cc04 fc3d 7730 4dbd b5a6 56bf 17a2 c13e
00000190: 594d a4bf 5c13 aa3e 1194 46bf 3f7e fb3f
000001a0: 5cba 5ebf 38af 1cbf 388e b83f d086 75bf
000001b0: 048b 5dbe 7c7c 3ebf 6acb 03bf 3c0a 06bf
000001c0: d1da df3f 450c 22be da9a 03bf da0f 813f
000001d0: 2d8c 11bf 7c98 9ebd 1eba a1bf cac5 adbc
000001e0: 7cd0 4a3f c144 c13f 196d f03d 4487 943e
000001f0: e12c d5bf 8e45 783e ada1 513e e2b6 5abe
00000200: 3729 2bbf fbeb 133d 3277 ed3f bf46 c83e
00000210: 895b debe f1c9 973e 78fd c0be 910b 24bf
00000220: 0eb2 89bc e4b8 debe 77e7 93be f5a2 e43f
00000230: e10f dfbe f4c5 5abf eca2 033e b491 08bf
00000240: c1fe 893e c0c6 9fbf 6cc1 bf3e c860 6a3e
00000250: c743 c53f 9260 afbd 32f4 8b3e b437 a5bf
00000260: f94b c93e 63f2 83bf 1646 b8be 9aba 55be
00000270: 3034 a63e 8905 2040 96bc c7bd 190c 133e
00000280: e59d d7bf 9c98 893d 2803 02bf f767 ad3f
00000290: a7e6 45be 92bb 953e b3a3 d7bf aa33 973e
000002a0: da96 75bb 1983 afbf 8f6a ae3c bd47 153f
000002b0: 25ee bdbf 6756 813e 82ac 44bf dbc5 ab3f
000002c0: 0149 2ebe bc9e 15bf 8db2 993f 44f2 12be
000002d0: 0072 06bf 87ca b13e 2e75 54be d2cb 40bf
000002e0: ab76 de3f 7014 a7be 0c61 453d 2898 c6bf
000002f0: 5a22 803e e3f7 743d 3121 bdbf b94b ba3c
00000300: b911 5bbe 4e87 94be 2ef3 2dbe 451f c43e
00000310: c451 afbf c004 bd3e 2ff3 bcbc 2fb5 bcbf
00000320: 1506 553e b53b b13e 35fd adbf 0a66 ba3e
00000330: 65ac 3dbf c7a0 b13d 7168 d3be f43a db3d
00000340: ef8f 0740 7e42 80be 8182 b2be 79ce 0f3e
00000350: 6fb2 cfbe f798 d3be 165d b03f 96a3 2fbf
00000360: 06fa 74be cee2 ea3d fc7b 1cbd d4be 26bd
00000370: a99b 9bbf 7f66 3f3d 7c1f 703e c29c 2240
00000380: 56ad d63d 1ab4 1d3f 276c b2bf 53b6 8a3e
00000390: 69f6 8d3d 366a 2840 d8f8 66be 1bda 5cbf
000003a0: b2b3 383f 6940 21bf d632 cdbe db16 bc3f
000003b0: bcda 00be ff94 4abf 67c5 893f 7a79 b6be
000003c0: e260 3a3d 2dff b1bf c4e2 cb3e d065 23bd
000003d0: 81e1 17be 087a 0bbf b85f a4bf f03f de3f
000003e0: 44dd 8ebf 714b 67be 2a17 c7bf 6589 1fbf
000003f0: 6619 a23e d6e3 d83f f01b ea3e 300c 62bf
-0.07515077 -0.06143194 -0.7259111 -1.0716451 0.11605212 -0.41930464 -0.49739668 0.4591187
-0.16694923 0.22106382 0.8808191 0.7676758 0.19375606 1.927976 0.40437993 0.50293463
2.392652 -0.07307647 0.07179056 2.0964465 -0.1378156 -0.81546235 0.01415076 -0.44260612
0.31710693 2.0074966 0.32573834 -0.30293816 1.424473 -0.2695176 0.16411753 1.8966168
-0.0922969 -0.37783894 -0.37809798 -0.23710354 -0.8253224 -0.6458199 -0.39156833 0.3021731
2.4995997 -0.052672766 -0.1334625 1.9303286 -0.23881693 -0.25036705 0.71929854 -0.23235302
-0.52455425 1.611029 -0.20240942 -1.3260634 0.2014598 -0.23903409 -0.22820967 -1.0363665
-0.2675011 -0.2109022 2.1320722 -0.2577846 -0.54685086 1.6305193 -0.20624463 -0.59773815
0.20350535 -0.5396198 -0.97673035 0.07796276 -0.18185909 -0.6826882 1.8095376 -1.0986438
0.37433997 -1.5804489 0.4681769 -0.19172618 0.043861277 -0.008541674 0.41937914 -1.4326855
0.3158682 0.62978363 -2.0957303 0.26039165 -0.5064811 1.488561 -0.21346855 -0.38183224
1.5416093 -0.18216243 -0.26474485 1.8078862 -0.28673208 -0.6765779 1.0983919 -0.18472338
0.123056024 -0.050095048 -0.83848125 0.37818977 -1.2836105 0.33217895 -0.7756968 1.9647902
-0.8700311 -0.6120486 1.4418402 -0.9590883 -0.21635062 -0.744087 -0.5148226 -0.52359366
1.7488652 -0.15824993 -0.5140816 1.0082963 -0.56854516 -0.07743928 -1.2634923 -0.021212477
0.7922437 1.5099107 0.11739559 0.2900945 -1.6654321 0.24245283 0.2047183 -0.21358827
-0.66859764 0.03611372 1.8552 0.39116475 -0.4342921 0.29646257 -0.3769338 -0.6408015
-0.016808536 -0.43500435 -0.2888753 1.786223 -0.43566802 -0.854583 0.12855119 -0.53347325
0.26952174 -1.2482529 0.37452257 0.22888482 1.5411309 -0.08563341 0.27334744 -1.2907624
0.39315775 -1.0308346 -0.3599097 -0.20871964 0.3246169 2.5003378 -0.09752767 0.14360084
-1.684506 0.06718561 -0.50786066 1.3547353 -0.19326268 0.29244667 -1.6846832 0.29531604
-0.0037473948 -1.3711883 0.021291045 0.5831259 -1.4838301 0.25261232 -0.76825726 1.3419756
-0.17020036 -0.58445334 1.2007614 -0.1435023 -0.525177 0.3472483 -0.20747826 -0.75311005
1.7379965 -0.3263278 0.048188254 -1.5515184 0.25026208 0.059806716 -1.4775754 0.022741186
-0.2139348 -0.2900948 -0.16987297 0.38305107 -1.3696828 0.36917686 -0.023065178 -1.4742793
0.20803101 0.34615865 -1.3592898 0.36405975 -0.7409118 0.08673244 -0.4129062 0.10704604
2.11816 -0.2505073 -0.34865192 0.14043607 -0.40565822 -0.4132764 1.3778408 -0.6860899
-0.23923501 0.11469041 -0.03820418 -0.04070933 -1.2156879 0.046728607 0.2344951 2.5408177
0.1048228 0.6160294 -1.3939255 0.27092227 0.06931765 2.6314826 -0.22555864 -0.862703
0.72149193 -0.6298891 -0.40077847 1.4694475 -0.1258344 -0.791336 1.0763367 -0.35639554
0.04550255 -1.3905998 0.39821446 -0.039892018 -0.14832117 -0.5448308 -1.2841711 1.7363262
-1.1161275 -0.22587372 -1.5553944 -0.6231902 0.31660002 1.694453 0.4572444 -0.88299847

linear1.bias f4 [128]
00000000: 1fda 14bf b4f3 e0bc 4ec4 45be f480 32bd
00000010: 7b55 193e b679 3d3d 720b 973e 2183 9ebe
00000020: 1550 d03e 4f00 d1bd 6218 1e3f b311 4fbf
00000030: 3141 be3d e18f babe 3f2f 6ebe 4152 d0be
00000040: d4e8 c2bd 8b3a 8fbd c865 01be 8af4 313e
00000050: 7446 b8bd 6e24 27be b60d 15bd 4b82 d73e
00000060: 923e e23e a3e1 4ebb 2c4b d53d f840 23bd
00000070: e53a 24be 7878 48be a18c 22be 045b 693c
00000080: 7820 adbe abed 3d3e 5b77 3b3e b69d 393f
00000090: 56ed b9be c81c f3bd 559e 563e d837 4c3d
000000a0: fefe 333f 6261 f33d ef9b 19bf e8c4 c73e
000000b0: 4eaf 38bf 63a4 b7be 7b0a 823e ec86 aabd
000000c0: 2967 2a3e 987f 473f 4c63 133e 15e1 cfbe
000000d0: f62e 44bd 9f08 ad3e 1331 96bd 5449 033d
000000e0: 6dc0 d53e f289 88be 7323 68bd b8df e6bd
000000f0: c53c 7dbe c172 08be 5893 a03e 7be4 c03e
00000100: 23fd 5abf d23e 4e3e dc5f b03e 21ef 393e
00000110: bd0c 82be a5f8 2f3f 4c9c fabe 3889 ac3d
00000120: 83c3 b3bc bdcd 893e afbb 3fbe 9336 76be
00000130: 7d45 6bbd a826 953e 86cd 00be 7792 acbe
00000140: cb59 9b3e 0c2b 5abf c621 103f b83e 80bd
00000150: 30d3 053f 04fe 36bc fb1a acbe 32af 0ebe
00000160: 9d68 e0bd d459 42be 236d 193e 5bef 033f
00000170: f24c f1bd 22c1 09bf 138c f13d 5311 0fbe
00000180: 3d9d bdbd 0eae 953e 9af5 4cbe dbfc 30be
00000190: 4898 63be a73d a23e e88c 2e3f d566 1f3f
000001a0: 6f6d 42be 372c ba3e f9ab 2c3f 75eb e6be
000001b0: fa30 adbd e27c 06be beee 323d e4cb 8b3e
000001c0: a6da 4fbb b64a 023f b665 623f c4ce 59bd
000001d0: 6acb 33be a3d8 3e3e 562e 823f acf8 df3d
000001e0: 60d5 3cbf 2216 30bf 02cf 643e 6d71 b0bd
000001f0: 2cd2 ccbd ac18 f6be 6cb5 7d3f a9fd 033f
-0.58145326 -0.027459957 -0.19313166 -0.04358001 0.14974014 0.04625865 0.2950092 -0.30959418
0.40686098 -0.10205137 0.61755955 -0.8088638 0.09289778 -0.36437896 -0.2326021 -0.40687755
-0.09517065 -0.06993588 -0.12636483 0.1737844 -0.08997813 -0.1632249 -0.03639003 0.42091593
0.44188362 -0.0031567595 0.104147285 -0.03985688 -0.16038091 -0.19577205 -0.15873958 0.014242891
-0.33813834 0.18547694 0.18307249 0.7250627 -0.36313885 -0.11870724 0.20958836 0.049857944
0.7031096 0.11883809 -0.6000356 0.39017415 -0.72142494 -0.35867605 0.2539862 -0.083265156
0.16640915 0.7792907 0.14393348 -0.4060141 -0.047896348 0.3379564 -0.07333579 0.032052353
0.41748372 -0.26667744 -0.056674432 -0.1127314 -0.24730213 -0.13325025 0.31362414 0.37674317
-0.85542506 0.20141152 0.34448135 0.18157627 -0.25400344 0.68738776 -0.4894737 0.0842461
-0.021943813 0.26914778 -0.1872394 -0.24044256 -0.057439316 0.29131055 -0.12578401 -0.33705494
0.30341944 -0.85221934 0.56301534 -0.06261963 0.5227537 -0.0111689605 -0.33614334 -0.13934019
-0.109574534 -0.18979579 0.14983039 0.515371 -0.11782254 -0.5381032 0.11794295 -0.13971452
-0.092585064 0.29234356 -0.20015565 -0.17283957 -0.2222606 0.31687662 0.68183756 0.62266284
-0.18987058 0.36361858 0.6744991 -0.45101514 -0.08456607 -0.13133577 0.043684714 0.27303994
-0.0031716018 0.5089525 0.8843645 -0.053175703 -0.17558065 0.18637328 1.0170391 0.10936102
-0.73763084 -0.6878377 0.22344592 -0.08615384 -0.100010246 -0.48065698 0.9910495 0.5155893

linears.0.weight f4 [128, 128]
00000000: 2889 afbe 567d dbbd eedd 2a3f 5b0f b7be
00000010: 74ce 39be 89ef ddbc d5a3 d4be 97c5 4cbe
00000020: 8303 4fbe 0fb2 e7be 54c4 2ebe 829f fc3e
00000030: 8d18 d23d 6d50 efbe dc64 b9bf 9e07 963f
00000040: bc88 4cbf d9fc cb3d 4c9e 183f a8d5 863f
00000050: 4642 1dbf 807c 313f 4a1c b5bd 1b06 21be
00000060: 1326 583e 12ec 92bd 4d54 3c3f 0339 493e
00000070: 5074 debf d3d1 13c0 0400 0ebf 3dae 19be
00000080: 39ef 0dbf d450 d33e c1be a93e 3be0 28bd
00000090: 7ada 2a3f 40af 75bf 61bf 493f 9e92 583f
000000a0: fb50 813c ec20 103f d78f f4be 5f5c 87be
000000b0: 0f43 943f e649 c83f c428 a83f cba3 083f
000000c0: facd 503f 9ea1 01bd b96d 9b3f 7a3c 0e40
000000d0: 8bfb 6fbe 4cb3 e53e 34cd b1bf c6fd b8bc
000000e0: 27fc fdbe 2732 d63d 6887 2cbf 9d8a 25bf
000000f0: 4d72 3540 9698 d93d 80dd 843e 99e9 6abe
00000100: 07ed fc3d b046 a83e c825 c53e 3c1c 193f
00000110: de4c 65bd 6e0f 6ebe 7ba5 aa3f 9abf 2b3f
00000120: 1ae3 453d caac edbd 66c1 d5be f7d0 c83d
00000130: 16f4 7ebd 58f3 9c3e d138 8ebe 8b52 933f
00000140: f159 153f d4aa b5be ec08 5dbd 5470 8e3e
00000150: d2da 3cbe 78a3 a4be 5f77 7abf 3b41 68bf
00000160: fa13 4bbe 05a6 e0bf 1069 7d3f 4584 0dbe
00000170: fdd6 7fbd f012 82bf 518b 233f 7198 06be
00000180: 215a 9dbe 2432 433f 6c4c 2140 7a52 5ebf
00000190: 67e8 a83e 2b44 80bc 56c6 a63e 02e8 34be
000001a0: 70a1 57bc 529f 7fbe f024 bfbd ad95 d1be
000001b0: 2759 f13c 9e0f 65bf 8dd6 14be 21a6 a0be
000001c0: ee39 abbd 7e6b 593e c915 dabc f1b6 813f
000001d0: 3027 1040 ea2d 5c3f 6796 c7bc cca9 083f
000001e0: eba1 b7bf 94ce fabe 5fb6 9ebe f954 de3d
000001f0: dc69 adbd de68 06bf 1166 49be 64be bcbd
00000200: 3984 7b3f dc73 0a3f af05 e8be cc0b f03d
00000210: 75ac 623d 20ad 1a3e 55b5 3c3f 3a98 443f
00000220: 43c2 b13c 3ca9 af3f f7d8 5f3e fce0 a8bc
00000230: 71d2 5cbe 7f3b d13f 040e 3b40 238a 0fbf
00000240: 3791 8b3f 70ff f83e bf32 f9be fe47 cdbe
00000250: aec8 783f 9a3c 40be ea64 473f 26ae d33e
00000260: 2a2b 24bf e5bb 2bbd 74e8 91bf 5ef3 a1bf
00000270: d7c5 1740 c23b 3440 51ea f63f 9b28 153f
00000280: 02f8 413f 0813 76bf 0bc2 e43e 763e 303f
00000290: 853b 69bf a36c ae3f 6ef1 a13c 619b bbbf
000002a0: 5edd 0dbc 5927 91bf e5e0 6e3f 5a1e c63d
000002b0: 4b18 1cbf 381f 7abf 92e7 7bbf 7d5a a53d
000002c0: 5ac2 80bf b7cb 2e3e 2773 a6bf 04a0 f2bf
000002d0: 1b87 593d 66ce d8bd 8e91 e73f dfa0 51bf
000002e0: 0a73 133e 30a7 75bf 8193 943f 2dd4 8a3f
000002f0: 56d7 1dc0 36f1 913e 219c 0fbf df78 293e
00000300: 7e01 003f 9fe9 8dbf c003 f5be d68f 9ebf
00000310: 8e0a 293f 869e 6a3e ed7d 72bf 8b21 433e
00000320: 5d28 c53a 4e8e d43d 9db5 113f e08a 80bf
00000330: 05eb d83e 8e40 aabd a24c 153f 22e1 0ebf
00000340: 9e31 78bf c2a8 613f 1d8a 643e 3ee0 933d
00000350: d03d 33be 10b7 ca3e cf75 5a3f 3796 d43f
00000360: f004 9f3f 5502 3040 54f6 b1bf 5ae1 953e
00000370: e073 ab3e 8e1b 6c3f 3abf c9be 4226 3c3f
00000380: 624f 923f 96a5 80bf da17 0ec0 58cc 0340
00000390: d15f af3e 366e 263e 296d bfbc cb94 b13e
000003a0: 30b7 96bf 890c 533e 8824 23be 2fe1 333f
000003b0: 672c afbf 9f00 d93f 7288 003f 59c5 c13e
000003c0: 05ab 3d3d bf9b 7d3e 58e9 ae3e e570 a1be
000003d0: 1598 babf fb16 a5bf 3ae2 9c3e f763 64be
000003e0: ffe9 da3f d5ed 6b3f abeb 113f b20e 483e
000003f0: db23 0f3f beae 733f 6be8 133e da2c c33e
-0.3428433 -0.10717265 0.6674489 -0.35753903 -0.18145162 -0.027091758 -0.41531244 -0.1999725
-0.20216183 -0.45253035 -0.1706708 0.49340445 0.10258589 -0.46741048 -1.4483905 1.1721075
-0.7989614 0.09960336 0.5961654 1.0533953 -0.6142925 0.69330597 -0.08843286 -0.15724985
0.21108274 -0.07173933 0.7356613 0.19650654 -1.7379246 -2.3096817 -0.55468774 -0.15007873
-0.5544315 0.41272604 0.33153346 -0.041229468 0.6673962 -0.95970535 0.78807646 0.8459872
0.015785685 0.56300235 -0.4776599 -0.2643766 1.1582965 1.5647552 1.3137441 0.5337493
0.81564295 -0.03164827 1.214286 2.2224412 -0.234358 0.44863355 -1.3890748 -0.022581946
-0.4960644 0.104587846 -0.67394114 -0.6466463 2.8351014 0.106248066 0.2595024 -0.22940673
0.12349897 0.3286643 0.38505387 0.5980871 -0.05598151 -0.23248073 1.3331751 0.67089236
0.048312284 -0.116052225 -0.41749114 0.09805482 -0.062244497 0.30654407 -0.27777722 1.1509565
0.58340365 -0.35481894 -0.053963587 0.27820075 -0.18442848 -0.32155967 -0.97838396 -0.90724534
-0.19831839 -1.7550665 0.9898844 -0.13819988 -0.06246089 -1.0162029 0.63884455 -0.1314409
-0.30732825 0.76248384 2.5202894 -0.868446 0.3298981 -0.015657505 0.32573193 -0.17666629
-0.013161048 -0.2496312 -0.09333217 -0.40934506 0.029461456 -0.89476955 -0.1453497 -0.31376746
-0.083606586 0.21232411 -0.026621716 1.0133954 2.2523918 0.8600756 -0.02436371 0.5338409
-1.4346288 -0.48985732 -0.30998513 0.10856051 -0.08467457 -0.52503765 -0.19667841 -0.09216002
0.9824863 0.5408304 -0.45316836 0.11721 0.05534025 0.15105104 0.7371419 0.7679478
0.021699077 1.3723521 0.2186011 -0.020615093 -0.21564652 1.6346282 2.9227304 -0.56070155
1.0903691 0.48632383 -0.4867153 -0.40093988 0.9718121 -0.18773118 0.7788836 0.41343802
-0.64128363 -0.041927237 -1.1399064 -1.2652395 2.3714502 2.8161473 1.9290258 0.58265084
0.75769055 -0.9612279 0.44679293 0.6884531 -0.91106445 1.3626903 0.019768443 -1.4656793
-0.008658735 -1.1340133 0.9331191 0.09673758 -0.6097457 -0.97703886 -0.98400223 0.080739
-1.0059311 0.17069899 -1.3003892 -1.8955083 0.053107362 -0.105862424 1.8091295 -0.81886095
0.14399353 -0.9595823 1.1607515 1.0846001 -2.466268 0.28504342 -0.5609761 0.16550015
0.50002277 -1.108692 -0.47854424 -1.2387645 0.6603173 0.22912034 -0.947234 0.19055764
0.0015041936 0.10378705 0.56917745 -1.0042381 0.42366806 -0.08313094 0.5832006 -0.55812275
-0.9695071 0.8814813 0.22318311 0.07220505 -0.17504048 0.3959279 0.8533601 1.6608342
1.2423382 2.7501423 -1.3903298 0.29273492 0.33486843 0.92229545 -0.39403707 0.73495877
1.1430476 -1.0050533 -2.2202058 2.0593472 0.3425279 0.1625298 -0.023367481 0.34683833
-1.1774654 0.2061025 -0.15931904 0.7026548 -1.3685426 1.6953315 0.502082 0.37845877
0.046305675 0.24766444 0.34162402 -0.31531444 -1.4577662 -1.2897638 0.30641347 -0.22303759
1.710266 0.9215978 0.57000226 0.19536856 0.55914086 0.9518851 0.14444129 0.38120157

linears.0.bias f4 [128]
00000000: 0134 3b3e c0e1 ca3d 2ccd 97bc a1d9 ca3e
00000010: 8051 5c3e 1e33 c3bd a6bb a63e eb35 be3c
00000020: 074f 863c 3777 4ebe c212 2e3e 8371 7b3c
00000030: 86a2 153f 4e63 303e eb4d 533d 9310 83bc
00000040: 43f7 9dbd 4cc0 623f c281 1ebc 86e5 4e3e
00000050: 2e31 1c3e 7d76 8cbc 78be 84bd d091 253e
00000060: a78f 03bf 040c 2dbe 2dc1 0c3e 7d50 e03d
00000070: b420 6bbd e276 47be 4211 ed3e e5e0 3c3e
00000080: 2296 403e f6e8 73be 4047 0cbf 7da3 9abb
00000090: b7b2 303f 9642 12be a892 a13f 702d 27bc
000000a0: 9da8 083d 35bb fabe f0d1 463e 0dbb 82be
000000b0: 0c35 683e 12e3 d2be c74b 793e 04c7 7c3e
000000c0: e922 053f 9b9c 463e 490a 4a3e 0290 0dbe
000000d0: 5421 51be f3ca 943e 0000 0000 35b7 803e
000000e0: 89ae 06bf b9d9 303e 99cd 193e 5adf 1d3f
000000f0: 889e 283e 9240 363e dfbc ef3d 45df 503e
00000100: 5d9e 72be d191 8e3e d2bc 49bc 4e22 4c3e
00000110: 6c89 9dbe 6c01 bd3d cc2f 7cbd 2a4e 56be
00000120: 5a21 abbd 6dd6 973e 4fa2 03bc dc25 b73e
00000130: 60cb 2bbd 94ac 8f3d 1af5 1d3e 9bad c4be
00000140: d0d2 bd3d 0089 53be 2862 00bf 6ffc 233e
00000150: e1ff c0be 254f 1dbc 130a 0a3e 5825 d6bd
00000160: b6c6 4d3e a544 803e 2f6f 4a3e 0a09 b43b
00000170: 2c0a 1a3f cf78 8bbb c8a3 2abe 880c f13b
00000180: 2b9b a9bb f89b 333e 5ac2 283e ad6b 2c3f
00000190: 31e2 1fbe 34c7 d63c 9e63 e9bb 39d0 b33d
000001a0: 9d60 ed3e d455 30be ec34 333e b5c0 77be
000001b0: fefe 2d3f 7906 2f3f 1bec d5be a495 26bd
000001c0: e9cb bcbe db72 93bb 024b 6b3d 16c8 923d
000001d0: d339 d23d 7041 0e3e 5637 f6bc 217b 923d
000001e0: c769 f6bd 4b0b 8e3e 4b1c 583e 169c f43d
000001f0: b138 493e 7130 593f a5a8 2fbc eb2e c0bc
0.18281557 0.0990634 -0.01853045 0.39619163 0.21515465 -0.09531234 0.3256504 0.02321907
0.016395105 -0.20162664 0.16999343 0.0153468875 0.58451116 0.17225382 0.05158798 -0.015999114
-0.07713177 0.8857467 -0.009674491 0.20204744 0.15253136 -0.017146343 -0.064816415 0.16168904
-0.5139107 -0.16899115 0.13745566 0.10952852 -0.057404235 -0.19478944 0.4630223 0.18445165
0.18807271 -0.23819336 -0.5479622 -0.0047191964 0.690227 -0.14283213 1.2622881 -0.010203704
0.033363927 -0.48970953 0.19416022 -0.25533333 0.22676486 -0.41188866 0.24345313 0.24685293
0.52006394 0.19395678 0.19730486 -0.13824466 -0.2042287 0.29061088 0.0 0.25139776
-0.5261007 0.17270555 0.15019836 0.6166893 0.16466725 0.17798069 0.11705946 0.2039767
-0.23693223 0.27845624 -0.012313085 0.19934961 -0.30768907 0.09228787 -0.06156902 -0.20928255
-0.08355971 0.2965578 -0.008034303 0.35771072 -0.041942 0.070153385 0.1542553 -0.384137
0.09268725 -0.2065773 -0.50149775 0.16014265 -0.3769522 -0.009601389 0.13480406 -0.104563415
0.20095333 0.25052372 0.19768976 0.0054942416 0.6017177 -0.004256345 -0.1666404 0.00735623
-0.005175968 0.17539966 0.16480389 0.673518 -0.15613629 0.026218034 -0.007122471 0.0877995
0.46362773 -0.17220241 0.17500657 -0.24194606 0.6796721 0.6836925 -0.41781697 -0.040670052
-0.3687432 -0.004499776 0.05744458 0.071670696 0.10264935 0.1389215 -0.030055683 0.07152391
-0.12031894 0.2774299 0.21104543 0.119438335 0.19650532 0.8483954 -0.01072136 -0.023459872

V.weight f4 [1, 128]
00000000: 1776 a53f 709e e7bf c485 acbf e706 22bf
00000010: 8696 3bc0 9648 cebf 696d ac3f 2821 093f
00000020: ca99 c2bf 1fba 53c0 fd9f d63e 05a3 99bf
00000030: 02ea b0bf f8d8 c1bf a1f2 7b3b 8fdf 5dbe
00000040: 5e85 9fbf 652e e7bf e482 a2bf a49f 853f
00000050: 7639 a43f 4593 aa3c 711b c5bf 87eb 8c3f
00000060: ebea 523f ac3b 8cbf 339c 5d3f eaa8 203e
00000070: 2fca 29c0 93b7 11c0 087c debe 31b4 9f3f
00000080: 603c b63f 37f0 c4bf 2c13 51bf a1c2 813e
00000090: 393a 5cc0 99a4 d0bf cb3b 95be 32de f9bf
000000a0: cd29 36c0 2950 b63e aa76 1f3f 22c3 6ac0
000000b0: 3f6f 943f 1058 cdc0 436f 923f adab 943f
000000c0: 7d91 33c0 ba50 bb3f cf0d af3f e1d5 c6bf
000000d0: b557 bcbf fd9d 7d3f 0f76 b53d 2e45 913f
000000e0: 53cd 0540 ac57 54c0 8a99 6a3f 27c6 09c0
000000f0: 1821 853f 79c1 a73f 8d57 3b3f 9a3c ab3f
00000100: e568 a0bf 9c41 e3bf 6102 e7be 74b3 533f
00000110: 28e4 9bbf b56c 1bbe 836a cdbf 6d38 d0bf
00000120: 53aa c1bf 2932 12c0 8441 d0bf 9f39 913e
00000130: 2b5e c6bf 0f29 7d3f 165c f2bf 9232 35c0
00000140: 3b35 603f 356f b3bf 4089 45bf 3c6b 6a3f
00000150: cb70 f6bf d047 963d ffd6 773f b4a0 bebf
00000160: b3fb 7f3f e4d4 ccbf 95ec a73f 7388 01c0
00000170: b08f 21c0 bd49 b4bf 9f12 c8bf 755c b4bf
00000180: bd09 cf3c 4257 be3f dd9c b0bf c3fe a5bf
00000190: 7f4c 95c0 7d11 9dbe b9aa ac3d ef92 293f
000001a0: c75e 10bc 47db edbf 475a 603f ed78 b3bf
000001b0: 1b4b 18be eb66 e5bf af7a 413f c6d6 463b
000001c0: 39d3 66bf 42f4 da3d 9ec4 90c0 3aba 8a3f
000001d0: 495f 813f 8850 fcbf 9363 7bbd dc2b e0bf
000001e0: b3a9 d2bf b2a5 d7bf 71cc b13f 0afd 6f3f
000001f0: adde ae3f bd6d e2bf 65cc 263e 9eb6 c0bf
1.2926663 -1.8095226 -1.3478322 -0.6329178 -2.9310622 -1.6115901 1.3470889 0.5356622
-1.5203183 -3.308235 0.41918936 -1.2002875 -1.3821414 -1.5144339 0.0038444179 -0.21667312
-1.2462575 -1.8061033 -1.2696195 1.0439343 1.2830036 0.020822177 -1.5399 1.1009377
0.82389706 -1.095571 0.86566466 0.15689436 -2.6529653 -2.2768295 -0.43454003 1.2476865
1.4237175 -1.5385808 -0.8166988 0.25343803 -3.4410536 -1.6300231 -0.2914718 -1.9520934
-2.8463013 0.35608032 0.6229044 -3.66816 1.159645 -6.417 1.1440204 1.1614891
-2.805755 1.4634011 1.3676089 -1.5534021 -1.4714266 0.99069196 0.088604085 1.1349237
2.090657 -3.317851 0.9164053 -2.1527193 1.0400724 1.3105918 0.73180467 1.3377869
-1.2532011 -1.7754397 -0.45119002 0.826957 -1.2179003 -0.15178187 -1.604813 -1.626722
-1.5130104 -2.2843115 -1.6269994 0.28364274 -1.5497488 0.98890775 -1.8934352 -2.8312116
0.87581223 -1.4018313 -0.7716255 0.91569877 -1.9253172 0.07337916 0.96812433 -1.4892793
0.9999344 -1.6002469 1.3119074 -2.0239532 -2.524395 -1.4085003 -1.5630683 -1.4090716
0.025273198 1.4870379 -1.3797871 -1.2968372 -4.665588 -0.30677405 0.08431 0.6623983
-0.008811659 -1.8582543 0.8763775 -1.4021279 -0.148724 -1.7922033 0.75577825 0.0030340417
-0.9016605 0.1069112 -4.524001 1.0838082 1.0107204 -1.9712076 -0.06137426 -1.7513385
-1.6458038 -1.6847441 1.3890516 0.9374548 1.3661705 -1.768974 0.16288908 -1.505573

A.weight f4 [50, 128]
00000000: 2212 3c3f 4a3d 5440 4ac1 e93f 8032 4b40
00000010: d401 0e40 b47c 0940 8776 843f eb87 213f
00000020: ce02 c23f cedf f23f 71a7 693f 5035 1740
00000030: a658 ef3f eef1 e33f 3632 a43f ed95 663d
00000040: bc20 c63f 8bcc 3940 03f2 8f3f 03e7 113f
00000050: 9a7f 163f b819 9d3c 45fd 0040 9b41 263f
00000060: cca6 ca3f cb20 d13f 7d67 333f a25a bc3f
00000070: f794 f43f bc76 c33f c0be 4240 1e52 533f
00000080: 3e8d fa3e 8288 9b3f 4bc2 b13f 81b9 05be
00000090: 0258 4a40 ddc7 8a3f 3e8b f03f 2a4e d43f
000000a0: 83db 2940 0776 c93f bb5f 233f 4775 0b40
000000b0: f360 d53e 99e8 7740 6b9a bb3e d2f4 b73e
000000c0: 77ff d23f 8854 393f 1aa8 163f 0558 0440
000000d0: e7c1 1240 0ba7 4f3e ca0b 1a3d 6b57 103f
000000e0: 53d7 7dbe 1461 2f40 2d8e 373f 36bb 7640
000000f0: 736e 2c3f 6a88 5f3f 555a 2a3f ccad 1a3f
00000100: 03da a33f eb30 5a40 b428 2bbd 073b 113f
00000110: 85b7 b03f 9fac 823f 7359 e43f 7339 c03f
00000120: 3707 0640 f9bc b43f 2905 2540 ce5a ac3f
00000130: 8b00 1240 2959 8d3f b8b7 7b40 10a9 dc3f
00000140: 85ce 993f fa99 fd3f 43df 853f 9273 783f
00000150: 69b4 f33f 8c65 e63d 4e11 363f ea5d 0840
00000160: 90d0 413f f5e6 cf3f 5ccf dc3e a156 e83f
00000170: 3c45 af3f 2b68 f73f 0676 e73f 9055 e73f
00000180: cc1d 13be 8229 193f f2ee 1740 d419 f53f
00000190: 77b4 1040 cdb7 bc3f aa60 2a3e a873 7f3f
000001a0: 38d0 bb3f b620 0840 49eb 303f 0500 0240
000001b0: 4a4f d13f 1e9e 4540 087f 713f ca49 123e
000001c0: c9ea a83f e39d 1a3d b83b 4840 ad10 bc3f
000001d0: aeb7 ab3f de9a 8140 e7ae 013e 6cee f83f
000001e0: 9cc6 0f40 f96f 4640 2bbe 2b3f dbe8 393f
000001f0: 660b 0d3f 940e 4d40 c868 bc3d 7718 ad3f
00000200: 6b5a 583f ab63 4140 43b6 e93f f99c 0d40
00000210: 4fa2 2540 802d fc3f 23d1 d83f 65f5 863f
00000220: 0f2b af3f d2c3 be3f d572 a83f 9b8b fc3f
00000230: 4fe3 1d40 5df7 ea3f 5642 a03f 93e4 183e
00000240: 5189 e73f cd76 2e40 24b1 ce3f 9b2d 2e3f
00000250: e216 873f f7a7 06bd 4885 0340 8a2d 713f
00000260: 4d47 cd3f b8d1 0040 bcb6 963f 3809 ad3f
00000270: 937c a73f 5551 9e3f ecfb 0a40 b511 383f
00000280: 73fc 1f3f 5228 9c3f 7e80 8f3f 2b63 3e3d
00000290: 1a91 3e40 27bb b83f d0e0 dc3f 7cfb d83f
000002a0: 63d8 f13f 65b7 993f 2ac6 6a3f f70a b33f
000002b0: 0038 593f c962 8a40 483c 563f 4d3c 513f
000002c0: 9c39 873f a46d 243f 8afa 523f e465 e33f
000002d0: 286d 0a40 9d0c 683f 450f b7bc 78fd 5f3f
000002e0: 7ba4 1dbe f68d 2e40 dc85 623f 7ad3 5840
000002f0: 8f23 913f dc89 4b3f e1d8 2d3f b56f 173f
00000300: 94b0 5f3f 74e4 5240 3968 97bd 117e 5d3f
00000310: d976 a43f fed5 fe3e 6c6b de3f f97c d33f
00000320: c02b eb3f 0659 383f 73e9 1940 b59b 943f
00000330: 166d 1140 10d7 8a3f d3e2 4540 2fc1 823f
00000340: c7b1 b03f 4fa9 f23f 5505 533f a385 8c3f
00000350: 6c3a d33f fd34 753d 75d6 773f 337b e63f
00000360: 8799 283f 78aa bf3f c441 493f fab1 0c40
00000370: e6d9 943f 697c ee3f 6f72 0140 a97b 0a40
00000380: 5b8d 26bd ad2d 2d3f 7c74 0040 5c79 0340
00000390: d9c6 5040 bb80 953f 1d8a 2fbb 19ed 833f
000003a0: 7887 ea3f 8c7f e43f 9697 903f 7f60 0340
000003b0: 96aa e53f a4be 3840 affb 2d3f 6580 ae3c
000003c0: b7e0 df3f ca2b bd3d 8755 3140 0076 a13f
000003d0: 70ad 903f 0b48 6240 10b2 673d bb7d d23f
000003e0: 57d8 ff3f a7c6 2340 6e2a 3e3f c817 4c3f
000003f0: da93 383f d4ab 4c40 c54c 3abe 1415 4b3f
0.7346517 3.3162408 1.8262112 3.1749573 2.2188616 2.1482363 1.0348672 0.6309802
1.5157106 1.897455 0.9127112 2.362629 1.8698928 1.7808206 1.2827823 0.056295324
1.547874 2.9031093 1.1245731 0.5699312 0.58788455 0.019177303 2.0154583 0.64943856
1.5832152 1.6338133 0.70079786 1.4715159 1.910796 1.527061 3.0428925 0.82547176
0.48935884 1.2151034 1.3887419 -0.13059045 3.1616216 1.0842243 1.8792493 1.6586354
2.654023 1.5739144 0.6381795 2.179033 0.4167553 3.8735716 0.3664125 0.3592897
1.6484212 0.7239461 0.5885025 2.0678723 2.2930849 0.20278566 0.0376089 0.5638339
-0.24789171 2.7403002 0.7170132 3.8551764 0.6735603 0.87317526 0.66544086 0.60421443
1.2800907 3.4092357 -0.041786864 0.56730694 1.3806006 1.020893 1.7839798 1.5017532
2.0941904 1.412017 2.57844 1.3465211 2.2812831 1.1042835 3.9330883 1.7239094
1.201615 1.9812615 1.0458759 0.97051346 1.9039432 0.11249837 0.71120155 2.130732
0.75708866 1.6242357 0.43126953 1.8151437 1.3693004 1.9328665 1.8082893 1.8072987
-0.14366835 0.5982896 2.373959 1.9148507 2.2610147 1.4743592 0.16638437 0.9978585
1.4672918 2.1269965 0.69109017 2.0312512 1.6352322 3.0877757 0.9433446 0.14285961
1.3196651 0.03774823 3.128645 1.4692589 1.341543 4.0501547 0.12664376 1.944776
2.2464972 3.1005843 0.6708705 0.72620934 0.5509552 3.2040148 0.09199673 1.3523091
0.84512967 3.0217083 1.8258747 2.2127059 2.5880315 1.9701385 1.6938823 1.0543638
1.3685015 1.490351 1.3160044 1.9730104 2.4669988 1.8356739 1.2520244 0.14930944
1.8088781 2.726001 1.6147809 0.6803834 1.0553858 -0.032875028 2.0550098 0.9421011
1.6037384 2.0128002 1.1774516 1.3518438 1.3084892 1.236857 2.171626 0.7190202
0.6249458 1.2199805 1.1211088 0.046481293 2.9776063 1.4432114 1.7256107 1.6951747
1.8894161 1.2009093 0.91708624 1.3987721 0.84851074 4.3245587 0.8368573 0.81732637
1.0564456 0.642298 0.8241354 1.776547 2.1629124 0.90644246 -0.022346148 0.8749614
-0.15394776 2.7274146 0.88485503 3.3879075 1.1338977 0.7950723 0.67909056 0.59154826
0.8737881 3.2951937 -0.07392926 0.8652049 1.284877 0.49772638 1.7376533 1.6522514
1.8372726 0.7201084 2.4048736 1.1610018 2.272283 1.0846882 3.0919693 1.0215205
1.3804253 1.8957919 0.8243001 1.0978283 1.6502204 0.059864987 0.9681161 1.8006347
0.65859264 1.4973898 0.78615975 2.1983628 1.1628997 1.8631717 2.0226095 2.1637976
-0.04066215 0.6764782 2.0071096 2.0542822 3.2621367 1.167991 -0.0026785203 1.0306731
1.8322592 1.7851424 1.129626 2.0527647 1.7942684 2.8866358 0.67962164 0.021301458
1.7490453 0.09236868 2.7708452 1.2614136 1.1302929 3.5356472 0.056566298 1.644462
1.9987897 2.5589998 0.7428349 0.7972379 0.72100604 3.1979876 -0.18193348 0.7932904

A.bias f4 [50]
00000000: 8de9 f83f 4b11 0540 2f4f 0b40 75cc 1c40
00000010: c509 fb3f 000d de3f 66e9 0240 028a e63f
00000020: fdc5 d23f 35f7 0440 af58 eb3f f395 f03f
00000030: 5692 db3f 9c3a cc3f c433 d73f 9b1c c33f
00000040: 7fac c03f 99ef c63f bb62 d13f 3cbc b93f
00000050: 6634 9d3f 0b11 d03f 50b4 b73f 74b3 b63f
00000060: 021c b13f b73e a53f 93da c13f 3967 a03f
00000070: 8944 b13f 9c53 c93f 464b ea3f 59a6 a33f
00000080: bc9f ef3f a423 873f cc46 b53f 3e9a 9b3f
00000090: 65bb c33f 3a59 be3f 3f8c a03f cad4 e73f
000000a0: bcdd c43f a567 d13f 6488 e53f 9723 d33f
000000b0: c26d b13f ccbe ed3f 5db9 ef3f 98cd df3f
000000c0: f91b fd3f dbe5 e93f
1.9446274 2.0791805 2.176708 2.449979 1.9612356 1.7347717 2.0454955 1.8010867
1.6466671 2.0775883 1.8386439 1.8795761 1.7154033 1.5955386 1.6812673 1.5243105
1.5052642 1.5541869 1.6358255 1.451057 1.2281616 1.6255201 1.4351902 1.4273515
1.3836672 1.2909764 1.5144829 1.2531501 1.384904 1.572864 1.8304222 1.278514
1.8720622 1.0557752 1.416223 1.2156446 1.5291563 1.487098 1.25428 1.8111813
1.5380168 1.6359755 1.7932248 1.6495236 1.386162 1.8573852 1.8728443 1.7484617
1.9774162 1.8273271
