option_hedging/hyperparameters/dqn_hyperparameters/dueling/year/0.0/best_dqn_model.pth (torch, 324116 bytes, 7 tensors)

linear1.weight f4 [256, 3]
-0.17065315 -0.08166357 -0.3533012 -0.05545434 -0.9139675 -0.15787084 -0.08121005 -0.03179288
-0.15940963 -0.6867853 1.2616692 -0.72198343 -0.44618523 1.6753112 -0.13836855 -0.9712395
2.0119581 -0.34161252 0.66128963 2.1739738 0.13179655 -0.059027106 -0.23216765 -0.29133952
-0.19500673 0.94078296 0.22197565 0.030219024 0.04087375 -0.14457124 0.39839855 2.436089
0.12676038 0.06629516 -0.2009417 -0.2367463 0.01262679 -1.1695145 0.11227653 -0.4086711
1.2827885 -0.39908502 0.098299526 2.5563061 0.1784238 0.47293147 -1.4979076 0.22600116
-0.47091746 0.83776414 -0.13171291 -0.28557575 -0.09039596 -0.29662675 -0.2748439 0.6488837
-0.27663264 -0.99381244 1.5837743 -0.2833799 -0.6582882 1.0530528 -0.12641563 -0.4761814
0.0016528155 -0.13751021 -0.34943265 -0.6387867 -1.3063948 -0.43359187 0.84615505 -0.20245604
0.03338715 0.57615626 -0.16658975 -0.13635378 0.033263974 -0.0040056077 0.11236336 -1.3434185
0.1425451 0.365101 -0.96635246 0.2482989 -0.1889048 0.97905344 -0.19012126 0.1367141
-1.1868732 0.12597139 -0.38708547 1.6655335 -1.109744 -0.6122215 0.129977 -0.37944755
-0.71067953 -0.45634443 -0.021478098 -0.03975774 0.008979898 -0.0002047795 -0.53216445 0.7649499
-0.87724805 0.0075463466 -0.34632343 -0.42983443 -0.29143414 -0.03312542 -0.82007426 -0.07050615
1.4111779 -0.0885271 -0.34440967 0.2885929 -0.598592 -0.5008935 -0.2019169 -0.037785616
-0.60595745 0.58446765 -0.37895977 0.1177909 -0.9882866 0.18088458 -0.08081923 -0.010090416
-0.16964065 0.08096076 0.13494729 -0.17276773 -0.092294455 0.11094455 -0.3518368 -0.70784116
-0.24243367 -0.22584017 0.24041103 -1.0180848 0.2037891 -0.33580238 0.14616098 -0.39600894
0.092674814 -0.8598389 0.20957741 -0.32916704 1.8546112 -0.33144608 0.17736983 -0.8837179
0.21712236 -0.38397476 0.19617929 -0.05495918 -0.5468464 1.3893378 -0.4711501 -0.6982696
-0.5870946 -0.18066598 -0.69475293 0.95956784 -0.13683891 -0.027874133 -1.2737732 0.094313614
-0.2694361 0.18532872 -0.08088288 0.2529267 -1.0096009 0.26884046 -0.61310786 -0.28211355
-0.061081704 -0.07203433 0.8229045 -0.21006289 -0.4725309 0.065446034 -0.109218396 -0.10899986
1.4677452 -0.28372934 -0.7400293 0.50297374 -0.1221079 -0.46813977 -0.61026263 -0.46237218
0.21191338 -0.29146308 -0.36790988 -0.3527555 0.66810703 -0.073676035 -0.044825844 -0.740746
0.16264544 -0.35770515 -0.9581099 0.15350083 -0.5527754 0.45973143 -0.2903449 -0.39525837
1.286328 -0.22946315 -0.6199268 0.019685773 -0.38434285 -0.32631996 1.3391955 -0.5944367
-0.8691576 -0.075319596 -0.05512191 -0.76574373 0.4917811 -0.15114132 0.5621331 1.2949455
0.11199828 0.2692083 -1.2045279 0.009029677 -0.78909403 0.95900875 -0.17062566 -0.2118823
0.21536998 -0.51910263 -0.4322602 1.3134402 -0.24161293 0.22100562 -1.0251468 0.16914521
-0.6270127 -0.34468812 -0.15939958 0.19417293 0.12108113 -0.31444946 0.2211834 -1.2383755
-0.03832176 -0.7795984 0.62325895 -0.37800398 0.06816508 0.6898834 -0.83830094 -0.9510809
00000000: b3bf 2ebe 3b3f a7bd e5e3 b4be 1724 63bd
00000010: c6f9 69bf e5a8 21be 7451 a6bd 4039 02bd
00000020: 473c 23be 29d1 2fbf 607e a13f e8d3 38bf
00000030: 6472 e4be 9970 d63f 7cb0 0dbe 27a3 78bf
00000040: ecc3 0040 d6e7 aebe 474a 293f 6322 0b40
00000050: adf5 063e 68c6 71bd 5bbd 6dbe 742a 95be
00000060: d8af 47be 27d7 703f 964d 633e e38d f73c
00000070: 3c6b 273d 7c0a 14be e5fa cb3e e2e8 1b40
00000080: 79cd 013e c2c5 873d a9c3 4dbe 9f6d 72be
00000090: 99e0 4e3c a7b2 95bf 3df1 e53d 573d d1be
000000a0: 6a32 a43f df54 ccbe 4351 c93d 859a 2340
000000b0: bbb4 363e 1324 f23e 70bb bfbf d96c 673e
000000c0: 181c f1be b677 563f c0df 06be fc36 92be
000000d0: 8421 b9bd 76df 97be 57b8 8cbe 3e1d 263f
000000e0: cba2 8dbe 7e6a 7ebf 1eb9 ca3f 2c17 91be
000000f0: 9385 28bf 6fca 863f 1973 01be 0cce f3be
00000100: 49a3 d83a 7acf 0cbe d6e8 b2be 8687 23bf
00000110: f237 a7bf c1ff ddbe 9e9d 583f a350 4fbe
00000120: f7c0 083d fa7e 133f 8196 2abe 53a0 0bbe
00000130: ce3f 083d 7941 83bb c31e e63d 23f5 abbf
00000140: 58f7 113e 85ee ba3e e062 77bf 1142 7e3e
00000150: 4370 41be 3fa3 7a3f 26af 42be c8fe 0b3e
00000160: 76eb 97bf a5fe 003e 1130 c6be 3430 d53f
00000170: 170c 8ebf 8cba 1cbf b118 053e f346 c2be
00000180: 18ef 35bf faa5 e9be d6f2 afbc 03d9 22bd
00000190: 6c20 133c 14ba 56b9 ee3b 08bf c2d3 433f
000001a0: 5493 60bf 5847 f73b 4e51 b1be 4213 dcbe
000001b0: db36 95be 85ae 07bd 63f0 51bf 8765 90bd
000001c0: 7aa1 b43f b24d b5bd 7756 b0be 73c2 933e
000001d0: 533d 19bf 8e3a 00bf 4ec3 4ebe 17c5 1abd
000001e0: 0720 1bbf ac9f 153f 0407 c2be 5b3c f13d
000001f0: 5a00 7dbf cf39 393e 8d84 a5bd 4652 25bc
00000200: 47b6 2dbe c1ce a53d 9f2f 0a3e 06ea 30be
00000210: e004 bdbd e536 e33d f423 b4be 1435 35bf
00000220: 8840 78be a542 67be 4f2e 763e 9a50 82bf
00000230: 17ae 503e 4aee abbe 39ab 153e afc1 cabe
00000240: 4bcc bd3d 671e 5cbf 769b 563e 9588 a8be
00000250: e663 ed3f 4db3 a9be 70a0 353e 563b 62bf
00000260: 5355 5e3e 5798 c4be 39e3 483e e11c 61bd
00000270: 20fe 0bbf d2d5 b13f 963a f1be ccc1 32bf
00000280: d54b 16bf 8100 39be 54db 31bf 3da6 753f
00000290: 801f 0cbe 4b58 e4bc 000b a3bf 7f27 c13d
000002a0: 87f3 89be d0c6 3d3e eca5 a5bd 9c7f 813e
000002b0: 9a3a 81bf 75a5 893e a3f4 1cbf 3071 90be
000002c0: cf30 7abd bc86 93bd dfa9 523f ba1a 57be
000002d0: 92ef f1be 9208 863d e5ad dfbd 523b dfbd
000002e0: 13df bb3f f944 91be 8f72 3dbf e3c2 003f
000002f0: b513 fabd 04b0 efbe 2c3a 1cbf 0cbc ecbe
00000300: d2ff 583e a63a 95be af5e bcbe 5e9c b4be
00000310: 1009 2b3f 76e3 96bd 4e9b 37bd 88a1 3dbf
00000320: 878c 263e 2125 b7be b146 75bf 522f 1d3e
00000330: b082 0dbf eb61 eb3e 16a8 94be 4e5f cabe
00000340: 65a6 a43f 63f8 6abe 86b3 1ebf 0f44 a13c
00000350: 96c8 c4be 6913 a7be c26a ab3f 012d 18bf
00000360: 1d81 5ebf 2941 9abd 83c7 61bd c807 44bf
00000370: bbca fb3e cac4 1abe f4e7 0f3f c6c0 a53f
00000380: 5b5f e53d acd5 893e f82d 9abf 36f1 133c
00000390: 1102 4abf 9981 753f 7eb8 2ebe acf7 58be
000003a0: f389 5c3e e9e3 04bf 3551 ddbe cf1e a83f
000003b0: 6169 77be 4c4f 623e 0338 83bf 6734 2d3e
000003c0: e883 20bf f67a b0be a539 23be 45d5 463e
000003d0: 62f9 f73d 85ff a0be e77d 623e 1783 9ebf
000003e0: 47f7 1cbd c393 47bf e68d 1f3f bd89 c1be
000003f0: 229a 8b3d 339c 303f e49a 56bf 0a7a 73bf

linear1.bias f4 [256]
-1.0077175 0.0858435 -0.9205303 0.6056078 -0.054070644 -0.10424986 0.73595744 -0.82223165
0.44202393 -0.8545322 0.45219147 -0.7894296 0.18296617 -0.28774154 0.2049895 -0.0015607892
-0.056434102 -0.39781353 -0.11951416 -0.071438506 -0.027143676 -0.31213847 -0.47389185 -0.2258677
0.80945474 -0.00616501 0.14697179 0.18520974 -0.07515103 0.1002828 0.21012126 -0.66630584
-0.23785362 -0.0031696572 -0.5996261 -0.23006749 -0.410865 -0.15868801 -0.5684616 -0.15258574
-0.43303183 0.13997494 -0.9590219 0.925597 -0.94264954 -0.33645085 0.11421464 -0.39013457
0.19794464 -0.30678883 0.15634425 -0.008661714 -0.1681754 -0.42266843 -0.034483656 0.25512242
-0.040142894 0.24513572 -0.29682577 -0.10869458 -0.19446138 0.13691874 -0.018324899 0.06928531
-0.8505942 -0.029036064 0.22615023 0.17793241 -0.3486857 0.063569754 -0.46453956 -0.24017867
-0.048414376 -0.050493147 0.40661868 0.27923834 -0.06709274 -0.71279925 -0.017404238 0.08635407
-0.28573835 -1.0641197 0.34772187 -0.39757046 0.8327785 0.32693845 -0.9719017 -0.13057777
0.07889179 -0.080872625 0.13136947 -0.036159884 -0.059610024 -0.9123242 -0.3481747 -0.24131955
-0.12371095 -0.25264752 -0.009646681 0.29954088 -0.46183795 0.5569163 0.1931195 0.122551724
-0.08595755 0.8878861 0.857788 -0.1577302 0.14617774 -0.10019192 0.16691995 -0.12867486
-0.036759906 -0.17538503 -0.04618796 -0.05699482 -0.3471481 0.14793327 0.8627863 -0.3097072
-0.21130168 -0.77929974 0.014346675 -0.070955336 -0.9365414 -0.9977572 -0.33477387 0.44944435
-0.30434436 -0.05891388 -0.29902497 -0.05590464 -0.15160094 -0.16722788 -0.015911665 -0.48030385
-0.07896731 -0.28291497 -0.2536126 0.09285994 -0.68398136 -0.8946309 -1.0056132 0.00071903574
0.4086596 -0.90678185 0.6012404 0.20339692 0.60413396 -0.63878983 -0.030778468 -0.16513585
-0.9888293 -0.09171971 -0.1330429 -0.21627353 -0.23202737 -0.78525597 -0.1315787 0.0028389664
-0.14406517 -0.11733708 0.19736579 0.1800816 0.19020995 0.28990623 -0.9967533 -0.04852644
0.28785035 -0.19103321 0.62468296 0.6376379 0.94224036 0.30857408 0.013575641 -0.45508766
0.6118576 -0.0040833503 0.1896683 -0.10312792 0.17798004 -0.06336273 0.08281865 0.012732545
-0.029229304 0.004609321 0.005525272 -0.1360454 -0.11673417 -0.00945272 0.00397255 -0.1820062
0.14288294 0.3095811 0.36652276 -0.034546435 0.17074597 -0.8942191 0.39362454 -0.13839157
-0.8473303 0.20918822 0.04199086 -0.020928392 0.372729 -0.015672503 -0.41095477 -0.01297121
-0.1338467 0.13759872 -0.07016532 0.021047713 0.8612184 0.5879879 -0.20555928 -0.26671684
-0.44953138 0.120352045 0.46682522 0.17924023 -0.9747207 -0.1260519 -0.5063471 -0.013659472
0.18110515 0.6007861 -0.06632795 0.23747061 -0.059937526 -0.37310472 -0.20001015 0.2956652
-0.111698896 -0.7500096 0.1894185 -0.41893578 0.010820933 0.0081565045 -0.23836072 -0.4899644
-0.047589436 0.3659699 -0.076524116 0.086039215 -0.3685249 0.5401498 -0.11000499 0.15675732
-0.17776306 -0.0053829243 -0.04478776 -0.113514476 -0.9201832 0.1336505 -0.10900287 0.26042953
00000000: e3fc 80bf b8ce af3d e0a7 6bbf 1d09 1b3f
00000010: 2e79 5dbd f380 d5bd b567 3c3f c67d 52bf
00000020: f650 e23e 9fc2 5abf a485 e73e 0f18 4abf
00000030: 7c5b 3b3e dc52 93be c4e8 513e 6593 ccba
00000040: 7227 67bd 37ae cbbe d7c3 f4bd 5a4e 92bd
00000050: 6a5c debc 9dd0 9fbe f4a1 f2be dd49 67be
00000060: 6d38 4f3f da03 cabb c67f 163e 9fa7 3d3e
00000070: c9e8 99bd 1261 cd3d 072a 573e 0593 2abf
00000080: e68f 73be 06ba 4fbb 1981 19bf d096 6bbe
00000090: e65c d2be 1c7f 22be b386 11bf 703f 1cbe
000000a0: 59b6 ddbe 9755 0f3e 7682 75bf edf3 6c3f
000000b0: 7b51 71bf 4943 acbe 5de9 e93d b8bf c7be
000000c0: 00b2 4a3e 6d13 9dbe b518 203e dde9 0dbc
000000d0: 2c36 2cbe ff67 d8be bc3e 0dbd 689f 823e
000000e0: e06c 24bd dc04 7b3e 8cf9 97be 449b debd
000000f0: e220 47be 6d34 0c3e 191e 96bc 75e5 8d3d
00000100: 8bc0 59bf 0add edbc ed93 673e ea33 363e
00000110: ef86 b2be dc30 823d 21d8 edbe 66f1 75be
00000120: 274e 46bd e7d1 4ebd 5330 d03e 54f8 8e3e
00000130: eb67 89bd 037a 36bf 5593 8ebc 67da b03d
00000140: 4c4c 92be 1335 88bf 9a08 b23e 5b8e cbbe
00000150: f930 553f 7a64 a73e 8dce 78bf 2eb6 05be
00000160: 0592 a13d 8ca0 a5bd b885 063e 631c 14bd
00000170: a429 74bd 148e 69bf f443 b2be 791c 77be
00000180: 2b5c fdbd 045b 81be 1d0d 1ebc 6c5d 993e
00000190: 0676 ecbe 1192 0e3f 1ec1 453e 66fc fa3d
000001a0: 830a b0bd 814c 633f ff97 5b3f 0784 21be
000001b0: 9eaf 153e 6c31 cdbd 10ed 2a3e 58c3 03be
000001c0: 8e91 16bd 2298 33be 962f 3dbd 6673 69bd
000001d0: 65bd b1be d27b 173e 90df 5c3f f191 9ebe
000001e0: 785f 58be 3080 47bf 510e 6b3c 0851 91bd
000001f0: 2dc1 6fbf 046d 7fbf 7b67 abbe 921d e63e
00000200: 06d3 9bbe ae4f 71bd cd19 99be 44fc 64bd
00000210: 473d 1bbe c93d 2bbe 2e59 82bc 63ea f5be
00000220: 9db9 a1bd 3bda 90be 83d9 81be 5a2d be3d
00000230: 6719 2fbf 8806 65bf efb7 80bf ac7d 3c3a
00000240: d53b d13e db22 68bf e4ea 193f 4847 503e
00000250: 86a8 1a3f bb87 23bf 2023 fcbc 5f19 29be
00000260: eb23 7dbf 8bd7 bbbd 663c 08be cf76 5dbe
00000270: 9598 6dbe 8906 49bf 91bc 06be f40d 3a3b
00000280: d285 13be 6c4e f0bd 421a 4a3e 5067 383e
00000290: 66c6 423e 976e 943e 392b 7fbf a9c3 46bd
000002a0: 1f61 933e 369e 43be 39eb 1f3f 3d3c 233f
000002b0: aa36 713f 6cfd 9d3e 5e6c 5e3c 4001 e9be
000002c0: b3a2 1c3f a0cd 85bb 6838 423e bb34 d3bd
000002d0: 6640 363e 52c4 81bd d39c a93d 2a9c 503c
000002e0: 4b72 efbc c909 973b 570d b53b 7c4f 0bbe
000002f0: 5312 efbd 95df 1abc 2a2c 823b d55f 3abe
00000300: e84f 123e 6a81 9e3e dfa8 bb3e 9080 0dbd
00000310: 08d8 2e3e 8beb 64bf 2889 c93e 85b6 0dbe
00000320: a3ea 58bf 7035 563e 9cfe 2b3d 0572 abbc
00000330: 56d6 be3e 9f63 80bc aa68 d2be 3385 54bc
00000340: 1c0f 09be aee6 0c3e d6b2 8fbd 416c ac3c
00000350: cf78 5c3f 6086 163f 227e 52be 1c8f 88be
00000360: fa28 e6be 227b f63d b703 ef3e c08a 373e
00000370: 4c87 79bf c013 01be f79f 01bf facb 5fbc
00000380: a173 393e 1ecd 193f f3d6 87bd 7f2b 733e
00000390: 0d81 75bd 9507 bfbe 76cf 4cbe 6e61 973e
000003a0: 64c2 e4bd a100 40bf ecf6 413e c07e d6be
000003b0: 484a 313c dca2 053c d514 74be 9ddc fabe
000003c0: 24ed 42bd 6860 bb3e adb8 9cbd 5435 b03d
000003d0: 4caf bcbe 4247 0a3f 4c4a e1bd fe84 203e
000003e0: 8507 36be 3e63 b0bb 5f73 37bd 477a e8bd
000003f0: 2091 6bbf addb 083e e63c dfbd 0557 853e

linears.0.weight f4 [256, 256]
-0.27623793 0.07692648 -0.5045479 -0.065642945 2.2458162 0.19441107 0.24810787 -0.29299888
-0.051963888 -0.41051012 0.1379755 -0.64801735 0.19184905 -0.22839959 -0.042403262 0.39643106
-0.7649462 -0.629832 2.1779602 0.028518897 -0.21852514 2.2543595 0.06118602 -0.31618384
-0.13939132 -0.0483874 0.34245446 0.17462273 -1.2314037 0.35438514 0.13287245 -0.24346542
-0.4886257 -0.03202475 0.07977773 0.43669796 -0.17538689 -2.3676412 1.3155922 1.5564276
0.48153204 0.47580191 -0.5471502 -0.0960138 -0.084241085 -0.4260611 0.3816799 -0.8420081
0.39968452 1.1802024 0.65208066 -0.5138453 0.6797633 0.9261249 -1.4096384 0.009371426
1.0332637 0.22294496 2.799919 -1.8191181 1.2978877 2.7573996 -0.28435588 0.122225344
-0.9757436 -1.675964 0.2928164 0.4231757 0.021082506 1.469312 0.84766173 -0.63713837
-1.6451963 -0.2626586 -0.14807057 0.088148266 -0.15572797 -0.4568826 1.3278896 0.45759195
2.5199802 -0.569878 0.08014478 0.19554658 0.13964275 0.11394456 -0.60606074 -0.04532474
0.36054912 0.013869779 0.47681284 -1.2556291 -0.05343317 -0.4965366 0.5695326 0.5570135
2.0552845 0.8646673 -0.6160665 0.107306115 -0.06733818 0.04088947 0.30479506 0.12946731
-0.05551999 -0.110757984 -0.057489 -0.30462047 0.05395897 -0.086364165 -0.32510954 -0.3635275
1.2325646 1.6054608 -0.4030793 0.23468378 0.06086072 0.334565 -0.12909897 2.4505768
-1.1696788 -0.5353817 -0.42030317 -0.12748119 -0.6240274 -0.5909959 2.1436 0.2768158
-0.010637737 0.9851158 2.1439595 0.1005044 0.5273164 -2.97437 -0.1473925 -0.4131773
-1.6021206 -0.988084 0.3064219 0.44840723 0.95439744 0.44864568 -0.12985149 0.29706576
0.091023624 -0.08112129 -0.05669049 0.16212279 0.06593345 1.506923 -0.121601254 -0.6562508
-0.82178795 -0.37316483 -0.17888181 0.82325506 0.5227116 0.7961271 -0.39952353 -0.75631136
-0.7023652 0.5642386 0.3766146 0.60175556 0.35310093 0.12242979 0.7708721 -0.24307501
-0.13539444 1.1837869 0.13995779 0.017726358 -0.09617613 0.019350175 -0.03129009 1.2361573
0.1402631 -0.2355953 0.4741771 -0.13188191 0.24378952 -0.013263782 0.36297813 -0.3351005
-1.4185086 -0.17075089 0.009411996 -2.9032087 -0.17928815 -0.5351961 -0.69029164 -0.49090996
0.50555295 0.35305718 -0.08655879 -0.10015427 0.43491995 1.001787 0.10495972 -0.23802665
-0.31437296 0.5092439 0.42471996 0.11422738 -0.09337808 -0.28086513 -0.15072185 -0.0380414
-0.055513196 0.5616465 -0.211071 0.6114747 -0.24502413 -0.1045465 -1.1589509 -2.9681842
0.837329 0.46107686 0.14198916 0.14961195 -0.6630114 -0.069719434 -0.14114228 -0.29827937
0.09930127 -0.019083116 -0.022325324 -0.99240017 1.618336 3.1518395 1.5509273 -0.07886191
-0.2957225 -0.6036913 1.4695234 1.0234555 0.21577926 0.40330628 -0.565241 0.90505064
-1.61539 0.6943519 -0.91589904 0.35960624 0.12172129 0.010948099 1.7271531 0.5389941
-0.68423414 0.18152757 -0.25115275 -3.0702689 -0.65870994 -0.2020293 -0.012657284 0.48963356
00000000: 0f6f 8dbe a18b 9d3d 0d2a 01bf cf6f 86bd
00000010: 74bb 0f40 b213 473e fd0f 7e3e f303 96be
00000020: 16d8 54bd 622e d2be 7349 0d3e 77e4 25bf
00000030: 1474 443e 95e1 69be 0baf 2dbd 03f9 ca3e
00000040: 84d3 43bf ac3c 21bf b363 0b40 76a0 e93c
00000050: 0ec5 5fbe 6d47 1040 319e 7a3d d9e2 a1be
00000060: 99bc 0ebe de31 46bd 3156 af3e 4dd0 323e
00000070: a39e 9dbf f871 b53e b70f 083e 004f 79be
00000080: 262d fabe 622c 03bd 8262 a33d e096 df3e
00000090: 9f98 33be 6f87 17c0 5365 a83f 0539 c73f
000000a0: 5e8b f63e 4f9c f33e 0912 0cbf e2a2 c4bd
000000b0: 9786 acbd ae24 dabe 8c6b c33e d88d 57bf
000000c0: 73a3 cc3e df10 973f c2ee 263f 5e8b 03bf
000000d0: f804 2e3f 8516 6d3f 086f b4bf 9c8a 193c
000000e0: fc41 843f af4b 643e df31 3340 ddd8 e8bf
000000f0: 2f21 a63f 3c79 3040 1897 91be 4851 fa3d
00000100: 55ca 79bf fd85 d6bf 08ec 953e 7caa d83e
00000110: 38b5 ac3c 6a12 bc3f 5c00 593f 801b 23bf
00000120: cb95 d2bf 307b 86be d09f 17be 1487 b43d
00000130: 2777 1fbe 84ec e9be 49f8 a93f 7e49 ea3e
00000140: 5b47 2140 86e3 11bf f222 a43d 5d3d 483e
00000150: 82fe 0e3e c45b e93d cc26 1bbf 6fa6 39bd
00000160: e599 b83e 123e 633c d020 f43e 74b8 a0bf
00000170: bddc 5abd 0c3a febe e3cc 113f 7098 0e3f
00000180: c889 0340 d65a 5d3f 89b6 1dbf 4fc3 db3d
00000190: 9ae8 89bd b87b 273d 190e 9c3e 1493 043e
000001a0: ee68 63bd 15d5 e2bd 9679 6bbd 37f7 9bbe
000001b0: 1504 5d3d b2df b0bd c274 a6be 4720 babe
000001c0: adc4 9d3f bd7f cd3f 6960 cebe f250 703e
000001d0: 1749 793d 1b4c ab3e 8532 04be 40d6 1c40
000001e0: 09b8 95bf c60e 09bf fa31 d7be 6e8a 02be
000001f0: 42c0 1fbf 824b 17bf be30 0940 cdba 8d3e
00000200: e749 2ebc 8d30 7c3f a236 0940 40d5 cd3d
00000210: 35fe 063f 145c 3ec0 0fee 16be fa8b d3be
00000220: 4a12 cdbf 13f3 7cbf 55e3 9c3e a295 e53e
00000230: 6453 743f e3b4 e53e caf7 04be 0119 983e
00000240: 986a ba3d eb22 a6bd 4a34 68bd 8403 263e
00000250: 1e08 873d dae2 c03f 140a f9bd 0d00 28bf
00000260: b260 52bf 760f bfbe cb2c 37be d8c0 523f
00000270: 6dd0 053f fcce 4b3f 598e ccbe 9f9d 41bf
00000280: 35ce 33bf f171 103f a1d3 c03e a70c 1a3f
00000290: a5c9 b43e 78bc fa3d e057 453f a8e8 78be
000002a0: d7a4 0abe 5486 973f 1851 0f3e de36 913c
000002b0: fef7 c4bd 4284 9e3c 0a2a 00bd 673a 9e3f
000002c0: 21a1 0f3e e53f 71be 57c7 f23e 0d0c 07be
000002d0: f6a3 793e 5550 59bc 45d8 b93e 4b92 abbe
000002e0: b191 b5bf 52d9 2ebe c634 1a3c 2cce 39c0
000002f0: 5097 37be 9d02 09bf f4b6 30bf 8d58 fbbe
00000300: eb6b 013f e9c3 b43e bc45 b1bd af1d cdbd
00000310: d4ad de3e 8e3a 803f 1ff5 d63d 42bd 73be
00000320: 7ef5 a0be cf5d 023f e574 d93e 0bf0 e93d
00000330: 023d bfbd 8ecd 8fbe d456 1abe 4dd1 1bbd
00000340: ce61 63bd 11c8 0f3f ff22 58be 9b89 1c3f
00000350: 9be7 7abe 7a1c d6bd 8158 94bf bbf6 3dc0
00000360: 315b 563f 4412 ec3e 9b65 113e e033 193e
00000370: 1dbb 29bf 10c9 8ebd 9a87 10be 13b8 98be
00000380: 775e cb3d 3254 9cbc 99e3 b6bc f00d 7ebf
00000390: a225 cf3f bdb7 4940 c984 c63f 5a82 a1bd
000003a0: f168 97be 838b 1abf 5819 bc3f 9700 833f
000003b0: 3df5 5c3e 297e ce3e a2b3 10bf 66b1 673f
000003c0: 19c5 cebf 0cc1 313f 5c78 6abf 4f1e b83e
000003d0: 0349 f93d a85f 333c 5a13 dd3f 84fb 093f
000003e0: f829 2fbf 5de2 393e 1897 80be 497f 44c0
000003f0: 37a1 28bf c5e0 4ebe 7f60 4fbc 40b1 fa3e

linears.0.bias f4 [256]
0.15782109 0.19980161 -0.30198526 -0.43884113 -0.22424878 -0.01351908 -0.23516934 0.23283327
0.22474487 -0.1749223 0.17181675 0.049771655 0.029279245 0.10568235 0.16199483 -0.16924499
-0.18015404 -0.13100606 0.1528889 0.16737795 0.15595119 0.199679 0.19756636 -0.22560933
0.017085124 0.15603063 0.03753615 -0.12465436 0.012029116 -0.30587724 0.18934779 0.14586537
0.111465566 -0.1302737 -0.32912365 -0.009814276 -0.16437408 -0.59123266 0.14500095 -0.071538225
0.20504645 -0.52565914 0.17314507 -0.0075520882 0.13536936 0.07767663 -0.020525757 0.11856493
0.1518516 -0.0131423855 0.06818645 0.051694613 0.31663272 0.13700674 0.08063233 0.09960974
0.06823498 -0.21183693 -0.0005433489 0.15780379 0.1330673 -0.010419221 -0.10742011 0.027888231
-0.34699735 -0.028659001 0.040481094 -0.032754544 -0.038350858 0.112225935 -0.3386363 0.044730138
-0.039777413 -0.03132771 0.07303966 0.3219969 -0.21677363 -0.11070262 0.073542766 0.21845016
0.084298894 -0.07888287 0.27705288 0.12647693 0.19232766 -0.114585295 0.08961053 0.13079792
-0.10650297 -0.13151209 -0.024956243 0.17196274 -0.06344847 -0.06464135 0.141645 0.1828824
0.26067954 -0.16439053 0.15711427 0.13228457 0.14921626 0.097417966 -0.009454801 -0.47304818
0.122670494 -0.15071523 0.16662544 -0.30601326 -0.44274116 0.22050615 0.11591875 0.16185471
0.09659673 0.14374632 -0.14227633 0.08155549 0.15768471 0.10909747 -0.37954426 -0.0014170727
0.0637396 -0.18490182 -0.030350143 0.15519907 0.13515365 0.049998254 0.1336573 -0.13138077
-0.03134144 0.060387496 -0.0060386974 0.13823332 0.13278477 0.15974328 0.14165252 -0.0071556643
0.1379905 -0.12942044 -0.4218647 -0.0054699136 -0.00890063 0.041775398 -0.11498943 0.07430464
-0.04832804 -0.10199874 0.26405185 -0.0063527427 0.048786726 -0.13463087 0.18153955 0.10914432
0.17757672 -0.1606 -0.14843343 0.11987668 0.21527956 -0.10322213 0.091986656 -0.041330513
-0.08325454 0.13677281 0.10631283 0.0 -0.2600352 0.094059564 -0.39411438 0.09393655
-0.0027894434 0.10550304 0.123161845 0.0 0.15241954 -0.0076111383 -0.08236905 -0.0026635723
-0.06539252 0.11984377 -0.012373718 -0.19778942 -0.3733948 0.21840976 -0.2524624 -0.14145787
0.19866149 0.20771116 -0.0058100596 0.14782849 -0.008041084 0.14174634 0.17672822 -0.09394651
0.17578155 -0.41279233 0.20750554 -0.014025166 -0.39720118 0.11491388 -0.41490632 -0.2185043
-0.07053697 0.11525087 0.21879348 -0.107635416 0.1314881 -0.19559816 -0.28966752 -0.28618684
0.12920731 -0.00018730541 0.20764863 0.3972814 0.22749975 -0.0031433029 -0.044822723 -0.010045071
-0.10980827 0.09168956 0.093067154 -0.20413812 0.005379055 -0.02059423 -0.010902319 -0.26262695
0.037280723 -0.37092823 0.1465303 -0.105208285 0.11694244 -0.0883307 -0.1322213 0.15753096
0.16017038 -0.34560058 0.10308011 -0.014825537 -0.19897665 -0.3816282 -0.01569526 0.05870265
-0.229363 -0.11834637 -0.14025858 -0.00301421 0.045705114 0.30588037 -0.1962738 -0.070923485
0.044331532 0.006673547 0.26324633 0.1810633 -0.31970006 0.10728533 0.0 -0.011819221
00000000: da9b 213e cb98 4c3e d09d 9abe c9af e0be
00000010: 79a1 65be 227f 5dbc 3bd0 70be d86b 6e3e
00000020: 8523 663e d51e 33be bbf0 2f3e 5ddd 4b3d
00000030: 07db ef3c fd6f d83d f9e1 253e 8f4e 2dbe
00000040: 4d7a 38be 7426 06be e88e 1c3e 2065 2b3e
00000050: abb1 1f3e a778 4c3e d64e 4a3e 2206 67be
00000060: 1af6 8b3c 7ec6 1f3e 82bf 193d c94a ffbd
00000070: c515 453c f19b 9cbe 63e4 413e bb5d 153e
00000080: 0f48 e43d 7866 05be e582 a8be 0fcc 20bc
00000090: ae51 28be 065b 17bf 217b 143e a282 92bd
000000a0: b2f7 513e 9991 06bf f14c 313e 8277 f7bb
000000b0: 449e 0a3e ed14 9f3d a225 a8bc 2cd2 f23d
000000c0: fc7e 1b3e 2953 57bc 56a5 8b3d bbbd 533d
000000d0: af1d a23e 7f4b 0c3e 9022 a53d 3100 cc3d
000000e0: c8be 8b3d c8eb 58be 876f 0eba 5197 213e
000000f0: cb42 083e 61b5 2abc 13ff dbbd dc75 e43c
00000100: a3a9 b1be 48c6 eabc 81cf 253d a129 06bd
00000110: ca15 1dbd b6d6 e53d bd61 adbe f336 373d
00000120: a4ed 22bd 7c51 00bd d195 953d c7dc a43e
00000130: e8f9 5dbe 0eb8 e2bd 979d 963d 66b1 5f3e
00000140: e6a4 ac3d 588d a1bd e0d9 8d3e 2b83 013e
00000150: 8bf1 443e b2ab eabd ba85 b73d e4ef 053e
00000160: 3b1e dabd 1bab 06be 0971 ccbc 0017 303e
00000170: 45f1 81bd af62 84bd 630b 113e 8645 3b3e
00000180: ca77 853e fe55 28be 90e2 203e 9b75 073e
00000190: 26cc 183e 1283 c73d 4fe8 1abc 5f33 f2be
000001a0: ab3a fb3d 1855 1abe dc9f 2a3e c5ad 9cbe
000001b0: f8ae e2be 5dcc 613e cf66 ed3d 3ebd 253e
000001c0: 82d4 c53d 3c32 133e e3b0 11be 9106 a73d
000001d0: 1a78 213e 7f6e df3d a053 c2be 12bd b9ba
000001e0: e889 823d e756 3dbe dda0 f8bc 81ec 1e3e
000001f0: b865 0a3e f8ca 4c3d 76dd 083e ae88 06be
00000200: e25f 00bd e158 773d 44e0 c5bb 098d 0d3e
00000210: bbf8 073e be93 233e 5c0d 113e 107a eabb
00000220: 624d 0d3e cb86 04be a6fe d7be f63c b3bb
00000230: f3d3 11bc ae1c 2b3d 947f ebbd 082d 983d
00000240: 9ff3 45bd b7e4 d0bd ce31 873e ab2a d0bb
00000250: 97d4 473d addc 09be 81e5 393e 0f87 df3d
00000260: acd6 353e 5474 24be effe 17be e881 f53d
00000270: 3f72 5c3e 2066 d3bd 8063 bc3d 2f4a 29bd
00000280: 5b81 aabd 2c0e 0c3e 8aba d93d 0000 0000
00000290: 5523 85be 4da2 c03d 5cc9 c9be ce61 c03d
000002a0: 18cf 36bb fa11 d83d 473c fc3d 0000 0000
000002b0: de13 1c3e db66 f9bb 1bb1 a8bd 548f 2ebb
000002c0: 83ec 85bd a770 f53d 23bb 4abc 4f89 4abe
000002d0: 9a2d bfbe cfa6 5f3e c042 81be 55da 10be
000002e0: eb6d 4b3e 3cb2 543e 5062 bebb 5a60 173e
000002f0: c0be 03bc f425 113e 3ef8 343e 0767 c0bd
00000300: 1400 343e 8459 d3be 557c 543e cfc9 65bc
00000310: f45d cbbe f857 eb3d 9a6e d4be 97bf 5fbe
00000320: b075 90bd a608 ec3d 660b 603e f56f dcbd
00000330: d1a4 063e e24a 48be 4d4f 94be 1587 92be
00000340: ec4e 043e 6a67 44b9 d8a1 543e 7868 cb3e
00000350: b2f5 683e dfff 4dbb 0898 37bd 1594 24bc
00000360: 29e3 e0bd bcc7 bb3d fe99 be3d 9509 51be
00000370: c942 b03b 3bb5 a8bc a49f 32bc 0a77 86be
00000380: acb3 183d 4eea bdbe 0a0c 163e 7177 d7bd
00000390: 857f ef3d bae6 b4bd 0565 07be cc4f 213e
000003a0: b403 243e 8ff2 b0be aa1b d33d cfe6 72bc
000003b0: 89c0 4bbe c564 c3be 5993 80bc 3172 703d
000003c0: 22de 6abe 955f f2bd f29f 0fbe 0d8a 45bb
000003d0: 4935 3b3d 5a9c 9c3e 00fc 48be 5540 91bd
000003e0: fb94 353d c5ad da3b 39c8 863e a868 393e
000003f0: baaf a3be 69b8 db3d 0000 0000 68a5 41bc

V.weight f4 [1, 256]
1.236889 -1.5863569 -0.79031116 -4.554024 1.4470797 -0.02241016 0.39828548 0.6200059
-1.5435991 0.82977897 1.0906837 -1.234843 -0.57551485 -0.3068334 1.3182595 -0.32130352
-1.0310796 1.6020923 -1.564041 1.2407323 0.8464105 -1.4028516 -1.5514711 0.7683978
0.022999471 -1.5447968 0.8311299 -0.122169435 0.98944414 -0.7963694 -1.5138633 1.1160856
0.96771497 0.30679342 1.200151 1.4220283 1.2174946 -6.3147593 -1.3723311 -1.4013324
-1.3300353 0.9948053 1.1850585 0.036210332 1.3468776 -1.1009985 1.8998134 -1.413213
0.9455053 0.09960925 0.1000682 -2.386778 -1.2236807 1.112632 0.7381256 1.097439
1.0075715 -4.53792 1.8033535 -2.7146966 1.1775397 0.13752519 1.977751 1.0824536
-1.055634 -1.5485612 -1.8223274 2.2670007 -1.5807424 -1.5165131 -1.0919514 -0.06690352
-1.4101909 0.7582995 -1.5251634 -1.0312792 0.58758104 -2.5084262 -1.572203 -1.5079645
1.2018566 -1.5605459 -1.3036513 1.443836 -1.6012918 -1.4242725 0.12381302 -0.09688173
1.013417 -1.3360367 1.7740132 -1.5636344 -1.3682228 -0.6061589 -1.4651515 -1.5557477
-0.7956584 1.3489574 -1.6122357 -1.58362 0.96199846 1.0490093 0.06080342 -6.3037143
1.0732644 -2.7672477 -1.3163513 -0.9875165 1.3248523 -1.3663684 1.1671897 1.0853559
-1.4820756 1.1452376 1.0912793 1.1333122 1.0363076 1.0149577 0.9037319 -0.07414311
-1.4883736 -1.3329288 0.31261772 1.2099673 1.3119582 -1.0953741 1.1593305 -1.7792292
1.054372 -1.7133193 0.036903124 1.1323258 1.3272269 -1.4475257 1.1800623 -0.18986705
-1.629819 1.531666 0.36433798 -0.06776547 -1.6775094 1.0861411 3.4489715 1.023742
1.2621039 0.82037956 -1.647127 -0.023228763 1.0949919 0.74118096 -1.6359484 1.2638122
-1.4777317 -1.3766391 -1.3727071 -1.6113975 1.1228374 -1.4512078 1.209018 -1.3908287
-1.2955889 -1.4514003 -1.5953594 0.1050584 0.2591253 1.562282 1.0784621 0.74005044
0.2075137 1.1414083 1.2864876 0.1566119 -0.63268614 -0.025863979 -0.21967351 -1.3348423
-0.58015263 1.1525279 -1.5202783 -1.322135 -4.9842305 -1.5402385 -4.251302 0.15603477
-1.469275 -1.5593878 -0.048994943 -1.4672 -0.05523577 -1.485946 -1.5427842 -1.0928602
-1.6238312 -0.11563101 1.2065109 -0.037248183 -4.658012 1.377312 -0.41567978 0.4287936
-1.2844462 1.0881582 -1.4129915 -2.5503323 0.93328077 -1.6838976 0.80098134 1.1714978
-1.1013741 1.4282694 -1.5367432 -1.1217309 -0.014260157 -0.05014453 -0.69910365 0.066987306
3.9268377 -1.4787555 1.6063099 1.3868461 -2.0668864 0.06735423 -1.0561048 -4.074471
2.362861 -1.0418395 -1.4094095 -1.164361 1.2871283 2.080329 1.5468209 1.2149098
0.97213686 -0.95821244 1.3985487 0.005963592 0.9694713 -5.3498507 -1.6168507 1.092147
1.2560782 0.6956271 -1.4869095 -0.0052854246 -1.4383446 -1.141926 0.62780464 1.1522026
0.1785416 -1.8570329 -1.15837 -1.5820382 -0.38539815 -1.3247831 0.018933697 0.07977455
00000000: 6152 9e3f be0d cbbf d551 4abf 91ba 91c0
00000010: e839 b93f 8395 b7bc 13ec cb3e b5b8 1e3f
00000020: a894 c5bf 656c 543f 869b 8b3f 560f 9ebf
00000030: f154 13bf 4419 9dbe babc a83f e581 a4be
00000040: 6bfa 83bf 5c11 cd3f 7f32 c8bf 51d0 9e3f
00000050: 5cae 583f a490 b3bf 9b96 c6bf b8b5 443f
00000060: 6369 bc3c e7bb c5bf eec4 543f f833 fabd
00000070: 364c 7d3f ddde 4bbf 46c6 c1bf e5db 8e3f
00000080: 2bbc 773f 0714 9d3e 8c9e 993f 0605 b63f
00000090: ddd6 9b3f 8212 cac0 8ca8 afbf dc5e b3bf
000000a0: 993e aabf 8fab 7e3f ffaf 973f 4951 143d
000000b0: 7c66 ac3f 85ed 8cbf 162d f33f 2ae4 b4bf
000000c0: a30c 723f efff cb3d 8ef0 cc3d f9c0 18c0
000000d0: 92a1 9cbf ba6a 8e3f cdf5 3c3f e278 8c3f
000000e0: 1af8 803f a436 91c0 4ad4 e63f 97bd 2dc0
000000f0: 9fb9 963f 67d3 0c3e f226 fd3f d78d 8a3f
00000100: 041f 87bf 4137 c6bf 0642 e9bf 8a16 1140
00000110: c455 cabf 1a1d c2bf 10c5 8bbf b604 89bd
00000120: 2381 b4bf eb1f 423f 8e38 c3bf f500 84bf
00000130: b66b 163f 0e8a 20c0 f33d c9bf fb04 c1bf
00000140: 70d6 993f f8bf c7bf 0cde a6bf 9ecf b83f
00000150: 21f7 ccbf 904e b6bf ae91 fd3d ee69 c6bd
00000160: a6b7 813f 4003 abbf dd12 e33f 2c25 c8bf
00000170: ed21 afbf 3b2d 1bbf 168a bbbf be22 c7bf
00000180: 45b0 4bbf a3aa ac3f bd5d cebf 0fb4 cabf
00000190: 8845 763f f045 863f 020d 793d 07b8 c9c0
000001a0: ba60 893f 961a 31c0 337e a8bf e2cd 7cbf
000001b0: c394 a93f 29e5 aebf 7966 953f f1ec 8a3f
000001c0: a7b4 bdbf 2597 923f 0aaf 8b3f 6010 913f
000001d0: baa5 843f 22ea 813f f95a 673f 58d8 97bd
000001e0: 0783 bebf 699d aabf 6e0f a03e 35e0 9a3f
000001f0: 3fee a73f 3835 8cbf f164 943f c8bd e3bf
00000200: a9f5 863f 0c4e dbbf bb27 173d 0df0 903f
00000210: 92e2 a93f 8648 b9bf 480c 973f 826c 42be
00000220: e99d d0bf a20d c43f 828a ba3e 9fc8 8abd
00000230: a1b8 d6bf ac06 8b3f f3bb 5c40 fa09 833f
00000240: 9f8c a13f 6504 523f 0fd5 d2bf 3f4a bebc
00000250: b228 8c3f 09be 3d3f c266 d1bf 99c4 a13f
00000260: 5026 bdbf b635 b0bf deb4 afbf 4642 cebf
00000270: 23b9 8f3f 2dc1 b9bf 1ac1 9a3f ad06 b2bf
00000280: dbd5 a5bf 7cc7 b9bf bd34 ccbf dc28 d73d
00000290: 12ac 843e dbf8 c73f 0c0b 8a3f f273 3d3f
000002a0: 797e 543e ab19 923f a0ab a43f df5e 203e
000002b0: b8f7 21bf b2e0 d3bc 18f2 60be 1ddc aabf
000002c0: e284 14bf 0986 933f 7b98 c2bf b83b a9bf
000002d0: d17e 9fc0 8926 c5bf aa0a 88c0 94c7 1f3e
000002e0: 3411 bcbf 059a c7bf ecae 48bd 36cd bbbf
000002f0: e73e 62bd 7b33 bebf f479 c5bf d8e2 8bbf
00000300: b3d9 cfbf f3cf ecbd f36e 9a3f 8d91 18bd
00000310: 6f0e 95c0 c24b b03f fbd3 d4be d68a db3e
00000320: bc68 a4bf c548 8b3f e8dc b4bf a538 23c0
00000330: 7deb 6e3f f589 d7bf 1d0d 4d3f a4f3 953f
00000340: d4f9 8cbf 88d1 b63f 00b4 c4bf e194 8fbf
00000350: 6fa3 69bc 5a64 4dbd 75f8 32bf a430 893d
00000360: 4f51 7b40 dc47 bdbf 909b cd3f 2c84 b13f
00000370: de47 04c0 04f1 893d 712e 87bf 1162 82c0
00000380: 1d39 1740 ff5a 85bf 8867 b4bf c809 95bf
00000390: 9fc0 a43f 1c24 0540 3afe c53f 2a82 9b3f
000003a0: f6dd 783f 694d 75bf a503 b33f 3c6a c33b
000003b0: 452f 783f fa31 abc0 f7f4 cebf 79cb 8b3f
000003c0: 2cc7 a03f 9e14 323f 0d53 bebf 5b31 adbb
000003d0: ad1b b8bf a22a 92bf ceb7 203f 607b 933f
000003e0: 9cd3 363e 41b3 edbf 7845 94bf 3a80 cabf
000003f0: e852 c5be 7e92 a9bf d71a 9b3c d760 a33d

A.weight f4 [51, 256]
0.58749515 2.5972776 1.0048317 2.405184 -0.95559675 0.045783147 0.08870847 1.166615
2.2557611 -0.24147563 0.4986772 2.2194448 -0.19218536 1.0492438 0.13276076 0.5506468
0.72014093 -0.16301763 2.1915252 0.35327283 0.47962123 1.9425862 2.155585 0.3824627
0.6167799 2.2291965 0.1988654 0.28906637 0.68119174 0.93348485 2.0883465 1.2682961
0.47776887 0.76907426 -0.4202758 -0.16925123 -0.5055716 3.4195924 1.5672343 1.6238542
1.4096401 -0.009793388 0.66928566 -0.1130986 0.2912754 1.5164683 -1.2388659 1.559894
0.8275474 0.11356137 0.119840756 3.1039603 1.7527804 0.11878933 0.53812206 0.48807094
0.35510194 3.3543565 -0.5290014 3.116155 0.31985384 0.07460433 -1.6148896 2.130634
1.1893854 2.2508836 2.2265708 0.16185606 2.9250154 2.1036086 0.6456484 0.14191549
2.3503973 -0.5495776 2.1079526 1.2034236 0.27156293 1.6279341 2.750123 2.351424
1.1406894 1.7846514 1.744007 0.4145685 2.5493948 2.3339999 1.8339616 0.6491173
-0.4086599 1.8208063 -0.12563308 2.2509918 1.8973105 0.8324253 1.9457849 1.9530071
1.241182 -0.35853285 2.4901638 2.05804 0.6165702 2.2990994 0.12530804 4.9375143
0.44798556 3.0921628 1.5016868 0.9497443 -0.30310062 1.7123784 0.46507558 0.56628525
2.5775807 0.3524406 -0.03879799 0.52573216 0.5725706 1.2616193 -0.60472995 0.118371494
2.5610654 1.5600097 0.85080165 0.36361828 0.18931924 0.86951536 0.21398462 1.4158374
0.38704804 2.019151 0.08569291 0.7908506 0.4470519 1.9691896 0.28174978 0.11563745
2.9222205 0.7646316 0.72413445 -0.0205999 2.42461 0.67376566 -1.658241 0.8852962
-1.0369128 0.60489255 1.8652738 -0.14521246 0.60148734 -0.7172257 2.7024264 0.4598073
1.5028734 2.2220168 2.144091 2.2295408 0.84172726 1.7399787 0.6828999 1.4680766
1.4360294 1.9764233 2.4113057 0.033404216 0.029692365 -0.23279396 -0.103963695 1.1150829
0.5970198 0.7216709 0.33642715 -0.045919687 2.1526105 -0.030697575 0.9518601 1.4000434
0.269212 0.28187266 2.410172 1.4850572 2.6076396 2.1309185 2.1539876 3.412625
1.7136635 1.9358114 0.024217376 1.973704 0.13435097 2.2593386 2.0660036 0.67712593
2.1123657 1.9665258 0.23848581 0.027617147 2.9665976 0.24105152 0.74935466 0.16658962
1.5002465 0.82089794 1.9139096 2.0729916 0.8433081 2.2560713 -0.20046665 -0.62951046
1.7389122 2.2504342 1.8621765 1.6083686 0.19768062 0.03847312 0.87422246 0.040998507
-3.0897946 1.7721068 0.9746602 -0.23016557 1.915108 -0.016499687 1.5351326 2.208767
-0.4098159 0.9979447 1.8089827 1.2834389 0.42959565 -1.1331303 -0.42654428 0.6410213
0.46926102 0.89359516 0.21882665 -0.046446662 -0.6265092 3.2844665 3.279467 0.6806178
0.37417242 0.3001092 1.8359274 -0.0016351508 1.887055 2.0263183 -0.23687981 0.69799787
0.28814253 0.6563508 1.6133229 2.1383557 0.61121815 2.2908037 -0.14455798 0.0018004955
00000000: 1566 163f cc39 2640 539e 803f 89ee 1940
00000010: fda1 74bf 1c87 3b3d c9ac b53d a453 953f
00000020: 645e 1040 6345 77be 9e52 ff3e 620b 0e40
00000030: 3dcc 44be 9f4d 863f 70f2 073e 30f7 0c3f
00000040: 285b 383f 18ee 26be f341 0c40 2de0 b43e
00000050: ea90 f53e aaa6 f83f 1bf5 0940 27d2 c33e
00000060: 4ae5 1d3f 28ab 0e40 5fa3 4b3e 8200 943e
00000070: 9562 2e3f ddf8 6e3f 78a7 0540 8757 a23f
00000080: 1f9e f43e 0de2 443f 642e d7be 3250 2dbe
00000090: 246d 01bf 9ada 5a40 229b c83f 74da cf3f
000000a0: 166f b43f 7274 20bc 4e56 2b3f 3da0 e7bd
000000b0: 0d22 953e a21b c23f 2893 9ebf 9baa c73f
000000c0: 25da 533f dd92 e83d 126f f53d 49a7 4640
000000d0: 1c5b e03f d247 f33d 5ec2 093f 6fe4 f93e
000000e0: eccf b53e c7ad 5640 a36c 07bf 156f 4740
000000f0: e2c3 a33e 28ca 983d b4b4 cebf 4f5c 0840
00000100: c83d 983f 7a0e 1040 2380 0e40 98bd 253e
00000110: 7433 3b40 86a1 0640 3749 253f 4b52 113e
00000120: e96c 1640 1eb1 0cbf b2e8 0640 c909 9a3f
00000130: 4c0a 8b3e 2560 d03f 0402 3040 bb7d 1640
00000140: 1c02 923f 756f e43f 9f3b df3f 5342 d43e
00000150: 4929 2340 4160 1540 41bf ea3f 8d2c 263f
00000160: df3b d1be 2e10 e93f f5a5 00be 4010 1040
00000170: 12db f23f d319 553f 7b0f f93f 23fc f93f
00000180: 0ddf 9e3f 9e91 b7be d85e 1f40 edb6 0340
00000190: 8bd7 1d3f 7224 1340 c050 003e 1e00 9e40
000001a0: 5d5e e53e ffe5 4540 4637 c03f 7122 733f
000001b0: 0130 9bbe 372f db3f 631e ee3e 12f8 103f
000001c0: 15f7 2440 1873 b43e a4ea 1ebd 6296 063f
000001d0: fd93 123f be7c a13f 95cf 1abf c16c f23d
000001e0: 7fe8 2340 66ae c73f 23ce 593f 2d2c ba3e
000001f0: e7dc 413e 8f98 5e3f c91e 5b3e 293a b53f
00000200: 292b c63e c539 0140 c47f af3d 2f75 4a3f
00000210: fde3 e43e 680e fc3f 8241 903e 54d3 ec3d
00000220: a905 3b40 e6be 433f e060 393f 1fc1 a8bc
00000230: cf2c 1b40 e87b 2c3f 3e41 d4bf c6a2 623f
00000240: 8fb9 84bf 3dda 1a3f 4bc1 ee3f 93b2 14be
00000250: 13fb 193f 1a9c 37bf 8ef4 2c40 dd6b eb3e
00000260: 285e c03f 8635 0e40 c938 0940 ccb0 0e40
00000270: 707b 573f 9fb7 de3f 87d2 2e3f efe9 bb3f
00000280: d0cf b73f 70fb fc3f d552 1a40 dcd2 083d
00000290: 673d f33c 8a61 6ebe ebea d4bd 09bb 8e3f
000002a0: 4ad6 183f 6dbf 383f 2e40 ac3e 4816 3cbd
000002b0: 5fc4 0940 7b79 fbbc 1aad 733f 9f34 b33f
000002c0: 28d6 893e 9d51 903e 4240 1a40 5b16 be3f
000002d0: 91e3 2640 f860 0840 efda 0940 7368 5a40
000002e0: 5359 db3f abc8 f73f 8563 c63c 55a2 fc3f
000002f0: 4d93 093e 0199 1040 6739 0440 2058 2d3f
00000300: 0031 0740 1eb7 fb3f a035 743e 5b3d e23c
00000310: bcdc 3d40 36d6 763e b5d5 3f3f 7896 2a3e
00000320: 1408 c03f 5e26 523f fdfa f43f e5ab 0440
00000330: 0ae3 573f 7963 1040 2147 4dbe 9927 21bf
00000340: ad94 de3f 1d07 1040 cd5b ee3f 06df cd3f
00000350: ca6c 4a3e fe95 1d3d 0bcd 5f3f 0dee 273d
00000360: 32bf 45c0 65d4 e23f 5583 793f 86b0 6bbe
00000370: 4222 f53f 5a2a 87bc 3a7f c43f 705c 0d40
00000380: 64d3 d1be 4e79 7f3f bf8c e73f ba47 a43f
00000390: f6f3 db3e 6a0a 91bf 0364 dabe f919 243f
000003a0: fb42 f03e a7c2 643f 1814 603e db3e 3ebd
000003b0: e862 20bf b334 5240 cae2 5140 f83c 2e3f
000003c0: 8793 bf3e eaa7 993e abff ea3f 8e52 d6ba
000003d0: 058b f13f 33af 0140 9f90 72be fdaf 323f
000003e0: 6b87 933e 9b06 283f 5d81 ce3f d2da 0840
000003f0: cb78 1c3f 879c 1240 0207 14be 9bfe eb3a

A.bias f4 [51]
0.69633985 0.84010446 1.0908524 0.8658008 0.7646292 0.79327977 0.58750325 0.8846549
0.6009493 0.7920247 0.5730253 0.8519308 0.5596999 0.5406925 0.45758 0.69325554
0.6262094 0.82697153 0.5811251 0.65594566 0.36980554 0.65073484 0.6012644 0.36163434
0.5048369 0.9124647 0.51715434 0.6373586 0.5861052 0.47691673 0.45696276 0.6240494
0.80833405 0.5816139 0.7196196 0.8526287 0.8619462 0.85067815 0.93730843 0.7303127
0.8904266 0.97399884 0.9103712 1.1688426 0.99924076 1.4214398 0.97619474 1.372471
1.1158903 1.4187065 1.2794751
00000000: 5443 323f 1611 573f 0da1 8b3f 1fa5 5d3f
00000010: bdbe 433f 6214 4b3f 9d66 163f be78 623f
00000020: d0d7 193f 21c2 4a3f c9b1 123f 2318 5a3f
00000030: 7e48 0f3f d36a 0a3f ed47 ea3e 3279 313f
00000040: 424f 203f 68b4 533f 9dc4 143f 0eec 273f
00000050: 2757 bd3e 8f96 263f 77ec 193f 2328 b93e
00000060: fe3c 013f 4997 693f 3a64 043f ef29 233f
00000070: fe0a 163f 6e2e f43e 06f7 e93e b4c1 1f3f
00000080: fbee 4e3f a6e4 143f fd38 383f e045 5a3f
00000090: 82a8 5c3f 0bc6 593f 72f3 6f3f c6f5 3a3f
000000a0: fff2 633f fd57 793f 160e 693f a29c 953f
000000b0: 3ece 7f3f bdf1 b53f e6e7 793f 21ad af3f
000000c0: 7ed5 8e3f 2d98 b53f d7c5 a33f
