option_hedging/hyperparameters/dqn_hyperparameters/dueling/year/0.0/dqn_model.pth (torch, 323928 bytes, 7 tensors)

linear1.weight f4 [256, 3]
000000 b4 07 5d 3d eb cb 77 bf e6 f6 19 3e d4 f1 1d 3e
       0.053962424 -0.9679553 0.1503559 0.15424281
000010 1e 68 3b 3f 52 c2 e6 bc 09 2b 10 be 0b dd 8b bf
       0.73205745 -0.028168831 -0.14078917 -1.0926832
000020 f2 78 ae 3d 44 10 51 be 98 4b 70 3f f7 63 6a 3e
       0.08519162 -0.20416361 0.93865347 0.22889696
000030 63 6f f4 be 5e 4b 76 3f e6 78 28 be 98 e4 04 bf
       -0.4774123 0.9620875 -0.16452369 -0.51911306
000040 2b fc 29 be a5 08 41 bd 13 55 47 be 28 ba d5 be
       -0.166001 -0.047127385 -0.19466047 -0.41743588
000050 33 9f 10 bf c9 c1 c9 be 1b 2e 98 3d 69 9f a7 bd
       -0.5649292 -0.3940566 0.07430669 -0.08184702
000060 77 86 eb 3c 53 c9 37 3e 7e ce 56 be 7f c3 a5 3e
       0.028750641 0.17947893 -0.20977208 0.32375714
000070 89 ce 0b bf 49 c2 37 be 9a 86 4b be 33 9e 65 3e
       -0.5461202 -0.17945208 -0.19875565 0.2242363
000080 70 ef c1 be 66 32 2c be bd 86 84 3f 2d e7 8e be
       -0.3787799 -0.168161 1.0353619 -0.27910748
000090 fa cf fe be ba 60 f3 3d d2 50 b6 bd b2 9a b7 bc
       -0.4976805 0.118836835 -0.08902134 -0.022412632
0000a0 c3 e2 c3 be c4 0d 22 bf 10 0d 92 be 9e 3c b9 3d
       -0.38258943 -0.63302255 -0.2852559 0.09044765
0000b0 17 05 1c bd 51 b7 92 be 2a 77 8b 3f 2c 31 95 be
       -0.03809079 -0.28655484 1.0895741 -0.29139078
0000c0 d7 99 05 bf a0 7a dd 3d bc c3 e4 be b8 a5 fe be
       -0.52187866 0.108144045 -0.44680583 -0.49735808
0000d0 fd 47 1a 3e 3c 6b bc be 66 7b 49 be 12 12 80 bf
       0.15066524 -0.36800563 -0.19675979 -1.0005515
0000e0 09 bd 36 be f1 90 03 3c 18 5a 78 3f 09 78 ac bc
       -0.17845549 0.008030162 0.9701247 -0.021053331
0000f0 5b dc 26 bd 38 62 9f bf 25 c8 3c 3d 3b d3 7d be
       -0.04073749 -1.2451849 0.04608931 -0.2478761
000100 1a 8b a2 be 3c d4 e4 be 2d bb 46 be 97 cf 77 be
       -0.3174675 -0.44693172 -0.1940734 -0.24200283
000110 7b 82 2c bf 2d 9d 2e be 39 01 a1 3f 55 c9 84 be
       -0.673866 -0.17052145 1.2578498 -0.25934854
000120 ff ad 25 3e 1b 8f a2 bf e6 77 be 3d c9 9e ca be
       0.16179655 -1.2699922 0.093002126 -0.39574268
000130 83 6c 05 3e af 31 b5 bd 50 ed dc 3d 1e 9f 43 be
       0.13029675 -0.08847367 0.10787451 -0.19103667
000140 68 5e c3 3d e3 7e 5f be 45 ad 8f 3f 20 24 b6 be
       0.09539491 -0.21825747 1.1224753 -0.35574436
000150 6c ff 29 3e 29 89 c1 3f da b3 d7 3d 15 b7 c5 3d
       0.16601342 1.5119983 0.10532351 0.09654061
000160 9c 56 85 bf 0e 2f d5 3d 8d 02 0d 3e 2f e6 94 bf
       -1.0417056 0.104093656 0.13770504 -1.1632746
000170 c0 db 1d 3e c0 4b 7b bd 90 00 a7 3f 08 89 49 be
       0.15415859 -0.061351538 1.3047047 -0.1968118
000180 e6 31 6b 3e 34 e5 4f 3f dc 54 f4 bd 52 1b 3a be
       0.22968253 0.8120911 -0.11930248 -0.18174484
000190 34 25 7e 3f ab 71 e0 bd 61 38 69 bf 6b c6 16 3f
       0.9927552 -0.109591804 -0.9110165 0.5889651
0001a0 09 fc 7a be 19 36 cf 3d 76 44 72 3f 57 82 de be
       -0.24510206 0.1011774 0.94635713 -0.43458816
0001b0 39 a9 95 bd 57 60 84 3f df 81 fe bd 17 1e 9f be
       -0.07307667 1.03419 -0.12427115 -0.31077644
0001c0 33 61 6b 3f 21 e1 51 be 10 ec 7e be c4 f8 96 3e
       0.9194519 -0.20496036 -0.24894738 0.29486668
0001d0 c7 80 db bd af 7d 03 bf f2 d6 a2 3f e3 f6 c8 be
       -0.10717922 -0.5136365 1.2721846 -0.3925086
0001e0 da 4a 06 be 07 8a 80 3f 91 05 5b be 83 f2 88 bf
       -0.13114491 1.0042123 -0.21388842 -1.0699009
0001f0 03 86 8e 3e 33 d5 88 bd 9c 3e 0b bf 77 20 19 3f
       0.27836618 -0.066812895 -0.5439241 0.5981516
000200 47 18 91 be 0c 91 72 3c 2c 13 8e bf 2a 22 07 3e
       -0.28338835 0.01480509 -1.1099601 0.13196626
000210 98 68 ab be 1c 08 32 3f bc f7 91 be ee 25 7c 3d
       -0.33478236 0.69543624 -0.2850932 0.06155961
000220 bc 54 34 3f 28 e2 93 bd 7f 83 14 3d 0c 0f 4a 3e
       0.70441794 -0.0722087 0.036258217 0.19732302
000230 08 ff b0 bd 74 32 c1 be a4 29 10 3c 6c e8 81 bd
       -0.08642393 -0.37733805 0.00879899 -0.06343159
000240 ee 1e 0e 3e d7 bd 29 bf 70 ef a6 3d b0 9e a7 bd
       0.13878986 -0.663053 0.08151138 -0.08184564
000250 98 40 4b bf ad 32 39 3e 19 71 d8 be de 91 90 3f
       -0.7939544 0.18085738 -0.42273787 1.1294515
000260 3c 95 2a be 7b 72 a1 bd 45 0b 5f bf db f8 39 3e
       -0.16658491 -0.078831635 -0.8712657 0.18161337
000270 5e 97 d8 bd 82 c9 8a bd 37 03 2f bf cf c4 13 bf
       -0.10575746 -0.06776716 -0.6836428 -0.5772218
000280 34 7f 03 bd 3c 4f 5f bd a3 fc ad be 20 93 89 3f
       -0.032103732 -0.054518923 -0.3398181 1.0748024
000290 6d b7 18 be 3c 34 2d be 94 98 6f 3d ac 96 79 bd
       -0.14913721 -0.16914457 0.05849512 -0.060934708
0002a0 cc 66 aa be f9 0c 3f be fb 40 08 bf c5 f6 bb be
       -0.33281553 -0.18657292 -0.5322415 -0.36711708
0002b0 1f e1 a8 3d 1d 04 9a bd 50 08 f2 be 0d 78 32 be
       0.082460634 -0.07520316 -0.47271967 -0.17428608
0002c0 a2 90 1e bf 85 b9 5d 3e eb ed b4 3f 00 6e 75 3c
       -0.6193944 0.21652801 1.4135107 0.014979839
0002d0 b8 9f 57 bd 57 fe 54 3c 0b 17 80 bb 21 0e ba 3c
       -0.052642554 0.0130000925 -0.003908997 0.022711815
0002e0 6c 64 7e bf c4 e4 19 3e c6 c7 9f 3e e6 38 8f bf
       -0.9937198 0.15028673 0.31207103 -1.1189239
0002f0 55 62 ce 3d 9c 02 de be 0f ff ff 3c 60 7c f8 bd
       0.10077349 -0.43361366 0.031249551 -0.12133098
000300 b3 86 99 be 2d 7b 8e 3f af 52 4f be aa 6e 8f be
       -0.2998558 1.113134 -0.20246385 -0.28014117
000310 30 e9 a7 be 4b 47 02 bf 62 29 48 bd c8 96 54 bf
       -0.32795095 -0.50890034 -0.04886759 -0.83042574
000320 b6 8a 15 3e 10 b4 09 3d 24 56 23 3f 02 21 96 3e
       0.14603695 0.033618987 0.63803315 0.29322058
000330 b6 0a 20 bf be 68 9b 3e 59 e1 15 bf 72 3c 6d 3e
       -0.62516344 0.3035335 -0.5854698 0.2316759
000340 2c 35 8e bf d1 51 51 bd c1 d1 32 bf 6b de 01 3e
       -1.1109977 -0.051103417 -0.6985131 0.12682502
000350 80 c6 97 bd 2e fc 87 3e 1d f7 5e 3f 2e f7 15 be
       -0.07410908 0.26559585 0.87095815 -0.14645073
000360 5b b4 e4 bd dd e4 29 be b9 ce 90 be ee de 3d be
       -0.111672126 -0.1659121 -0.28282717 -0.18542072
000370 e6 fb 67 3e 2b b9 ee be 60 94 27 3c 22 ed 83 bf
       0.22654685 -0.46625647 0.010228246 -1.0306742
000380 ef 3d 35 3e 5c df ed 3e ae dc d6 bf 83 a5 41 3d
       0.17699407 0.46459472 -1.6786096 0.047276985
000390 85 4d 10 be 70 a6 9b 3f 7f 23 38 be 7d b7 8b 3e
       -0.14092071 1.2160168 -0.1798229 0.27288428
0003a0 19 07 b6 bf ce 91 ee 3d 66 9e dc bd 44 61 5f 3e
       -1.4220916 0.11648904 -0.107723996 0.21814448
0003b0 6e ad 54 be ae 56 66 be 68 08 e7 3e 98 db 8a 3e
       -0.20769283 -0.22494003 0.451236 0.27120662
0003c0 7e 63 82 3e 4a 0b b2 bf b1 36 3a 3e b7 99 5a bd
       0.25466532 -1.3909695 0.18184926 -0.05336925
0003d0 a8 fa 63 3f de 35 86 bc ed 24 4b bd 1f 85 82 3d
       0.89054346 -0.016383108 -0.049595762 0.06373047
0003e0 fd c2 40 bc a7 42 35 be c4 17 20 be a1 74 3c bf
       -0.011765239 -0.17701207 -0.15634066 -0.7361546
0003f0 42 33 5e 3d f2 40 7a bf 1f c2 1a 3e b4 6b 4d bf
       0.054248102 -0.9775535 0.15113114 -0.80242467

linear1.bias f4 [256]
000000 e2 38 d4 3d 90 98 ab 3e 13 6e aa 3e 85 91 9c 3e
       0.10362412 0.33514833 0.33287105 0.30579773
000010 23 f3 d0 3c 6e de b8 bd 3a c5 ec be b7 22 bc bd
       0.025506562 -0.090268 -0.46244222 -0.09186309
000020 51 67 61 3e 65 6a 65 3e bf 02 15 3f 69 1e a6 3c
       0.22012068 0.22403868 0.58207315 0.020278173
000030 fe 1b c0 bd f3 90 e5 be 53 8d 0c bd ad 01 af 3e
       -0.09380339 -0.4483715 -0.034314465 0.34180966
000040 45 a2 2d bf 1c b1 de be 0f a0 5e 3e e4 a8 b8 3e
       -0.6782573 -0.434945 0.21740745 0.36066353
000050 2f be d7 3e b4 09 2c 3e cb 5c e5 be 66 60 bb 3e
       0.42137286 0.16800576 -0.44797358 0.36596984
000060 57 44 e8 3e 89 bf b8 bd 3c b6 ec 3e 54 e1 f7 3d
       0.4536464 -0.090209074 0.46232784 0.12103525
000070 1a ba 02 be 3d 19 52 3d fa 4d a9 3e b1 61 0a be
       -0.12766305 0.0512936 0.33067304 -0.13513829
000080 4c 0f be 3e 7b 53 85 bd 89 72 a2 bc 34 f6 4c 3e
       0.37121046 -0.06510063 -0.019830005 0.20015794
000090 d0 1f ea 3e 7e 96 94 bd 7f 2f a9 bd 4e 88 3e 3d
       0.45727396 -0.072552666 -0.08261012 0.04651671
0000a0 6f 7f 97 be 91 97 69 bb 66 80 ca bd 9c 16 98 3d
       -0.29589412 -0.003564332 -0.09887771 0.074261874
0000b0 34 39 9c be 27 04 d5 3e c3 c2 f7 3e df a1 0a be
       -0.30512393 0.4160473 0.4839078 -0.13538311
0000c0 38 79 0e 3f d6 27 4a 3e 53 8f ad bb 6d c4 44 3e
       0.55653715 0.19741759 -0.0052966266 0.19215555
0000d0 c9 fa 16 bf f8 f2 a3 bd 4f 54 bb bc 20 35 f1 3e
       -0.5897642 -0.08005327 -0.02286735 0.47110844
0000e0 42 d0 bd bc d4 32 a9 bd 39 96 73 be f3 dd 39 bb
       -0.023170594 -0.08261648 -0.23787774 -0.0028361052
0000f0 9d 86 42 bb 03 a9 03 3e b3 c5 e4 3e 6c 11 56 be
       -0.0029682287 0.12857442 0.44682083 -0.20905083
000100 85 a0 e4 bc 10 99 b6 be 0d d8 16 3e ff e4 8d 3e
       -0.027908573 -0.35663652 0.14730854 0.27713773
000110 d9 68 c6 bc e9 f6 c4 3e 7b 88 fe bc 3a 81 ba 3e
       -0.024219917 0.38469627 -0.031070938 0.36426717
000120 d4 b2 20 be bd cd 25 bf 02 ef 15 3e 7a 77 19 3e
       -0.15693218 -0.64767057 0.14641955 0.14986983
000130 f8 af 9e bd 49 69 96 3c 10 10 ec 3e 6b 8a d0 3e
       -0.07748407 0.01836075 0.46106005 0.40730605
000140 34 ab d2 3e c0 87 97 be b0 58 39 bb 0c 30 17 bf
       0.41146243 -0.29595757 -0.0028281622 -0.5905769
000150 d9 9c d6 3d d9 e0 85 be f6 55 22 bf 20 27 9f 3e
       0.10479135 -0.26148108 -0.63412416 0.31084538
000160 1c ec 7c be f1 2f 86 bd 92 c1 1b 3e 24 86 11 3e
       -0.24699444 -0.06552113 0.1521056 0.14211327
000170 51 88 d9 3c 8e ce e1 3d 73 1a e6 3e 1f aa 8d 3e
       0.026554259 0.11025725 0.44942054 0.27668855
000180 61 72 c5 3d a7 56 1f 3e d3 84 4d 3e 0a ab 30 be
       0.09640957 0.15560399 0.200702 -0.17252746
000190 ca 5a 96 3e 55 5f 49 be 0f e9 91 3e 1c 3d 6f be
       0.29366142 -0.19665273 0.28498122 -0.23363155
0001a0 fe fa b7 3e ac 5a a3 3e 44 30 04 3f bd b4 c5 3e
       0.3593368 0.31905115 0.5163615 0.38614455
0001b0 3d d8 9c 3e ac 92 02 be 53 f1 d4 3e cd dc c2 3e
       0.30633727 -0.12751263 0.41590366 0.38059083
0001c0 0e 9e 1f 3f 84 77 db bd 02 38 c9 bb 24 a5 0c 3e
       0.6235055 -0.10716155 -0.00614071 0.13734871
0001d0 7c 7e a1 3d 45 4f e0 be 1d 54 bb 3e 59 8e f9 3e
       0.07885453 -0.43810478 0.3658761 0.48741415
0001e0 12 72 20 be 72 38 d6 3e b8 87 f8 3e ca b3 06 be
       -0.15668514 0.4183994 0.48541045 -0.13154522
0001f0 07 d4 4d be d3 16 00 3c 8d 48 9a 3e 02 e8 1a bd
       -0.20100413 0.007817942 0.30133477 -0.037818916
000200 67 e0 ee be 76 23 08 3e f9 3f b5 3e 98 66 05 be
       -0.4665558 0.13294777 0.3540037 -0.13027418
000210 0b 01 ed bd d4 85 b7 3e 4a f2 e1 3e a5 1c 56 be
       -0.115724646 0.3584429 0.44130164 -0.20909365
000220 12 34 14 bf 0e 3a 04 3f b5 6f 01 3f 73 cd a1 3e
       -0.57891953 0.51651084 0.50561076 0.31602058
000230 ef 2f d1 3e 24 34 f8 3e 41 06 ba 3e 4e a3 10 be
       0.40856883 0.4847728 0.36332896 -0.14124796
000240 0d fd d3 3e c0 df dd 3e 95 49 f1 3e 37 02 df 3e
       0.41404 0.4333477 0.4712645 0.43556377
000250 d5 7d ee 3c 4d 3a 4b 3d 60 6d db 3e ba 6b 63 3e
       0.029112736 0.049616147 0.42856884 0.22209063
000260 c8 f4 15 bf bb 13 cb 3e 91 d7 0d bf b5 46 47 3d
       -0.5857663 0.3966349 -0.55407053 0.048651416
000270 84 d0 b1 3c 30 ba 1d 3d bc 95 a3 be 7f dd 07 be
       0.021705873 0.03850764 -0.31950176 -0.13268088
000280 d2 70 00 3f 6f fe 0b bf 11 e8 36 be 28 34 0e 3e
       0.5017215 -0.5468511 -0.17861964 0.13887084
000290 d6 98 02 bf fc 59 09 bf 0d 94 0a 3e c2 c0 47 be
       -0.5101446 -0.5365293 0.1353304 -0.19507125
0002a0 ad dd 71 3d c8 14 9d 3e 71 f1 d7 be 71 f4 89 bd
       0.059049297 0.30679917 -0.42176393 -0.067360766
0002b0 62 5d 60 bd 19 50 24 bc 8d 69 4a be 69 39 77 bd
       -0.054776557 -0.010028862 -0.19766827 -0.060357485
0002c0 d2 91 13 3e 07 7f 04 3f 6a 4c 02 3d 97 e7 f4 3e
       0.14411095 0.5175633 0.031811155 0.4783294
0002d0 b8 df 0a bd 04 b3 ed 3e 0d 80 9a 3e ea c5 c7 3e
       -0.03390476 0.4642564 0.3017582 0.39018184
0002e0 12 a1 f7 3e cc c1 89 3e b5 fc f4 3e d7 7f 19 be
       0.48365074 0.26905668 0.4784905 -0.14990173
0002f0 c0 47 25 bd a4 72 30 3e d7 00 27 bd ef d7 25 bf
       -0.04035163 0.17231232 -0.040772285 -0.64782614
000300 ab ba bb 3e fa 45 dd 3e 42 86 8f 3d 7a 38 d1 3e
       0.36665854 0.4321745 0.070080295 0.408634
000310 03 39 81 bc c6 a5 db bd 7d b4 98 3e 1a e0 8e 3e
       -0.015774256 -0.10724978 0.29825202 0.2790535
000320 83 f5 18 3c 8e d5 bd 3e 1d 80 ed 3e ee 47 d8 3e
       0.009335878 0.37076992 0.46386805 0.42242378
000330 2e f5 ee bd 40 f6 d2 3e be f0 46 bb 93 e1 0a bf
       -0.11667858 0.412035 -0.0030355896 -0.5425045
000340 98 c8 53 be 27 ec dd bd 5d 65 32 be a8 a9 15 3f
       -0.20681989 -0.10836058 -0.1742148 0.58462
000350 81 9d 34 bd e8 fb 1c 3e c4 01 e2 3e c1 b7 53 be
       -0.04409552 0.1533047 0.44141972 -0.20675565
000360 4f 07 cc bd 7e 70 47 be 4d 9c 76 be d5 b0 bd bc
       -0.099623315 -0.19476506 -0.24083062 -0.02315561
000370 7a d1 f7 3e f6 99 b9 3d f0 f1 88 3e d3 90 bc 3e
       0.48402005 0.09062569 0.26747084 0.36829242
000380 39 89 03 bf eb 7c bc 3e 93 3e eb be 0a 7b 07 be
       -0.5138126 0.36814055 -0.45946178 -0.1323053
000390 cd 43 bd be ac 9a 0a 3e c0 82 0a bf 49 08 68 bd
       -0.3696579 0.13535565 -0.5410576 -0.056648526
0003a0 1a 39 08 3f 93 9b 50 be 61 79 27 bf 18 03 80 3b
       0.5321213 -0.20371847 -0.65419585 0.003906619
0003b0 25 0a 9e 3e 18 ef 01 3f 82 11 33 3d a6 05 2e bb
       0.30867115 0.50755453 0.04371787 -0.002655366
0003c0 36 71 b2 3e c4 5b 11 3f 1f f7 9f 3e 5a 85 68 3e
       0.34851998 0.5678065 0.31243226 0.2270712
0003d0 54 ca 91 3c 29 6c b1 3a 8d 94 fd 3e c9 b1 d2 3e
       0.017796673 0.0013536263 0.49527398 0.41151264
0003e0 90 1f 9b 3e 09 fc 7b 3e c9 bc 18 3f f0 d7 d7 be
       0.30297518 0.24607863 0.59663063 -0.42156935
0003f0 a6 a0 75 bc 2e 72 1e be 23 58 9c 3b eb 39 1e be
       -0.014991915 -0.15473244 0.004771249 -0.15451781

linears.0.weight f4 [256, 256]
000000 f2 e8 c5 3e c0 e6 71 3e ed 79 e9 3d 33 f9 48 3d
       0.38654286 0.2362318 0.114002086 0.04906578
000010 0d 79 15 c0 f4 7b 56 3f 81 bb eb 3b 12 88 73 3f
       -2.3355134 0.8378289 0.007193983 0.951295
000020 b1 79 46 3e 65 f4 73 3e 3d 08 c5 bd 97 c3 fe 3f
       0.19382359 0.23823698 -0.09620712 1.9903439
000030 e4 64 c3 3f c9 c1 ab be c8 5a 2b 3f 21 cf 72 bd
       1.5265164 -0.33546284 0.66935396 -0.059279565
000040 1d c1 10 3f d8 cb cd 3d cb fd d0 bd 86 69 cd bc
       0.5654467 0.10048646 -0.10204657 -0.025074732
000050 88 b6 b6 3d 92 6d 01 3d 1f 6b 1e bd 5a e9 5c 3d
       0.08921534 0.031598635 -0.038676377 0.05393348
000060 fb 83 4d 3e ba 7b 75 3f 28 1c 32 3d f7 95 e8 be
       0.20069878 0.95891917 0.043483883 -0.45426914
000070 57 8d 3d bc 4a ea 20 3e 00 ee 78 3d 51 1e da bf
       -0.011569343 0.15714374 0.06077385 -1.7040502
000080 9c 41 3f bd 00 06 eb be d6 81 5f be c9 03 8b bd
       -0.04669343 -0.45903015 -0.21826872 -0.06787831
000090 1f 30 ac 3d 7e 1b 9b bf b3 84 c4 3f 15 a0 4d 3a
       0.08407616 -1.2117765 1.5352997 0.00078439835
0000a0 d7 e4 db 3f 2a aa b1 bf 23 a5 60 be c4 0f 2c 3e
       1.7179211 -1.3880055 -0.21937995 0.16802889
0000b0 7f 24 da bd a9 3a 6f bd af 90 b6 bd db 2f 9d 3f
       -0.10651492 -0.058405552 -0.08914315 1.2280229
0000c0 0a 49 90 3d 10 21 d3 3e d9 33 b4 bd dd 3e d1 3e
       0.07045181 0.41236162 -0.08798952 0.40868273
0000d0 a8 cd d6 3e 5c be 55 3f 89 a6 b7 bf 62 94 f1 3d
       0.41953778 0.8349359 -1.4347697 0.1179588
0000e0 08 af f8 bd 2e e7 7c 3f 21 c5 3b be ec 07 44 3e
       -0.121427596 0.9879025 -0.18336917 0.19143647
0000f0 7d c7 2d 3c 70 a1 cb 3e 26 9b 1b 3e 2d 67 dd 3f
       0.010606644 0.39771605 0.15195903 1.7297112
000100 02 97 79 bf 45 3f 13 3f 16 e5 aa 3e fb 28 9a 3d
       -0.97496045 0.57518417 0.33377904 0.07527348
000110 52 63 6a bc b5 ad 6f be 9f d6 3a bf 39 d7 f9 bc
       -0.014305906 -0.23406108 -0.72983736 -0.030498134
000120 86 a5 1d 40 0b 9d 90 bb 6e fa 7a 3e 0e f8 eb 3c
       2.4632277 -0.004413252 0.24509594 0.028804805
000130 1b d5 12 c0 5e 8f 28 3e 0f 1b bc 3c 2b 22 0b be
       -2.294257 0.1646094 0.022962121 -0.13587253
000140 67 f1 70 3d 55 ae c0 be f1 5e 12 bb 12 f7 c6 3d
       0.05882397 -0.37633005 -0.0022334422 0.09715094
000150 3e 92 ef 3e 59 e6 0a 3e e7 5e ba be 74 7c ff 3d
       0.4679126 0.13564433 -0.3640053 0.124749094
000160 3e 68 85 be 67 1f 06 bf 9e 00 02 3e c7 c5 d8 3e
       -0.26056093 -0.52391666 0.12695548 0.42338392
000170 55 3c 70 3e 76 8b ad bb 26 7a 8e bd 9b c1 8b 3d
       0.23460515 -0.005296166 -0.06956892 0.06824037
000180 d3 c4 9d 3e cb de 87 3e 57 ad 74 3e 53 1b ae 3f
       0.30814227 0.26537165 0.23894249 1.3602089
000190 f8 a4 4d bb 9c 60 c4 3f 7d dd eb bd d4 52 f1 bd
       -0.0031378847 1.5341983 -0.11516855 -0.11783376
0001a0 0a c5 48 3b 0c 6f e8 3d 19 d0 69 3b 17 c6 ce 3a
       0.0030635023 0.113493055 0.0035677014 0.0015775588
0001b0 29 ab bd bc 16 29 b6 3f 3d 93 90 3e f6 3c 23 bd
       -0.023152905 1.4231288 0.28237334 -0.03985306
0001c0 7a 03 81 bc 68 a6 67 be cb e9 a2 bc f2 35 a1 3e
       -0.015748728 -0.22622073 -0.019886872 0.3148647
0001d0 76 8b d0 3d da f4 c5 bd bb 1d 0e 3e 85 04 c3 3d
       0.1018285 -0.09665842 0.13878529 0.095223464
0001e0 c1 96 26 bf cf 59 80 bd 46 62 45 3d ae bb 33 be
       -0.6507378 -0.0626713 0.048189424 -0.17552063
0001f0 27 0a d7 3f 7c 66 c7 bd bd 6e 47 bd 0d d8 be bf
       1.6799973 -0.09736344 -0.048689593 -1.4909683
000200 f0 19 83 be 93 e9 a0 3e c6 5a 22 3d b4 f0 05 bd
       -0.25605726 0.31428203 0.03963735 -0.032700256
000210 90 d9 e2 be a8 4f 6f 3e 89 f5 99 bd 2d cd 28 3e
       -0.44306612 0.2337023 -0.07517535 0.16484518
000220 e3 fc 31 3f e5 a6 c1 3d de 62 a7 3d 78 42 c6 3c
       0.695265 0.09455661 0.08173154 0.024201617
000230 04 5b e6 3d 4d e9 0e be cd c0 2d 3b d5 25 e1 3f
       0.112478286 -0.13956185 0.0026512623 1.758967
000240 4f 27 74 3d 5e ee 31 3d 54 33 37 3d 10 77 85 3c
       0.0596078 0.043440215 0.044726685 0.016292125
000250 83 06 86 be b5 bc 69 3f 12 2f dc 3d 27 65 05 be
       -0.26176843 0.9130357 0.107511654 -0.13026868
000260 35 32 af be 99 d3 b8 3d 11 8e ae bc 42 be b9 3d
       -0.34217992 0.09024734 -0.021307977 0.09069492
000270 1f 42 77 bf 8f fc a2 3d 85 48 06 bd d7 09 b9 3f
       -0.9658527 0.07958328 -0.032784004 1.4456128
000280 c8 42 01 3d 10 03 16 3c 87 bb c6 3f 86 70 68 3e
       0.03155783 0.009156004 1.5525979 0.22699174
000290 74 09 b4 bd d3 37 6f bf a5 02 19 be 5c 47 7d 3d
       -0.087908655 -0.93444556 -0.14942415 0.06183563
0002a0 33 df 01 3e 0a f8 c7 bc f2 72 02 be e4 bc 6c 3d
       0.126828 -0.024410266 -0.1273916 0.057797328
0002b0 98 e3 95 bf 12 fd 80 be 3b 95 8b 3f c9 d7 4b 3e
       -1.1710081 -0.25193077 1.0904917 0.19906534
0002c0 b8 83 8f 3e e3 aa 1b ba f4 15 39 bf e5 00 cc 3c
       0.2803018 -0.0005938245 -0.7229912 0.02490277
0002d0 61 d5 a8 be 2a f7 0a be 8c 2c 16 bd fd de d2 3d
       -0.32975295 -0.13570848 -0.036663577 0.10296438
0002e0 37 61 da bb d1 cd af bd cd 50 14 be 31 55 b0 3f
       -0.006664421 -0.08584178 -0.14483948 1.3775998
0002f0 1b ce 2c bf b2 24 04 3e aa 7c 52 be e5 3b 8c be
       -0.6750199 0.12904623 -0.20555368 -0.27389446
000300 28 16 c6 3b 5c 3f 46 bd 43 3d 33 be 0c 14 ba bd
       0.0060451217 -0.048400268 -0.17503838 -0.09085855
000310 47 c7 1a 3c a2 7a d6 bf a4 4a 60 bd 25 03 80 bd
       0.0094469255 -1.6756175 -0.054758683 -0.062506
000320 48 6b e7 3f 81 46 06 3e 1d 9b b0 bc e1 2d 2d be
       1.8079615 0.13112833 -0.021558339 -0.16912033
000330 83 72 ae 3f 7e d1 8b bd fd d6 c3 3c 9a b8 a7 3e
       1.3628696 -0.06827067 0.023906225 0.32758027
000340 02 ee f9 be 81 39 b8 bf 66 ec be 3f 2c ae 68 3e
       -0.48814398 -1.4392549 1.4915893 0.22722691
000350 1a 1f 74 bf bf 38 7d 3e 6b 8c 68 bc 7f 72 e5 3f
       -0.9535996 0.24728678 -0.0141936345 1.7925566
000360 0d c2 95 3f 67 cd 78 3f fe c3 4d be c1 82 5a 3d
       1.1699845 0.9718842 -0.20094296 0.053347353
000370 3d aa 91 bd f6 19 83 3e 9d bc 5b 3e d2 1d 4f 3d
       -0.071125485 0.25605744 0.21458669 0.05056555
000380 49 f3 8f bc 33 79 bd bd 01 84 69 bd 03 55 43 3e
       -0.017572062 -0.092516325 -0.057010654 0.19075398
000390 da 15 98 be c1 d8 b0 3e 62 b2 cb 3d e0 52 89 bf
       -0.2970417 0.3454037 0.09946133 -1.0728416
0003a0 bb ab 09 bc a2 1c f2 3f e6 04 4b 3f e5 98 84 bc
       -0.00840276 1.8914988 0.7930435 -0.016186187
0003b0 24 bb c2 3a 62 c3 70 bc d2 c0 c5 be 6b bb 26 3d
       0.0014856798 -0.01469502 -0.38623673 0.04070608
0003c0 13 ed ca b9 71 76 e4 bc 7e d5 19 3e db ee 88 3e
       -0.00038705076 -0.027888509 0.15022847 0.26744732
0003d0 d1 53 59 be 99 67 f6 bd 84 3b a4 bc 1b 30 bf bc
       -0.2122338 -0.120314784 -0.02004791 -0.023338368
0003e0 55 e5 0c 3e 6e bc fc 3d 4b 8a a0 3d 5c d2 11 3f
       0.13759358 0.123406276 0.07838877 0.5696161
0003f0 f8 27 c6 bc 18 e9 2d be 50 db 07 bd e9 ee b9 3f
       -0.02418898 -0.1698345 -0.033168137 1.4526035

linears.0.bias f4 [256]
000000 01 3f 37 3e 46 47 ff bb a2 b9 36 3e 42 5d b9 be
       0.17895128 -0.007790479 0.17844251 -0.36203963
000010 7c 8d d8 bd 76 d3 28 3e b8 0b 8c 3d 0f 11 88 3e
       -0.10573861 0.16486916 0.06838173 0.26575515
000020 65 4e cb 3e 00 00 00 00 6f f7 a2 bd 00 00 00 00
       0.39708248 0.0 -0.079573505 0.0
000030 12 08 ee bc 76 01 02 3e 2e cf 3d 3d 08 47 9c be
       -0.029056583 0.1269587 0.04634016 -0.30522943
000040 4a 79 1b bc 77 cb c4 be a5 c3 40 3e 9a 94 7f 3e
       -0.009489367 -0.3843648 0.18824632 0.24959031
000050 b2 a6 4b bc a1 c6 45 bb 07 a6 86 bb 66 48 6b be
       -0.01242988 -0.0030178207 -0.0041091475 -0.22976837
000060 4b c5 9e be dd 44 64 3c d3 48 04 3e 1c c2 2f bd
       -0.31009898 0.013932434 0.12918405 -0.042909727
000070 c8 99 3b be 2b b2 8d 3c a7 ed 70 3d ff 0e 45 be
       -0.18320382 0.017296871 0.058820393 -0.19244002
000080 d1 be cd 3d 47 79 1d 3d 8a f1 a3 bb 91 f0 ca 3d
       0.10046161 0.038445737 -0.005003159 0.09909166
000090 eb 38 28 bc 03 40 dc ba 3c d9 4c 3e 59 97 40 3e
       -0.010267477 -0.0016803745 0.20004743 0.18807735
0000a0 f1 e8 1f be 5d f1 0b 3e 00 00 00 00 48 1a 8e be
       -0.15616204 0.13666292 0.0 -0.27754426
0000b0 24 0a 87 be 3e 58 56 3e 42 27 db 3d be 30 8c 3e
       -0.26374924 0.20932099 0.10700847 0.27380937
0000c0 3c 9a d1 3d 16 0f 0c 3d e4 b6 ce bd fd 4a 6e bd
       0.10234496 0.034194075 -0.10093477 -0.058176983
0000d0 00 00 00 00 dd 47 47 3e 40 34 18 3e c6 7e ba 3e
       0.0 0.19461007 0.14863682 0.36424845
0000e0 e9 f2 31 3e 69 57 ca 3d 1d 12 59 be 0d f6 23 bd
       0.17377819 0.098799534 -0.21198316 -0.040029574
0000f0 cc 03 20 3e 54 a4 20 3e 06 3e a7 3b a9 01 5f be
       0.15626448 0.15687686 0.0051038293 -0.21777977
000100 3b bb 07 3e f3 a1 05 bb f7 90 72 bb ef 90 1a bc
       0.13255017 -0.0020390719 -0.0037012675 -0.009433969
000110 47 64 6a be b5 df c3 3d 71 86 11 3e 86 ea 33 3d
       -0.22889815 0.09564153 0.14211442 0.04392483
000120 31 99 28 3e 1e a7 bb be e1 e8 e4 3c 26 fe b7 3d
       0.16464688 -0.36650938 0.027943077 0.08984022
000130 77 c0 15 bc 5b 49 00 bf 4a f6 03 be 5a 11 64 3e
       -0.0091401255 -0.5011193 -0.1288692 0.22272244
000140 56 72 87 b9 34 5d a4 3c 21 93 10 3e cf 77 82 be
       -0.00025834393 0.020063974 0.14118625 -0.25482032
000150 dd 55 38 bd 0e 2c 17 bb 98 e9 47 be fe f0 6c bb
       -0.04500376 -0.002306703 -0.19522703 -0.0036154385
000160 98 85 52 be 36 bd cd 3b 35 00 49 3d 5b ac 17 bc
       -0.20558774 0.006278659 0.049072463 -0.009257401
000170 81 c4 90 be fe 67 a5 3d ca 5a 4f be b5 c0 b9 3e
       -0.2827492 0.080764756 -0.20249477 0.36279836
000180 ba 13 3e 3d 08 02 ab 3d cc 29 37 bc 47 f3 38 3e
       0.04640553 0.08349997 -0.011179399 0.18061553
000190 4f 04 74 bc 89 a1 7f be 57 78 03 be fe 56 67 3e
       -0.014893605 -0.24963965 -0.12838875 0.22591779
0001a0 e3 31 85 bd eb 2b 39 3e 12 1f 17 bc fb ce 9e bb
       -0.06503656 0.1808316 -0.009223716 -0.0048464513
0001b0 6c 7f 3a be 3a 15 4e bc 75 56 31 3d 00 00 00 00
       -0.1821267 -0.012578303 0.043295342 0.0
0001c0 cb c6 42 bb 04 92 e9 3d f0 bf 91 be a5 91 ca 3c
       -0.002972054 0.114048034 -0.2846675 0.024727652
0001d0 da 19 8f bb d8 79 1f 3e 51 36 64 bd 45 f0 4d 3e
       -0.0043670954 0.15573823 -0.055715863 0.20111187
0001e0 a8 7c 5e be be ba 0c 3e 21 73 5c 3e b4 74 f3 3d
       -0.2172724 0.13743111 0.21528293 0.11887494
0001f0 d2 dd bf 3b 03 cb da bd 9d 29 13 3b d0 84 d2 bb
       0.0058553005 -0.10683253 0.0022455223 -0.006424524
000200 a5 ce f7 3c 6e 51 83 be d8 03 43 bb 0f a5 21 be
       0.030249903 -0.25648063 -0.002975693 -0.15785621
000210 be cb 12 bc 70 eb a9 3d b7 2b 69 3e 0d a1 19 be
       -0.008959709 0.08296859 0.22770582 -0.15002842
000220 f6 fa 66 3e 10 39 be 3e f2 bd 7b 3c ee cc dd 3c
       0.22556672 0.3715291 0.015365111 0.027075257
000230 06 6f 7c be f1 b5 3f 3e 75 3d ae 3b 5b da 65 3d
       -0.24651727 0.18721749 0.005317385 0.056116443
000240 8b 2f 28 be 36 10 82 3d c3 47 d3 3b 1d 64 62 bb
       -0.16424386 0.06350748 0.0064477636 -0.0034544535
000250 e0 5e a1 3d 36 61 54 3e 55 7d 04 3e c4 60 9a bd
       0.07879424 0.20740208 0.12938435 -0.07537988
000260 1f 0a 78 3d a3 1c 58 bb bc 32 d3 3d 43 77 76 bc
       0.060556527 -0.0032976053 0.10312411 -0.015043083
000270 1a e7 0b 3e 95 0a 8e be 72 a9 32 3e 82 ff 82 be
       0.13662377 -0.27742448 0.17447451 -0.25585562
000280 95 98 12 3b f1 51 3a 3d 92 b0 14 3e 11 0c d7 3d
       0.0022368778 0.0454883 0.14520481 0.10500348
000290 f5 f8 4b 3e b5 bc 80 bc 9d 14 cb bb 77 1f be 3c
       0.19919188 -0.015714983 -0.0061975257 0.023208363
0002a0 3f 72 b0 3e f3 5b a0 be 82 3f 04 bd 48 d2 9f 3d
       0.34462163 -0.31320152 -0.03228713 0.0780378
0002b0 59 3c 8f be b8 a2 92 bd b6 94 0b bc 3b 5a 42 bc
       -0.2797573 -0.071599424 -0.008519342 -0.011862333
0002c0 e4 80 0c be e1 64 aa b9 1a de 0b be fd d3 cf 3c
       -0.13721043 -0.00032500087 -0.13658944 0.025369639
0002d0 93 6a 81 3e 07 82 59 bc bb b2 87 be 85 62 00 3e
       0.25276622 -0.01327563 -0.26503548 0.12537582
0002e0 65 fd d0 bc b1 d4 31 be 7a fa 11 3e ba 4c cf bc
       -0.025511453 -0.17366292 0.14255705 -0.02530514
0002f0 6b e8 cc bb a3 69 64 bb c0 26 a9 be de 29 6c 3e
       -0.0062532923 -0.0034853003 -0.33037376 0.23062846
000300 0c bb 32 3e 2a bc ad 3d e5 4a 37 bc 49 00 9a be
       0.17454165 0.08483155 -0.01118729 -0.30078343
000310 55 d7 58 3c dd 47 6d bc c4 55 16 3c 09 ba 2d bb
       0.013234933 -0.014482466 0.009175722 -0.002650859
000320 e5 2a 67 bc df c4 e4 bb 58 16 0b 3d 04 c9 bd 39
       -0.014109348 -0.0069814767 0.033956856 0.00036198657
000330 65 f1 9a be cb c5 17 3e a0 4c 2e 3e 9b 63 09 be
       -0.30262294 0.14821546 0.17021418 -0.13416903
000340 00 00 00 00 fd c8 c6 be c2 fe 5f bc fa 4f 29 3e
       0.0 -0.38825217 -0.013671579 0.16534415
000350 fa 8b 01 be 65 d3 26 3e ea d2 c2 be e6 8a c2 bb
       -0.12651053 0.16291578 -0.3805154 -0.005936968
000360 8c bd 88 be f9 24 4e bd 25 ab 66 be 2c 95 98 be
       -0.26707113 -0.05032823 -0.22526224 -0.2980131
000370 73 7e 4e be ef 47 aa 3d fa a4 27 3e 50 15 7f 3c
       -0.20165424 0.083145015 0.16371527 0.015569046
000380 25 19 8e be 03 17 fc 3c b3 77 10 3e d1 38 76 bc
       -0.2775356 0.030772692 0.14108162 -0.0150281945
000390 e9 fa b5 3d d5 2a 91 bc fa a7 44 bc 04 47 10 3e
       0.08885748 -0.01772062 -0.012002939 0.1408959
0003a0 d3 7e 7e bb 64 91 9f bb ed cb 8a 3c 2c a9 84 3e
       -0.0038832917 -0.004869627 0.016942943 0.25910318
0003b0 20 00 02 3e 2f 6e 3b 3d 17 14 82 3d 06 54 0b 3e
       0.1269536 0.045759376 0.06351488 0.13606271
0003c0 86 74 a0 3d 93 7d 81 be 95 29 86 be 78 bf 1a be
       0.07834725 -0.25291118 -0.262036 -0.15112102
0003d0 68 4b ac bb 5d 7d 8d 3d cd 48 e7 be 29 cc 43 bb
       -0.0052580126 0.06908677 -0.4517273 -0.0029876328
0003e0 eb 1f 52 3e e9 f9 e0 3c f8 d0 26 3e d6 93 40 bc
       0.20519988 0.027462916 0.16290653 -0.011753997
0003f0 d2 6a 14 3e 8a 65 1d 3e bb 4f 64 ba be e5 e7 3d
       0.14493874 0.15370765 -0.00087093905 0.11323117

V.weight f4 [1, 256]
000000 63 08 18 3f 2a e8 b6 3c 7a 1e 66 3f 72 e8 7b c0
       0.593878 0.022327501 0.89890254 -3.9360623
000010 29 ee c1 bf 2a 27 c1 3e cf 01 3b bf 9a cf 47 3e
       -1.5150806 0.37725192 -0.73049635 0.19512787
000020 e0 a6 d5 3d 6b e1 0b be a7 9b 72 bf e5 83 27 bd
       0.104322195 -0.13660209 -0.94768757 -0.04089727
000030 ee 9f 54 bf 8b 50 07 3f cc 43 66 bf 02 ec d0 3f
       -0.83056533 0.52857274 -0.899472 1.6322024
000040 9e 34 d6 bd 57 d2 1c c0 f3 eb 3d 3f 82 e8 e3 bd
       -0.10459255 -2.4503381 0.74188155 -0.11128332
000050 96 41 f8 3d 77 b2 21 3d b7 f8 cc bb ab 71 bf bf
       0.121218845 0.039476838 -0.006255235 -1.4956564
000060 b0 8e 46 bf 32 47 6a bf 3a 26 48 3f 51 13 a1 3f
       -0.77561474 -0.91514885 0.7818333 1.258402
000070 15 41 8f bf 89 6f 75 bd 48 62 0a c0 0b ae 65 bf
       -1.1191736 -0.05992082 -2.1622486 -0.89718693
000080 eb bd 80 bf 89 56 83 bf 5f ce 65 bf 5d 83 48 bf
       -1.0057958 -1.0260783 -0.8976802 -0.78325444
000090 c2 cc ac bd cf ba dd bd d6 0e dd 3e f2 f4 61 3f
       -0.08437492 -0.108266465 0.4317538 0.8826438
0000a0 29 30 8d bf c4 9a 1e 3f 6d fb 8e bd 56 6a 05 bf
       -1.1030322 0.61954904 -0.069815494 -0.5211538
0000b0 65 95 7a bd 1b 96 49 3f d4 ab ca 3f 59 46 4b 3f
       -0.06117763 0.7874467 1.5833688 0.79404217
0000c0 57 e0 14 3f e0 e7 01 c0 81 be 33 3f 84 c8 33 bf
       0.58154815 -2.0297775 0.7021256 -0.7022784
0000d0 bb 0e 0f bd ca 39 25 3f af 0b 43 bf e2 f2 d4 be
       -0.034926157 0.64541304 -0.761897 -0.41591555
0000e0 11 5b 42 3f 33 2f 9f 3e 10 c5 cc bf 5c dd 9b bf
       0.75920206 0.31090698 -1.5997639 -1.2176929
0000f0 df 8c 48 3f f0 b0 19 3f 00 93 55 bf dd bd 01 bf
       0.7833995 0.6003561 -0.8342743 -0.50680333
000100 68 21 69 3f 24 65 8b ba c9 50 e6 bb 28 60 81 3d
       0.910666 -0.0010635001 -0.0070286733 0.063171685
000110 99 f9 17 c0 62 1b 58 bf 44 bd 16 3f 23 76 d2 bf
       -2.3746092 -0.8441678 0.58882546 -1.6442302
000120 e0 6f 89 3d 88 16 1d c0 c4 d8 67 bf 2a 65 e8 3e
       0.067107916 -2.4545002 -0.90565133 0.45389682
000130 e2 0e 61 bc 22 26 5a c0 bc 08 d6 bf f5 a2 a9 bf
       -0.0137364585 -3.4085774 -1.6721416 -1.3252856
000140 19 12 78 bf 10 08 66 bf be b9 4e 3f 99 56 1e c0
       -0.96902615 -0.8985605 0.8075217 -2.4740355
000150 1d 4e 9e bf 5e 3c 8c 3d a1 63 8a bf 51 6b 50 bf
       -1.2367588 0.068474516 -1.0811654 -0.8141375
000160 40 24 9b bf 7e f7 6a bf 54 d0 4a bf 53 51 9e 3b
       -1.2120438 -0.91783893 -0.79224133 0.004831472
000170 db 29 62 bf e8 7c 70 bf 6a 1c 20 bf 2c 50 24 c0
       -0.88345116 -0.9394059 -0.62543356 -2.5673933
000180 d0 e1 67 bb a7 65 54 bf 5e fc ae 3d 15 dc 5e 3f
       -0.0035382397 -0.8296761 0.08544229 0.8705457
000190 67 d4 46 3d 62 5a 6b bf 53 87 7c bf e7 71 27 3f
       0.048542406 -0.9193479 -0.9864399 0.65408176
0001a0 fd 98 45 bf 26 4e 42 3f f2 b3 31 3e 0d ee 48 3d
       -0.77186567 0.75900495 0.173538 0.049055148
0001b0 f9 ce 9a bf f2 37 44 bd 82 0f 56 bf 71 af d8 3d
       -1.2094413 -0.047904916 -0.83617413 0.10580338
0001c0 05 85 81 3a 11 68 3e 3f 8b 8b ee bf 19 da 69 bf
       0.0009881562 0.7437754 -1.8636335 -0.91348416
0001d0 72 0c b7 3c 4c e8 49 3f bd ae 6b bf fd 3a 36 3f
       0.022344802 0.7887008 -0.92063504 0.7118376
0001e0 8a e9 45 bf 1a 22 1d 3f 91 22 32 3f 0d 81 33 3f
       -0.7730948 0.6138016 0.69583994 0.7011879
0001f0 27 a0 51 bf a8 0d 01 bf 50 89 56 bf cf 49 09 3d
       -0.81885 -0.5041146 -0.8380327 0.033517655
000200 18 29 6d bf b2 54 fb bf 9d 45 1f 3e 80 b4 61 bf
       -0.9264083 -1.9635222 0.15553899 -0.88166046
000210 c5 ae 4d be e7 fd fc 3e ec 21 ad 3c c6 20 12 3f
       -0.200862 0.49412462 0.02113434 0.5708126
000220 6a 13 53 3f 28 6d 60 3c 35 41 5f bf 5a 5b 5c bf
       0.824515 0.0136979 -0.87208873 -0.8607689
000230 a1 f5 10 c0 86 ed 17 3f c8 86 5e bf 71 1b 82 3c
       -2.264992 0.59346807 -0.8692441 0.015882226
000240 e6 9f 88 bf f7 49 73 bf de e2 90 bf 45 04 30 bd
       -1.0673797 -0.95034736 -1.1319234 -0.04297282
000250 98 90 52 bf 22 74 57 3f 89 0b 51 3f 68 85 0f c0
       -0.8225188 0.8416158 0.81658226 -2.2425175
000260 bf f6 51 bf 05 e4 d2 3c c1 bf 0e bd bf 53 43 be
       -0.8201713 0.025743494 -0.03485084 -0.19074915
000270 3d 71 8c 3f 69 32 0f c0 ff a9 d3 3e 59 79 0b bf
       1.0972058 -2.2374518 0.41340634 -0.54482037
000280 bd 46 4c bf 87 ca 54 bf e3 a9 7f 3c 6c ae 6a bf
       -0.7979544 -0.8312153 0.015604469 -0.91672397
000290 60 df 3d 3f b5 a5 49 bf 43 af 92 3c bb 76 1a bf
       0.7416897 -0.78768474 0.017905837 -0.6033742
0002a0 7b 4f 0c 3e ad bf 37 c0 c5 70 26 bf 6f e5 84 3e
       0.13702194 -2.871074 -0.6501582 0.25956294
0002b0 d9 c1 45 c0 a1 e9 26 c0 8b a3 e8 3d 96 f3 01 3d
       -3.0899565 -2.6080096 0.11359318 0.031726442
0002c0 33 51 a9 3f ed 68 bb 3d da 6d 2a c0 2a da 69 bf
       1.3227905 0.091508724 -2.6629548 -0.91348517
0002d0 f8 00 3c 3f 94 46 34 be e8 5e 5a c0 aa d3 52 3f
       0.7343898 -0.17605048 -3.4120426 0.82354224
0002e0 e3 00 f1 3e 0c ed 9b bf 97 32 51 3f 1f 8d 6b bf
       0.4707099 -1.2181716 0.8171782 -0.9201221
0002f0 2b 2c 5a 3e 7d bc 99 bc c4 eb 50 bf 4a bf d1 bf
       0.21305911 -0.018766636 -0.8160975 -1.6386502
000300 dc 6f 90 3b 95 7a 7e bf 53 fd ff 3d 4d ab 09 40
       0.004407866 -0.99405795 0.1249949 2.1510804
000310 b4 ae f2 bd fe 33 1f be 1d 8f 4c bf 5a 3d 60 bd
       -0.11849728 -0.15547177 -0.79905874 -0.05474601
000320 ec b7 00 3d 89 94 e1 bd cd 05 5f bf dc fb 58 bf
       0.0314254 -0.11014659 -0.87118226 -0.84759307
000330 03 f6 1a c0 be 1d 28 3f fe dd 7c 3f b1 5d ea bf
       -2.4212654 0.6567038 0.98776233 -1.8309842
000340 af f6 a6 bd 36 d3 2e c0 a5 bb 9d bc 7e 04 80 bf
       -0.0815252 -2.7316413 -0.019254515 -1.0001371
000350 cd 44 6e bf e5 dc 3b 3f 50 db 6f bf f0 3a 0a be
       -0.9307373 0.73383933 -0.9369402 -0.13499045
000360 cb d8 64 bf 52 1a 29 3f 11 15 3e bf 61 e3 ad be
       -0.893933 0.66055787 -0.74250895 -0.3396254
000370 59 69 39 c0 5b 7e 5c bf 20 ff 1b bf d9 90 f3 3e
       -2.897055 -0.86130303 -0.60936165 0.47571447
000380 65 c1 08 c0 f2 a6 65 bf 0e 69 2a 3f 23 cd 18 bd
       -2.1368039 -0.89707863 0.6656655 -0.03730501
000390 2b 65 56 3f 29 47 c4 3e 2a 00 32 be 38 12 41 3f
       0.8374812 0.3833554 -0.17382875 0.75418425
0003a0 c0 bd 59 bf 2f c0 ea bd a3 a1 5e bf 62 03 eb be
       -0.8505516 -0.11462437 -0.8696539 -0.45901018
0003b0 8c ef 4a 3f 9a a5 53 bf 52 6b 4e bf 83 64 f6 3e
       0.7927177 -0.8267456 -0.8063251 0.4812356
0003c0 53 a9 17 bf 9c 72 32 c0 0b d2 91 bf 77 70 32 c0
       -0.59242743 -2.7882452 -1.1392225 -2.7881143
0003d0 88 99 f3 3a 7a cc 1e c0 7f ee 91 bf 42 d3 d2 bd
       0.0018585185 -2.4812303 -1.1400908 -0.102942005
0003e0 9d 05 5f 3f 02 d7 3c bf 29 66 85 bf 4d 89 8f bc
       0.8711794 -0.73765576 -1.0421802 -0.017521525
0003f0 98 9c 12 3f c5 3f 6a 3f 28 a5 a8 3d 19 6a 1c 3f
       0.57270193 0.91503555 0.08234626 0.6109939

A.weight f4 [51, 256]
000000 6a 93 4b 3d e8 db 1c 3e 56 59 cb 3d de 62 1a 40
       0.049701132 0.15318263 0.09929149 2.4122844
000010 ac 5c 36 3f d6 b2 6f 3f 04 a4 72 3f dc 10 0d 3f
       0.71235156 0.93632257 0.9478152 0.5510385
000020 16 40 04 40 cd bc 02 be d0 b8 96 3f a3 08 da bd
       2.0664115 -0.12767334 1.177515 -0.106461786
000030 ae a5 4a 3f 44 7b c0 3e f5 45 85 3f c5 eb b3 3f
       0.7915906 0.37594044 1.0411974 1.4056326
000040 66 2d bc 3d 4e 0f a3 3f e0 cd 0c 3e 64 8e 04 3f
       0.091883466 1.2739046 0.1375041 0.5177977
000050 e0 ce 49 3d f2 4e 3a bd 06 07 f1 3c 9a b5 61 3f
       0.049269557 -0.045485444 0.029422294 0.88167727
000060 0a 23 99 3f 38 86 8a 3f a4 8e 1b 3e 64 84 a1 be
       1.1963818 1.082221 0.15191132 -0.3154632
000070 49 b1 8d 3f 1b 33 35 bc d8 0f c2 3f 4c bc 49 3f
       1.1069728 -0.011059548 1.5161085 0.78802943
000080 97 96 3c 3f 9c e1 a7 3f c2 81 8e 3f d5 4f 6c 3f
       0.7366728 1.3115726 1.1133349 0.92309314
000090 51 3b ba 3d c2 55 b1 bb 02 67 93 3e 9f f7 80 3e
       0.09093345 -0.0054118345 0.28789526 0.2518892
0000a0 32 b9 51 3f a7 86 82 3d 31 32 64 3c 38 83 01 3f
       0.8192321 0.06373339 0.013927982 0.5059085
0000b0 38 59 b8 3f 3e 0e 7d 3e be 10 13 bf b2 cb e2 3d
       1.4402227 0.24712464 -0.5744742 0.11074008
0000c0 2d 32 d8 3e 64 9d dd 3e 0e 62 59 3e 50 cb 61 3f
       0.4222578 0.43284142 0.21228811 0.88200855
0000d0 a1 65 a1 bd 75 cd 54 3f 0f 9b 76 3f 9b 0a b2 3f
       -0.07880712 0.83126 0.9633035 1.3909487
0000e0 4c c0 f5 bd 86 12 54 3f a1 72 ed 3e 20 23 c2 3f
       -0.11999568 0.82840765 0.46376517 1.5166969
0000f0 24 ba d7 bb af df 90 bc 1d a4 9d 3f 46 41 12 3f
       -0.006583469 -0.017684786 1.2315708 0.5713085
000100 a2 97 93 bd f4 c6 00 be 2d b0 f5 3d 42 4a 9c bd
       -0.07206656 -0.12575895 0.119964935 -0.07631351
000110 a1 15 9a 3f 95 c3 83 3f 9f 63 a2 3e d9 28 ba 3f
       1.2037851 1.0294062 0.3171663 1.4543716
000120 e5 c4 0b 3e 55 1f 93 3f 5d a9 94 3f b2 c4 2f 3f
       0.13649328 1.1493937 1.1614186 0.6865951
000130 13 7b ae bd db ba 01 40 e9 9f 2a 3f 6b 16 8c 3f
       -0.08519568 2.0270298 0.66650254 1.0944341
000140 dc 4d c1 3f 7f cd 8a 3f a1 eb 5f 3e 47 fe 0a 40
       1.5101886 1.0843962 0.21867229 2.1717699
000150 29 a1 d9 3f 37 62 ae 3d 35 d8 37 3f f5 32 1b 3f
       1.7002307 0.08514827 0.7181428 0.6062463
000160 ac 28 5c 3f b3 15 aa 3f 69 1d 64 3f fc 40 d1 3c
       0.8599956 1.3287872 0.89107376 0.025543682
000170 b1 2a 51 3f 2b cf 4b 3f ab f4 05 3f 53 1d ab 3f
       0.81705767 0.7961299 0.5232646 1.3368324
000180 11 06 1f 3d fe 98 4a 3f a5 bb 80 3f 31 9a 9d 3e
       0.038824145 0.791397 1.0057265 0.307817
000190 bb db a7 3c 8c 3c b3 3f 08 17 68 3f 29 50 eb 3d
       0.020490518 1.4002852 0.9066014 0.11489899
0001a0 43 30 82 3f fe 7d e6 3e 58 a3 ed 3d 57 70 92 3d
       1.0170978 0.45018 0.11603421 0.071503334
0001b0 a6 31 78 3f 14 c0 49 be 0e c2 92 3f a2 ce 82 bc
       0.9695076 -0.19702178 1.1465471 -0.01596767
0001c0 15 f1 72 3d 71 fc 12 3f 0a 8e 52 3f 0b c6 a9 3f
       0.059311945 0.57416445 0.82247984 1.3263563
0001d0 32 50 c4 3d 99 22 48 be 18 ea 87 3f 73 1c 6c 3e
       0.095856085 -0.19544448 1.0618315 0.23057728
0001e0 d4 11 8b 3f 6d 5d 09 3d 96 c8 60 3e 6a 6b 31 3e
       1.0864816 0.033536363 0.21951517 0.17326131
0001f0 af 2a 79 3f 1a 35 5e 3e d9 e9 97 3f 5d 8b f0 3c
       0.97330755 0.21699944 1.186824 0.029363329
000200 36 2e 92 3f 33 2a 53 3f a8 88 66 3d fd ad 95 3f
       1.1420352 0.82486266 0.05628267 1.1693722
000210 f2 67 45 bc 0a 34 7e 3e 90 ff 5f 3e d0 fd cb 3d
       -0.012048708 0.24824539 0.21874833 0.0996052
000220 8d 8e 52 3d cc 9b 9e 3f 7e 4d 80 3f f3 7b b0 3f
       0.05140548 1.2391295 1.0023649 1.3787826
000230 c3 cf 80 3f d1 2f ef 3d a8 81 96 3f 36 06 bf 3e
       1.0063404 0.11679042 1.1758318 0.37309426
000240 b5 01 64 3f b5 93 7f 3f 55 87 0c 40 b0 ba d2 bc
       0.89065105 0.9983476 2.19576 -0.025723785
000250 e1 30 8c 3f 77 77 3c be d7 76 4e 3e d8 4a 35 3f
       1.0952417 -0.18404947 0.20162521 0.7081733
000260 f2 77 73 3f ab d3 80 3d 5c 33 0c 3f d2 1e 65 bd
       0.951049 0.062903725 0.5476587 -0.055937596
000270 71 0f 85 3f b1 ad 31 3f 2c 81 5c 3f 1e eb 0b 3f
       1.0395337 0.6940566 0.861346 0.54655635
000280 34 30 68 3f a7 08 76 3f b4 3e f7 3e bc 56 82 3f
       0.9069855 0.9610695 0.48290026 1.0182719
000290 6f f1 10 be 31 f4 78 3f ef 08 4b bc ce 39 46 3f
       -0.141546 0.97247607 -0.012392267 0.7743195
0002a0 6b a2 97 3e 52 1c dd 3f c6 a2 87 3f 6e 27 1d 3f
       0.29616103 1.7274268 1.059655 0.6138829
0002b0 dc 29 0f 40 a7 e4 65 3f 5a 4d 82 bd b4 ee 63 bd
       2.23693 0.8980202 -0.0636241 -0.055647567
0002c0 e8 bb 38 bf 73 98 f7 3b f7 96 cf 3f cf f0 64 3f
       -0.7216172 0.007556015 1.6217946 0.89429945
0002d0 ad b8 82 3e 89 58 37 3d b5 27 d7 3f bd 9c f9 3e
       0.2553152 0.044762168 1.6808993 0.48752394
0002e0 a5 70 a4 3e 3e c8 4b 3f 99 b3 37 bc 79 3d a7 3f
       0.3211719 0.7960242 -0.011212253 1.3065635
0002f0 0a f1 31 3c 8c 6c da bc 95 bc 6d 3f cf 13 e6 3d
       0.010860691 -0.026663087 0.9286588 0.11234247
000300 d2 96 2c 3f b5 fe 76 3f cd 07 57 3d b6 f9 88 bf
       0.67417634 0.964824 0.052497674 -1.0701206
000310 19 49 db 3e 15 43 bd bd e6 5e 85 3f eb 34 e8 bc
       0.42829207 -0.092413105 1.0419586 -0.028345546
000320 0b a9 c8 3c b1 ff 35 3e b8 bc 99 3f ea cf ab 3f
       0.024494668 0.1777332 1.2010717 1.3422825
000330 17 6a ac 3f 1a 61 af bc 41 75 4a be 33 b6 00 3f
       1.3469876 -0.021408606 -0.19771291 0.50278014
000340 c6 72 13 bc 77 96 c9 3f 49 8c d9 bc f4 21 74 3f
       -0.008999532 1.5749043 -0.026556151 0.9536431
000350 6a eb 76 3f bc 2e a5 3e 25 1b 51 3f 32 3b 8c bd
       0.96452963 0.32262218 0.81682044 -0.06847228
000360 f7 0e 68 3f 99 d2 20 3f 06 65 99 3f 17 16 cb 3e
       0.90647835 0.62821347 1.1983955 0.3966529
000370 d2 ae 01 40 6b 54 22 3f af f6 05 40 f3 91 7b 3f
       2.0262952 0.6341006 2.0931814 0.98269576
000380 f7 b5 a9 3f 64 00 72 3f 9f fb 56 bd a0 3f e1 bc
       1.3258656 0.94531846 -0.05248606 -0.02749616
000390 ad ca 18 3f b1 a5 b9 3f b4 9c a1 3e fa 6e c9 3e
       0.5968426 1.450369 0.31564867 0.3934248
0003a0 f4 48 8a 3f 4c a9 1d bd 7f c3 76 3f 1a 96 4a 3f
       1.0803514 -0.038491532 0.96392053 0.79135287
0003b0 80 98 09 3e f9 04 c9 3f dc 39 64 3f 03 75 07 3e
       0.1343708 1.5704643 0.89150786 0.1322823
0003c0 53 ed 3a 3f 4c d9 f0 3f fd f5 7a 3f 5a de 09 40
       0.7301838 1.8816314 0.980316 2.1541963
0003d0 71 3a f5 bc f8 20 83 3f d3 f8 82 3f 40 6d 90 3d
       -0.029935094 1.0244436 1.0232185 0.07052088
0003e0 a7 00 80 3e 33 21 83 3f 11 3a b4 3f ac 58 17 bd
       0.25000498 1.0244507 1.408022 -0.0369498
0003f0 e2 8b 5e bd 57 05 a9 bd a8 5a 6e 3e 86 25 ae 3e
       -0.05433262 -0.082529716 0.2327677 0.34013003

A.bias f4 [51]
000000 cf f4 87 3e e5 9e 1c 3e 65 0b c5 3e 21 3a d9 3e
       0.26553962 0.15294988 0.38485256 0.4242716
000010 e8 ac 47 3d 3b ca ad 3e 21 72 85 3e e9 93 c7 3e
       0.04874888 0.33943352 0.26063636 0.38980034
000020 27 c5 a3 3e 9d 46 90 3e 9c 9f 9d 3e f1 8a f0 3e
       0.31986353 0.28178874 0.30785835 0.46981004
000030 7e f4 f3 3e 0e 51 df 3e 9b 9d af 3e 90 85 a5 3e
       0.4764747 0.43616527 0.3429993 0.32328463
000040 a9 a7 a3 3e eb 0b fa 3e 9a 2b e4 3e c3 af b4 3e
       0.31963852 0.48837218 0.44564515 0.35290346
000050 58 63 e2 3e 83 29 8b 3e f5 e1 f9 3d c2 eb bc 3e
       0.44216418 0.27180108 0.12201301 0.3689862
000060 73 f3 e7 3e e3 e1 c2 3e a1 2a b0 3e 4c 81 a8 3e
       0.45302925 0.38062963 0.34407523 0.32911146
000070 30 fb e0 3e fe 9e b3 3e 87 0e f7 3e d5 38 91 3e
       0.4394164 0.3508224 0.4825327 0.28363672
000080 29 41 c9 3e 4b 1b f9 3e a8 9b 50 3e 0e da 96 3e
       0.39307526 0.48653635 0.20371878 0.29463238
000090 55 a1 91 3e 15 2c b0 3e e1 39 c6 3e 75 74 00 3f
       0.284434 0.34408632 0.38716033 0.501777
0000a0 97 7f 99 3e a8 bd d4 3e de 09 d7 3e 0d ea 8c 3e
       0.29980156 0.41550946 0.41999716 0.27522317
0000b0 6a 0b d8 3e b7 3d c8 3e 0e 19 ed 3e 07 cf be 3e
       0.42196208 0.39109585 0.46308178 0.37267324
0000c0 af 2f b4 3e ca be 05 3f 35 f6 ec 3e
       0.3519263 0.52244246 0.4628159
