option_hedging/hyperparameters/dqn_hyperparameters/double/year/0.0/best_dqn_model.pth (torch, 50964 bytes, 8 tensors)

linear1.weight f4 [64, 3]
000000 b9 dc 16 be 9b e9 d9 3e 10 3c 84 bf 67 8e ff 3d
       -0.14732637 0.4256104 -1.033083 0.12478333
000010 84 7d 3b c0 60 44 80 3e 4d be 93 bd d2 4c c4 3d
       -2.9295359 0.25052166 -0.07214031 0.09584965
000020 3a 28 63 bf e2 ed bd 3e 8f 3f fb bf c5 d3 06 3f
       -0.88733256 0.37095553 -1.9628772 0.52666885
000030 6f cb 81 3e d8 40 a7 3f 39 c4 01 3f 80 53 1c 40
       0.2535052 1.3066664 0.50690037 2.4425964
000040 b3 5c 43 bf e3 8f 00 bf a7 b7 88 3f 83 18 cc 3f
       -0.7631332 -0.50219554 1.0681046 1.594498
000050 22 8a 90 be 96 cf a2 be f7 80 0e bc 4a 98 92 bf
       -0.28230387 -0.31799 -0.00869774 -1.1452725
000060 0b d2 39 3e 9f 4d c6 3f f7 dc 31 3f 41 6d 05 be
       0.18146531 1.5492438 0.6947779 -0.13029958
000070 16 60 2e c0 09 bf b5 3d 9c 6c 97 3f f9 79 af 3f
       -2.7246146 0.08874328 1.183002 1.3709098
000080 45 a9 88 be 6a d1 8a 3f c1 ab 96 bf 68 d0 ca bd
       -0.26691642 1.0845158 -1.1771165 -0.099030316
000090 29 fe ee 3f 1c e4 3a bf 9e 8e 0f bf 9a c3 e3 3e
       1.8671314 -0.7300432 -0.5607699 0.4448517
0000a0 7b 03 07 40 76 d8 e3 3e 1d f8 2f 3e b6 a3 2c 40
       2.1095874 0.44501084 0.17184491 2.6974921
0000b0 c4 4b 33 3c 1f a9 43 3f 41 79 92 bf a2 a2 9f 3e
       0.010943357 0.76429933 -1.1443254 0.31178766
0000c0 88 45 e7 bd aa ef a4 3f 83 73 ae 3e 23 b6 04 3f
       -0.11292559 1.288564 0.34072503 0.5184042
0000d0 ce 64 1b 3e e0 d2 7e bf bb 83 60 3f b1 0a 9c 3f
       0.15175173 -0.9954052 0.87701005 1.2190763
0000e0 5d 6b 8d be 9f db 00 3e fd 7f c2 3f 62 42 a4 3e
       -0.27620974 0.12583779 1.5195309 0.32081896
0000f0 c4 77 0f 40 7c 31 01 bf 7d 37 69 bf 83 cd c7 bf
       2.241685 -0.5046613 -0.91100293 -1.5609592
000100 ae 85 02 3f 3f 2e 1d bf 83 3c 1e 3f 4a 26 3c be
       0.5098523 -0.6139869 0.61811084 -0.18373981
000110 b0 d9 52 bf 09 58 04 3e 6e 3d 89 3f a6 85 62 bf
       -0.82363415 0.12924208 1.0721872 -0.8848518
000120 26 b9 92 be a5 2e 46 3f 04 23 49 3e 04 43 89 be
       -0.28656882 0.77414924 0.19642264 -0.2680894
000130 24 96 7d 3d 6a 2e 3b bc 98 f5 d6 3e 7c ee a0 bf
       0.061910763 -0.01142464 0.41984248 -1.257278
000140 07 3d ca 3e 9d a4 92 3f cc dd 81 bf 88 b4 e1 3e
       0.39499685 1.1456486 -1.0145812 0.44083047
000150 be f4 5e bd b4 e4 69 40 b6 72 7b be 74 d4 cd be
       -0.054432623 3.654584 -0.24555477 -0.4020115
000160 22 7a ab 3f 6e 3a 80 be 5b c7 88 3e e0 81 08 40
       1.3396647 -0.25044578 0.26714596 2.132927
000170 3e 6e 54 3e 84 66 60 3f 0c e0 85 3f 91 f4 14 bf
       0.20745179 0.87656426 1.0458999 -0.5818568
000180 cf 14 3e 3f a6 94 e0 bd 6c 92 09 bf 2c 4f e5 3e
       0.742505 -0.109658524 -0.5373905 0.44786966
000190 21 27 8f bf ed 44 b0 3e 71 0b a7 3f b4 5b 3b 3f
       -1.1183816 0.34427586 1.3050367 0.731868
0001a0 9e 32 40 bf 9e 8d 4e 3f 44 0b 81 3f c1 13 08 bf
       -0.75077236 0.8068484 1.0081563 -0.5315514
0001b0 1f cf 16 3f 06 b4 76 bf 3f b3 5a bf 91 1e c9 bc
       0.5890979 -0.96368444 -0.8542976 -0.024550708
0001c0 29 51 2b 40 99 c2 18 be 93 db 5c 3f 20 09 60 bd
       2.6768286 -0.14917983 0.86272544 -0.054696202
0001d0 25 6a 8f bf 1c aa 8b be e7 d3 96 bf bf b5 b9 be
       -1.1204268 -0.2727822 -1.1783417 -0.36271474
0001e0 a6 1c 0a 3f f7 9f ab 3f 45 25 3a 3f 22 53 a6 3e
       0.53949964 1.3408192 0.7271312 0.324853
0001f0 58 c8 a1 bf d7 12 c7 3e 07 cd b1 be 0d ea 17 3f
       -1.2639265 0.3888156 -0.34726736 0.5934151
000200 4f ec c3 bf 69 f1 24 3e 73 4f ad 3f 6f ae 28 3f
       -1.5306491 0.16107716 1.3539871 0.65891165
000210 3a a5 4b 3e b8 d7 e4 3e 45 1d 59 bf 11 9e 0d bf
       0.19887248 0.4469583 -0.84810287 -0.55319315
000220 f8 50 99 3f 75 95 ab bf f5 3b 01 40 1d 8e 25 be
       1.1977835 -1.3404986 2.0192845 -0.16167493
000230 8f 5f 9c bf 89 58 33 3f 8d e5 76 bf 1f bf 6b be
       -1.2216662 0.7005697 -0.96444017 -0.23022126
000240 a0 05 58 3e f5 3c 92 bf eb 42 ab 3e 00 fe a4 3f
       0.21095896 -1.1424853 0.33449492 1.2890015
000250 e2 fe bc 3f 1b 29 9a be 46 af 86 be 97 e2 35 40
       1.4765284 -0.30109486 -0.26305598 2.841955
000260 42 a7 c8 be 62 86 42 3e 5f 8d 92 bf bf 69 ae 3e
       -0.39190108 0.18996575 -1.1449393 0.34065053
000270 b5 ed d6 3e 24 3e bd 3f 78 f7 08 3f a2 b0 1b bf
       0.4197823 1.4784589 0.5350261 -0.60816395
000280 30 16 d8 be 36 79 19 be 0c 37 5b be 50 40 88 3e
       -0.42204428 -0.14987645 -0.21407717 0.26611567
000290 94 2a 8d 3e 78 61 6f 3e eb b8 a8 3f 46 4b e1 3e
       0.27571547 0.23377025 1.3181432 0.44002742
0002a0 a0 48 a0 3e 44 5b 8b bf 92 b1 b1 3e 77 0c 4c 3f
       0.31305408 -1.0887227 0.34705788 0.7970652
0002b0 83 24 ad bf 25 7f fa 3e 30 47 4d be 5e 17 41 bf
       -1.3526767 0.4892513 -0.20046687 -0.7542628
0002c0 c5 07 8a be 72 44 ea 3f 40 21 e6 be 02 c0 04 bf
       -0.26959053 1.8302138 -0.44947243 -0.5185548
0002d0 33 05 ae 3e 79 16 bc 3f c4 46 9c bf 2e 2c 81 3f
       0.33988342 1.4694358 -1.2209096 1.0091608
0002e0 ac 63 9a bf ce 7d aa 3e 30 98 7d be bd 5f 52 3f
       -1.2061667 0.33299106 -0.24765086 0.82177335
0002f0 f5 ad 63 3e 35 72 2b be 4d 27 42 c0 8f b3 25 3e
       0.22234328 -0.16742785 -3.0336487 0.16181777

linear1.bias f4 [64]
000000 7c c9 98 bf 44 39 25 be d8 1d 6d bf 89 eb e7 be
       -1.1936488 -0.16135126 -0.9262366 -0.45296887
000010 88 f9 b2 3e e3 cf 8f 3f 00 d7 14 3f 85 27 3a bf
       0.34956002 1.1235317 0.58140564 -0.7271655
000020 a4 4b 47 3e 48 4c 88 3e b1 e6 0a 3f b7 86 69 3f
       0.19462448 0.26620698 0.5425826 0.91221184
000030 4d 32 9e 3f 76 68 2b 3e 87 3a c8 3d 7f 3d 0d 3f
       1.23591 0.16739067 0.09776788 0.5517196
000040 7e e5 12 3f d2 6a 8a bf 5f d9 2a 3f a2 53 b6 3e
       0.5738143 -1.0813849 0.6673793 0.35610682
000050 55 38 86 3f 27 e7 39 3f c5 39 96 bf 4a 13 77 3d
       1.0485941 0.72618335 -1.173638 0.06032113
000060 db 4b 24 3f 3c d8 7b bb 5b 97 be 3e 1b 90 22 3f
       0.64178246 -0.0038428446 0.3722485 0.6350114
000070 69 c2 8e bd 60 23 11 be d3 c9 45 3e 4e 27 3a 3f
       -0.069706745 -0.1417365 0.19315271 0.72716224
000080 8b f9 a4 bf cf 18 94 3e 37 53 4a bf 9f 89 2b 3f
       -1.2888654 0.28925177 -0.79033226 0.6700687
000090 52 c1 65 3f ea a7 0c be 0f 76 b1 3d 33 f9 86 bd
       0.8974811 -0.13735929 0.08665096 -0.065905
0000a0 25 cf 1c bd 85 e9 03 3f b4 8a af be 48 bc db 3e
       -0.038283486 0.515282 -0.3428551 0.42917085
0000b0 7d b5 92 bf f5 37 e1 3e f5 8d 4c 3f c8 30 41 3f
       -1.1461636 0.43988004 0.7990411 0.7546506
0000c0 4e b3 db 3e 3a b5 24 3f 05 0f aa 3e a9 a7 00 3f
       0.42910236 0.6433903 0.33214584 0.5025583
0000d0 4d cd 19 3d f2 5e bd be 24 e4 8c be 19 79 ce 3e
       0.037549306 -0.369865 -0.27517807 0.40326765
0000e0 fd 60 d1 3e bd 14 0d 3f 94 03 33 be 80 af 9a 3f
       0.4089431 0.5510977 -0.17481834 1.2084808
0000f0 b6 6d 04 3f 65 91 2c 3f 4d db 36 3f ba 68 ac 3e
       0.51729906 0.67409354 0.71428376 0.3367365

linears.0.weight f4 [64, 64]
000000 a4 02 1f 3f 00 cb a0 3f 3a 52 6d 3f 09 8a 6d 3f
       0.62113404 1.2561951 0.9270359 0.9278875
000010 22 09 15 3f d8 9b 84 3e 67 8e 22 3f 1e 75 30 3f
       0.5821706 0.2590015 0.6349854 0.68928707
000020 5b db 15 3f 8a a1 a5 3f 02 ab dd 3e c1 12 9b 3e
       0.58537835 1.2939923 0.4329453 0.30287746
000030 6f 2f 6f 3e 07 80 e9 3e 7d 31 c6 3e 07 91 d9 bd
       0.23357938 0.4560549 0.38709632 -0.10623365
000040 7d 45 e9 3e 1f e7 96 3f 0a fb 35 3f c0 48 1b 3f
       0.45560828 1.1789283 0.7108618 0.6065788
000050 71 62 45 3e e9 9a 07 3f db 43 a5 3f 71 62 35 3f
       0.19275834 0.5297075 1.2911333 0.70853335
000060 80 e5 e9 3e 9c 4e be bd b6 4c 0d bf 59 47 9c be
       0.45682907 -0.09292337 -0.55195177 -0.30523184
000070 73 1e a8 40 0d 78 e9 3f cf a4 35 3f 80 88 f2 3e
       5.253717 1.8239762 0.709546 0.47369766
000080 6c 41 ea 3f 1e 49 60 bf f6 b8 8d 3f 1a 58 21 3f
       1.8301215 -0.8761157 1.1072071 0.6302506
000090 d2 12 24 3f cc e7 2f 40 a4 99 ed 3e 47 a9 d2 bf
       0.6409122 2.7485228 0.4640628 -1.6457909
0000a0 43 f7 b2 3e 69 4c 1a bf b0 fe 78 3f 70 97 c2 3e
       0.3495427 -0.6027284 0.9726362 0.38006163
0000b0 e2 f9 75 3f 72 1d 6c 3f 88 94 24 3e e0 2a 47 3f
       0.96084416 0.9223243 0.16072285 0.777998
0000c0 a4 09 cd bf b3 2c d4 3e 03 28 e0 3f 3a a4 99 bf
       -1.6018567 0.41440353 1.7512211 -1.2003243
0000d0 6b c2 85 3e b1 97 52 c0 64 f3 96 be 78 18 11 3e
       0.26124892 -3.2905085 -0.29482567 0.1416949
0000e0 13 f1 82 bf 7f dd ef be b0 10 e2 bf b4 46 e3 3d
       -1.022982 -0.46848676 -1.7661343 0.1109747
0000f0 ce ec e3 3e 0a 84 c8 bd 59 07 16 3f 2a 52 e9 3f
       0.44516605 -0.097908095 0.5860496 1.82282
000100 63 78 fb 3d 5e fd b6 3f 50 ee 9b 3e 6f e5 b5 3f
       0.12278821 1.4296072 0.30455256 1.4210643
000110 bd 66 a8 be 15 7f 95 bd fb a6 c7 bf 03 5a 98 3e
       -0.32890883 -0.072996296 -1.5597833 0.29756173
000120 bc 74 77 be 68 dd d6 3f 0c 5d b7 bf f8 93 43 3f
       -0.24165624 1.6786318 -1.4325271 0.7639766
000130 f3 17 c2 3e 7d 2c 6a bf af 64 e0 bf 9c b9 6d 3f
       0.37908897 -0.91474134 -1.7530726 0.9286134
000140 df 37 f4 be 45 86 c0 3d 7a 42 b9 be c2 f4 c6 be
       -0.47698876 0.0940061 -0.3618353 -0.3885861
000150 d5 30 03 3e 3c 08 b0 bd 34 79 02 3f a7 5a 19 be
       0.12811597 -0.085953206 0.5096619 -0.14975987
000160 8d 40 d9 bd c5 9f f3 3d 56 15 8b 3f e5 c3 32 3e
       -0.10608015 0.11895708 1.0865886 0.1745754
000170 ad 78 81 c1 f7 16 0d c0 cf d5 89 bf 82 ed 6e bf
       -16.183924 -2.2045267 -1.0768374 -0.9333116
000180 53 fd 91 3f 66 7a 49 3f 17 23 fa be 10 f6 0f bf
       1.1405433 0.7870239 -0.48854896 -0.56234837
000190 21 e1 fe bd 5e 5e 57 c0 43 4c 9f 3d 51 6a a1 bf
       -0.12445284 -3.3651347 0.07778218 -1.261057
0001a0 50 5f ef be c3 e5 9e 3f fd 73 94 3e b5 58 e4 bd
       -0.46752405 1.2413868 0.28994742 -0.11149732
0001b0 7e a0 78 be dc ea 90 bd a4 f4 9a be 83 e4 e1 3e
       -0.24279973 -0.07076046 -0.3026477 0.44119653
0001c0 3c 6b 88 3f ed 37 6a bf 01 0e 36 bf 0e f8 7e 3f
       1.0657725 -0.91491586 -0.7111512 0.9959725
0001d0 ba 73 50 bf 7f e9 4b c0 2a df 6d bf 6c af 09 be
       -0.81426585 -3.1861265 -0.92918646 -0.13445824
0001e0 e4 29 90 3f 23 23 a5 3e 3e 45 09 bf 35 fd c5 3e
       1.1262784 0.3225337 -0.5362128 0.38669744
0001f0 0c eb ef be 39 4a e0 3e 91 ae 19 3d ba 1f 0c 40
       -0.46859014 0.43806627 0.037519995 2.1894364
000200 e4 1a f5 3e 3d 9f 93 3f 4d f6 0b 3f e7 68 a5 3f
       0.47872078 1.1532971 0.546727 1.2922639
000210 76 1c 7e 3e e7 65 b6 3e 89 39 63 3f 13 5a 13 3f
       0.24815544 0.3562462 0.88759667 0.5755932
000220 35 d5 24 3f 33 fc 8b 3f 80 75 45 3f d0 79 dd 3e
       0.6438783 1.093634 0.77132416 0.43256998
000230 0f b4 f7 3d e3 ed 23 3f 7c 96 69 3f a1 b4 ea 3d
       0.1209489 0.6403486 0.91245246 0.114602335
000240 58 b7 20 3f aa f1 21 3f 4d 9d 2e 3f 19 c7 c7 3e
       0.6277976 0.63259375 0.6820877 0.39019087
000250 52 db 2a 3e 8d 79 03 3f 75 a4 94 3f 55 36 ea 3e
       0.16685227 0.51357347 1.1612688 0.45744577
000260 df 4e c4 3e 69 4b 74 bd ce f0 37 bf 92 23 9b bd
       0.38341424 -0.05964223 -0.71851814 -0.07575144
000270 35 31 a0 40 ef df e8 3f df 32 09 3f c5 ff cb 3e
       5.0060067 1.8193339 0.5359325 0.39843574
000280 3c f3 d5 3f aa ce 26 bf ad 2b ea 3e f9 cd 4d 3f
       1.6714854 -0.65159094 0.45736447 0.80392414
000290 9c 05 e0 3e 24 ec 2e 40 d2 14 f9 3e 68 83 d4 bf
       0.4375428 2.7331629 0.48648697 -1.6602602
0002a0 be eb 0d 3f ed 0d 27 bf 72 88 22 3f 41 a5 14 3f
       0.5543784 -0.65255624 0.6348945 0.5806466
0002b0 14 1b f0 3e d5 c7 74 3f 93 dd b8 3e 2a 5c d1 3e
       0.4689566 0.9561742 0.36106548 0.40890628
0002c0 8c 44 4d bf 91 62 35 3f bc 92 c2 3f 5c 0c 55 bf
       -0.8018272 0.70853525 1.520103 -0.83221984
0002d0 34 31 11 3f ad 20 54 c0 20 b7 a2 be b7 14 5c 3e
       0.56715703 -3.3144944 -0.31780338 0.21492277
0002e0 18 bc 24 bf 5f 0e a5 be 2c ba d9 bf 32 f7 8e 3e
       -0.6434951 -0.32237527 -1.700994 0.2792297
0002f0 d8 31 1b 3f 40 ee c3 bd 79 e8 f0 3e af c9 da 3f
       0.6062293 -0.09566927 0.47052363 1.7092799
000300 cd 0a 8f 3d 74 ef d8 bc 82 89 7c 3b 95 e0 78 bd
       0.06984482 -0.026481368 0.003853411 -0.060761053
000310 3f 4d a0 bd 67 2f 03 3e aa 07 3b 3e 4f d5 94 bd
       -0.078272335 0.12811051 0.18264642 -0.07267248
000320 63 10 12 3d d3 cc f4 3e a4 36 9b bb d9 5f 46 3e
       0.03566016 0.47812518 -0.0047367383 0.193725
000330 cc 60 ea 3d c1 00 74 bc ca af 73 be d4 23 8f ba
       0.11444244 -0.014892758 -0.23797527 -0.0010920712
000340 aa c1 16 bd 68 62 c7 3d c1 af 78 bd 45 b1 ea 3c
       -0.036805786 0.097355664 -0.060714487 0.028648982
000350 16 0a c3 bc f3 a9 95 be cf 18 90 be 33 2e 3b be
       -0.02380852 -0.29231223 -0.28143927 -0.18279342
000360 d6 bd 96 3d 62 46 af 3d bb d3 42 3e 8d 11 a8 3d
       0.07360427 0.08558346 0.19026081 0.082064725
000370 65 5e 7d be d5 b7 82 bd 7c d9 21 be 57 bb e0 3c
       -0.2474304 -0.063827194 -0.1580562 0.02743308
000380 fa 82 1d bd cf 61 09 3e ee 92 93 3e ae 89 cd 3c
       -0.038454987 0.13416217 0.28823036 0.025090065
000390 fd 68 e3 bb 9a 6b 38 bf 6d 9a 81 be 61 40 3f be
       -0.006940006 -0.72039187 -0.2531313 -0.18676902
0003a0 02 1a 10 be 01 87 bc 3c f3 01 4e be da 5c 30 be
       -0.14072421 0.023013594 -0.20117931 -0.1722292
0003b0 e8 92 df bd 2e 7b 5b bc af e7 1e 3e 7b dc 1f 3d
       -0.10916692 -0.013396068 0.15518068 0.039028626
0003c0 e1 5f 2e 3e 6e f0 63 3e 8e f1 38 be 6f 6c 82 3e
       0.17028762 0.22259685 -0.18060896 0.25473353
0003d0 04 65 df bd f1 83 1a 3c b6 82 1c 3c 13 ee e4 3d
       -0.10907939 0.009430871 0.009552648 0.111782216
0003e0 6a e1 61 bc e0 d6 f5 3d a4 98 6e bd 7c 8b ba bd
       -0.013786653 0.12003875 -0.05825104 -0.09108636
0003f0 cc 42 3b be c9 d7 e1 3d fd c5 93 be cc bb 0a 3e
       -0.182872 0.11027486 -0.2886199 0.13548201

linears.0.bias f4 [64]
000000 16 9f 1d 3e e4 e9 ca 3e 79 82 90 3e 0b 46 04 bd
       0.15392718 0.3963157 0.28224543 -0.03229336
000010 14 00 f4 3e 67 0f f5 3e 51 e9 8a 3e 24 24 a8 3e
       0.4765631 0.47863314 0.2713113 0.32840073
000020 6f 50 c8 3e 2d fc 92 3e ec 9c 46 3f 9c d8 de 3e
       0.39123866 0.2870802 0.77583194 0.43524635
000030 6b 1c 3f 3f eb 7d 07 3f 56 85 bd 3e 72 9f 14 3f
       0.7465274 0.5292651 0.3701579 0.58055794
000040 e4 5d 6a 3e 61 59 12 bd 25 af f9 3e ad 13 ca 3e
       0.22887379 -0.03572977 0.48766437 0.39468136
000050 5c 02 1c 3e fa 9a 56 be d8 a2 c0 3e b7 c0 a2 bb
       0.15235275 -0.20957556 0.3762424 -0.004966821
000060 4c 01 a9 3e 87 90 82 bd 19 e6 49 be 1e c6 b3 3e
       0.33008802 -0.06375223 -0.19716682 0.3511209
000070 82 09 f5 bd de d7 0e 3f aa f3 a7 3e 65 64 0b 3f
       -0.11964704 0.5579814 0.32803088 0.54450065
000080 b7 4e 58 be 0e 0d 9b 3e 60 c3 90 3e d1 3f 88 3e
       -0.21123777 0.30283397 0.2827406 0.26611188
000090 95 48 d7 3e be 4a dc 3e f4 5c 7c 3e 72 f0 c7 3e
       0.42047563 0.43025774 0.24644834 0.39050633
0000a0 2e c6 62 be e3 36 87 3e 29 f8 af 3e ab 7e 92 3e
       -0.22145912 0.26409063 0.3436902 0.28612265
0000b0 c1 c1 46 3e 00 00 00 00 40 69 02 3f 73 6f b4 3e
       0.19409849 0.0 0.5094185 0.3524128
0000c0 31 f4 ba 3e 34 56 cd 3e a0 88 85 3e e2 ad a7 3e
       0.36514428 0.4010483 0.260808 0.3274985
0000d0 39 4a 82 3e 19 45 bc 3e be 7b 13 be bc b2 c3 3e
       0.25447252 0.36771467 -0.14402673 0.382223
0000e0 72 1f cb 3e 8b b4 44 bc 0f fc 8f 3e eb e2 d6 3e
       0.39672428 -0.012005935 0.28121993 0.4197
0000f0 ef 5e 87 be a9 fe 1d bf 8f c0 a8 3e 76 1c e7 3e
       -0.26439616 -0.61716706 0.3295941 0.451389

linears.1.weight f4 [64, 64]
000000 22 23 04 3f ee 68 2f 3f eb c7 09 bc b0 87 61 3c
       0.5161611 0.68519485 -0.008409481 0.013765261
000010 bd 40 b7 3d 6f 8c 37 3c b1 0a 94 bf 81 3c 50 3e
       0.08947895 0.011202916 -1.1565763 0.2033558
000020 b6 61 88 bd f4 96 60 bf ac 22 97 3b bf d4 bb bf
       -0.06659262 -0.87730336 0.0046122875 -1.46743
000030 8c c6 bb 3d b5 92 a5 bc c1 6d bb 3e 07 ff 5c bf
       0.09168729 -0.020211557 0.36607173 -0.8632664
000040 0b a3 ba 3d 05 75 96 3d 1d 70 e4 bd 24 13 b1 bf
       0.09113129 0.073465385 -0.111541964 -1.3833966
000050 cb 69 ac 3e ad 40 66 3f 67 54 18 be 16 fc 0a 3e
       0.33674464 0.8994244 -0.14875947 0.13572726
000060 3f c7 80 3e 0c 5e 5d be fa 7f dc 3d a1 73 a5 3d
       0.25152013 -0.21617907 0.10766597 0.08078695
000070 7f 19 b1 3e ed f9 31 bf ba 34 b2 bd 2e 3d ba be
       0.34589764 -0.6952198 -0.08701463 -0.363748
000080 5d c5 0c 3e 4e e8 c0 bf ef 52 cf 3d 44 f1 6e 3e
       0.13747163 -1.5070894 0.1012324 0.23334223
000090 54 af c6 be 0b 63 3f bd 89 29 4c 3d 95 b6 6d 3e
       -0.3880564 -0.046725314 0.0498443 0.23214181
0000a0 79 35 02 3f c3 6e 4e 3e 73 9f 44 3e 1b ed 55 be
       0.5086284 0.2015944 0.1920145 -0.2089123
0000b0 68 48 8b 3e c0 92 ec bc 09 0c 8b be d5 86 3c bf
       0.2720368 -0.02887857 -0.2715762 -0.7364324
0000c0 28 41 01 3d 89 63 c4 3e 5d 35 63 3e 5b ed 7b bf
       0.03155628 0.3835719 0.22188325 -0.9840905
0000d0 d6 03 93 bf f2 0f 10 3e d1 31 11 3f 9c c1 59 bf
       -1.1485546 0.14068583 0.5671664 -0.8506105
0000e0 41 38 b7 bf 41 f9 93 bd aa c7 66 3e df 41 a8 bf
       -1.4314042 -0.07225276 0.22537103 -1.3145102
0000f0 eb a2 4f 3e ca 8f 9c bc ae 7b e8 3c 0b 00 91 3e
       0.20276992 -0.019111533 0.028379288 0.28320345
000100 20 cd df be 16 aa 0a bf 00 51 38 bf 18 4a a5 3e
       -0.43711185 -0.5416578 -0.71998596 0.32283092
000110 b3 5e 6f be 97 a4 a2 be 90 3d 9b 3f ab 2e 88 bf
       -0.23375969 -0.31766197 1.2128162 -1.0639242
000120 1d 6e a7 be dd 3c 83 3f 38 05 f1 bd 31 02 8a 3f
       -0.32701197 1.0252949 -0.117685735 1.0781919
000130 e7 26 c1 bd 0e 39 e9 bd 24 2e ce be 6d b8 c6 bf
       -0.09431248 -0.113878354 -0.40269578 -1.5525032
000140 27 2a 99 bd 73 c8 68 3e bb 4c 73 be e4 ba b6 3f
       -0.07478743 0.22732715 -0.23759739 1.4275784
000150 12 db f4 be e3 28 89 3f 7e c4 25 be ca d5 23 be
       -0.47823387 1.0715603 -0.16188237 -0.15999523
000160 e2 29 02 be 6a 36 1e 3e 66 81 15 3f 64 b2 75 be
       -0.1271129 0.15450445 0.5840057 -0.23993832
000170 30 86 bf bd d4 d5 8a 3e bd 87 3e bf c9 2f c5 3e
       -0.09351766 0.27116263 -0.7442587 0.3851302
000180 b5 05 b1 3e 83 52 be 3f 7b 98 f6 be 48 93 55 bf
       0.34574667 1.486893 -0.48163208 -0.8342786
000190 fd b5 03 3f d5 07 2b be 98 6e 37 be a0 74 20 be
       0.5144957 -0.16702206 -0.17913282 -0.15669489
0001a0 20 b3 38 3f d9 c6 f9 be 9a d1 f4 3d 23 88 8e be
       0.72148323 -0.4878452 0.11954041 -0.2783824
0001b0 36 48 81 be ce 29 8f bc e1 6e b6 3e b9 47 2f 3f
       -0.25250405 -0.017475989 0.3563147 0.68468815
0001c0 74 93 97 be 40 57 f0 be 71 2c 9c be 46 8a 9a 3f
       -0.29604685 -0.46941566 -0.30502656 1.2073448
0001d0 02 51 70 3f 88 6c f5 3d b8 f4 4d 3f 3d 55 4a 3f
       0.9387361 0.11983591 0.80451536 0.79036313
0001e0 0b d5 8a 3f 4c 30 ab bd e8 2d 4d bd 6c 13 92 3f
       1.0846266 -0.08358821 -0.050092608 1.1412177
0001f0 60 60 4a 3f d1 de 39 3f 4f 57 12 bf 7c 22 7a be
       0.79053307 0.72605616 -0.5716447 -0.24427217
000200 61 71 00 3e eb a2 25 3f d1 d0 ce 3d 7c cf 2b 3e
       0.1254325 0.6470172 0.10098422 0.16778368
000210 47 ac 96 3e ca 28 1c bd 7f cb 67 bf 14 94 cc bc
       0.29428312 -0.038124837 -0.90544885 -0.024972953
000220 82 55 1b be c8 55 ed be 3e 7b e8 bd 7e 6b a8 bf
       -0.15169337 -0.46354508 -0.113516316 -1.3157804
000230 b7 e6 36 be 20 0d 6a 3c d5 d0 3e 3e 25 fb 9e be
       -0.17861448 0.014285356 0.1863435 -0.31050983
000240 50 1e 2b 3d 19 54 f5 bd 99 28 84 be 81 38 9b bf
       0.041776955 -0.11978931 -0.25812224 -1.2126619
000250 87 f5 56 3e 8a ac 62 3e f4 0f 52 3d 05 ad 62 3e
       0.20992099 0.22136131 0.051284745 0.22136314
000260 eb 2b 61 bd 79 87 69 3e 88 cc 42 be 60 92 a2 bd
       -0.054973524 0.22805585 -0.19023335 -0.07938075
000270 ae 6b 75 3e 7d 8e e7 be 34 1b b0 3e aa a8 1e bf
       0.23966858 -0.45225897 0.34395754 -0.6197611
000280 2c c9 f0 bd 5d 52 87 bf 65 34 a1 bd b1 8b 4b 3e
       -0.117571205 -1.057201 -0.078713216 0.19877507
000290 eb 39 96 be 21 b1 99 3e 15 35 0e 3d 8a 4e 0c 3d
       -0.29341063 0.3001795 0.03471859 0.03425459
0002a0 2a 14 bf 3e 0a 33 22 3e 35 e4 dd 3d bd 39 4b 3e
       0.3732007 0.15839782 0.10834543 0.19846244
0002b0 3f e5 91 3d 51 f2 8b bd 88 d2 c7 be c2 07 3a bf
       0.07123803 -0.068333276 -0.3902781 -0.7266809
0002c0 51 72 90 bd 7a 69 42 3f 98 a9 02 be 1f 66 6e bf
       -0.07053054 0.75942194 -0.12760007 -0.93124574
0002d0 67 ea e3 be aa 95 5c be ac aa 54 bd b3 86 09 bf
       -0.44514772 -0.21541467 -0.051920578 -0.5372116
0002e0 a4 62 b0 bf 6e 8a 26 be 28 64 a4 bd a2 35 82 bf
       -1.3780103 -0.16263744 -0.08026916 -1.0172617
0002f0 6f d6 8f 3d 3e 3a e1 3c 88 41 4b 3d 79 c8 0a bc
       0.07023322 0.027493592 0.049623042 -0.008470648
000300 e8 62 94 3e d0 01 71 3e a4 16 2c 3f 2e 80 d7 bd
       0.2898171 0.23535848 0.67222047 -0.10522495
000310 e1 d3 26 3f 9b 6a 63 3f 45 f8 2c bf 2a 0c 73 3f
       0.6516705 0.8883454 -0.6756633 0.94940436
000320 1a a4 23 3f 8c 47 e6 be eb 0b 3d 3e 6a 42 76 bf
       0.63922274 -0.4497646 0.18461578 -0.9619509
000330 9e c2 1c 3f 64 d4 da 3e b4 3a 29 3f 79 22 b2 3f
       0.6123446 0.42740166 0.661052 1.391677
000340 7a 40 22 3f 09 85 1c 3e 98 f4 0a 3f 14 af 5b bf
       0.63379633 0.15285124 0.5427947 -0.85814023
000350 d1 d4 04 3f b9 ee 0f be 83 29 fe 3e 6a d2 d2 3d
       0.5188723 -0.14055909 0.49641046 0.102940395
000360 54 12 2a 3f d3 96 2c bf 01 26 4b 3e 18 92 e2 3e
       0.66434216 -0.6741764 0.19838716 0.44252086
000370 e1 75 d1 be 20 4d 2e be da d5 7c 3f 18 94 51 be
       -0.40910247 -0.17021608 0.9876381 -0.2046665
000380 68 5c df bc 0f ca 83 bf 04 15 1c 3f a5 61 4b 3f
       -0.027265742 -1.0296038 0.6096957 0.7944587
000390 e8 18 5d 3e 55 78 36 3f 94 86 3f 3f 71 83 0d 3f
       0.21591532 0.7127736 0.74814725 0.5527869
0003a0 bb 35 66 bf 42 e2 ff 3e 79 51 04 3e 9f 87 3c bd
       -0.89925736 0.4997731 0.12921704 -0.046027776
0003b0 b2 d0 34 3f 46 37 71 bd 82 1f e6 3d 2a 0f 71 be
       0.70630944 -0.058890603 0.112364784 -0.23540941
0003c0 5a 4a 44 3f ad 66 52 3f f6 de 12 3f 17 0f 2e bf
       0.7667595 0.8218792 0.5737146 -0.67991775
0003d0 ab b7 30 bf 8c 00 b6 3d 7a 23 3f bf 31 8d 0c bf
       -0.69030255 0.08886823 -0.7466351 -0.5490294
0003e0 1b 3b 82 bf f7 d3 75 bd 96 c7 11 3f 8e 0f 6e bf
       -1.0174288 -0.0600166 0.5694517 -0.92992485
0003f0 2a fa b6 bd 7c d8 a8 bf 5e e8 80 3f a2 a0 25 3f
       -0.08934434 -1.3191066 1.0070913 0.6469823

linears.1.bias f4 [64]
000000 8a b0 89 be 84 67 23 3e 61 20 da 3d f4 a9 15 3f
       -0.268925 0.15957457 0.10650707 0.5846245
000010 ac 30 ce 3e 70 b1 c0 bb 20 00 d5 3e 9b 3f 31 bf
       0.4027151 -0.005880527 0.41601658 -0.6923768
000020 e7 79 70 3f 9d 72 15 3f 05 03 cf bb 8a 11 83 bd
       0.9393601 0.5837801 -0.0063174986 -0.0639983
000030 4f 37 fb 3e 84 2d 23 bd dd 0b 67 be 62 58 3a 3e
       0.49065635 -0.03983833 -0.22563119 0.18197778
000040 2b 1b 27 be c1 7b 96 3d 52 f8 e7 3e 56 34 91 3a
       -0.16318958 0.07347823 0.4530664 0.0011078219
000050 f1 13 51 be 80 53 09 be a5 d5 db 3e 94 8d 0b 3e
       -0.20417763 -0.13410759 0.42936435 0.13628227
000060 19 ab 1a 3f 30 9d 9b bb 2e 6f a2 3e fe c1 37 3c
       0.60417324 -0.004748963 0.31725448 0.011215685
000070 8d a6 e8 3b 9e af 57 3e a1 fa eb 3d e7 c9 fd bd
       0.0070999325 0.21063086 0.11522413 -0.123920254
000080 9b bf 02 3c a9 a3 21 be 00 00 00 00 5f 78 04 bd
       0.007980253 -0.15785088 0.0 -0.032341357
000090 c9 55 47 be d4 83 18 3e 50 da 4f be d4 4b fd 3d
       -0.19466318 0.14894038 -0.20298123 0.12367979
0000a0 b3 85 47 3f cb fd 7a be bf 12 d0 3e f8 63 a8 be
       0.77938384 -0.24510877 0.40639302 -0.3288877
0000b0 b6 f5 38 be bb 4b 20 3e db 22 dd 3e 5c 79 da bc
       -0.18062481 0.15653889 0.43190655 -0.026669197
0000c0 db 63 7d be 34 a0 e2 bb fc 6d 21 bb 48 65 3d bd
       -0.24745123 -0.0069160704 -0.0024632206 -0.046239167
0000d0 6e 4b dc 3d 00 00 00 00 e2 8d 1c 3f 31 54 3d bb
       0.107565746 0.0 0.61153996 -0.0028889293
0000e0 4f bc de 3e 4b 9c 05 3e 50 b0 b5 bc 33 86 c9 bd
       0.43503043 0.13047902 -0.022178799 -0.098400496
0000f0 b3 a8 4b bd f5 eb fa 3e 35 b5 01 bc 5e dd 23 3f
       -0.04972143 0.49008146 -0.007916738 0.64009655

final_linear.weight f4 [51, 64]
000000 d8 a2 bc 3e a3 2c 30 bd cc 61 a5 3e c8 b0 0c 3d
       0.3684299 -0.04301132 0.32301176 0.03434828
000010 56 c3 31 bd 06 4a c4 3d 33 32 b6 3c d6 cf ba 3d
       -0.043399177 0.09584431 0.022240734 0.09121673
000020 dc 8a 48 3c 2b ed 90 3f 9e b8 1e be 51 43 04 3e
       0.012240138 1.1322378 -0.15500113 0.12916304
000030 da ab 43 bd 1f 08 44 3e 5a 99 48 3d a5 bb 9a 3d
       -0.047771312 0.19143723 0.048974372 0.075553216
000040 6a 82 b5 3e 19 75 d9 3e 33 3e 84 3f 54 a0 13 be
       0.3545106 0.4247215 1.0331482 -0.14416629
000050 a4 e8 8b 3e 65 39 30 3e 34 46 5e 3e a7 a0 cd 3c
       0.27325928 0.17209394 0.21706468 0.02510102
000060 c5 3a 94 be a0 98 a9 3d 40 60 17 3d f2 b6 10 3f
       -0.28951088 0.08281064 0.036957026 0.5652915
000070 ea 19 04 3e 4d 52 a5 3d ac df 2b be e6 6d 04 3f
       0.1290051 0.08072338 -0.16784543 0.5173019
000080 d4 e0 10 3f 6a 0a 71 3e fa 35 8f 3e 83 fa 12 bd
       0.5659306 0.23539129 0.27970868 -0.035883438
000090 b3 84 8b 3e 0c 6e 65 be e4 5a 91 3e 69 36 02 be
       0.2724968 -0.22405261 0.28389657 -0.12716068
0000a0 2b cc 5e be 40 99 17 3f ae 17 2f 3d d8 24 e4 be
       -0.21757571 0.59218216 0.042747192 -0.4455936
0000b0 00 4c 80 bc 90 39 78 3e ab 4d 95 be 09 e7 10 3e
       -0.01566124 0.24240708 -0.29160818 0.14150633
0000c0 ec f6 32 3e 90 a3 14 3f 9a ad cc 3d 7c b2 dc 3d
       0.17477006 0.58062077 0.09994049 0.10776231
0000d0 93 c2 8b 3e 90 4c 02 bf f0 04 fc 3d 69 46 ca 3c
       0.27296886 -0.50898075 0.12305629 0.024691777
0000e0 ec 37 e9 bd c1 59 5c be a4 83 35 bd 8f ac 70 3f
       -0.113876194 -0.21518613 -0.044314995 0.94013304
0000f0 2f ef 0d be f7 f3 bf 3d 34 65 f7 bd a7 b3 b5 3d
       -0.13860773 0.093727045 -0.1207985 0.088721566
000100 8f 8c 94 3e 95 04 bd 3d 79 6a 4a 3e e9 36 5d be
       0.29013488 0.092293896 0.19767179 -0.21602978
000110 85 3d 38 3d d5 2b 3f 3c 87 0a d0 bd a2 d5 28 3f
       0.044980545 0.011668165 -0.10158258 0.6595098
000120 3c ee 85 3b 4a e0 86 3f 80 ed 31 bd 9b 98 ee bc
       0.0040872376 1.0537198 -0.04343939 -0.029125502
000130 14 aa 71 3d a2 7d 92 3e ea 59 17 3e cc 0f 72 3e
       0.05900009 0.28611475 0.14780393 0.23638839
000140 de 3f 62 3e 20 4f 84 3e d5 fb 89 3f 91 78 9e 3d
       0.22094676 0.25841618 1.0779978 0.0773784
000150 2d f4 98 3e 2a 7c 6a 3e 9a 2c 99 3b 6b ae df 3d
       0.2987379 0.22898927 0.0046745064 0.109219395
000160 eb 12 2a 3e 1d 9d fe 3d 3f 00 83 3e 7f ca 3e 3e
       0.16608779 0.12432311 0.25586125 0.18631934
000170 2e d1 c1 bd 09 c8 49 3d b7 3a c6 3d 8a f0 93 3e
       -0.09463726 0.049263034 0.09679168 0.28894454
000180 b1 32 50 3d b6 0d c7 3d 62 42 1d bd de eb a2 bd
       0.050829593 0.09719412 -0.038393386 -0.07955144
000190 c1 87 5c 3c d6 0b 8c bd 5f 56 ed 3e b7 1d 82 bd
       0.013460101 -0.06838195 0.46354958 -0.06353324
0001a0 ba b8 8f be 4d 31 f5 3e 4c 59 f0 3d 6b 38 7f bd
       -0.28070623 0.47889176 0.11735782 -0.062309664
0001b0 48 c6 87 3e 64 0c aa 3e c0 95 82 be b7 05 a7 3e
       0.26518464 0.33212578 -0.25504875 0.32621548
0001c0 03 ef a3 3d c1 1c 45 3e 19 1c d3 bb 04 9e 9f 3d
       0.08004572 0.1924925 -0.0064425585 0.07793811
0001d0 8c 0a 8d 3e ca 7b 88 3e 63 fc f1 3d 43 80 42 3e
       0.2754711 0.26656944 0.11815717 0.1899424
0001e0 37 69 9e bd 53 8e 6b be a7 f6 34 3d 46 2a db 3e
       -0.07734912 -0.23003511 0.04418054 0.4280569
0001f0 56 3f 91 bd 68 51 0b bd f3 3d d6 3d 7c a7 0c be
       -0.070921585 -0.034013182 0.104610346 -0.13735765
000200 82 c7 ac 3d 40 4e 60 3e c8 8b e1 3e 27 f0 a2 3d
       0.084364906 0.2190485 0.44051957 0.07955962
000210 ec 00 a8 3d a6 ea 31 3d de 16 53 bd b2 b0 03 3f
       0.08203301 0.04343667 -0.05153548 0.5144149
000220 44 f2 8d 3d c6 1d 9f 3f 8d d8 5c 3e a4 54 37 3d
       0.06930974 1.2430961 0.21566983 0.044758454
000230 e1 3b 55 be 9c b9 a1 3e f3 a6 57 3e 19 5b 56 3e
       -0.20823623 0.3158692 0.2105978 0.20933188
000240 0b 69 c8 3e 18 b1 80 bd e8 24 80 3f 15 d7 6b be
       0.3914264 -0.06283778 1.0011263 -0.23031266
000250 1a 34 0c 3f 0f 96 21 3d f6 9b 38 bd e8 ec 21 3e
       0.54767 0.039449748 -0.04507061 0.15813029
000260 6e 89 f6 bd 65 14 97 3e 25 c4 f2 3e be 30 9d 3e
       -0.120379314 0.29507747 0.4741527 0.3070125
000270 b4 4c 97 3e 2b 58 60 be 86 8c c9 3d fb 9c 4e 3e
       0.29550707 -0.21908633 0.09841256 0.20177071
000280 1e dd 9b 3e a8 6c 86 3e 84 60 de bd c1 91 81 3e
       0.30442137 0.26254773 -0.10858253 0.25306514
000290 82 18 80 bd 77 79 9f bb 92 58 0e 3f 68 b7 23 3d
       -0.062546745 -0.0048667747 0.556039 0.03996983
0002a0 36 86 85 be fc 73 a4 3e 78 ab 26 3e dc 83 a4 bd
       -0.26078957 0.3211974 0.16276348 -0.08032963
0002b0 d9 ab b5 3e 2d 53 57 3e 9c 4c 2a 3d 33 35 0f 3f
       0.35482672 0.21027823 0.041576967 0.5594055
0002c0 0f 14 20 bd ee 05 f3 3e e4 e5 9e 3c 8d c7 ed 3c
       -0.03908163 0.47465461 0.01939673 0.029025817
0002d0 b2 3a c7 bd 7a fd ea 3c 9d 9a 43 3d ff 0c 02 3e
       -0.09727992 0.02868532 0.047754873 0.1270027
0002e0 9a 53 90 bd c7 83 39 be c2 0f 19 3d 74 97 2c 3f
       -0.07047196 -0.18116675 0.037368543 0.674186
0002f0 7c 7c e3 3d 57 5a f2 bd 3b 97 22 be fb fd 7b be
       0.11107728 -0.11833637 -0.15878002 -0.24608605
000300 9a 5d e0 bc 05 0e 2a bd 1b 06 50 3e d2 11 96 3c
       -0.027388383 -0.041517276 0.20314829 0.018319044
000310 af 77 b2 3d cd b8 d7 bc 5b f4 45 3e 56 22 28 3e
       0.08714234 -0.026333237 0.19331495 0.16419348
000320 94 07 f5 bc f8 e8 9f 3f 60 17 97 bd a7 ea 9c bc
       -0.02991084 1.2492971 -0.07377505 -0.01915486
000330 d0 7e 01 3e 6b bc a6 3c 10 f0 1a 3d 70 99 94 3d
       0.12646031 0.020353517 0.037826598 0.072558284
000340 31 ef cc 3e 2b b2 eb 3d 61 8d 8b 3f 9e 97 0d bd
       0.4002624 0.11508592 1.090252 -0.03456842
000350 39 ff 34 3e d3 2f ec 3d 03 14 87 3d 5f 92 84 3d
       0.17675485 0.11532559 0.06595614 0.064732306
000360 be 65 4b 3d 11 18 20 be ce 16 f7 3d 3f 9e 2d 3e
       0.049657576 -0.1563418 0.120648965 0.16954897
000370 d1 a4 0d 3e 45 b7 71 be f4 03 03 3c c6 9a a0 3e
       0.13832404 -0.23605068 0.007996548 0.31368083
000380 6d 02 94 3e 5b c7 f9 3d 75 5a a0 bd 6c 2e 1f be
       0.289081 0.12196227 -0.07829753 -0.15545052
000390 d4 2c 78 3e f3 24 a0 be 53 83 f1 3e 61 52 c5 bd
       0.2423585 -0.3127819 0.47170505 -0.09634853
0003a0 95 fc 87 be 42 f4 42 3d 22 ea 09 3e 9b 43 7a 3c
       -0.26559892 0.047596224 0.13468221 0.015274907
0003b0 79 60 74 3e ef e7 b4 3d ba d8 9e 3c 48 29 2b 3f
       0.23864926 0.088333 0.019390453 0.66859865
0003c0 03 93 04 3e 2a bb c6 3e 0a 8d c6 bd 84 04 9c bc
       0.12946706 0.3881467 -0.0969487 -0.019045122
0003d0 d8 f0 02 3e 98 8f 1c bc 2b 6f 39 3d a9 02 f4 3d
       0.12787187 -0.00955572 0.045272034 0.1191457
0003e0 54 c9 ba 3d 19 73 5d be 00 4d ce bd 50 b0 23 3e
       0.091204315 -0.21625938 -0.1007328 0.15985227
0003f0 61 e7 87 be b9 b6 9d 3e ea db 71 be 7a e5 9a bd
       -0.26543716 0.3080347 -0.23619047 -0.075633004

final_linear.bias f4 [51]
000000 92 0c 74 bf b8 67 bc bf df 5c 3e bf 63 30 08 bf
       -0.9533168 -1.4719152 -0.7436046 -0.5319883
000010 90 ee 8d bf df bc 9a bf 2b c0 d0 be 98 51 69 bf
       -1.1088428 -1.2088889 -0.40771613 -0.9114013
000020 b9 b1 89 bf 41 3e 12 bf 1f cd 1d bf 5a 5c 59 bf
       -1.0757362 -0.5712624 -0.61641115 -0.8490654
000030 c4 9b b3 be 94 86 0d bf ea 42 1c bf a9 0d 51 3d
       -0.35079777 -0.55283475 -0.610396 0.051038418
000040 39 6e 16 bf 18 69 6d bf de 9e 0f bf b9 25 81 bf
       -0.58761936 -0.92738485 -0.5610179 -1.0089637
000050 1c aa eb bd f6 34 90 be 6a 8e 72 bf 26 a5 e3 be
       -0.11507055 -0.28165406 -0.94748557 -0.44461936
000060 02 90 e0 be 55 ea 3c be da 46 7e bf fa 3c 09 bf
       -0.4385987 -0.18448766 -0.9932686 -0.5360867
000070 7c fb ef be de bd 96 bf 2a 8a a1 3d 6c fa 85 bd
       -0.46871555 -1.1776693 0.07887681 -0.06541905
000080 f2 84 d6 be ee 08 51 be ef 7b 28 3e 81 2b a5 be
       -0.41898304 -0.20413563 0.16453527 -0.32259753
000090 70 90 4b bf ff 96 e1 be 24 52 02 bd 72 7e 8a bd
       -0.7951727 -0.44060513 -0.031816617 -0.06762399
0000a0 38 df 4f bf 19 e0 0b be 5a d2 08 3d 74 94 4c bf
       -0.8119998 -0.13659705 0.033403732 -0.7991402
0000b0 46 ae 83 3e 1e 3b 80 3d 94 72 85 be cd ca 96 bd
       0.25718898 0.06261276 -0.2606398 -0.073629
0000c0 92 8a 21 3d b7 63 65 3e 94 26 8c be
       0.03943879 0.2240132 -0.27373183
