option_hedging/hyperparameters/dqn_hyperparameters/double/year/0.0/dqn_model.pth (torch, 33372 bytes, 6 tensors)

linear1.weight f4 [64, 3]
000000 41 fb 0f 3f fb 11 ac 3e 2f 77 b0 bd 5d bb 46 3f
       0.5624276 0.33607468 -0.086164825 0.77629644
000010 05 4e 2e 3f 16 5f 4b be 7d 58 a5 3e f7 c3 ba be
       0.680878 -0.19860491 0.32294074 -0.36477634
000020 b8 60 c6 3d c5 ea 0d 3f e7 bb cb 3e 67 4f bd 3e
       0.096864164 0.55436355 0.39791796 0.36974642
000030 c8 9e 40 3e fe ff 0a 3d f8 99 02 be aa d3 9f 3e
       0.1881057 0.03393554 -0.12754047 0.31216174
000040 5c d6 77 be 2a 71 82 3e 20 fc 0e 3e 82 25 53 bd
       -0.24202865 0.25476962 0.13963366 -0.051549442
000050 cd f9 0d 3f 88 2c d9 3e 55 de af 3c 03 56 e2 3e
       0.5545929 0.42416787 0.02146832 0.44206247
000060 a9 60 91 be d0 35 39 bd 60 79 a3 bc 41 7b df 3e
       -0.28394058 -0.045217335 -0.019955337 0.43648723
000070 d7 ae 0e 3f f8 8b 89 3e d9 5b 67 3e d4 f5 4c be
       0.55735534 0.268646 0.22593631 -0.20015651
000080 c4 c1 38 be cc 2f 8b be d5 ae 7e 3d 21 da 87 3d
       -0.18042666 -0.27184904 0.06217845 0.06633402
000090 0a ce 8f 3e c5 fd f0 3d 8c 37 11 3f f8 8e 9e be
       0.28086883 0.11767153 0.5672538 -0.30968451
0000a0 cc 64 fe 3b a1 ea 53 3e ec 8d 47 3e 82 44 0d 3c
       0.007763481 0.20694973 0.19487733 0.008622291
0000b0 e9 3e da bd 6e 13 24 3f ac f2 33 3e 72 a6 15 be
       -0.106565304 0.6409215 0.1757304 -0.14614275
0000c0 12 23 fc bd fd a4 a7 bd 85 15 34 3c cf a4 35 3f
       -0.12311377 -0.08185766 0.010991459 0.709546
0000d0 97 50 ca 3e aa 76 4e 3e a6 82 17 3f be aa 3f 3e
       0.3951461 0.20162454 0.5918373 0.18717477
0000e0 ef ae c6 3e 6f 85 1c 3f 3d ab 06 be a3 d9 fc bc
       0.3880534 0.61141104 -0.1315126 -0.030865496
0000f0 48 b0 02 3f ac ec 4a 3f 67 b6 8b 3e 45 d4 d8 3e
       0.51050234 0.7926738 0.272876 0.4234945
000100 28 5b 6e bd 02 b4 60 bd 29 16 0a 3f b8 de 77 3e
       -0.058192402 -0.05485917 0.53940064 0.24206054
000110 13 50 f3 3e c6 cf e9 3e 34 64 b1 3e cb ea a2 3e
       0.4752203 0.4566633 0.3464676 0.31819758
000120 ca 76 2b 3f 76 6c 00 3e 07 b3 90 3e 91 e4 2e 3f
       0.6697813 0.12541375 0.28261587 0.68317515
000130 c8 ac 4c 3e ad 45 af 3e 3c 3c e2 3e 06 a9 c5 3e
       0.19987786 0.34232846 0.4418658 0.38605517
000140 33 22 cc 3e 50 03 ae be 74 ee 4d 3d 31 aa 7e 3d
       0.39869842 -0.33986902 0.050276235 0.062174026
000150 99 70 67 3f e1 6f 3a 3e e0 08 0d 3d a4 a5 89 3e
       0.90406185 0.18206741 0.034432292 0.26884186
000160 6b 58 80 3e 8c e8 be be 84 46 81 be 41 1a 47 3e
       0.25067458 -0.37286794 -0.25249112 0.19443609
000170 83 3b e3 3d 44 19 bb 3e 62 84 b8 be f5 a3 bc 3e
       0.11095335 0.36542714 -0.360385 0.3684384
000180 50 54 9b 3e b2 17 63 bc 10 29 7a 3e a3 e8 07 3f
       0.30337763 -0.01386063 0.24429727 0.5308935
000190 b1 64 14 3f 69 7f 76 3c e8 0f 21 3f 46 22 ca 3e
       0.5796614 0.015045025 0.62914896 0.39479274
0001a0 d6 f1 27 bd ce f0 6b 3f 34 86 87 3e 75 cd 32 3e
       -0.041002117 0.92164314 0.26469576 0.17461188
0001b0 4b 8e 30 3f 08 1d 86 3e af d5 0a 3e e8 72 73 3f
       0.6896712 0.26194024 0.13558076 0.9509721
0001c0 5b 1b b3 3e e1 8c 91 3e 58 e0 37 3f 30 7b f4 3d
       0.34981808 0.28427795 0.71826696 0.11937559
0001d0 ae 3a 9d 3e 4a 41 de 3e fb 02 21 3f e1 af bb be
       0.30708832 0.43409187 0.6289517 -0.36657622
0001e0 cf e6 bd bd 7b fd 70 be 59 da fe 3c ab b7 b8 3e
       -0.09272539 -0.23534195 0.031109976 0.36077628
0001f0 f2 8e b4 3e e6 e7 6b 3e 0d 46 0a 3e 9f 7a 17 be
       0.3526531 0.23037681 0.13503285 -0.1479287
000200 0c 64 87 3e df 79 92 be 09 19 11 bb 18 64 1a 3d
       0.26443517 -0.28608605 -0.0022140166 0.037693113
000210 0e 79 55 3f bc d0 f6 3e f8 dc b8 be 99 f2 57 3f
       0.8338784 0.48206127 -0.36106086 0.8435455
000220 71 0a ff 3e bb 4d d9 3c f3 94 57 3d fb 7e 94 be
       0.49812654 0.026526323 0.052632283 -0.29003128
000230 51 bf f8 3b 76 46 3a 3f a4 10 b2 3d 28 70 09 3e
       0.007591166 0.72763765 0.0869458 0.1342169
000240 8e 9c f4 3e ad 86 c6 bc ec 79 e8 3e 8c b9 9a be
       0.47775692 -0.02423414 0.4540552 -0.30219686
000250 57 23 84 be 52 95 c1 3e 6a d4 24 3e 2b 44 81 bd
       -0.25808212 0.37809235 0.16096655 -0.0631183
000260 47 63 a5 3e 75 37 09 3f 79 8d 06 3f c9 78 7f 3e
       0.32302305 0.53600246 0.5255962 0.2494842
000270 53 0b 62 3f 95 a0 71 3e 3e 20 d9 3e 65 0c fa 3e
       0.8829853 0.23596413 0.4240741 0.4883758
000280 66 10 2f 3e 03 c7 24 3f 9b a6 95 be ef 53 59 3d
       0.170961 0.6436617 -0.29228672 0.05305856
000290 89 ea 78 3d 13 0b 08 3f 67 0c 0a be fb a5 f6 3e
       0.060770545 0.531419 -0.13481294 0.48173508
0002a0 f3 59 52 3f ba 53 24 bd 1c 0c d4 bd 9b 7f 5a 3f
       0.821685 -0.04011891 -0.10353872 0.8535096
0002b0 74 55 6c 3e f1 39 d2 3d 61 05 4e 3f e4 04 e8 3d
       0.23079473 0.10264958 0.8047696 0.11329058
0002c0 1c 8e 1b bb ff 01 01 3f c6 32 bb 3e 4d 8f 6d be
       -0.0023735827 0.5039367 0.36562175 -0.23199196
0002d0 c8 72 d5 3e fc cf 40 3f 95 73 be be d7 0e 74 3e
       0.41689134 0.7531736 -0.37197557 0.23833786
0002e0 68 7d 81 3e ff f0 db 3e 07 b7 12 3f f5 0a c5 3e
       0.2529099 0.42957303 0.5731053 0.38484922
0002f0 57 2e 3a 3f cd b0 4a 3e 2a f8 90 3e 8c 88 bd 3e
       0.7272696 0.19794007 0.28314334 0.3701824

linear1.bias f4 [64]
000000 38 00 f7 3e b4 00 f9 3e c6 08 e2 3e 93 c4 0a 3f
       0.48242354 0.4863335 0.4414732 0.542062
000010 87 65 33 3e 43 92 f2 3e 51 bc ce 3e 31 ec f2 3e
       0.17519198 0.47377214 0.4037805 0.47445825
000020 41 84 74 bc c2 02 ea 3e 91 e7 b9 3e 3b a0 5c 3e
       -0.01492411 0.4570523 0.36309484 0.21545498
000030 6a 61 c9 3e 17 88 3e 3e 68 72 1e 3e bb 7a d6 3e
       0.39332134 0.18606602 0.1547333 0.4189051
000040 e9 95 d7 bc f4 c8 f8 3e 21 e0 0c 3f 4a 76 a5 3e
       -0.0263166 0.48590815 0.55029494 0.3231681
000050 16 c9 07 3f 37 e9 18 3f 51 79 0c 3f 3a 88 03 3f
       0.5304121 0.5973086 0.54872614 0.5137974
000060 2a c9 b9 3e ab 1e f2 3e a4 3b f0 3e 4f c4 8d 3e
       0.36286288 0.47289023 0.46920502 0.27688834
000070 94 ba f6 3e e7 85 e4 3e e2 2e 4f 3e e3 9f ed 3e
       0.48189223 0.4463341 0.20232728 0.46411046
000080 e9 a3 d2 3e 81 1c fb 3e fb 3f ef 3e 67 f1 02 3f
       0.4114068 0.49045184 0.467285 0.511496
000090 b8 8d f8 3e 4a 4e 07 3f 9e 17 07 3f 36 91 ed 3e
       0.48545623 0.52853835 0.5277041 0.4639985
0000a0 55 69 c4 3e 6e 9a cb 3e 3e 2a b8 bb dd 60 7f 3e
       0.38361612 0.39766258 -0.00562027 0.24939294
0000b0 53 f5 00 3f 05 13 f1 3e 11 84 08 3f 6a 89 05 3f
       0.50374335 0.47084823 0.5332652 0.521628
0000c0 99 f4 c4 3e c3 d5 72 3e 7f d0 aa 3e c3 70 0a 3f
       0.38467863 0.23714356 0.33362195 0.5407831
0000d0 d6 6f ec 3e bc e6 fd 3e 3a 52 72 3e ef c8 c1 3e
       0.46179074 0.495901 0.2366418 0.37848613
0000e0 3e a1 02 3f b2 83 f6 3e 5e db 08 3f 44 fe da 3e
       0.51027286 0.4814735 0.5345973 0.42772114
0000f0 51 cf ec 3e 06 00 09 3f a4 c3 00 3f c0 59 a0 3e
       0.4625192 0.5351566 0.50298524 0.31318474

linears.0.weight f4 [64, 64]
000000 bc db 09 3e 9f 42 58 bd 4e cb 58 3e d3 8d 5f 3d
       0.13462728 -0.05279791 0.21171305 0.054578613
000010 bb 4f 05 bd c5 3b 0a 3e 72 a1 09 3d 70 e4 b2 3d
       -0.03254674 0.13499363 0.033601232 0.08734977
000020 f9 a1 24 be d7 7c 86 be 00 7f 15 3e 55 90 24 3f
       -0.16077413 -0.2626712 0.14599228 0.64282733
000030 e3 11 f4 bd 0a 32 a5 3e 6b 17 68 3e 47 c4 ba bd
       -0.11917474 0.3226474 0.22665183 -0.09119468
000040 17 ce 72 bd e7 22 0c be 67 69 53 be 46 58 b4 3d
       -0.059278574 -0.13685189 -0.20645677 0.08805899
000050 a3 ec df 3b 8c 19 92 3e f0 9f b0 bd 98 3b 67 be
       0.006833629 0.28535116 -0.08624256 -0.22581327
000060 8c 0c c3 b9 8c cc 30 3e 85 81 e6 bd 3b f2 8d 3e
       -0.00037202646 0.17265528 -0.11255173 0.2772387
000070 16 ba 37 3e 80 be b1 3e da bc 98 3d be 73 51 be
       0.1794208 0.34715652 0.074578956 -0.20454308
000080 cc 29 44 3e 5b 8f b4 3c 6f 95 2c 3e b5 08 f1 3d
       0.19156569 0.022041013 0.1685388 0.11769239
000090 42 c5 ab bd 50 8d 81 3d af f1 4c bd 10 ed 68 bc
       -0.08387233 0.06325781 -0.050035175 -0.014216676
0000a0 b3 78 f6 3d 16 23 3b be 85 de c1 3b d5 38 14 3e
       0.1203474 -0.18275103 0.005916419 0.14474805
0000b0 a3 1d a1 3e d6 ea e2 3d a8 e6 b7 bd 8f 8b 29 bd
       0.31467924 0.11079948 -0.08979541 -0.04139286
0000c0 bb ae 28 3d 75 10 33 3e d7 22 2e be 3f 2b a3 3c
       0.04118226 0.17486747 -0.17005478 0.019918082
0000d0 76 2c 01 be 7d 4d a4 3d 5a 45 0d 3f e9 b4 06 3e
       -0.12614617 0.08022592 0.5518395 0.13154949
0000e0 56 93 c5 3d c6 98 35 3d b8 08 72 3e d1 80 cd 3d
       0.09647243 0.04433515 0.23636138 0.100343354
0000f0 96 52 56 3e 65 7d 2a 3d 8e b1 7f bd 85 23 14 be
       0.20929942 0.04162349 -0.06242519 -0.14466675
000100 98 dd aa bd ae 50 8c be 22 58 4b 3e c3 93 05 3d
       -0.08343047 -0.27405304 0.19857839 0.03261162
000110 40 0d 0f 3e 55 01 a8 3d 9f 6f 16 be 98 58 23 3e
       0.13969898 0.08203379 -0.14691018 0.15951765
000120 ad 5f b4 bc 83 46 87 bd f2 11 b3 3d 72 60 06 3e
       -0.022018278 -0.06605246 0.08743657 0.13122728
000130 e1 54 0d bd e3 70 87 be 35 92 c6 bc c0 78 e3 bc
       -0.034504775 -0.26453313 -0.024239639 -0.027767539
000140 f1 f0 6f 3c 05 5a 2f 3c 08 83 13 bd ac 02 85 be
       0.014644847 0.010702615 -0.036013633 -0.259786
000150 df f9 21 be 83 5e 47 3d 43 a5 d0 bd 6e 0f 5e 3e
       -0.15817975 0.048674118 -0.10187771 0.21685573
000160 61 35 d8 bd a4 33 4a be e2 e1 ad 3d e4 f7 ba bc
       -0.10557056 -0.19746262 0.08490349 -0.022823282
000170 81 c9 16 3e 7d 99 38 3e e5 43 c7 bd b1 78 d0 bd
       0.14725305 0.18027301 -0.09729747 -0.1017927
000180 c3 3b 86 bc 2c 54 99 3d 64 fd 26 3e 20 d0 92 bd
       -0.016385918 0.07486758 0.16307598 -0.07168603
000190 52 a3 a5 be e1 24 0f bc 3f 2b ac bd 7c 38 2e 3d
       -0.32351166 -0.00873682 -0.08406686 0.042534336
0001a0 0a 06 63 be 6e 47 bb bd d5 5c 16 be 66 c9 f4 3d
       -0.22170272 -0.091444835 -0.1468385 0.11952476
0001b0 84 3d bc bd b7 27 1a bc e8 f2 1f 3e 33 11 0c bc
       -0.09191421 -0.009408883 0.15620005 -0.0085490225
0001c0 09 b2 c4 3d df b3 66 bd 01 3b 36 bd 2e 79 10 be
       0.0960427 -0.056323882 -0.044489864 -0.14108726
0001d0 da 89 92 3d 8f b1 5f 3d 23 fa d4 3d d0 e2 05 3e
       0.07155199 0.054612692 0.10399272 0.13074803
0001e0 dd 8b 61 be f2 61 4c be 7a 56 c2 bd bc 01 4b 3e
       -0.2202601 -0.19959238 -0.0948915 0.1982488
0001f0 6b 4f 78 bd 22 b9 00 bc 56 d1 45 3d 4a 72 2e bd
       -0.060622614 -0.007856639 0.04829534 -0.042589463
000200 22 0a 4b 3a 7b 50 1d 3e 1d c3 a6 3e 69 45 f6 3e
       0.00077453454 0.15362732 0.32570735 0.4809983
000210 74 ce b2 3e 7c d8 ed 3e f0 9a e3 3e bc 2b 98 3e
       0.34923136 0.46454227 0.44454145 0.29720867
000220 3d e2 59 3c bf 98 f7 3e b2 ad be 3d 00 b3 8d be
       0.013298568 0.48358724 0.093104735 -0.2767563
000230 fd a9 90 3e 1b 4c f6 3d dc 33 5e 3e 53 11 f6 3d
       0.2825469 0.12026235 0.2169947 0.12015023
000240 ce ea 8d 3c be c0 f4 3e d1 8e ba 3e 9f 60 7e 3e
       0.017323878 0.478033 0.36437085 0.24841546
000250 20 92 bf 3e d4 a5 6d 3e 35 06 b4 3e 73 83 4b 3e
       0.37416172 0.2320779 0.35160986 0.19874363
000260 c3 7c b0 3e 68 16 aa 3e 3d ff db 3e 23 60 e4 be
       0.34470186 0.3322022 0.4296817 -0.44604596
000270 ae 99 22 3e 81 8c b9 3e 9c 28 5c 3d fe e4 07 3f
       0.15878937 0.36240008 0.053749666 0.5308379
000280 8d 54 68 3e 52 b3 6d 3d c1 38 1c 3e d9 76 b5 3e
       0.22688504 0.05803234 0.15256025 0.35442236
000290 ef 30 8d 3e b1 e4 90 3e 41 2a 84 3e f6 d4 6d bd
       0.27576396 0.28299478 0.25813487 -0.058064424
0002a0 05 f8 d2 3e c6 d8 87 3e 06 0d c1 bc a2 7b d4 bd
       0.4120485 0.26532573 -0.02356578 -0.103751436
0002b0 e3 5b 00 3e e0 6b 4b 3e ae 23 2b 3e 40 0f ad 3e
       0.12535052 0.1986537 0.1671283 0.33800697
0002c0 24 8e 0e 3f 09 14 24 bc 9a fb a3 3e 4c 30 ad 3e
       0.5568564 -0.010014542 0.32027894 0.3382591
0002d0 58 47 e4 3e 92 e8 f7 3e e7 82 37 bf 34 66 de 3e
       0.4458568 0.48419625 -0.71684116 0.4343735
0002e0 ed 1f 8c 3e 27 08 4d 3e 08 63 62 3e bd 98 b5 3d
       0.27368107 0.20022641 0.2210809 0.08867023
0002f0 66 41 36 3e 8a c0 45 3e d7 2a c8 3e 28 f4 c2 3e
       0.17798385 0.19311729 0.39095184 0.380769
000300 d8 f9 a1 3e a4 5c a3 3e 60 3c 53 3e ec 1f be 3e
       0.31635928 0.31906617 0.206285 0.3713373
000310 23 98 19 3e 85 49 5e 3e 3a b2 91 3e 99 86 ab 3e
       0.14999442 0.21707733 0.2845629 0.33501127
000320 d2 42 d3 bc 64 84 83 3e f3 97 b9 3e 0e a4 0e bf
       -0.025788698 0.25686944 0.3624874 -0.5571908
000330 74 6c 20 3e 9e f9 a0 be 57 91 c0 3d 90 0e 1e 3f
       0.15666372 -0.31440443 0.094027214 0.6174097
000340 bc 87 70 3e df 29 ce 3e 32 bb 02 3f a4 6d e5 3e
       0.23489279 0.4026632 0.5106689 0.44810212
000350 7c 84 02 3f 83 7c 03 3f c7 23 11 3f 26 2f 26 3f
       0.50983405 0.51361865 0.56695217 0.6491569
000360 fd 3c 29 3f 2c 91 d1 3e 0b 48 e4 3e 20 bc 79 bf
       0.66108686 0.4093107 0.44586214 -0.9755268
000370 ae ad df 3e 60 2a dc 3e 1e 7d 66 be c0 73 1f 3f
       0.43687195 0.4300108 -0.22508666 0.62285995
000380 37 41 d0 3e 6e ff d5 3e f5 0b 1e 3f aa f7 25 3f
       0.40674755 0.4179644 0.61736995 0.6483103
000390 13 f2 0b 3f d5 29 07 3f eb 14 23 3f fe cd 11 3f
       0.5466625 0.52798206 0.63703793 0.56954944
0003a0 07 08 76 3e f7 f1 d2 3e 22 fa 4d 3e b4 76 e8 be
       0.240265 0.4120023 0.2011495 -0.45403063
0003b0 9c 27 2c 3f 03 44 ed 3e f6 e6 b2 3e 5a 1a 04 3f
       0.6724794 0.4634095 0.34941834 0.5160271
0003c0 b2 32 5e 3e 95 6b 0b 3d 17 83 a8 3e 53 18 08 3f
       0.21699026 0.034038145 0.32912514 0.53162116
0003d0 d6 a6 0d 3f 70 e9 97 3e 52 ef 7b bf e7 02 d4 3e
       0.55332696 0.29670286 -0.9841205 0.41408464
0003e0 4c 80 34 3f 6b 38 d5 3e b9 09 0f 3f 10 41 f4 3e
       0.70508265 0.41644606 0.5587421 0.4770589
0003f0 77 6a 06 3f c5 61 cb 3e d6 84 e3 3e fc 55 5b 3e
       0.525062 0.3972303 0.44437283 0.21419519

linears.0.bias f4 [64]
000000 10 51 63 3d 00 00 00 00 e7 f7 83 3e 38 f3 df 3e
       0.05549723 0.0 0.25775072 0.4374025
000010 6e be 2a 3e 35 ab 0a bc fd f8 bd 3e 00 00 00 00
       0.16674206 -0.0084636705 0.37104025 0.0
000020 f2 28 4c 3e ce f6 c4 3e 1a 72 a4 3e b2 37 9e 3e
       0.19937494 0.38469547 0.32118303 0.30901867
000030 a3 6b 8d 3e a2 63 aa 3e 12 ee 9f 3e 23 6b ad 3d
       0.27621183 0.3327914 0.3123632 0.084677
000040 7b 6d 93 3e d0 68 e4 3c 8b b7 5c 3d ec 15 85 3e
       0.28794464 0.02788201 0.053885978 0.25993288
000050 ec 58 a2 3e 33 99 1b bc d3 dd 36 3e 86 8e ab 3e
       0.31708467 -0.009496975 0.17858057 0.33507174
000060 76 b7 31 3d ae 04 87 ba e5 2a 4e 3e 2a a9 e2 3d
       0.043387853 -0.0010301077 0.2013355 0.11067422
000070 fb 71 95 3d a5 fc c8 3d 55 2c b1 3e 39 07 83 3e
       0.07297131 0.09813813 0.34604135 0.25591448
000080 08 09 2a 3d f3 6d 64 3d 2e fc 8b 3e 2a cd 95 3b
       0.04151252 0.05576892 0.27340835 0.0045715766
000090 94 2d 2c 3d 00 00 00 00 b8 62 80 3d 3c 7c ea 3d
       0.042035654 0.0 0.06268829 0.11449477
0000a0 66 7d 06 3d ec 3a 48 3c dd 0b d2 3e 48 23 b5 3d
       0.032834433 0.012221079 0.41024676 0.0884462
0000b0 61 80 9a 3e 87 c9 46 bd e7 c7 e1 3c 52 2b a2 3d
       0.3017607 -0.048532035 0.027561141 0.07918419
0000c0 3a bf 52 3d d5 1e a0 3e 44 ac 90 3e b2 70 55 3d
       0.0514519 0.31273523 0.28256428 0.052109428
0000d0 00 00 00 00 1b e3 f1 3d c1 4c 9d 3e f2 ee a3 3e
       0.0 0.11810895 0.3072262 0.32018238
0000e0 11 ac 6e bb 10 7f 96 3e 03 33 57 3d 6c df 31 bc
       -0.0036418478 0.29393816 0.052538883 -0.010856491
0000f0 15 dd fb 3d 50 45 5b bc de 9b 5e 3e 0c 1c db 3e
       0.122980274 -0.013383225 0.21739146 0.42794836

final_linear.weight f4 [50, 64]
000000 b9 21 20 3e ea 26 13 bd 11 02 95 bd 39 5f 8b bd
       0.15637864 -0.035925783 -0.07275785 -0.06805272
000010 df 99 7a be 4b d9 cd 3d 8d 10 38 3b ae 30 08 3c
       -0.2447276 0.10051211 0.0028086037 0.008312387
000020 9c 27 21 3e 1d 9b 01 be 9c 54 60 3e a8 a3 e3 bd
       0.15737766 -0.12656827 0.21907276 -0.11115199
000030 62 26 b4 be 7a ba 0c be 13 27 e4 bb a3 eb 21 3f
       -0.35185534 -0.1374301 -0.006962666 0.6325018
000040 9a f9 b3 bc 9f 64 ec 3e 96 b7 80 3e 29 bc 78 be
       -0.021969605 0.46170518 0.25140065 -0.24290527
000050 ab 6e d8 bd 29 98 99 bd e0 e3 e8 3d 98 20 2b be
       -0.10567983 -0.07499725 0.11371589 -0.16711652
000060 34 7b 9d 3e db 64 2f bd 4e 47 95 3d be 93 1f be
       0.3075806 -0.042820793 0.07288991 -0.15583703
000070 67 e1 15 3f ba a4 cc be 26 f7 9f be 17 39 69 bd
       0.5854706 -0.39969426 -0.31243247 -0.05693921
000080 42 54 c2 3c 0f 17 3b 3f 43 1f 15 3d f3 a2 cf bc
       0.023721818 0.7308206 0.036406767 -0.025346255
000090 a9 1c b0 3e cf 1b be 3d 0d 32 a3 3e 2b 87 1b 3f
       0.34396866 0.09282648 0.31874123 0.60753125
0000a0 66 94 90 3e 2d b7 a4 be 5a 43 ad be 14 9a c2 bd
       0.2823822 -0.32171002 -0.33840448 -0.09502044
0000b0 a9 25 93 be f6 e2 19 3e 8b 68 a2 3e 02 c5 b5 3e
       -0.2873967 0.15027985 0.31720385 0.35501868
0000c0 f3 e9 2a 3d 43 91 5d be b7 4a 22 3e 8d fb cb 3e
       0.041727018 -0.21637444 0.15848814 0.39840356
0000d0 46 f6 1f 3e 7c b7 4f 3f c6 9c 1c be b9 a5 0c 3e
       0.1562129 0.8113935 -0.1529418 0.13735093
0000e0 6c a3 4e 3e 64 67 67 be e2 45 ae 3e f5 c8 75 3d
       0.20179528 -0.22598034 0.3403769 0.0600061
0000f0 3e 02 92 be a8 66 bd 39 8c 25 0e be 5f d0 a3 be
       -0.28517336 0.00036125374 -0.1388151 -0.31994912
000100 4a 8a 88 be 87 43 b4 bc f9 22 36 3e 52 6d f7 be
       -0.26668006 -0.022004856 0.17786779 -0.48325592
000110 80 b8 65 be 6b 36 97 3d 59 2d 3f be f9 4d 23 3d
       -0.22433662 0.07383426 -0.18669643 0.039869282
000120 ab 9f b3 3d 45 0d 19 be 9f e4 65 be e7 b2 30 be
       0.087706886 -0.14946468 -0.22450493 -0.17255746
000130 a4 f2 3e be f8 32 0d be 52 d1 5c be 07 6c 3f 3f
       -0.18647248 -0.13788974 -0.21564224 0.7477421
000140 e7 9d 18 be 22 66 84 3e c8 d2 05 3f f2 f3 34 be
       -0.14903985 0.2585917 0.5227475 -0.17671183
000150 86 36 92 be 61 35 85 bc 64 31 d2 bd c9 b0 bb be
       -0.28557223 -0.016260805 -0.10263327 -0.36658314
000160 81 05 df 3e 9c a3 87 be 6e 27 70 be 2c 1d 6e bd
       0.43558887 -0.26492012 -0.23452541 -0.05813329
000170 ad 9e 02 3f 4f 55 39 3e 64 f1 13 be 5f 73 3e be
       0.5102337 0.18098949 -0.14447552 -0.18598698
000180 dc 42 a8 3e c0 bb 3d 3f 04 08 54 be b4 f9 f7 3c
       0.3286351 0.7411461 -0.20706183 0.030270435
000190 14 42 07 3f ab 4b 92 bd ae b7 67 be 28 0c 3d 3f
       0.528352 -0.07143339 -0.22628662 0.73846674
0001a0 23 3f 00 be 50 ef d0 3e 60 eb b7 be 9c 15 b2 3e
       -0.12524085 0.4080758 -0.35921764 0.34782112
0001b0 9b 4c 6a be 95 fd 35 3e 11 65 c8 3e 6b 73 99 3c
       -0.22880785 0.17772515 0.39139608 0.018731793
0001c0 f2 40 31 3f 6e 07 c0 bd 6a fe cd be bf 16 26 3d
       0.69239724 -0.09376417 -0.40233165 0.040549036
0001d0 c7 a7 42 be 4c b7 52 3f 88 48 6e bd e3 ef 41 3d
       -0.19009314 0.8231094 -0.05817464 0.047347914
0001e0 3c ed 11 3e 1c d0 77 bd b0 34 23 3f 0d 68 20 3d
       0.14250654 -0.060501203 0.6375227 0.03916173
0001f0 28 e9 9c be 4f c7 a3 3e 6e 19 f9 3c 13 90 28 be
       -0.30646634 0.31987998 0.030407634 -0.1646121
000200 a5 2c 88 3e 9e f2 a8 3d 47 85 b7 bd 39 1d 18 be
       0.2659656 0.082494006 -0.089609675 -0.14854898
000210 ce 0a 6e 3d 06 ca cf 3d f8 17 b9 be 7b 39 03 3c
       0.058115773 0.10145955 -0.361511 0.00800931
000220 f4 a7 f3 3d c7 4d 4e be 09 b6 a6 be 11 7d 61 bc
       0.11897269 -0.20146857 -0.32560757 -0.013762728
000230 33 f8 85 bd 04 50 d0 be b8 7b 9a 3c 05 9b 17 3f
       -0.06541481 -0.40686047 0.018857822 0.59220916
000240 45 90 06 be 74 3f e9 3e 89 3f 50 3e 44 f3 81 be
       -0.13140972 0.45556223 0.20336737 -0.2538091
000250 a3 c4 aa bd 3c c0 c2 3e d1 30 0a 3d 7c f7 98 bd
       -0.08338287 0.38037288 0.03373796 -0.07469079
000260 05 1f 64 3c 35 3f 83 3e b9 42 15 be 8f bd 84 bc
       0.013923411 0.2563416 -0.14576234 -0.01620367
000270 4d f2 04 3f b0 ab c1 be f0 2f 95 be f4 78 77 be
       0.5193222 -0.378263 -0.29138136 -0.24167234
000280 0b de bf 3e d2 9e 2d 3f e9 d7 91 be 59 c3 59 3e
       0.37474093 0.67820466 -0.2848504 0.21265925
000290 67 b6 f3 3e ee 23 53 3d 74 96 01 be 1a 72 34 3f
       0.476001 0.051547937 -0.1265505 0.70486605
0002a0 c1 6d ac bd c5 9a ca bc b8 e4 5e be ea f9 00 3d
       -0.084193714 -0.024732003 -0.21766937 0.031488337
0002b0 76 69 ba be 09 1c 94 3e e1 be 2b 3e 82 8e 4b 3f
       -0.36408585 0.2892764 0.16772033 0.79514325
0002c0 50 0c 33 3e 33 70 e6 be 86 50 84 be db 1a e2 3d
       0.17485166 -0.45007476 -0.25842685 0.110402785
0002d0 9c d8 29 3d 76 75 b3 3e 72 d1 34 be 7e 58 9a be
       0.04146634 0.35050553 -0.17658022 -0.3014564
0002e0 ca 92 94 bd 50 66 9f be 28 4b 79 3e 86 fe 47 be
       -0.0725456 -0.31132746 0.24345076 -0.19530687
0002f0 dc 13 fb bd fb 7c 63 3e a7 27 be bd 79 f7 23 be
       -0.12259647 0.22215645 -0.09284907 -0.16012372
000300 17 81 2e bd 93 67 84 bd 65 b1 27 3e 85 0e 84 be
       -0.04260358 -0.06465068 0.16376264 -0.25792328
000310 a6 58 21 be 83 93 27 3e e3 07 1e be 19 38 2f be
       -0.15756473 0.16364865 -0.15432696 -0.17111243
000320 fa 9b 9b bd d8 f2 3a be 4d 61 21 be 85 57 53 be
       -0.075981095 -0.182567 -0.15759774 -0.20638855
000330 66 78 a5 be e7 83 3f be 2c f0 be bd 88 b0 1a 3f
       -0.3231842 -0.1870266 -0.09323153 0.60425615
000340 29 da 16 be 11 85 1e 3f f8 2d 5a 3e e9 8b 25 3e
       -0.14731659 0.61921793 0.21306598 0.16166653
000350 4b f0 2e be 1b 13 bb bd 74 1a 25 be f0 2d b2 3d
       -0.17083852 -0.091345035 -0.16123372 0.08700168
000360 8c c5 8b 3e df 83 6b be 88 43 9b bd a8 c0 56 3e
       0.27299154 -0.22999524 -0.0758124 0.2097193
000370 67 fb 12 3f 8c ca 0d 3d 0c 72 3e be e2 8d f1 bd
       0.5741486 0.034616992 -0.18598193 -0.1179464
000380 42 fc d2 3d a2 6e 19 3f fd 66 86 bd cc 32 0a 3d
       0.103020206 0.5993444 -0.06562612 0.03373985
000390 3c 5e fb 3e 76 73 77 bd 04 31 3b bd d2 79 24 3f
       0.49095333 -0.060412847 -0.04570104 0.64248383
0003a0 d9 7c 6b be 10 96 5a 3e 93 66 4a bc 38 82 5d bd
       -0.22996844 0.21346307 -0.012353557 -0.054079264
0003b0 12 e1 03 be e9 ba 4d be 86 e2 01 3f 62 17 3d 3e
       -0.12878826 -0.20090832 0.5073627 0.18465951
0003c0 ad 82 ef 3d 09 68 b3 be fb 3c 1c be 77 3d b3 bd
       0.11694846 -0.3504031 -0.15257637 -0.08751958
0003d0 7c 5b 96 bd f7 3f 72 3f b7 98 06 bd 66 25 5f be
       -0.07341668 0.9462885 -0.032860484 -0.2179161
0003e0 7b b0 32 3e 0e d2 99 3c be f4 47 3e 1d bf 23 bd
       0.17450134 0.01877692 0.19526955 -0.03997718
0003f0 56 d1 27 3d b8 ea 02 be 86 52 bd 3c f3 60 85 be
       0.040971123 -0.1278485 0.02311064 -0.2605053

final_linear.bias f4 [50]
000000 1c f4 80 bd cd b7 f8 bd b9 e9 9a bd a3 b2 86 bd
       -0.0629656 -0.12144432 -0.0756411 -0.06577041
000010 de 63 b7 bd 41 9c ac bd b8 9f e1 bd cf 83 b0 bd
       -0.08954595 -0.084282406 -0.11016792 -0.086188905
000020 d8 35 aa bd 49 b3 75 bd f2 2a 26 bd b5 e2 c7 bd
       -0.08311051 -0.059985433 -0.0405683 -0.09760038
000030 88 70 8d bd 17 54 4c bd b2 5e da bd 60 31 8d bd
       -0.06906229 -0.04988488 -0.10662593 -0.06894183
000040 3b 10 15 be d5 42 09 be 7b de 00 be 5d 3a 89 bd
       -0.14556973 -0.134044 -0.1258487 -0.06700585
000050 a2 ce 1e be ab 79 d6 bd 77 13 04 be 27 b7 07 be
       -0.15508512 -0.10472425 -0.1289805 -0.13253461
000060 59 f0 78 bd 26 b9 af bd 9d dc bb bd 4d 19 66 bd
       -0.06077609 -0.08580236 -0.09172938 -0.056176472
000070 92 0f cd bd f8 a9 be bd 18 9a fd bd 7b 11 a3 bd
       -0.100127354 -0.09309763 -0.12382907 -0.079623185
000080 f8 da d2 bd ce 44 93 bd 6b ff b6 bd 37 a8 93 bd
       -0.10295671 -0.07190858 -0.08935436 -0.07209819
000090 db ee da bd 48 55 a0 bd 54 d9 71 bd 6a 8f cd bd
       -0.10690089 -0.07828766 -0.05904515 -0.1003712
0000a0 5e af a8 bd 4d 78 ef bd 07 45 88 bd 0b 9a 53 bd
       -0.08236574 -0.116928674 -0.06653791 -0.05166058
0000b0 5a f3 df bd ab fa 6c bd af 05 60 bd 7b 5b 81 bd
       -0.109350875 -0.057856243 -0.05469292 -0.06316277
0000c0 68 10 5e bd 0c ad a7 bd
       -0.054214865 -0.08187303
