option_hedging/hyperparameters/dqn_hyperparameters/double/year/0.0/dqn_model.pth (torch, 96668 bytes, 6 tensors)

linear1.weight f4 [128, 3]
0.1692022 -0.0943639 -0.58346456 0.2484919 -0.028680895 -0.22329329 0.115741156 0.042008493
-0.37255007 0.19502161 -0.61272466 0.45584908 0.28736693 -0.4517648 0.31822732 0.35741475
-0.43484202 0.22600846 0.42609507 -0.23840651 -0.04935813 -0.33363113 0.32082012 -0.6370896
0.2591749 -0.4498102 0.38935232 0.34902444 -0.40477335 -0.034334056 0.4189781 -0.39655003
-0.037813958 0.14935766 -0.020142777 -0.34597474 -0.081130065 0.40701783 0.14853905 0.45812228
-0.42269754 0.17818922 0.4384583 -0.29157358 -0.03231805 0.37548283 -0.56594026 -0.02190419
0.27315184 -0.33724546 0.14019829 0.24281396 0.1619834 -0.39091963 0.30572277 -0.23927085
-0.010012748 0.19465767 -0.40189278 0.29792568 0.29544008 -0.40893766 0.1815358 0.12296103
0.19542529 -0.30241874 0.36740294 -0.54747736 -0.21569635 0.25890133 -0.003646444 -0.22075398
0.22634321 -0.4817112 0.30930167 -0.13745509 0.46686125 0.051784232 0.2608903 -0.26001123
-0.1796323 0.35257646 -0.81160706 0.11958004 0.33377635 -0.091044635 0.083618425 0.19054112
0.06513476 -0.30074352 0.43448368 -0.19786853 0.1406856 0.3583691 -0.20591234 -0.0040149363
0.15768729 -0.25496024 -0.3840125 0.28730536 -0.2810034 0.11704032 0.38285115 -0.1841457
-0.27539882 0.3221952 -0.061450575 -0.26354167 0.3382041 -0.004333461 -0.49283397 0.28501856
-0.15809695 0.17082077 0.38983113 -0.593742 0.014539072 -0.11975077 0.6306489 0.0987655
0.5623209 -0.50707084 0.31653717 0.12953228 0.0099868 -0.28327006 0.1704097 -0.02365593
-0.3924617 0.20551224 -0.44252032 0.44064876 -0.23226713 0.16176799 -0.42664057 0.07554503
0.28994343 -0.25409776 0.3121264 -0.39075032 0.21406929 0.21077804 0.19300647 -0.34958103
-0.048579536 0.45212808 0.08385873 0.43623772 -0.4241603 0.0276168 -0.064309955 0.41445905
0.06296181 -0.045672353 0.34790155 -0.15184058 0.39715114 -0.24311286 0.19067778 -0.0334783
0.3754959 -0.115807585 -0.08096597 0.52560014 0.14394362 0.26193464 -0.61540276 0.29591712
0.010481039 0.38927296 -0.15185568 0.27376306 -0.70905346 0.17785254 -0.08227587 0.60583025
0.1113766 -0.06012352 0.47252926 0.10080612 0.07231751 0.36862567 -0.29405716 0.27557606
-0.49493077 0.17282963 -0.10146353 -0.02183089 0.006778891 0.28725857 -0.4766781 -0.036575556
0.20168045 -0.19075535 -0.3670529 0.28028154 -0.37139425 0.20442648 -0.04353409 0.24398148
-0.18463713 -0.17828351 0.23028015 0.024490688 -0.058232572 -0.018003212 -0.20876732 0.31586188
-0.3744002 0.32086504 0.24143697 0.1889752 -0.40321067 0.46195942 -0.28319058 -0.2872991
-0.14191173 0.54614365 0.076806374 0.14291926 0.18353808 -0.293236 0.5001629 -0.31111082
0.17918299 0.2548628 -0.67873406 0.051209107 0.37366295 -0.28653976 0.035673253 0.3443043
-0.15020499 -0.31074992 0.22609574 -0.36328295 0.18802647 0.29125887 -0.48001635 0.068356335
-0.18844852 0.44724134 0.18745974 0.22487003 -0.024334673 -0.5388396 0.25347307 -0.68835664
0.27041256 0.21404774 0.14675727 -0.410241 0.18063128 -0.1075199 0.64349204 0.17142129
00000000: 5743 2d3e dc41 c1bd ef5d 15bf a974 7e3e
00000010: 32f4 eabc ffa6 64be b309 ed3d 1911 2c3d
00000020: e2be bebe bfb3 473e 86db 1cbf 0d65 e93e
00000030: c221 933e b74d e7be b1ee a23e 11ff b63e
00000040: 9da3 debe c36e 673e 2229 da3e d620 74be
00000050: c02b 4abd b3d1 aabe 8942 a43e 4e18 23bf
00000060: 93b2 843e 864d e6be 3059 c73e 55b3 b23e
00000070: 743e cfbe dea1 0cbd 4c84 d63e 9b08 cbbe
00000080: cfe2 1abd 37f1 183e 7702 a5bc 9a23 b1be
00000090: 8527 a6bd a464 d03e 9f1a 183e 018f ea3e
000000a0: d06b d8be 3c77 363e 9b7d e03e 2249 95be
000000b0: ee5f 04bd 493f c03e 76e1 10bf 6a70 b3bc
000000c0: 8fda 8b3e 70ab acbe 2490 0f3e 39a4 783e
000000d0: fade 253e 9e26 c8be b287 9c3e 6b03 75be
000000e0: 820c 24bc 5754 473e e4c4 cdbe b789 983e
000000f0: ec43 973e 4760 d1be 85e4 393e fed2 fb3d
00000100: 911d 483e a1d6 9abe 3d1c bc3e 7a27 0cbf
00000110: 81df 5cbe b78e 843e 2ef9 6ebb 550d 62be
00000120: 84c6 673e daa2 f6be ca5c 9e3e 07c1 0cbe
00000130: 7008 ef3e b41b 543d 6a93 853e 3120 85be
00000140: 88f1 37be e784 b43e 7bc5 4fbf 61e6 f43d
00000150: bce4 aa3e 9c75 babd 2340 ab3d 361d 433e
00000160: 6065 853d 0efb 99be a574 de3e 0c9e 4abe
00000170: e30f 103e 287c b73e afda 52be ba8f 83bb
00000180: c778 213e 268a 82be 499d c4be b019 933e
00000190: addf 8fbe d6b2 ef3d 1105 c43e b190 3cbe
000001a0: 1301 8dbe c5f6 a43e 99b3 7bbd efee 86be
000001b0: 1629 ad3e b5ff 8dbb bc54 fcbe f4ed 913e
000001c0: 2be4 21be a4eb 2e3e f297 c73e 7aff 17bf
000001d0: 4a35 6e3c e43f f5bd 3572 213f 9145 ca3d
000001e0: 43f4 0f3f 65cf 01bf 2911 a23e 1ca4 043e
000001f0: ad9f 233c c608 91be e17f 2e3e 15ca c1bc
00000200: bdf0 c8be cd71 523e 0692 e2be b79c e13e
00000210: 6fd7 6dbe 82a6 253e a270 dabe 5ab7 9a3d
00000220: 7773 943e 1a19 82be 08cf 9f3e 6d10 c8be
00000230: fb34 5b3e 33d6 573e 7da3 453e 49fc b2be
00000240: 56fb 46bd 557d e73e 20be ab3d 8d5a df3e
00000250: 8a2b d9be a13c e23c f0b4 83bd fa33 d43e
00000260: 1ff2 803d ef12 3bbd 2720 b23e 197c 1bbe
00000270: 6557 cb3e 94f2 78be 0941 433e 8b20 09bd
00000280: 0041 c03e 872c edbd 7dd1 a5bd bb8d 063f
00000290: f565 133e 4c1c 863e 098b 1dbf 7382 973e
000002a0: aab8 2b3c c94e c73e 0e80 1bbe ac2a 8c3e
000002b0: 8784 35bf fa1e 363e 4080 a8bd b117 1b3f
000002c0: 6a19 e43d 1544 76bd 5bef f13e 7073 ce3d
000002d0: 341b 943d 81bc bc3e a98e 96be 4e18 8d3e
000002e0: 9167 fdbe 40fa 303e 1ccc cfbd b2d6 b2bc
000002f0: 7621 de3b 8e13 933e 270f f4be 40d0 15bd
00000300: 5285 4e3e 5f55 43be 5cee bbbe 1081 8f3e
00000310: 6327 bebe 2d55 513e cd50 32bd 48d6 793e
00000320: 8411 3dbe f48f 36be 8fce 6b3e b2a0 c83c
00000330: 4785 6ebd 797b 93bc 1ac7 55be a6b8 a13e
00000340: 62b1 bfbe 6c48 a43e 413b 773e b782 413e
00000350: a171 cebe f285 ec3e 5bfe 90be de18 93be
00000360: 4f51 11be 12d0 0b3f a94c 9d3d 6d59 123e
00000370: 68f1 3b3e 0723 96be ad0a 003f eb49 9fbe
00000380: bf7b 373e 607d 823e 84c1 2dbf a4c0 513d
00000390: c050 bf3e 57b5 92be 1e1e 123d a748 b03e
000003a0: 56cf 19be 9d1a 9fbe a485 673e 3900 babe
000003b0: 038a 403e e21f 953e b4c4 f5be 68fe 8b3d
000003c0: a6f8 40be d1fc e43e 72f5 3f3e 5444 663e
000003d0: 8259 c7bc 64f1 09bf 39c7 813e 2438 30bf
000003e0: 8473 8a3e 552f 5b3e 8a47 163e 1c0b d2be
000003f0: 68f7 383e 6533 dcbd e5bb 243f 1089 2f3e

linear1.bias f4 [128]
0.21151923 0.16121173 0.18557733 0.18528375 0.20854707 0.13790849 0.18923475 0.054336376
0.2523508 0.21841052 0.19221021 0.1853654 0.16376224 0.20667799 0.17305034 0.20218717
0.26684484 0.18192105 0.25055352 0.19672315 0.21280877 0.20362714 0.13010445 0.1641974
0.33820453 0.21946411 0.14941691 0.21146257 0.29077694 0.07959742 0.2649903 0.26877192
0.14306454 0.3404419 0.22339009 0.19890897 0.14987122 0.27470788 0.19115973 0.23653856
0.23395903 0.16002458 0.23023742 0.2469645 0.06043797 0.2143624 0.29639503 0.18321733
0.1437818 0.1660311 0.14964421 0.25835562 0.21026441 0.21048728 0.19491556 0.2922189
0.21241376 0.21596456 0.20420933 0.16163571 0.27211997 0.2049209 -0.014804207 0.22120652
0.16644736 0.30883738 0.24620678 0.20779663 0.24306045 0.28071776 0.19917232 0.18175666
0.23886886 0.17879488 0.12102274 0.16969806 0.17594221 0.11628651 0.07469141 0.18415596
0.23305228 0.15497285 0.1710428 0.22345111 0.27892914 0.28278214 0.18141197 0.23892191
0.17527357 0.07530665 0.115959495 0.1090214 0.21074316 0.22549507 0.14258555 0.19327916
0.18041202 0.22471914 0.23803727 0.20810229 0.12816994 0.18761757 0.10738156 0.3321078
0.16685925 0.041703455 0.2656969 0.2321743 0.2799291 0.22864981 0.060975503 0.20802222
0.2407963 0.12609603 0.12745497 0.23476304 0.084002115 0.3676856 0.09026545 0.15642627
0.15724653 0.11309212 0.17272481 0.2199 0.14621806 0.22765194 0.077697046 0.13574262
00000000: 7f98 583e b014 253e fc07 3e3e 06bb 3d3e
00000010: 5d8d 553e e237 0d3e c1c6 413e d28f 5e3d
00000020: 2034 813e 02a7 5f3e c1d2 443e 6dd0 3d3e
00000030: 4ab1 273e 65a3 533e 1c34 313e 270a 4f3e
00000040: e39f 883e 8349 3a3e 8d48 803e cb71 493e
00000050: 8bea 593e a283 503e 1a3a 053e 5d23 283e
00000060: 2529 ad3e 33bb 603e bf00 193e a589 583e
00000070: b7e0 943e f903 a33d cfac 873e 799c 893e
00000080: 837f 123e 674e ae3e 5fc0 643e cbae 4b3e
00000090: d777 193e 83a6 8c3e 60bf 433e 2a37 723e
000000a0: f592 6f3e 7cdd 233e 5cc3 6b3e 43e4 7c3e
000000b0: ce8d 773d d181 5b3e 17c1 973e 539d 3b3e
000000c0: 893b 133e 0f04 2a3e 553c 193e 3047 843e
000000d0: 8e4f 573e fa89 573e f297 473e b79d 953e
000000e0: fe82 593e d025 5d3e 401c 513e d583 253e
000000f0: 4f53 8b3e c9d6 513e 588d 72bc f683 623e
00000100: 2d71 2a3e ef1f 9e3e a11d 7c3e a4c8 543e
00000110: d7e4 783e 3dba 8f3e d4f3 4b3e 6b1e 3a3e
00000120: 0a9a 743e 0116 373e c5da f73d 54c5 2d3e
00000130: 322a 343e 9f27 ee3d cff7 983d 6193 3c3e
00000140: 42a5 6e3e 34b1 1e3e d825 2f3e 5ed0 643e
00000150: cdcf 8e3e d2c8 903e 0fc4 393e f2a7 743e
00000160: ea7a 333e 5f3a 9a3d 2c7c ed3d 9d46 df3d
00000170: 0ecd 573e 2ee8 663e f201 123e f9ea 453e
00000180: eebd 383e c61c 663e 0bc0 733e c418 553e
00000190: fb3e 033e d21e 403e ddea db3d 090a aa3e
000001a0: 27dd 2a3e 3ed1 2a3d 6d09 883e 1abf 6d3e
000001b0: de52 8f3e 2d23 6a3e 73c1 793d c703 553e
000001c0: 4e93 763e 511f 013e 8e83 023e b965 703e
000001d0: 4d09 ac3d 4941 bc3e 18dd b83d 352e 203e
000001e0: 3c05 213e d79c e73d c6de 303e 772d 613e
000001f0: 30ba 153e 971d 693e a11f 9f3d 1d00 0b3e

linears.0.weight f4 [128, 128]
-0.0008947509 -0.06427656 0.06397135 -0.07004553 0.11695399 0.07180875 0.0008174562 -0.09742115
0.06662747 0.060934972 -0.1013371 -0.048585277 0.03975216 0.032057587 -0.066243 -0.029275442
-0.032841716 0.14024374 -0.09363027 0.14054301 0.030120824 -0.06352875 0.0004737263 -0.029501215
-0.029841507 -0.097082555 0.07555315 -0.052003246 0.04967683 0.035276156 0.1586131 0.008697099
-0.03973311 -0.07863248 0.2505352 -0.023516461 -0.051775873 -0.015120816 0.16435255 0.14288346
-0.052251853 -0.036020264 -0.012011153 -0.03087251 0.18621719 -0.010241148 -0.006107186 0.017776955
-0.14627112 -0.08550833 0.16958158 -0.005656411 -0.17160553 0.20889257 0.085315496 -0.1706903
-0.1005041 -0.023199793 0.09500295 -0.022875072 -0.08513142 0.057982713 0.038652677 0.015363898
0.16696155 -0.121881194 -0.042663243 -0.046188734 -0.0014400972 -0.05467235 -0.14187019 0.036074474
-0.027569167 0.05900633 -0.12425948 -0.056141764 0.107059576 -0.16888978 0.013921438 -0.03170863
-0.091993764 0.011663331 0.006768152 0.046721652 0.091672406 0.040740393 -0.052723683 0.03781114
0.021371825 0.08095472 -0.031398665 -0.054699346 0.04148794 -0.019947357 0.15786876 -0.06917824
-0.09771633 0.013415459 -0.07603921 -0.02294183 0.027697576 -0.03107541 0.02692378 -0.07131369
-0.040466942 0.014529568 0.078230515 -0.029538205 -0.082098715 -0.082001485 -0.14952785 -0.047320664
-0.10165826 -0.043895487 0.09139081 -0.14735079 0.050327886 -0.15808053 0.010928549 0.033948116
0.047812395 -0.07279193 0.025537971 0.1525865 0.0049129482 -0.0055981306 0.09739643 -0.05340574
0.09924315 0.120641276 -0.020015752 0.060671326 -0.1745521 0.026071247 -0.005600603 0.19533458
0.06501664 0.06485064 -0.08906805 0.18273993 0.043416336 0.09661073 0.19355817 0.065551415
0.07934579 -0.08145185 -0.06749602 -0.06524618 -0.090013355 0.17881837 -0.023234852 -0.14543428
-0.080056205 0.27884856 -0.07823016 -0.02031842 0.032177348 0.047705404 -0.017455997 -0.04606533
-0.027614221 0.038280554 -0.16049634 0.19871877 -0.034451228 0.024274545 0.053540003 0.30184576
0.028956546 0.017367346 -0.07646524 0.06846912 0.19336787 0.18696772 0.058859 -0.07533654
0.5083384 -0.07798154 0.3020619 0.17797153 -0.005672396 0.16620049 0.30302495 -0.15914619
0.06579337 -0.036738496 0.19802518 0.27089632 0.12208399 -0.04659271 -0.042225145 0.05861053
0.09437132 -0.088828154 0.1710132 0.30655012 0.03443432 0.006808444 0.12082924 0.05951499
0.3582682 0.22049528 -0.07578784 0.058027975 0.026600868 0.011837523 -0.16961583 -0.09400876
0.08618808 0.1408717 -0.11897981 0.1190732 -0.09106113 -0.16053183 -0.13347599 -0.060775954
0.084396325 0.049770363 0.1838154 -0.069601275 -0.04057592 0.021686511 -0.0025669893 -0.030706134
0.05175129 0.39451003 0.07577717 -0.028246274 -0.033911925 0.03823524 -0.13394414 -0.14650054
-0.13672975 -0.2327705 -0.08161118 -0.12459492 -0.19206399 0.101707846 0.09743131 -0.039643027
0.31611517 0.0985007 -0.05481545 0.088388324 -0.079139955 0.047887407 -0.052954655 0.17151262
-0.043850016 0.020641103 -0.00018370914 -0.13105685 0.29721022 0.05913279 0.06488978 0.012453198
00000000: b78d 6aba 6ea3 83bd 6903 833d 0874 8fbd
00000010: 9385 ef3d 7710 933d 8f4a 563a bd84 c7bd
00000020: fc73 883d f396 793d d389 cfbd 5b01 47bd
00000030: 29d3 223d d14e 033d 69aa 87bd 0dd3 efbc
00000040: 0985 06bd 0e9c 0f3e 3ac1 bfbd 82ea 0f3e
00000050: f2bf f63c 5c1b 82bd 785e f839 88ac f1bc
00000060: 2d76 f4bc 38d3 c6bd 9cbb 9a3d 5b01 55bd
00000070: ef79 4b3d bb7d 103d 796b 223e 477e 0e3c
00000080: 30bf 22bd 110a a1bd 2646 803e 98a5 c0bc
00000090: f012 54bd 4dbd 77bc 094c 283e 0b50 123e
000000a0: 0a06 56bd fc89 13bd 6dca 44bc 59e8 fcbc
000000b0: b8af 3e3e 7dca 27bc ca1e c8bb faa0 913c
000000c0: 19c8 15be fe1e afbd cba6 2d3e 6a59 b9bb
000000d0: 5cb9 2fbe efe7 553e e4b9 ae3d 70c9 2ebe
000000e0: 18d5 cdbd 7e0d bebc e890 c23d 8164 bbbc
000000f0: 6259 aebd 487f 6d3d 4552 1e3d dcb8 7b3c
00000100: f8f7 2a3e d99c f9bd a7bf 2ebd 6630 3dbd
00000110: a5c1 bcba 1df0 5fbd 6b46 11be d4c2 133d
00000120: bcd8 e1bc 9fb0 713d c17b febd e8f4 65bd
00000130: 0d42 db3d 71f1 2cbe be16 643c e9e0 01bd
00000140: 3a67 bcbd 8e17 3f3c 60c7 dd3b 345f 3f3d
00000150: bebe bb3d 66df 263d caf4 57bd dbdf 1a3d
00000160: f713 af3c 97cb a53d e39b 00bd 6c0c 60bd
00000170: 42ef 293d a468 a3bc 59a8 213e 52ad 8dbd
00000180: 801f c8bd 83cc 5b3c 72ba 9bbd 81f0 bbbc
00000190: 07e6 e23c dc91 febc 428f dc3c e90c 92bd
000001a0: aac0 25bd 6d0d 6e3c 5237 a03d 1bfa f1bc
000001b0: 5f23 a8bd 65f0 a7bd d41d 19be 50d3 41bd
000001c0: 3532 d0bd c1cb 33bd 1b2b bb3d 20e3 16be
000001d0: 9d24 4e3d dddf 21be a80d 333c 2e0d 0b3d
000001e0: eed6 433d ef13 95bd 0235 d13c a33f 1c3e
000001f0: ccfc a03b 8670 b7bb c877 c73d fabf 5abd
00000200: fe3f cb3d c612 f73d 13f8 a3bc 7f82 783d
00000210: c9bd 32be 5e93 d53c 4385 b7bb ca05 483e
00000220: 7227 853d 6ad0 843d 4f69 b6bd 2d20 3b3e
00000230: 54d5 313d d9db c53d 1d34 463e d23f 863d
00000240: 0c80 a23d 3ad0 a6bd 5a3b 8abd ca9f 85bd
00000250: ec58 b8bd 2a1c 373e 0457 bebc b9ec 14be
00000260: 82f4 a3bd 3dc5 8e3e 2237 a0bd d172 a6bc
00000270: 65cc 033d be66 433d e1ff 8ebc 00af 3cbd
00000280: 3837 e2bc 12cc 1c3d 2759 24be ef7c 4b3e
00000290: bb1c 0dbd 69db c63c c34c 5b3d 878b 9a3e
000002a0: 4736 ed3c f745 8e3c cf99 9cbd 8a39 8c3d
000002b0: 3a02 463e 7774 3f3e 2316 713d 0b4a 9abd
000002c0: 7722 023f c9b4 9fbd dba7 9a3e 2b3e 363e
000002d0: 82df b9bb 7630 2a3e 1626 9b3e 38f7 22be
000002e0: adbe 863d 1b7b 16bd 1dc7 4a3e ecb2 8a3e
000002f0: 2c07 fa3d ffd7 3ebd 46f4 2cbd 9811 703d
00000300: c045 c13d 89eb b5bd 161e 2f3e 23f4 9c3e
00000310: 000b 0d3d 5e19 df3b 5275 f73d fdc5 733d
00000320: ee6e b73e 84c9 613e a836 9bbd beae 6d3d
00000330: 10ea d93c 2cf2 413c c6af 2dbe aa87 c0bd
00000340: 6083 b03d ac40 103e b0ab f3bd a6dc f33d
00000350: 427e babd 7562 24be eead 08be 35f0 78bd
00000360: fbd7 ac3d 02dc 4b3d 1b3a 3c3e 1d8b 8ebd
00000370: f032 26bd e9a7 b13c ef3a 28bb 6e8b fbbc
00000380: 29f9 533d 38fd c93e 1031 9b3d bb64 e7bc
00000390: 3be7 0abd 8e9c 1c3d a728 09be 3d04 16be
000003a0: e202 0cbe 645b 6ebe c323 a7bd 9f2b ffbd
000003b0: 6cac 44be 344c d03d 118a c73d ba60 22bd
000003c0: d9d9 a13e bcba c93d 2a86 60bd f004 b53d
000003d0: 2114 a2bd 9625 443d fbe6 58bd 01a1 2f3e
000003e0: 139c 33bd 8817 a93c 0ca2 40b9 c433 06be
000003f0: f02b 983e 3935 723d efe4 843d 8008 4c3c

linears.0.bias f4 [128]
-0.006996567 0.002332581 0.037414014 -0.003607305 0.11235967 0.054667253 0.033345945 0.011270234
-0.013672475 0.054202463 0.11402821 0.0019442905 -0.00057396106 0.105365925 0.05016608 0.031223724
-0.0074656247 -0.011282902 -0.008643889 0.06109894 0.11838928 -0.0016245672 0.061150864 0.067289546
-0.0028495248 0.012938418 -0.00059211696 0.0 -0.00073158124 0.16753085 -0.0058532814 0.04919914
0.009496845 0.11956304 0.10747348 0.014827679 0.19321059 0.05699882 0.0671377 -0.0044239643
0.03296797 0.08227834 0.15120101 0.02780701 0.011621385 -0.0039035843 0.044468347 0.007699044
-0.0031815884 0.039862823 0.02071352 0.059493937 0.020594781 0.09454001 0.0 0.06654426
0.17022793 0.22599563 0.19491571 0.062207244 0.06713428 0.012703027 -0.0060174596 0.11021394
0.15436304 -0.0025805053 -0.0064084404 0.045980975 0.09778622 0.03626901 8.669828e-05 -0.027231168
0.055909734 0.118798554 0.15635416 0.0026196975 0.05592615 0.033370845 0.059703574 -0.011737659
0.18120149 0.03125126 -0.003916741 0.091846235 0.019221487 0.0 0.13905881 0.06484547
0.064019695 -0.0017287027 0.027465949 0.052527722 0.02614185 0.020397909 -0.008477145 0.14101964
0.0 0.0380754 0.111934245 0.051289205 0.07477652 0.078940056 -0.022521468 0.05305742
-0.008259957 -0.006436573 0.0632882 0.012830216 0.037847936 0.13868497 0.059397515 0.07816036
0.04489262 0.06555499 0.14887194 0.13369718 0.15194647 -0.013330424 0.13340531 -0.014453961
0.15331438 0.07901577 0.113883056 -0.010493599 -0.018828034 0.16853172 0.09121795 0.17181498
00000000: 7543 e5bb 37de 183b 703f 193d 8968 6cbb
00000010: d41c e63d c5ea 5f3d c295 083d caa6 383c
00000020: 8402 60bc 6703 5e3d 9f87 e93d 90d7 fe3a
00000030: e075 16ba 17ca d73d f37a 4d3d e5c8 ff3c
00000040: 33a2 f4bb ecdb 38bc 199f 0dbc e242 7a3d
00000050: 1476 f23d 6eef d4ba 5479 7a3d 1acf 893d
00000060: 18bf 3abb a9fb 533c 4c38 1bba 0000 0000
00000070: 96c7 3fba 358d 2b3e e2cc bfbb 0a85 493d
00000080: a898 1b3c 78dd f43d 0e1b dc3d cbef 723c
00000090: ffd8 453e 9877 693d 7e7f 893d e7f6 90bb
000000a0: 6c09 073d 8c81 a83d 70d4 1a3e 87cb e33c
000000b0: 9f67 3e3c 47d3 7fbb 7124 363d 4348 fc3b
000000c0: 3282 50bb 3347 233d 66af a93c eaaf 733d
000000d0: 63b6 a83c 319e c13d 0000 0000 5b48 883d
000000e0: 3b50 2e3e 666b 673e fc97 473e 06cd 7e3d
000000f0: b37d 893d 5b20 503c 1c2e c5bb d9b7 e13d
00000100: 5811 1e3e b21d 29bb e5fd d1bb 8c56 3c3d
00000110: 2444 c83d d08e 143d c9d1 b538 e613 dfbc
00000120: 9b01 653d a84c f33d 4e1b 203e 3baf 2b3b
00000130: d212 653d deaf 083d bc8b 743d 4f4f 40bc
00000140: e28c 393e 5201 003d 0158 80bb e119 bc3d
00000150: 6176 9d3c 0000 0000 6f65 0e3e b4cd 843d
00000160: c21c 833d a395 e2ba 4500 e13c 4f27 573d
00000170: 6f27 d63c 8419 a73c b9e3 0abc 7467 103e
00000180: 0000 0000 f3f4 1b3d c83d e53d a114 523d
00000190: 6f24 993d 53ab a13d f17e b8bc bd52 593d
000001a0: c554 07bc e3e9 d2bb 3e9d 813d d435 523c
000001b0: 7006 1b3d 6f03 0e3e cf4a 733d 8a12 a03d
000001c0: 53e1 373d b241 863d e371 183e eae7 083e
000001d0: db97 1b3e da67 5abc 679b 083e 4ed0 6cbc
000001e0: 72fe 1c3e 05d3 a13d 853b e93d 58ed 2bbc
000001f0: 403d 9abc 9493 2c3e 7ad0 ba3d 44f0 2f3e

final_linear.weight f4 [50, 128]
0.27026045 -0.06758058 -0.07666242 0.016160183 -0.057778664 -0.054453496 0.20590335 -0.007650961
-0.0839226 -0.0459626 0.032488663 0.052695103 -0.034143135 -0.040560063 0.36746544 -0.1715533
-0.023367811 0.029696042 -0.21207806 0.017584607 0.015950132 0.0047042975 -0.2371522 0.14452012
0.14064403 -0.1566328 0.106573224 -0.069511585 0.09643601 -0.14161085 -0.06982029 0.31552425
0.20006298 -0.054309636 0.022034023 0.2594687 -0.07440053 -0.12088772 -0.0024641075 -0.013888521
0.008771624 0.12373658 0.076304786 0.07465062 0.19538443 -0.020932695 0.18286431 0.013823472
-0.03959171 0.23144883 0.109117195 0.07256309 -0.09955424 0.2369733 0.07542904 0.20788087
0.06980846 -0.14515477 0.09806101 -0.17756559 0.27607253 0.20870286 0.013862955 0.18133542
-0.19191033 -0.16334984 -0.38244504 0.17559053 -0.064210646 -0.03044215 0.057982128 -0.113407314
0.11593706 0.12864406 -0.29038975 0.010609932 0.20097993 0.008093208 -0.18594866 -0.07778511
0.11852036 -0.14877826 0.02399381 0.10438824 -0.1749793 0.07063934 0.012032995 -0.087387145
0.06552055 -0.20880044 0.17251362 -0.13997842 -0.021728965 -0.18297854 -0.03459109 -0.15198568
0.025762876 0.3027771 -0.26053688 -0.051002778 0.18548904 0.24163072 0.1358303 0.065655276
0.09788643 -0.16301754 -0.039921664 -0.18388319 0.118022956 -0.08482239 0.1530108 -0.015332151
-0.0463804 0.26255926 -0.08622868 0.110766135 0.0020418924 -0.03041614 -0.07530048 -0.09660333
-0.109845124 -0.14140378 0.44850606 0.16896777 0.2310211 -0.09088607 0.32530063 -0.114556156
0.09123036 0.08344383 0.4120895 0.14604719 0.11635738 -0.15366788 0.023173966 -0.29487032
-0.17705727 0.10254697 0.04506514 -0.10928197 -0.14294906 -0.02216433 0.09876124 0.095611505
0.0033301655 0.11714187 -0.070311025 -0.13556714 0.08874504 0.065252736 -0.0469605 0.056777272
-0.057901505 0.14258483 0.02380519 -0.064507775 0.20323855 -0.09198484 0.21240953 -0.016668322
-0.05347009 -0.13221572 -0.20030038 0.15359202 -0.091027975 0.17383942 -0.08101318 0.13528703
0.12914106 0.079744466 0.047241803 0.193192 0.18331829 -0.05561932 0.20253351 -0.08877949
-0.062207248 0.37088543 -0.19330327 -0.12192636 0.16446185 -0.092132844 -0.17946778 0.39712647
-0.17313634 -0.20420925 -0.16197737 0.16632819 -0.092594296 0.17679548 -0.0755426 -0.18796638
-0.3397435 0.19190326 0.060318865 -0.006083859 -0.013622584 0.0970938 0.028352793 -0.015910404
0.08896832 0.13282605 -0.10433601 -0.12104082 0.23963833 -0.12339903 -0.032318514 0.08275695
-0.058936376 -0.008454102 -0.082595445 -0.019321073 0.029187392 -0.0640247 -0.15123057 0.03617727
-0.04582224 -0.1144972 0.052514132 0.0073740035 0.08006597 0.011018339 0.025250591 -0.10692157
0.08589174 -0.10240222 -0.09111767 0.10854993 0.5237109 0.16672033 0.021097645 0.20937812
0.091244474 -0.122017436 0.008085366 0.14770703 0.14346468 -0.113451645 0.09800427 0.06169852
0.06993362 0.40742207 -0.13502415 -0.07050128 -0.108603984 -0.049815625 -0.06905879 0.09392706
0.007431715 -0.11427696 0.16845752 -0.120366454 -0.053869564 -0.023813644 0.22150765 0.04342314
00000000: 945f 8a3e b067 8abd 3001 9dbd 5c62 843c
00000010: 52a9 6cbd a10a 5fbd 54d8 523e eab4 fabb
00000020: 9ddf abbd 4743 3cbd d512 053d d2d6 573d
00000030: acd9 0bbd 4f22 26bd 6e24 bc3e abab 2fbe
00000040: da6d bfbc 1d45 f33c fe2a 59be 980d 903c
00000050: daa9 823c 8226 9a3b 07d8 72be 15fd 133e
00000060: fd04 103e 5964 20be 1043 da3d 175c 8ebd
00000070: 3e80 c53d 6f02 11be f1fd 8ebd 658c a13e
00000080: 4fdd 4c3e c873 5ebd b280 b43c 15d9 843e
00000090: 4e5f 98bd fb93 f7bd dd7c 21bb ae8c 63bc
000000a0: dcb6 0f3c 9b69 fd3d af45 9c3d 6de2 983d
000000b0: db12 483e 0b7b abbc c840 3b3e d87b 623c
000000c0: eb2a 22bd ec00 6d3e d678 df3d f59b 943d
000000d0: 18e3 cbbd 21a9 723e 8a7a 9a3d b9de 543e
000000e0: bdf7 8e3d 74a3 14be 36d4 c83d c1d3 35be
000000f0: 6159 8d3e 34b6 553e 7321 633c feaf 393e
00000100: 2484 44be 2e45 27be d6cf c3be 01ce 333e
00000110: df80 83bd d161 f9bc ab7e 6d3d 1842 e8bd
00000120: 6970 ed3d 45bb 033e f7ad 94be 48d5 2d3c
00000130: afcd 4d3e 6099 043c 5369 3ebe cd4d 9fbd
00000140: cdba f23d 5459 18be ab8e c43c 80c9 d53d
00000150: c62d 33be 5cab 903d 0a26 453c 08f8 b2bd
00000160: a32f 863d c8cf 55be 69a7 303e 8156 0fbe
00000170: f100 b2bc ba5e 3bbe 63af 0dbd 22a2 1bbe
00000180: ab0c d33c 9a05 9b3e 1765 85be 4ae8 50bd
00000190: d7f0 3d3e 0b6e 773e 1917 0b3e 4676 863d
000001a0: ae78 c83d 12ee 26be e684 23bd e04b 3cbe
000001b0: 05b6 f13d 5cb7 adbd ddae 1c3e b433 7bbc
000001c0: 60f9 3dbd 2b6e 863e aa98 b0bd 5bd9 e23d
000001d0: 45d1 053b 452b f9bc 2337 9abd f7d7 c5bd
000001e0: 7bf6 e0bd 27cc 10be 96a2 e53e e305 2d3e
000001f0: cc90 6c3e 7a22 babd ce8d a63e 6b9c eabd
00000200: fcd6 ba3d 99e4 aa3d 65fd d23e 658d 153e
00000210: c74c ee3d 1d5b 1dbe 54d7 bd3c 3ef9 96be
00000220: 804e 35be 2504 d23d 3996 383d 3acf dfbd
00000230: 3d61 12be f891 b5bc 5543 ca3d f7cf c33d
00000240: e83e 5a3b 14e8 ef3d 3aff 8fbd 1dd2 0abe
00000250: f6bf b53d 3aa3 853d a759 40bd 498f 683d
00000260: 212a 6dbd c201 123e 1a03 c33c a71c 84bd
00000270: c41d 503e 8c62 bcbd e281 593e 018c 88bc
00000280: 7403 5bbd 8f63 07be 8b1b 4dbe 3a47 1d3e
00000290: e06c babd f602 323e 3dea a5bd af88 0a3e
000002a0: 8e3d 043e 1151 a33d 9f80 413d 20d4 453e
000002b0: cab7 3b3e 16d1 63bd f264 4f3e 05d2 b5bd
000002c0: 07cd 7ebd b2e4 bd3e 4bf1 45be 87b4 f9bd
000002d0: b068 283e 25b0 bcbd 67c6 37be 2954 cb3e
000002e0: a74a 31be 3b1c 51be 65dd 25be f051 2a3e
000002f0: 14a2 bdbd e009 353e 14b6 9abd 427a 40be
00000300: dcf2 adbe 4a82 443e ea10 773d 1c5b c7bb
00000310: 4231 5fbc 1dd9 c63d 1e44 e83c 8956 82bc
00000320: 0635 b63d 8d03 083e 1eae d5bd 40e4 f7bd
00000330: c063 753e a1b8 fcbd 6b60 04bd 7a7c a93d
00000340: 4567 71bd 1383 0abc cd27 a9bd 3a47 9ebc
00000350: 661a ef3c 621f 83bd 30dc 1abe 9e2e 143d
00000360: 1ab0 3bbd 827d eabd 0f19 573d a0a1 f13b
00000370: a1f9 a33d 4386 343c 54da ce3c b2f9 dabd
00000380: 02e8 af3d 41b8 d1bd e79b babd 6d4f de3d
00000390: eb11 063f bcb8 2a3e f8d4 ac3c 3867 563e
000003a0: 62de ba3d 47e4 f9bd 7c78 043c 8340 173e
000003b0: 68e8 123e 5659 e8bd 76b6 c83d 96b7 7c3d
000003c0: 5c39 8f3d a099 d03e c543 0abe fa62 90bd
000003d0: c46b debd 780b 4cbd b26e 8dbd d55c c03d
000003e0: be85 f33b 0a0a eabd 2180 2c3e b082 f6bd
000003f0: 55a6 5cbd d514 c3bc e7d2 623e 76dc 313d

final_linear.bias f4 [50]
-0.020951645 -0.013187095 0.037871476 0.071426414 0.06409237 0.028745722 0.06476116 0.00722501
-0.07460809 0.025616093 0.056959122 0.07475762 0.055162318 0.080978446 0.096462175 -0.004978585
0.06007549 -0.015838988 0.047840446 -0.047427572 -0.049032364 -0.04264203 -0.06917575 0.042734943
-0.024593137 0.035884067 0.019805668 0.076048955 0.045484453 0.026134977 0.03524255 0.035215393
-0.03527452 0.066020735 0.0035542778 0.072583094 0.051712725 -0.028153824 0.03749072 0.057746854
0.025709417 -0.039424673 0.069891386 -0.034331337 0.046342183 0.04660443 0.06780142 0.082587674
0.012050971 0.054006003
00000000: c9a2 abbc af0e 58bc 1f1f 1b3d 0348 923d
00000010: dc42 833d 267c eb3c 80a1 843d c7bf ec3b
00000020: 20cc 98bd d7d8 d13c f84d 693d 861a 993d
00000030: e2f1 613d 07d8 a53d f68d c53d 6623 a3bb
00000040: b811 763d c4c0 81bc 58f4 433d 6a43 42bd
00000050: 29d6 48bd 69a9 2ebd 04ac 8dbd d60a 2f3d
00000060: 8c77 c9bc 2cfb 123d 7f3f a23c 8ebf 9b3d
00000070: e84d 3a3d 0519 d63c 7e5a 103d 043e 103d
00000080: 047c 10bd e135 873d e3ee 683b 72a6 943d
00000090: b9d0 533d d9a2 e6bc df8f 193d f787 6c3d
000000a0: 8e9c d23c c47b 21bd 3723 8f3d 049f 0cbd
000000b0: 4dd1 3d3d 49e4 3e3d 79db 8a3d ba23 a93d
000000c0: 7071 453c 6635 5d3d
