option_hedging/hyperparameters/dqn_hyperparameters/double/year/0.0/dqn_model.pth (torch, 50840 bytes, 8 tensors)

linear1.weight f4 [64, 3]
00000000: 05a0 c43f fb82 b13f 900b a23d cb97 c73e
00000010: 27d9 84be 5ac4 5bbf ebc8 f7bd 9b60 a43f
00000020: 57a6 7f3e 2003 3e3e 080a 0540 b539 743e
00000030: ecac debc ce8f 65bf 2682 51bf 397a e93d
00000040: a83c 4a3f 1083 22bf 415c 4abe 827f a13e
00000050: d159 3d3f 7cad 823e e952 0040 255e 883e
00000060: 5fa0 aabd 1c4f 893f 7576 bc3e b9c6 453d
00000070: 671a a83f 7a11 0c3f 798b 92bd d86c 97bf
00000080: 3a33 8f3e 9c79 fabd 99df 773f 2849 9d3e
00000090: 1734 1a3e 367f e23f ce4d 193e 42bf 3ebe
000000a0: 060e b7bf 31af 333e aebf 583f a079 afbf
000000b0: 70fe 913e 0102 d8bd 0e86 7bbf 9a04 5b3e
000000c0: 7e6e 8f3f 38f4 c03f da58 96bf 4fac ad3f
000000d0: 81a9 b23f 979a af3d 4af9 33be 07d6 6abf
000000e0: 49f1 803e 4c3e 3d3f b63b 92bf a8e6 98bb
000000f0: 3175 31bc c16e 303e 60c3 4abf c398 7f3f
00000100: e6e1 2e3f 6c03 36bf 468e 473f 5ac7 96bf
00000110: 023a ae3e 9327 1bbd 2446 19bf a845 2bbf
00000120: c944 20bf bd6b fb3f 0225 30be 1bb7 b7be
00000130: 4ca8 4dbf 0ef3 8f3e b262 b53f 5085 1e3e
00000140: de03 853e 61b0 3b3f 471c ae3f 1bf4 6fbe
00000150: a1f7 ca3d 1ebd a2bf 4dcd 483e 3705 a93e
00000160: 7084 b0bf 00fb aa3c e8ad 703e cbe9 043d
00000170: ceac 84bf 8265 78be 508f 9fbd 3a1b 4abf
00000180: 1a6c 223f b623 82be 3f6b 2cbf 63fd 993e
00000190: 6a5a f63f ff27 ab3e 0da9 b3bd b5c9 5cbf
000001a0: 8d9d 94bf ff65 5abf 2813 4ebe 96f9 7fbf
000001b0: b56f 633c 86b1 903f 40a5 5bbf 5e5e 2e3e
000001c0: 172d 9f3f 6566 443f 43ab 063f df56 f53f
000001d0: 498f 013f 7d8c f2be d1fc fd3f 5286 4bbe
000001e0: 6c89 95be b02c 87be d633 553e cd87 0bbf
000001f0: a3db 30be 3102 92bf 7fa8 b43a b8cd 9fbf
00000200: e486 a6be ce9c d03f d8ba 083f 6cbb 74be
00000210: f821 c03d 91d9 8bbf 4fe4 943e 40f7 b7be
00000220: 1439 0240 8d16 96be 7fb4 e73d 7a49 7dbf
00000230: 3930 853e 387e 013e d2b5 9bbf d983 003e
00000240: 9b82 a1be 47c8 b53f a974 3abe 1824 243d
00000250: 74b4 d83f bf9a 8f3e 1b18 29bc 7522 84bc
00000260: 670e 7fbf 25e2 183e cac6 afbf 899c 8f3e
00000270: 53f4 613f 6418 f23f d8c0 86be a2bf 0dbe
00000280: 73e3 1240 274f c3bd f99e 3e3f a462 cfbf
00000290: 6c95 05bd 1a05 dcbe 02f9 4a3e b5d8 84bf
000002a0: f790 5d3f 25c5 b5bf 3f6f ce3e b7fa e9be
000002b0: bc3b dc3f aea5 4abd 10ac 61be ca90 923f
000002c0: ae08 803e 9e9f 703e 7eaf 9d3e 06c5 7bbf
000002d0: c122 103f f38c 0940 9c19 ea3e 6fea 383e
000002e0: b273 c33f 052d cd3e a108 2a3f 1868 cebf
000002f0: 4b3c 2abd c038 763f d9a5 9a3f 8349 c8be
1.5361334 1.3868097 0.079123616 0.38982996 -0.25946924 -0.85846484 -0.12098869 1.2841982
0.24965797 0.1855588 2.0787373 0.23850138 -0.027182065 -0.89672554 -0.81839216 0.11400265
0.78998804 -0.63481236 -0.19761755 0.31542593 0.73965174 0.25522983 2.0050604 0.26634327
-0.083313696 1.0727267 0.36809126 0.04828522 1.3133057 0.5471417 -0.071555085 -1.1830091
0.2796877 -0.122302264 0.9682556 0.30719876 0.15058933 1.7695072 0.14971086 -0.18627647
-1.4301155 0.17547299 0.8466748 -1.3708992 0.28514433 -0.10547257 -0.98251426 0.21388474
1.1205595 1.507453 -1.1745865 1.356821 1.3957978 0.085744075 -0.17575565 -0.9173283
0.25184086 0.7392318 -1.1424472 -0.0046661682 -0.010831163 0.1722975 -0.7920437 0.9984247
0.68313444 -0.7109897 0.7795147 -1.1779587 0.3402863 -0.037879538 -0.5987265 -0.6690316
-0.6260496 1.9642254 -0.17201617 -0.35881886 -0.80334926 0.28115124 1.4170744 0.15480542
0.25979513 0.7331601 1.360238 -0.23432963 0.09910513 -1.2713964 0.19609566 0.3301179
-1.3790417 0.02087164 0.2350384 0.032449525 -1.0365236 -0.24257472 -0.077910066 -0.78947794
0.634462 -0.2541787 -0.67351145 0.3007613 1.9246342 0.33428952 -0.08772478 -0.8624528
-1.1610581 -0.85311884 -0.20124495 -0.9999021 0.0138816135 1.1304176 -0.85799026 0.17028186
1.2435635 0.7671874 0.52605075 1.9167136 0.5060926 -0.4737281 1.9842778 -0.19875458
-0.29206407 -0.2640128 0.20820555 -0.5450409 -0.17271285 -1.1406919 0.0013783126 -1.2484655
-0.32524788 1.6297853 0.534101 -0.23899621 0.09381479 -1.0925771 0.29080436 -0.35930824
2.0347338 -0.2931408 0.11313724 -0.9894024 0.26013353 0.12645805 -1.2164862 0.12550296
-0.31544957 1.4201745 -0.18208565 0.040073484 1.693007 0.2804775 -0.010320689 -0.016129712
-0.9963135 0.14930017 -1.3732541 0.28049114 0.88263434 1.8913693 -0.26319003 -0.13842633
2.2951324 -0.095365815 0.74461323 -1.6201978 -0.032613203 -0.42972642 0.19821551 -1.0378634
0.86549324 -1.4200789 0.4031925 -0.45699093 1.720573 -0.04947441 -0.22038293 1.1450436
0.25006622 0.23498389 0.30797952 -0.9834751 0.5630303 2.1492279 0.45722663 0.1805818
1.5269682 0.4007341 0.66419417 -1.6125517 -0.041561406 0.96180344 1.2081863 -0.39118585

linear1.bias f4 [64]
00000000: 931c d73e a0a3 96bf b515 0d3f baf0 863e
00000010: e925 1abf 84bc 2b3f e97a 083f 61d4 053e
00000020: 6d92 233f 986d 1b3f f16a ca3e cb2e 3c3f
00000030: aa1c f43e 3499 e03e ecfb 303f 1655 753e
00000040: 2a7e 6a3f 2b67 d93e ae59 263e 122a 163e
00000050: 804a 29bf da1d f53e c10c a13e abe8 3a3f
00000060: 1dd9 72bd 3902 363d f525 893f c912 8a3f
00000070: ddae 933e 609f 913e 3703 70bf fbd0 263f
00000080: 36f6 a3bf 3af7 5f3e 0aac 09be 6d8a 1d3f
00000090: d382 ff3e 7e16 763e 354b 8d3e 1282 d23e
000000a0: 9deb 00be f308 c23e 3602 1e3f dcb3 f63e
000000b0: 7b08 873e 760c 913e 1926 fc3d 6deb 4c3e
000000c0: b12e 47be c456 e03e 33bc 09bf 7c65 813e
000000d0: 5b2f 643f d719 fc3d bd9c ca3e 7184 013e
000000e0: eb5d db3e 1813 043f a316 483f 7d6d eabe
000000f0: 2269 3c3e f361 e23e c44a 073f 2a3e 163f
0.42013988 -1.1768684 0.5511125 0.26355535 -0.60214096 0.67084527 0.53312546 0.13069297
0.63895303 0.607141 0.39534715 0.735089 0.4767812 0.43866885 0.691344 0.23958239
0.9159876 0.42461523 0.16245148 0.14664486 -0.661293 0.47874337 0.31455043 0.73011273
-0.059289087 0.044435713 1.0714709 1.0786983 0.28844348 0.28441906 -0.93754905 0.6516263
-1.2809513 0.21871653 -0.13444534 0.61539346 0.49904498 0.24032018 0.2759644 0.4111486
-0.1258988 0.37897453 0.61722124 0.48184097 0.26373658 0.2832982 0.12311954 0.20011683
-0.19451405 0.43816197 -0.53802794 0.2527274 0.8913476 0.12309616 0.39572707 0.12648179
0.4284509 0.51591635 0.7815954 -0.45786658 0.1839948 0.44215354 0.5284846 0.58688605

linears.0.weight f4 [64, 64]
00000000: f125 d83e 3bbd a8bd 7c89 993c a88e cb3e
00000010: ef42 0f3f 8a5e 0a3e 9c36 fabd a717 703e
00000020: 5591 67bc fb93 f0bd e95a 1e3f 25d7 943d
00000030: f5de 263c 15cb dd3e 1fb0 8c3e eca2 113e
00000040: 9ad3 fb3e 1480 043e b071 0dbe 5490 4a3e
00000050: df8c bc3e c695 c63e f5c3 a83e 1020 a5bd
00000060: ad05 27bf 3efd 633e 4380 fe3e 4e82 e13e
00000070: 9e15 abbc e3ec 80bd 162f 47bd a297 a43e
00000080: 72cc 2abf 233e e43d f4bf 063f f605 023e
00000090: e72a a93e af89 d7bd 914c 753e 3b72 7abe
000000a0: 58aa 623e a204 c13b acf5 91be ed1e 093d
000000b0: 4403 ee3e c202 51be da88 db3e 1815 303e
000000c0: 5749 9abf 797e 2e3d 4f18 48bd 599d 9c3e
000000d0: d045 f23e fdbc 17bd 910f 43be 4699 c6be
000000e0: 7627 113e b98b acbe 57d0 86be 6184 dfbd
000000f0: 5820 e53e e098 373e 6d77 e73c 8c38 ad3e
00000100: 8387 d73e debb a33e 7136 1f3c add8 b53e
00000110: d3bb 1c3f da66 383f 6a33 31be 2bc7 c13e
00000120: 38ab a03d cc5e 923d d607 fc3e 9dc3 0cbe
00000130: a995 3a3e 8b38 e83e 4a49 bc3e 145a 763d
00000140: 4ea6 3b3f 8832 9a3e 6b6e 2e3e f74b b83e
00000150: bbb5 a03e 4501 213f 8fdc 2b3f 71f9 0c3f
00000160: 9d9a a6be b095 003f 10eb 263f 3326 2a3f
00000170: 7b79 bc3e 8877 6f3e 814d ab3e 4cef d53e
00000180: b4cc 10be 1c71 d63e 0407 1f3f 57a8 8c3e
00000190: b996 073f 4685 473e 92d7 d03e 7bca 92be
000001a0: b992 1d3f 4aaa 1a3f eaf1 5dbd 52c6 263f
000001b0: d8f9 423d 9516 a63e 8972 993e 8463 a63d
000001c0: 10ba 1cbf b22a 893e 1db4 163f e440 b73e
000001d0: 9cc1 883f b8a3 dd3e 65ad 443e 7ebf 973e
000001e0: 124c e53e 31bd 3abd 3c53 c23b 5f0f c03e
000001f0: 5009 d73d 92f9 c93e 509d 3d3e ae49 3e3f
00000200: 8cf9 a43e bfdf 153f 2364 393e 960a 2b3e
00000210: 4eb5 223e 4aaa 6e3e d054 153e d60b 933e
00000220: 30d4 cf3c 44c9 303e 8a83 10bf 324e c93e
00000230: ac49 f2bd 2e16 c5be b357 48bd 96db 373e
00000240: 2009 823d 8dd0 b5bc b85c ff3c af23 6c3e
00000250: 18e2 5e3d 749a 763e fc61 68bd 70d3 2e3f
00000260: d2da c03f 0ea9 8fbd 8b20 5cbe f2c4 b83d
00000270: cacb 4e3e b810 4c3e faa7 143f a437 923d
00000280: c61b 9e3f a5ef 533e 4b4a 843e 7584 1c3f
00000290: da5e f23d 3fbc 893d 5b6b f23d 4428 0b3f
000002a0: 1b25 49be 32da ea3e c32d 8e3e 89c2 c93e
000002b0: 18ee c1bd d256 433f f794 58be 409a b43e
000002c0: 5523 943f 2c1b 913e 8461 be3e 4a3a 103e
000002d0: 1cae 98bc 2bc8 dd3e efa9 ff3e 8122 983e
000002e0: ac33 15be 77ae 493e 3c52 513d 3d30 663f
000002f0: 2e21 773e d1c9 753e d67f ba3e e48b c13e
00000300: bbf9 dcbc 39ba a63f 89f4 5939 9193 aa3e
00000310: 6596 b83f a845 203f 163c 68be 5d72 063d
00000320: 35d6 383d 7334 df3d 279d 563e 892b 65be
00000330: ade4 a63c 8bab 3f3e 391d 97be 64e5 9ebb
00000340: 3036 313f 0cd1 0b3c ccb9 713e 4920 a93e
00000350: bf2f ab3f 40e3 483f 69d1 bfbe 43cf 423f
00000360: 9754 0a3f 63e4 103f 59ae 39be b5ae 7e3e
00000370: 527c b33e 4e16 c43e b407 b73f 59ae 8d3f
00000380: 2e68 b93e a7af 3cbc 5dcd a23f e526 ad3f
00000390: e6a6 7d3f 82d0 b53e e69d 363e 7e72 9a3e
000003a0: 353e 4a3f 6c6a c73f fc35 4f3f 0645 433f
000003b0: cbdd 0abe a9d1 433d e676 eebd f6a1 32bb
000003c0: 4f15 933c 9295 523e eb7e 9a3f c7c6 3f3e
000003d0: 4fc6 243f df6e cb3e 0578 d13e 84ce a73f
000003e0: 2f58 9bbe c364 9e3e b468 cbbd 44fa cb3f
000003f0: 08bc 463e 7048 483d 81ea ba3e 9196 6d3f
0.42216447 -0.08239218 0.018742315 0.39757276 0.5596151 0.13512626 -0.12217447 0.23446523
-0.014133771 -0.11746975 0.6185747 0.07267598 0.010184993 0.43319002 0.2747812 0.14222306
0.49184877 0.12939483 -0.138129 0.1978162 0.36826226 0.38786143 0.32962003 -0.08062756
-0.65243036 0.22264573 0.4970723 0.44044727 -0.020884331 -0.062951826 -0.04862889 0.32146937
-0.6671821 0.11144664 0.5263665 0.12697586 0.33040544 -0.10524308 0.23954989 -0.24457638
0.22135293 0.005890445 -0.28507745 0.03347676 0.46486866 -0.20411208 0.42877847 0.17195547
-1.2053632 0.042601082 -0.048851307 0.30588797 0.47318888 -0.037045468 -0.19048907 -0.38788813
0.1417521 -0.3370035 -0.26330826 -0.10913921 0.4475124 0.17929411 0.028255189 0.33832204
0.42095575 0.3197927 0.00971757 0.35516873 0.61224097 0.7203194 -0.17304769 0.37847266
0.078451574 0.07146987 0.49224728 -0.13746496 0.18221153 0.4535564 0.36774665 0.0601445
0.73300636 0.30116677 0.17034309 0.35995457 0.3138865 0.6289256 0.6713342 0.5506812
-0.32539836 0.50228405 0.65202427 0.6646454 0.36811432 0.23385441 0.33457568 0.41784132
-0.14140588 0.4188317 0.6212008 0.27472183 0.5296436 0.19484434 0.40789467 -0.28670105
0.61552006 0.6041609 -0.054185785 0.6514636 0.04760155 0.32439104 0.29970196 0.0812445
-0.6122141 0.26790386 0.5886858 0.35791695 1.0684085 0.4328897 0.1920677 0.29638284
0.447846 -0.045590583 0.0059303325 0.37511727 0.10499823 0.3944822 0.18517041 0.74331176
0.3222164 0.58544534 0.18104605 0.16703257 0.15889475 0.23307148 0.14583135 0.28719968
0.025369734 0.17264277 -0.5645071 0.3931747 -0.11830458 -0.38493484 -0.04891176 0.17954859
0.06349397 -0.022194171 0.031172141 0.23060487 0.05441484 0.24082357 -0.05673407 0.6829138
1.5066779 -0.070146665 -0.21496789 0.09021939 0.20194927 0.19928253 0.5806881 0.07139519
1.2352226 0.20696886 0.2583793 0.61139613 0.11834498 0.06725358 0.11836883 0.54358315
-0.19643061 0.45869595 0.27769288 0.3940623 -0.09469241 0.7630435 -0.21150576 0.35273933
1.1573282 0.28341043 0.37183774 0.14084736 -0.01863771 0.4331678 0.49934337 0.29713824
-0.14570493 0.1969546 0.051103815 0.89917356 0.24133751 0.24002768 0.36425656 0.3780204
-0.02697455 1.3025581 0.00020785829 0.3331571 1.4420897 0.62606287 -0.22679171 0.03282391
0.04512616 0.10898676 0.20958386 -0.22379889 0.020372713 0.18717782 -0.29514483 -0.004849123
0.6922331 0.008533727 0.23606032 0.33032444 1.3373946 0.78471756 -0.37464455 0.76097506
0.54035324 0.5659849 -0.18132915 0.24871333 0.35055786 0.38298267 1.4299226 1.1068832
0.36212295 -0.011516488 1.2718922 1.3527495 0.9908279 0.3551064 0.17833671 0.30165476
0.7900117 1.5579352 0.8094175 0.76277196 -0.1356117 0.04780737 -0.11643772 -0.002725718
0.017954497 0.20564869 1.2069982 0.18728171 0.64365095 0.39733025 0.4091188 1.3109899
-0.30340716 0.3093625 -0.0993208 1.593575 0.19407666 0.048897207 0.36507037 0.9280787

linears.0.bias f4 [64]
00000000: 6a1b a23e 3c18 e73e ef7c df3d 3363 173f
00000010: ef0c 163f 66b1 c1be 45e1 943e 1df7 943e
00000020: 1a6c 943e 1b1f 063f ef49 2b3f 017d f13e
00000030: 5267 afbe a9cc 083f e0b6 873e 5695 ef3e
00000040: 5536 613e e815 3d3f 7f95 8b3e 9441 b43e
00000050: 4dbe b33e 4ab4 c63e 0000 0000 a735 823e
00000060: 0d0c bd3e 1ef0 a53e eb20 9d3e 8015 ef3e
00000070: d073 423e cfde cbbe 8884 5e3e 17e1 f43e
00000080: 70ac b63e cb66 743e 7e40 013f d381 b4bd
00000090: 87ec 133e 8253 033f 8bbb 863e 8063 a13e
000000a0: e94a 1e3f 17fb a73e 453e 0f3f 2416 b93d
000000b0: 0000 0000 c071 e8be eb0b 5e3e d44c be3e
000000c0: 2dd1 af3e 245b 3d3e 2e7b 83bc cc5e 113f
000000d0: d50e be3e 8419 e93e ed2a 103f 817b a53e
000000e0: 092b 4e3e 15dd eb3e d0a8 0e3f d2ec d23e
000000f0: 190e 84be a41f ca3e b840 a4bb 4f76 b73e
0.3166154 0.45135677 0.10912501 0.5913574 0.58613485 -0.37830657 0.29078117 0.29094782
0.28988725 0.52391213 0.6690969 0.47165683 -0.34258515 0.53437287 0.2650671 0.46793622
0.21993382 0.7386155 0.27262494 0.35206282 0.35106125 0.38809425 0.0 0.25431558
0.36923257 0.32409757 0.30689177 0.4669609 0.18989491 -0.39818427 0.21730244 0.4782798
0.35678434 0.23867337 0.5048903 -0.088138245 0.14445697 0.512993 0.2631496 0.31521225
0.61833054 0.32808754 0.5595439 0.09037426 0.0 -0.45399284 0.21684234 0.3716799
0.34339276 0.18491799 -0.016049948 0.56785274 0.3712069 0.4552728 0.563155 0.32320789
0.20133604 0.4606711 0.5572634 0.41196305 -0.25792006 0.39477265 -0.005012598 0.3583245

linears.1.weight f4 [64, 64]
00000000: e271 dc3e 5830 973e 07e2 e3bd ec2b ec3d
00000010: 1e88 d2bc 1442 3dbc 61af 8e3e 0981 853e
00000020: 3a1d 41be 71e9 8dbf 2723 45bc 4f42 a73e
00000030: f64e 34c0 b5f7 5c3e 9db8 5d3e a395 2ebe
00000040: 29f5 533c d4c1 8e3d 2ad9 ac3e f34e a03e
00000050: 7019 023d cbab ebbd 0e4b e1bd 7bc0 36bd
00000060: 79a1 a33d 7d78 da3e e2ee 6dbd 7df3 913d
00000070: cb8f 1e3f 3a80 bebf 3d07 4abe f8d8 463e
00000080: e13a edbd f6f5 3abe 75ca 1abe c76f 3ec0
00000090: 9d21 5abd ef47 923d 9e44 0d3e b7d8 3dbe
000000a0: 986a b9bd 28a0 5c3e 8d06 07be 3eab 68bf
000000b0: 4c2b 043e 3c83 ae3e 0e18 8bbe b44d 403b
000000c0: 159e 9d3e f59d 10be 47e8 323f 8e4d 8fbe
000000d0: b7a3 6ebe 2c4e 90be a492 e53d 5da9 e23e
000000e0: db11 79be 53f2 083e 3612 ce3d 9809 263e
000000f0: 94ca 02c0 1de7 203f b707 eabd 18d4 ed3d
00000100: a6da 013e f9b2 343e 92c6 b73e 4dfd c33e
00000110: e6ef e53e 8b90 8ebe 3525 34bc da45 713e
00000120: 1a0d ae3d f81e f4bd 2d9f 703e 65a7 e5be
00000130: c2d5 6d3f 3527 8f3e 7f86 4c3e 4b07 ac3e
00000140: 4acf fb3e 76cc ba3d c0f4 9abd 1ee8 b2be
00000150: 574b 923e 7314 a93e ac9a e93c 3df6 103e
00000160: 68cf 6c3e c0ab 113e 3382 e33e 2877 a43e
00000170: 0aff 113e 72ee 423f 6628 613e c57b 383e
00000180: 0345 7b3e a1ac b13e ec8d ab3e eeed 0dbc
00000190: bd11 4a3e 71d1 b43e 3717 55be bb64 423e
000001a0: 168d 013f 0484 e6bd 6f8c f13d 2d27 5ebc
000001b0: 11b2 94bd 12f3 2d3f d71e 6b3e a30b 763e
000001c0: 0876 fcbe c0cf 563e 49c6 493f e370 e33d
000001d0: 7b03 033f de71 cc3e 8502 a13e 81c8 c33e
000001e0: 7359 443e ab60 273f 8146 ef3e fe22 793d
000001f0: acbb e93e 3c07 243d 7447 993d 5454 7e3e
00000200: f871 253e 20f7 a03e 04c7 003f 8db3 9d3e
00000210: aade 7f3e c134 94be 71ee 543d cfa7 983e
00000220: ceee db3e 2704 c03f 92b2 8a3e c317 0cbe
00000230: 5b25 3340 7e53 433e 52f6 113f 7f95 dd3e
00000240: 4082 0a3f 306d 303f 9caa 28be 1523 9f3e
00000250: 3f72 1b3f 89ca f53d 4aba 6c3c 5ffd f93e
00000260: 9d0d ee3e 1169 34be dfaa e53e cb54 be3e
00000270: 6796 f1be 1ea2 243f 2217 e63e 4600 eb3e
00000280: 2c70 0e3f 63e8 173f 343c 0d3f 8162 2b40
00000290: b4a5 0f3f 50b4 c13e 6ad5 1c3e 56a9 9e3e
000002a0: dc73 d13e fd75 c83c ebb1 b13e c731 f13e
000002b0: 4061 183e 203e 0ebe c5f9 d43e 927f cf3e
000002c0: c65a 34be 5f4d 2a3f 645f 84bf 8f36 4a3e
000002d0: 2684 d33e a689 ec3e e214 aa3e af85 213e
000002e0: 9b5c c43e 64d9 033f b233 ff3e 2b9a df3e
000002f0: 3936 b13f b300 1c3e 26db 6cbd bb3f f03e
00000300: dee5 dc3e f35a cc3d 95f7 3dbe ec2c 963e
00000310: c29f 263e 95ac 0dbf c3f7 dd3e a4c1 83bd
00000320: 5d50 963c a3b2 a2bf 44b4 5c3d 4b06 063e
00000330: 91f7 76c0 df1f 823d 0844 7bbe 6f54 86be
00000340: 4d5f 6cbe f298 dd3e 5df1 113f dca5 9f3e
00000350: 4842 a73c d53b 92bc 7dfd d5bc 6ed8 003e
00000360: a29b a8bd ef53 8c3f 519e 96be b21e afbc
00000370: d805 e73e fd4c b2bf 2075 80bd 28c1 a93e
00000380: f70d ecbd 1979 733b ed0c 59be e7d5 4dc0
00000390: 7ad1 62be c58a 1fbe 5ced 8a3e 1f9e a53d
000003a0: 77cb 373d 638c 793e 3041 053d 49de 38bf
000003b0: 9cc0 b33d d5f0 673e f4fc 07be 56aa 04bd
000003c0: 1e92 833f 3dee 32be 9beb 263f caef 0cbd
000003d0: cf3a 70bb 49a8 01bd 7100 aa3e 3d35 353e
000003e0: 428a 4abe 24ce aebd e364 2e3e ca7b 3d3e
000003f0: 6a58 14c0 8f79 1c3f 5690 b13e 2626 1b3e
0.43055636 0.2952907 -0.11127096 0.11531815 -0.025699671 -0.011551399 0.27868178 0.2607501
-0.18858805 -1.1086866 -0.012032307 0.32667777 -2.8173194 0.21578868 0.21652456 -0.1704927
0.012936869 0.069705635 0.33759433 0.31310233 0.03176254 -0.11507376 -0.11000644 -0.044617157
0.07989783 0.4267005 -0.058089145 0.0712652 0.6193816 -1.4882882 -0.19729324 0.19418705
-0.11583496 -0.18257889 -0.15116294 -2.9755723 -0.053254712 0.071426265 0.13795707 -0.18539701
-0.09053534 0.2154547 -0.13186093 -0.90886295 0.12907141 0.340845 -0.2716679 0.002934319
0.3078467 -0.14122756 0.6988568 -0.27988857 -0.2330464 -0.2818464 0.1120961 0.4426984
-0.24323218 0.1337369 0.10062067 0.16214597 -2.0436144 0.6285265 -0.11427253 0.11612719
0.12681064 0.17646398 0.35893685 0.3827919 0.4490959 -0.27844653 -0.010995199 0.23561803
0.08498593 -0.11919969 0.2349822 -0.44854274 0.92904294 0.279596 0.19973181 0.33599314
0.49181587 0.09121029 -0.075662136 -0.34942716 0.28573105 0.33023414 0.028516136 0.14156432
0.23125994 0.14225674 0.44435272 0.3212216 0.14257446 0.7614509 0.21988067 0.18015964
0.24538045 0.34702018 0.33506715 -0.008662684 0.19733329 0.3531604 -0.20809637 0.18983738
0.50605905 -0.11255649 0.11794364 -0.013559145 -0.07260526 0.6794902 0.22960983 0.24027877
-0.493088 0.20977688 0.78818184 0.11105516 0.51177186 0.39930624 0.31447235 0.3823891
0.19174747 0.6538188 0.46733478 0.060824387 0.45650995 0.04004596 0.07484332 0.24836856
0.16156757 0.3143854 0.50303674 0.3080105 0.24987283 -0.28946498 0.051985208 0.29815528
0.4295563 1.5001267 0.27089363 -0.1368094 2.799155 0.19074818 0.5701648 0.4327812
0.54104996 0.68916607 -0.16471332 0.31081453 0.607212 0.12001521 0.014448712 0.4882612
0.4649476 -0.17618205 0.44856927 0.37174067 -0.4718506 0.6430987 0.44939524 0.45898646
0.5563991 0.5933897 0.5516999 2.6778872 0.5611222 0.3783288 0.15315786 0.30988568
0.40908706 0.024470324 0.34706053 0.4710829 0.14880848 -0.13890886 0.4159681 0.40527016
-0.17612752 0.6652431 -1.0341611 0.19747375 0.4131176 0.46198767 0.33219057 0.15773652
0.38351902 0.51503587 0.49844128 0.43672308 1.3844672 0.15234642 -0.057826184 0.46923622
0.43144125 0.09978285 -0.18551476 0.29331148 0.1627188 -0.55341464 0.4335309 -0.064334184
0.018348867 -1.2710766 0.053882852 0.13088338 -3.8588603 0.06353735 -0.2453767 -0.26236293
-0.2308323 0.4328075 0.57008916 0.31181228 0.020417348 -0.017850796 -0.02612185 0.12582561
-0.082328096 1.0963115 -0.2941766 -0.021376941 0.45121646 -1.3929745 -0.0627234 0.3315518
-0.11526101 0.0037151037 -0.21196337 -3.2161806 -0.22150221 -0.1558028 0.27134216 0.080868
0.044871774 0.2436996 0.03253287 -0.7221418 0.08776972 0.22650464 -0.13280088 -0.032389008
1.0278966 -0.17473693 0.65203255 -0.03440837 -0.0036656146 -0.03165463 0.33203462 0.1769609
-0.19779304 -0.08535412 0.17030673 0.18504253 -2.3178964 0.61122984 0.34680432 0.15151271

linears.1.bias f4 [64]
00000000: 2d80 d9bb 83e8 523e 550a 703e 5a7f 7f3e
00000010: e223 f03d c662 93bb 1ba1 9abc 0299 b83e
00000020: 43a7 22bc a41b 523e c999 eb3c 1301 3abb
00000030: 0000 0000 33f4 763b 0000 0000 daee 273c
00000040: 2bf4 cb3e b983 bb3d 820e 093e 8afc ab3e
00000050: fe23 423f 0000 0000 6447 4ebc 0000 0000
00000060: 6572 d33e e624 083d 7f35 debb fab9 0bbe
00000070: 0000 0000 7ac2 b2bb a359 123e d78a d4bb
00000080: 6565 5b3e 9c0b 573e 07aa f83e 5318 b13e
00000090: 51c6 463e 0000 0000 e8b6 e53e a35b 143e
000000a0: 0000 0000 e993 163f 6b21 cf3b 8989 0e3e
000000b0: 65bc 523e e36d 663e 3e19 be3c 1d0a 843d
000000c0: 0000 0000 f483 0d3f 3e15 a13d 704f 09bd
000000d0: fc63 833e 6a93 673e e7f2 03bc 6504 a53e
000000e0: 0000 0000 1fae 7abc 64fe 153d 0224 f4bc
000000f0: 2322 0d3e ceae 283e b106 de3d f60c 853d
-0.006637594 0.20596509 0.23441441 0.24950925 0.11725594 -0.0044978587 -0.01887565 0.36054236
-0.009927574 0.20518357 0.028759854 -0.0028381988 0.0 0.0037682175 0.0 0.010249818
0.39834723 0.091559835 0.1338444 0.3359111 0.7583617 0.0 -0.012590263 0.0
0.41298214 0.033238314 -0.0067812796 -0.13645163 0.0 -0.0054553123 0.14292006 -0.0064862776
0.21425398 0.21000522 0.4856722 0.3458887 0.19411589 0.0 0.4486611 0.14488082
0.0 0.58819443 0.0063211224 0.13919653 0.2057968 0.22502856 0.023205396 0.064472415
0.0 0.5527947 0.0786538 -0.033523023 0.2566222 0.22614828 -0.008053518 0.32229915
0.0 -0.015300303 0.03661956 -0.029802326 0.13782553 0.16472933 0.1084112 0.06496613

final_linear.weight f4 [51, 64]
00000000: e7de 813d d8cc 31be ca4e 7b3d dcf4 4abd
00000010: 7ef9 eb3d 29bd 063f c51a 35be aa84 043e
00000020: 84cd 51bd ff59 293e 9ff3 033f 56cb 0ebd
00000030: f2fe 4b3d 6624 a8bd a9bc 48be e876 1a3e
00000040: 8521 273e c578 393f 85d4 713e fed1 9d3e
00000050: c737 73be 7eec c03d e414 9d3e 48c0 46bd
00000060: f059 f3bc 8ab2 1abd b988 0fbc 8211 babd
00000070: c77f 073e c38e 8dbe ccc0 fc3d ad91 49bc
00000080: 0286 bc3e 60f4 9b3d bac6 a13e c407 993d
00000090: 11ce 9e3e 1d09 42bc 024a 633d b4a3 0b3e
000000a0: a00b 90bd 3779 98bd 0c28 b43d a278 40bd
000000b0: a6f2 e53e 751a 68be 9125 7b3e 3967 0cbd
000000c0: 70dc 743d 4f89 6ebd 284d fa3d ae9f 843e
000000d0: 8d42 4a3e 1bfe 103f b46b 12be 3450 80bd
000000e0: c1dd 1a3e 24d7 ebbd b5f7 e93e 29f0 4dbc
000000f0: fc68 793e 17ea ac3e aef9 0bbe 78a2 bb3d
00000100: 6cd7 183e 609b 713d db22 4a3d e305 f63d
00000110: 2aea 853e 77c8 cc3e 79b8 103e 7333 fe3e
00000120: 3dce 1dbe 9320 f73c 5e34 383d 5c8e 223e
00000130: 6b88 db3d b093 5d3e c16e 5f3d 5888 f53d
00000140: 1610 fd3e 4c87 3b3f 503f c83d 1159 b93d
00000150: 1ae1 65bd 66d2 44be 62df 343f ea43 c73d
00000160: c19a 17be 239e eb3d f3c5 17be b279 72be
00000170: 269b 8d3e 4b5b a23a 636e afbd bb52 a93d
00000180: 1862 f4bd b23f 393d 7556 c93d 67a2 103f
00000190: fdb3 e9bd 1488 873d ee1f 41be c9c7 e83e
000001a0: d334 1dbd 7996 91bd 0a98 113e d879 113e
000001b0: 7b13 803e 1407 3dbe 0892 293e aea6 893e
000001c0: a019 ccbc 1492 163e 71e3 0e3e 47b0 30be
000001d0: 5ba1 d43e c6aa b83b 50e3 aabd 2519 85bd
000001e0: 40d5 443e 905d efbd 1eb9 ab3d 45ca 823d
000001f0: 9579 0dbe 0417 0b3f 33cc 0cbe df13 003e
00000200: 0845 953e a96e c13d 847b 4d3d 1506 e93d
00000210: d265 23be bf2c 1a3c 242c 5b3e 6609 bc3e
00000220: 3be1 8ebe 4d29 663c 68ca 073f 7692 17be
00000230: 562c 8bbd d6b6 e2bd c428 ed3d 4b5c e5bd
00000240: 887c 4f3e 61b5 113f e378 f9bc d507 423e
00000250: 3918 97bd b910 cc3d a61c af3e 8b53 ec3d
00000260: 5648 cc3d 34af ddbe acb9 a4bc b235 e3bd
00000270: 9045 86be c0a7 7e3d 9be6 b63e bb42 663d
00000280: a2b8 053e 2f1e 993e 0ad0 843e a649 993d
00000290: 4867 cc3e c9ec 28be 1c03 d7bd f0f2 8e3d
000002a0: d76d 6bbd 2c78 4abe 6010 c43d 8d23 d2bd
000002b0: 38a3 d43e 5dcf f6bc b70e b93e 2759 e73e
000002c0: 6d3a bd3e 2c77 7ebd 604e 053e fc1b 073e
000002d0: ac6d e03e 012a 223f d993 e2bd d7a2 c43d
000002e0: 84ad e8bd dafd 87bd ce22 c93d be92 b93d
000002f0: 763b 853d 0d31 a43e 7cb0 67bd 7b3f 6abd
00000300: f95d bc3e e2d4 083d 6ac1 36be a707 133e
00000310: 716a b63e f87d c43e d426 b23d dfcd cf3d
00000320: 5918 f9bd 8015 e13d 02ea 833d 9c2e 963e
00000330: 1953 d3bd d878 6ebe 3f6f 173e e9fc 3b3e
00000340: f5a3 1e3e 5846 363f 09a3 4a3d 3848 be3e
00000350: 1490 7dbd 4dcb 9c3b f373 c13e 68d1 e83c
00000360: 0a3d e53d 6e81 5abe d07d 23bd 62b4 5fbd
00000370: 742b 633e e8a7 153e cfc7 73bd 044d 863c
00000380: 3ff0 b43e abcd 363e 0bc0 903e 6250 dd3d
00000390: 95fb 9c3e b41b a33c 65ed 6dbe 9a57 3f3d
000003a0: 629a 1e3e 9e7b a43d fae0 c53d 1870 8bbe
000003b0: da62 153e bc26 49bc 01c9 113e 6819 ff3d
000003c0: 791b 0e3e d507 11bc c191 99bd 5a3d 513d
000003d0: 9a56 2c3f 0434 a03e 79c5 21be 359a 25bc
000003e0: b07a 7c3d 2102 f33d 8a7c bf3e c217 69bb
000003f0: d4c7 52bd a7a8 4d3e 699c 21be 11f5 0b3c
0.063413434 -0.17363298 0.061354436 -0.049549922 0.11522196 0.52632385 -0.17685993 0.12941232
-0.051221386 0.16538237 0.5154361 -0.034861885 0.04980368 -0.082100675 -0.19603218 0.15084422
0.1632138 0.72449905 0.23616226 0.30824274 -0.23751746 0.09420107 0.3068 -0.048523217
-0.029705971 -0.037767924 -0.008760625 -0.090853706 0.13232337 -0.2764798 0.123414606 -0.012302798
0.3682099 0.0761497 0.3159693 0.07472184 0.3101659 -0.011842993 0.0554905 0.13636667
-0.07033467 -0.07444995 0.08796701 -0.046990044 0.4491169 -0.22666343 0.24526049 -0.03427813
0.059780538 -0.058236416 0.12221748 0.25903076 0.1975195 0.56637734 -0.14298898 -0.062652975
0.15123655 -0.11515644 0.45696798 -0.012569466 0.24356455 0.33772346 -0.13669464 0.09161848
0.14925927 0.058986068 0.049349647 0.120128416 0.26155216 0.39996693 0.1413287 0.49648628
-0.15410705 0.0301669 0.044971816 0.15874618 0.10719379 0.2163837 0.054548983 0.11988896
0.49426335 0.7325332 0.09777701 0.09050191 -0.056122877 -0.19220886 0.70653355 0.097297505
-0.14805128 0.115047716 -0.14821605 -0.23679236 0.2765743 0.0012386827 -0.085659765 0.08267733
-0.119327724 0.04522676 0.098309435 0.56497806 -0.11411283 0.06617752 -0.18859836 0.45464924
-0.038380455 -0.071087785 0.14218155 0.14206636 0.25014862 -0.18459731 0.16559613 0.2688498
-0.024914563 0.14704162 0.1395395 -0.17254744 0.41529354 0.005635592 -0.08344138 -0.064989366
0.19221973 -0.116877675 0.08384918 0.06386236 -0.13815911 0.54331994 -0.13749771 0.1250758
0.2915423 0.09444935 0.05016662 0.11378113 -0.1595681 0.009410082 0.21403557 0.3672592
-0.27906212 0.014047933 0.5304322 -0.14801964 -0.06795566 -0.110700294 0.11580041 -0.11199244
0.20262349 0.5691739 -0.030453151 0.189483 -0.07377667 0.09964127 0.34201545 0.11539372
0.099747345 -0.43297732 -0.020108066 -0.11094226 -0.26224947 0.062171698 0.35722813 0.056215983
0.13058713 0.2990584 0.2593997 0.074847504 0.39922547 -0.16496576 -0.1049864 0.069799304
-0.0574778 -0.19772404 0.09573436 -0.10260687 0.41530776 -0.030128175 0.3614404 0.45185205
0.36958638 -0.06212537 0.13018179 0.13194269 0.43833673 0.6334534 -0.11063356 0.09601372
-0.113612205 -0.06640215 0.098210916 0.09061192 0.06505482 0.32068673 -0.056564793 -0.057189446
0.36790445 0.033406146 -0.17847219 0.14358388 0.35628083 0.38377357 0.08698812 0.10146689
-0.12162847 0.10990429 0.06441118 0.29332435 -0.10318584 -0.23288286 0.14788531 0.18358196
0.15492232 0.71201086 0.04947189 0.37164474 -0.06190498 0.0047849775 0.37783775 0.028420165
0.11193283 -0.21338436 -0.039914906 -0.054615386 0.22184545 0.14614832 -0.059516724 0.016394146
0.35339543 0.17851894 0.28271517 0.108063474 0.30660692 0.01991067 -0.2323509 0.046714403
0.1548858 0.080313906 0.096620515 -0.27233958 0.1458849 -0.012277301 0.14236833 0.12456018
0.13877667 -0.008851965 -0.074985035 0.0510839 0.67319643 0.31289685 -0.15797986 -0.010107567
0.06164044 0.118656404 0.37399703 -0.003556714 -0.051460102 0.20083867 -0.15782322 0.008542315

final_linear.bias f4 [51]
00000000: b927 dcbe 697a ccbe 9bad a6be 6253 8dbe
00000010: ae45 a8be 7019 74bb 8f15 11bf 9258 a1be
00000020: 76a4 b2be 303d f1bd 2876 25bf 9f20 383d
00000030: 29fd c73d f2c3 1fbe 61f9 c9be a5b9 8ebd
00000040: 5787 debe 917c 8b3e 37c6 53be fbb4 463e
00000050: 3b92 d53e 720d eabd 9ce2 813e 81d4 fbbd
00000060: 4c9a 893a 554b 023f 231a 0fbf 2248 a8be
00000070: d762 3ebe 29ad 563d a589 0bbe df37 98be
00000080: 66ea 62be 768d e4bd cb26 143f a887 4abe
00000090: 995e c4be 9de1 85bd bec5 28be 09d1 d9be
000000a0: a18f 09bd bd98 96be e675 c3be 272f 75be
000000b0: 048d 94be f18d 9ebe eed7 0c3e 90d1 8bbe
000000c0: 7a72 a73e 9909 e2be d6f3 14bf
-0.42999056 -0.39937142 -0.32554325 -0.2760268 -0.3286566 -0.0037246607 -0.5667352 -0.31512886
-0.348911 -0.11779249 -0.6463342 0.044952985 0.09765083 -0.15602091 -0.39448074 -0.06969003
-0.4346263 0.27243474 -0.20681082 0.19404976 0.41713127 -0.11428346 0.25368202 -0.12296391
0.0010498255 0.508962 -0.55899256 -0.32867533 -0.18592392 0.052411232 -0.13626726 -0.29730126
-0.22159728 -0.11159794 0.57871693 -0.19778311 -0.38353422 -0.06537173 -0.16481683 -0.42542294
-0.03358424 -0.29413405 -0.38175887 -0.23943768 -0.29013836 -0.30967668 0.13754246 -0.2730832
0.32704526 -0.44147947 -0.58184564
