option_hedging/hyperparameters/dqn_hyperparameters/double/year/0.0/dqn_model.pth (torch, 321372 bytes, 6 tensors)

linear1.weight f4 [256, 3]
00000000: 7d9b b73d e359 8a3e 0857 4c3e c9ba fb3e
00000010: 9e98 423e 1bd1 a83d 6fb5 b03e 7c97 933e
00000020: b9d7 d83d 93c7 163e 4e33 f33c ff2a 84be
00000030: 3971 a13e d451 843d 1505 ab3d 3e81 a13e
00000040: 9397 903e 513c 883d 933c 363e 403f 2c3e
00000050: 8b78 36be 5648 a83e 469a 793e e033 573e
00000060: c857 a53e b55c be3e 61cd 3b3d 5a63 833e
00000070: 55c1 1d3e 6c83 873e 826e 4d3e eef6 023c
00000080: 847e a7be 40b8 b63e dff4 073e 2eff 863e
00000090: 5e00 c03e 73e7 7a3e fe9d f43d ac18 843e
000000a0: f445 0a3e 7d52 853e f8a3 b03e c532 333e
000000b0: 2b82 1b3e 10f7 673d 43e1 a13e ff7c 5a3e
000000c0: 7382 ed3e eed0 af3e 44eb 203e 885f c03e
000000d0: 1f51 983e c728 053e 2b87 993e 86e5 d93e
000000e0: c43f 543e db78 3abe cc13 99bd 1c26 073d
000000f0: e4b6 a83e 655f b13e 2012 433e 21c2 ee3e
00000100: 25f2 413e 089d 48be 2418 643e 8eca 1f3e
00000110: a03d 863e 6554 f83e 4de1 ca3d 705c e33c
00000120: 2f4c c83e 8160 fc3d 2820 fd3d c24c a93e
00000130: 24cb 1d3e f375 bebe 3d5f 6e3e 3253 d83e
00000140: 7521 5ebb fe6e bf3e e4b5 033e 8adf ae3d
00000150: db0e 793e 05b5 e33d 154b 653e de7a da3d
00000160: 7cda 263e eff6 45be 343e 9d3e 2075 133e
00000170: b177 003e 73f2 453e f2d6 8c3e 3553 753e
00000180: e52e b33e 6403 c43e cc12 033e 7bcc 85be
00000190: 3b51 873b 8239 1e3e c8e1 cd3e 679e bbbc
000001a0: e578 d73d 3be6 d33e f26c 3b3d 285d 983b
000001b0: b086 c43e b7f1 873e df0c e03d 6a8f 2bbe
000001c0: 2e7e 5bbd a76a 253d 0ca5 83be 73cf 33bd
000001d0: 66de 343d 98a1 d73e bd67 923d 1a84 3ebe
000001e0: 7a9a 523e 15a7 c23e 31d0 2a3e eb21 a53e
000001f0: 18ff 103e ef5f 3bbe 1ad5 4e3e 71d7 233e
00000200: 9440 8c3e 5f70 9a3e 46ac 823e 60b7 d73d
00000210: 8484 ad3e 21c8 9fbd 233e 0a3d 8936 bf3e
00000220: 9c48 213e ce6c 913e 5b47 8b3e a1d7 6d3e
00000230: 2461 51be 5cc6 f63e bdaf 903e 7591 8b3b
00000240: ca4a ad3e 8e85 f73d 8915 d53d a758 cb3e
00000250: 6406 e23e ed79 d8ba 9083 913e 632a 303e
00000260: 44b4 55be aae9 ca3e 1d1a 843d 12de f73c
00000270: 1c09 943e 0a74 9b3d c4eb 1cbe d3a1 fc3e
00000280: 2ddf dd3c 9aeb b0bd 0e7e a13e 2efa 5e3d
00000290: 0a19 fe3d 4d54 3cbe 3c81 93bd 7073 013d
000002a0: 46a2 983e 2d46 8a3e 314a ff3d 8668 b13e
000002b0: 81fa 6c3e 637b 063e 8ca1 2a3e 3a8c 353e
000002c0: 9439 933e 6d67 8d3d ac1d cbbb 74b5 57be
000002d0: 13c6 da3e e594 1c3e 3269 043e 997f a43e
000002e0: edf8 0c3e 86e9 483e 44e3 963e 787a ba3e
000002f0: 9b7c 373e ddb8 8b3e 3ce2 c63d 463c 403e
00000300: 5477 7a3e 0ad8 ba3d 3caf 423e 0701 d33e
00000310: 7131 553e 5ae7 393e fe3e 743e b3c9 a33d
00000320: 4e60 253e 687d bf3e fc7b 813e 1dd2 d03d
00000330: 2984 8c3e 603d af3e f00c 4d3e c6de c03e
00000340: 0459 f73d 8777 ba3d cbe7 b6bd 6166 07bd
00000350: 5081 adbc 51e7 a33e b811 b73d 320e f73d
00000360: 459b 9c3e b383 8e3d f6a9 323e 3bad 4a3e
00000370: ce25 173c 639c 923e 3f0f 8abd a0b1 003d
00000380: 3d77 f4bc ab95 db3e c8a8 aa3e 93a0 843e
00000390: ef3a de3e ebd0 293e 5268 e43d 0fc1 d93e
000003a0: 92c1 a63d 730b 123e 9fdc 013f 2d54 ee3d
000003b0: 0a21 663c 72c4 b43e 7337 5f3e 58f4 e13d
000003c0: 77bb a33d b5cf b33e 4e54 8c3e 0687 ca3e
000003d0: 8146 be3d f65d d33d 1dad 9e3e d765 933e
000003e0: 49ba 033e ea89 cb3e 1cdf 833e 4757 c13d
000003f0: e9d8 0fbe 5c02 9cbd 3a35 f63c 7673 a13e
0.08965204 0.27021703 0.19955075 0.49165943 0.19003531 0.08243009 0.34513423 0.2882651
0.10588021 0.14724569 0.02968755 -0.25814053 0.31531695 0.0646092 0.08350579 0.31543916
0.28240642 0.066521294 0.17796545 0.16821003 -0.17819421 0.32867688 0.24375257 0.21015882
0.32293534 0.37180105 0.04585016 0.25661737 0.15405782 0.26467454 0.20061687 0.007993443
-0.3271371 0.35687447 0.13277005 0.26366562 0.3750028 0.24502353 0.11944197 0.25800073
0.13503247 0.26039496 0.34500098 0.17499836 0.15186374 0.0566321 0.31617174 0.21336745
0.46388587 0.34339088 0.15714747 0.37572885 0.2974939 0.13003837 0.29985937 0.42557925
0.2072745 -0.18210165 -0.07474479 0.03299533 0.32952034 0.34643093 0.19049883 0.46632484
0.18940027 -0.19591153 0.22274834 0.15604612 0.2621889 0.48501888 0.09906254 0.027754039
0.39120623 0.12323094 0.12359649 0.33066374 0.15409523 -0.37199363 0.23278518 0.42250973
-0.0033894454 0.37389368 0.12862355 0.085387304 0.24322073 0.11118511 0.22391923 0.10667966
0.16294283 -0.19332479 0.3071152 0.14400148 0.12545659 0.19330768 0.2750774 0.23957522
0.34996715 0.38283837 0.12800139 -0.2613257 0.0041295565 0.15451625 0.4021132 -0.02290268
0.10521106 0.4138659 0.045758195 0.004649777 0.38384008 0.265516 0.10939955 -0.16753927
-0.05358713 0.040384915 -0.25711858 -0.04389901 0.04415741 0.42115474 0.07148693 -0.1860508
0.2056674 0.38018098 0.16680981 0.3225244 0.1415981 -0.18298315 0.2019848 0.16000153
0.2739302 0.30163857 0.2552206 0.10533023 0.33890164 -0.078018434 0.033750664 0.37346295
0.15750355 0.28403324 0.27202877 0.23226787 -0.20447212 0.4819821 0.28259078 0.004259283
0.33846122 0.120860204 0.10404498 0.39716074 0.441455 -0.0016515829 0.28420687 0.17203669
-0.20869547 0.39631397 0.06450293 0.030257259 0.289132 0.07590492 -0.15324312 0.49342212
0.027083958 -0.086386874 0.31541485 0.05443781 0.124071196 -0.18391533 -0.07202384 0.03160423
0.29811305 0.27006665 0.12465323 0.34650058 0.23142435 0.13133006 0.16663188 0.17729273
0.28754866 0.069044925 -0.0061986055 -0.21065313 0.42729244 0.15291174 0.12930754 0.321286
0.13766833 0.19620332 0.29470265 0.3642156 0.17918627 0.27289477 0.097111195 0.18772992
0.24459583 0.091232374 0.19012159 0.4121172 0.20819642 0.1815466 0.23852155 0.079974554
0.16150019 0.37400365 0.25289905 0.10196326 0.2744458 0.34226513 0.20024467 0.37669963
0.12077525 0.09104829 -0.0893093 -0.03305662 -0.021179825 0.32012418 0.089389265 0.120632544
0.3058721 0.069587134 0.17447647 0.19792645 0.009225322 0.2863494 -0.06741189 0.031419396
-0.029842013 0.42887625 0.33331895 0.25903758 0.43404338 0.16583602 0.1115271 0.42530105
0.08142389 0.1426218 0.50727266 0.11637149 0.014045963 0.35306126 0.21798496 0.11032933
0.079947405 0.35119405 0.2740807 0.3955614 0.09290791 0.10320656 0.3099145 0.28788635
0.12864031 0.39753658 0.25756156 0.09440475 -0.14047588 -0.076176375 0.030054677 0.31533402

linear1.bias f4 [256]
00000000: 4ae3 7c3e 45cc 573e d803 7a3e 819a 673e
00000010: fcb2 6c3e a102 4d3e 59be 733e 7fa8 6c3e
00000020: 4acf 633e ca89 733e 59ee 893e 9bbd 733e
00000030: 476b 593e 823f 7b3e 84e1 6a3e 666a 4e3e
00000040: bfce 5e3e 07c5 683e ee83 633e 0fba 323e
00000050: ffcc 623e ac59 643e d6f3 9a3e 0f3e 573e
00000060: 2721 513e f068 a43e 1fd0 773e 5536 423e
00000070: caba 913e a953 4d3e e46a 833e 32e1 8d3e
00000080: f34c 333e 09e3 9d3d acab 753e 6c66 8f3e
00000090: caef 723e 9146 1f3e 115a 693e fa88 7b3e
000000a0: 85a5 653e ca92 3f3e bac5 8c3e 056d 513e
000000b0: c796 a13e 4ad3 6e3e 6283 683e 7908 473e
000000c0: 8a3f 893e 1598 6c3e 4916 5d3e 77ee 8b3e
000000d0: 2ad6 4c3e 59a3 793e 8908 723e 9b7d 333e
000000e0: 9109 4a3e 9169 623e 0e3f a23e 6d94 663e
000000f0: 2dd8 5a3e c00b 903e 5b99 833e 8165 7d3e
00000100: 3bb0 913e dd6e 443e 0d70 803e 7f0c 743e
00000110: 2602 533e 0251 833e d859 4c3e 4b0f 6a3e
00000120: 61ce 6c3e 737e 9f3e 48a0 433e eb6d 6b3e
00000130: b69c 433e ff94 4c3e 9021 4f3e 2b46 623e
00000140: 2695 923e 675b 683e ad08 753e 3b3e 5a3e
00000150: f869 0f3e 8158 963e 1b8c d53d 5dce 693e
00000160: 183e 6d3e 707a 733e 6152 823e 6de0 6a3e
00000170: 1b5e 5d3e 9433 663e f290 4c3e 886e 083e
00000180: 313b 423e 0736 933e 60b4 4a3e de3f 763e
00000190: 5d9d 813e f562 773e f851 753e 1c2e 813e
000001a0: 1bfb 673e df00 513e 9bd0 5e3e 743c 803e
000001b0: 6c81 813e d679 903e a845 233e 156e 913d
000001c0: f4f7 0d3e be98 523e 125a 703e 4a19 6a3e
000001d0: e9a0 6f3e c3da 883e d182 5d3e 5c2c 823e
000001e0: 8b4d 603e 6c77 e33d abed 653e 0854 843e
000001f0: 3e51 883e ca09 803e 7990 883e cc34 8b3e
00000200: 3cf2 653e 6791 733e 15ed 3a3e aab9 703e
00000210: 3f8f 833e 1eb1 583e f3af 7a3e 95f5 823e
00000220: 1baf 893e 0099 6f3e ebbc 7c3e dd2a 4c3e
00000230: 9725 803e ecd8 813e d4b4 693e c339 6a3e
00000240: 4ae8 853e 6b9f 5b3e 9050 793e 2fef 0c3e
00000250: 9218 813e dac6 673e 4cc8 823e ef3e 543e
00000260: 1509 693e ede6 6a3e 2f3c 7c3e 59a3 553e
00000270: bdd7 843e c88c 953e e788 8b3e 5151 693e
00000280: c7e4 283e bfb2 6b3e 6d75 563e 725b 803e
00000290: b262 5b3e f4c8 813e b434 933e 3ef5 6c3e
000002a0: 4532 6e3e 6334 363e da38 813e 941a 8a3e
000002b0: 1d26 413e 83df 623e 23e6 563e 4aae 5f3e
000002c0: 477f 2b3e 6e01 7d3e 0569 c53d 42c5 8c3e
000002d0: a158 073e 4ac9 7c3e a11d 653e 5dcb 843e
000002e0: 63e5 5e3e f40e 8f3e 63fb 443e 7bd5 a73e
000002f0: c38a 0f3e f030 7d3e 5876 2b3e 40ac 6c3e
00000300: ffc3 773e fa6a 063e eecc 453e 7df5 a23e
00000310: 0248 4f3e 20fb 763e e668 713e c5e8 803e
00000320: c32d 4b3e 5194 863e fd80 543e fadc 633e
00000330: 0eb7 603e cc1a 593e 36c0 5f3e 7c89 503e
00000340: 3370 733e fbba 553e 64a0 723e fe86 623e
00000350: f898 8e3e fcd6 533e e524 6e3e ada2 5a3e
00000360: f229 5d3e 6d62 813e 5328 7d3e 5c84 7a3e
00000370: 1836 573e c8d8 903e 3679 843e f347 743e
00000380: 814f 7b3e 62ff 843e 79f4 7f3e 5064 493e
00000390: c6ff 773e de93 913e 33d7 643e 93d4 c53d
000003a0: 9ac3 953e fd0a 893e 939a 733e 178c 423e
000003b0: 7ba0 923e 81a7 853e e0b3 793e 3b68 553e
000003c0: d2cd 893e b9fd bf3d 1412 593e d979 903e
000003d0: 4304 5c3e f76f c43d 3315 883e a358 113e
000003e0: bac2 5e3e 2bc3 823e afa1 623e 0dd4 7a3e
000003f0: 4827 603e f1fe 5e3e 82e3 783e 6b30 713e
0.24696079 0.21074016 0.24415529 0.22617532 0.23115152 0.20020534 0.2380308 0.23111151
0.22247043 0.23783031 0.26939657 0.23802797 0.2123233 0.24535945 0.2293759 0.20157775
0.21758555 0.2273141 0.22218296 0.17453788 0.22148512 0.22299832 0.30264157 0.21019767
0.20422803 0.3211131 0.24200486 0.18966039 0.2846282 0.20051445 0.2566749 0.27710873
0.17509823 0.07709319 0.23991269 0.2800783 0.23724285 0.15554263 0.22788264 0.24563971
0.22426422 0.1870834 0.27494603 0.20451744 0.31560346 0.23322788 0.22706369 0.19436826
0.2680629 0.2310489 0.21590532 0.27330372 0.20003572 0.24378718 0.23636068 0.17528383
0.19730212 0.22110583 0.31688732 0.22517557 0.21371527 0.28133965 0.25702938 0.24745752
0.28454766 0.19182916 0.25085488 0.23832892 0.20606288 0.25647742 0.19956148 0.22857396
0.23125602 0.3115116 0.19104111 0.22991149 0.19102749 0.19978712 0.20227647 0.2209708
0.28629416 0.22691117 0.23929091 0.21312802 0.14005268 0.29364398 0.104271136 0.22832628
0.23168218 0.23777175 0.25453475 0.22937174 0.2161793 0.22480613 0.19977167 0.13323414
0.18967892 0.28752157 0.1979537 0.24047801 0.2531537 0.24158843 0.2395705 0.2523049
0.22654383 0.20410489 0.21759264 0.25046122 0.25294054 0.28217953 0.1594454 0.071010746
0.13864118 0.20566079 0.23471859 0.2286121 0.23401226 0.26729402 0.21631934 0.2542447
0.2190458 0.11106762 0.22453944 0.2584536 0.26624483 0.25007468 0.26672724 0.27188718
0.22455686 0.23785935 0.18254502 0.23508325 0.25695226 0.21161315 0.24481182 0.2557799
0.26891407 0.23398209 0.24681441 0.19938226 0.2502868 0.2536081 0.22822887 0.22873597
0.26153785 0.21447532 0.24347138 0.13763116 0.25214058 0.2263445 0.2554344 0.20727132
0.22757371 0.22939654 0.24632333 0.20863093 0.25945845 0.2920897 0.27252886 0.22784926
0.16493522 0.23017405 0.20943232 0.25069767 0.21424368 0.25348628 0.28751147 0.23140427
0.23261364 0.17793421 0.25238687 0.26973403 0.18862195 0.22155575 0.20986228 0.2184383
0.16747771 0.24707577 0.096391715 0.27494246 0.13217403 0.2468616 0.22374584 0.25936404
0.21767192 0.27941096 0.19236521 0.3278006 0.14017777 0.247257 0.16744363 0.23112583
0.2419586 0.13126746 0.19316456 0.31827918 0.20242313 0.24119234 0.23575172 0.2517759
0.19841675 0.2628503 0.2075233 0.22252265 0.2194483 0.21201628 0.21850666 0.20364946
0.2377327 0.20872109 0.23693997 0.22121808 0.2785108 0.20687479 0.23256262 0.21351118
0.21598032 0.25270405 0.24722414 0.24464554 0.21016729 0.2829039 0.25873727 0.23855571
0.24542047 0.25976092 0.24995603 0.19667172 0.24218664 0.28433126 0.22347717 0.09659686
0.29250795 0.26766196 0.23789434 0.18998753 0.28638062 0.26104358 0.24385023 0.20840542
0.2691484 0.09374566 0.21198303 0.28217962 0.21486 0.09591668 0.26578674 0.14193968
0.2175397 0.25539526 0.2213199 0.24494953 0.21889985 0.2177694 0.24305537 0.23553626

linears.0.weight f4 [256, 256]
00000000: 3a1c a63d 8669 9b3d ee5f 853e 06b5 8d3d
00000010: 0318 0e3e ef48 273e e7a8 513d f54c 483e
00000020: 6655 393e 116c 733e fea0 173e 42b0 463e
00000030: 0726 a53d e4bf 1f3e 5199 503e e5c5 be3c
00000040: 1b24 7a3e 0638 413e 7aac a03d 404d 00bf
00000050: 96cb e33d 7dc9 353e 5f32 583e 7a9c 2b3e
00000060: 4742 aa3d a783 d23d 0b0f 403d c8b3 2a3e
00000070: 561f 9c3d 96e9 0b3e 4f5f 973e 5a23 383e
00000080: a2d8 923c 652b 9dbe d006 273e a8a0 df3d
00000090: 2f7f 233e 3b5a e8be 4452 e6be 0f54 273e
000000a0: dabc 483d 6435 b13c 2b8c b73d 878b 903d
000000b0: 8b62 2e3e 28a7 a03d 1c86 b63d 78ee fd3d
000000c0: 2a45 5e3e e8cb 363e 0a38 423e d9a4 fa3d
000000d0: c15f c63d b384 763e 5914 7f3e d0cb efbe
000000e0: 9efd 283e 8a1f 6f3e 37e7 103e af06 a93e
000000f0: e8e2 8b3e fd35 9e3d 3887 163e d157 383e
00000100: afb8 e83d cc05 c53d 5596 883e 115c 703d
00000110: a39e 383e e1fb 643e 7aca ff3d c7ef b53e
00000120: 04a5 2b3e 1e43 ec3d 05a2 c43d d453 8f3d
00000130: 2612 0e3e 4d81 863e 644a 1e3e fef4 843e
00000140: 243b 853d 47e6 7d3e efc8 0d3e 5b40 1a3e
00000150: 7450 a1be d344 653e d416 2ebe 8802 d73d
00000160: 4ad2 e43d 80a3 253e e141 0b3e c363 b53d
00000170: b100 f83c ea3f 443e add9 273e 6d34 09be
00000180: 5682 8d3d 0e6a 2e3d b348 393e 6956 d53d
00000190: 6bf3 6d3e 966b f63d fc41 aa3b 0cd5 b33d
000001a0: 6f25 8f3d 4110 bb3d 4128 633e 426b 373e
000001b0: c96d 063e f77d 523e 6458 78be 3c3e dfbd
000001c0: 0b84 c0be fac7 083e 729b 4f3e caf7 af3d
000001d0: 7c6b d73d abee 243d d675 563d 4890 c63d
000001e0: a97e 373d eabc 02bf 222a 4d3e f705 503e
000001f0: 59b5 e13d 3697 413d 2a2b 703e e79b 813d
00000200: fa1f 443e 0894 8c3d 1ac4 183e 9b8a 853e
00000210: c147 d03d 38c4 1d3d 950a 583e 3025 093e
00000220: 8d1d ee3d a69e ff3d a532 113e f1c9 083e
00000230: 3afc 253e 0a87 353e 678d fd3d 69ed b53d
00000240: 59a7 9abd bcfe e13d f60e 233e fb30 b6be
00000250: bbd5 263e 3bf5 353e c5cf 843e 1ff2 cc3d
00000260: 71aa 843e 8b6c 193e 7d38 fa3d fd1a ae3d
00000270: 8e71 e73c c5e5 483e 751f df3d 4bd6 3e3e
00000280: 18df 9abe 91a6 563e e2a5 393e 2cd9 163e
00000290: dfae 7b3e f833 8b3e e89f 2c3e 8173 683d
000002a0: c50e 0b3e a8ed 8a3e bc46 473e 6256 513e
000002b0: 89cc 3a3e e985 e7bc 5ce2 b13d 2ef7 913d
000002c0: 6367 e0be 1f59 853c ad60 92be 85a5 fa3d
000002d0: fd9e 83be 10c9 e73d 231e 163e 9ca0 9a3e
000002e0: 2b95 4d3e dd69 d23c b833 4e3e f4a2 373e
000002f0: a47c 0dbe d378 323e b64f 773e e663 5a3e
00000300: df11 873e a0d3 e9bd 12f6 febe 4774 013e
00000310: 920a b43d fe44 b83c 07df 8c3e 531f 4f3d
00000320: ded4 a7be f007 933d ddba c03d 728a 3a3e
00000330: d6a5 563d 0148 ba3d 833f 983d e4c4 9c3e
00000340: 3c54 1d3e 5819 2d3e be98 02bc 2949 573e
00000350: 9733 063e 4bcb 3d3c c914 953d f23e 8c3e
00000360: 1bde 373e 1dbf 713e 6fea fe3d 6fc4 0b3e
00000370: 1270 143e 3a43 dc3c 01de 9b3c 0a60 9c3e
00000380: 19a3 3b3e 4427 4b3e f3d5 943e ced3 18bf
00000390: d26e 653e 71a6 da3d cb10 1e3d 8665 a2be
000003a0: d2cd de3d 0116 533e 4389 0a3e bb5d 653d
000003b0: 2978 163e a2fd b33d e75c 0b3e 6970 053e
000003c0: 7608 873d 10b7 b1be 0ab5 f93d f588 043e
000003d0: fb81 093e 7e10 bcbe fe9d 023e f9bf d2be
000003e0: b1de 873e 5d20 a43d eda4 9f3d f9c8 c13e
000003f0: e2b1 813e f61a ab3e 3cb0 803e 91c7 01bf
0.081108525 0.075884864 0.2604975 0.06919293 0.13876347 0.16336416 0.05118647 0.19560607
0.18098983 0.23771693 0.14807507 0.19403175 0.08063894 0.15600544 0.20370986 0.023287723
0.24427836 0.18869027 0.07845397 -0.50117874 0.11122815 0.17752643 0.21112965 0.1675891
0.08313423 0.10279017 0.046889346 0.16670144 0.07623164 0.13663325 0.29564902 0.17982236
0.017925564 -0.3069717 0.16311193 0.109193146 0.15966485 -0.4538134 -0.4498464 0.1634066
0.049008228 0.021631904 0.08962282 0.07057863 0.17029779 0.078443825 0.08912298 0.12399
0.21706071 0.17851222 0.1896669 0.122384734 0.09686232 0.24074058 0.24910106 -0.46835184
0.16502997 0.23351875 0.14150701 0.33012912 0.27321553 0.07725141 0.1470002 0.1800225
0.113633506 0.09620246 0.26677194 0.05868155 0.18029265 0.22361709 0.12489791 0.35534498
0.16762167 0.11536239 0.09601215 0.06998411 0.1387411 0.26270524 0.15458065 0.25968164
0.06505421 0.24794875 0.13846181 0.15063612 -0.31506693 0.22389536 -0.17000896 0.1049853
0.11172922 0.16175652 0.1359935 0.08856919 0.030273767 0.19165006 0.1639163 -0.13398905
0.06909625 0.04258161 0.18094139 0.10416872 0.23237388 0.12032239 0.005195854 0.0878087
0.06989562 0.091339596 0.22183324 0.1791201 0.13127817 0.20555864 -0.24252468 -0.10900542
-0.3760074 0.13357535 0.20274141 0.08592184 0.10518548 0.040266674 0.05235847 0.09695488
0.044798527 -0.5106951 0.20035604 0.20314775 0.110209174 0.047263347 0.23453966 0.06328564
0.19152823 0.06864172 0.14918557 0.2608231 0.10169936 0.038517207 0.21097787 0.13393092
0.1162673 0.12481432 0.14179476 0.13358285 0.16209498 0.17727295 0.12380486 0.08883173
-0.0755145 0.11034915 0.15923676 -0.35584244 0.16292469 0.17769329 0.25939766 0.100071184
0.25911286 0.14982812 0.122178055 0.08501241 0.02825239 0.196189 0.10894672 0.18636434
-0.30248332 0.20961978 0.18129686 0.14731282 0.24578427 0.27188087 0.16857874 0.056750778
0.13579853 0.27134442 0.19460577 0.20443109 0.18242086 -0.028262096 0.08685753 0.07127224
-0.43828878 0.016277848 -0.28589383 0.122386016 -0.25707236 0.113176465 0.14659934 0.3020066
0.20076434 0.025685245 0.20136917 0.17933255 -0.13817078 0.17428903 0.24151501 0.2132717
0.26380822 -0.114173174 -0.49797112 0.12642013 0.087910786 0.022493836 0.27513906 0.050566982
-0.32779592 0.07179248 0.09410641 0.18216875 0.052404247 0.09095765 0.07433989 0.30618966
0.15364164 0.16904199 -0.007970987 0.21024002 0.13105617 0.011584113 0.07279355 0.27391773
0.1795582 0.2360806 0.124470584 0.13649152 0.14495876 0.026887525 0.019026758 0.30542022
0.18323936 0.19839197 0.2906948 -0.5969819 0.22405556 0.106762774 0.038590234 -0.3171808
0.10879101 0.20613863 0.13528924 0.05599759 0.14694275 0.08788611 0.13609658 0.13031162
0.06593411 -0.34709978 0.121927336 0.1294287 0.1342849 -0.36731333 0.12755582 -0.4116209
0.26537088 0.08013985 0.07795129 0.37848642 0.25331026 0.33419007 0.25134456 -0.5069514

linears.0.bias f4 [256]
00000000: 0712 013e 4d74 993c 992e bf3c 7adc 3a3d
00000010: bc31 063e df04 413d 4d6d e8bb 0a65 06bc
00000020: d72c 0b3e 3351 9a3c d342 b4bb 5751 5e3d
00000030: e42b 0b3e bb63 5d3d 8b27 1f3e c559 f43d
00000040: c65c daba 84f5 453d 8f8c 0c3d a529 113e
00000050: 7076 ee3d c002 9a3d 9431 213d c969 3c3d
00000060: 933f cd3c db07 873d 82e6 5cba 1bb7 f33d
00000070: d802 ab3d aede 95bb 5a66 723d f3de 85bb
00000080: d6f0 683d 6e4b 203d 5b3f db3c e90f cc3c
00000090: 94db a33d 2869 063e 8946 debb 0000 0000
000000a0: 5e92 813d aeff 133e df5e fc3d 73d3 003e
000000b0: 0000 0000 e913 693d ac2a 96bb 06b8 363c
000000c0: aa62 083e 245d 83bb aa8f 383d 9613 1b3d
000000d0: 62ed 2d3e 6a81 df3d 0000 0000 03af 39bb
000000e0: 17b0 fc3d 040a 993c 636a 6d3d f4c3 893d
000000f0: 4de8 fc3c e013 023e 0988 28bc 63c0 9fbb
00000100: 0fd6 323e 2be8 0f3e 1dd3 9a3d 3c7b 303e
00000110: abb1 583d 3027 0f3d 0cec 333d 92d0 243b
00000120: 3c90 d13c 6822 0bbc 3347 153b c83a a53d
00000130: 910a ab3d d4dd 163d b0c3 5d3b 0a87 87bb
00000140: 9489 933d bcad 20bc 3a42 903c 5303 333d
00000150: 0997 93ba 877c ad3d 1cf8 3abb 9017 92b9
00000160: 3e5d 21bc 1d40 8e3d 40da 063e 213a 083e
00000170: 6e8b 0d3e 5ae3 ce3d 9397 11ba 6c23 8d3c
00000180: 3e0d a53d 3965 713d 7f1f 7e3d 0000 0000
00000190: e418 5c3d ad87 1b3c 1f75 86bb 5eb9 8e3c
000001a0: f730 0c3e e040 9fbb 1ef8 433e e01a 083d
000001b0: e509 233d a80f 1abc 8ed7 313d 688d 2fbb
000001c0: 2dbf 193e a6eb daba d3a3 523d 0ab0 f53d
000001d0: 9e14 d73d e8e1 a13d cbce beba ec0c e23d
000001e0: 5c9f da3d 6574 043e 7155 193d c332 04bb
000001f0: cd28 a13d 59d7 023e 1ad1 9d3b 094e 163e
00000200: c202 203d 099a 08ba 0e33 f43d 0443 933c
00000210: 9199 9fbb ba7f d9bb 8841 873d 53ff b6bb
00000220: 4ee2 043e 0487 2e3e bb7d 163e a2f4 913d
00000230: 0000 0000 0314 263e 0b10 1c3e fb0e 0c3e
00000240: 1c11 793d c154 543d 05fb df3d 28ba b73d
00000250: 0000 0000 4fc2 3c3d caa3 5c3d c6f8 233d
00000260: ab13 3cba 1ef1 c13d 3188 093b c31b 07bc
00000270: fbb9 263e 5b67 f03d 9188 a13d a73d 293d
00000280: 0be6 baba 75c2 f63d 22d7 1b3e 79bc dd3d
00000290: d937 f03d 8f30 603d 0691 083d 576c 7d3a
000002a0: a298 11ba 44e7 503d 8cdf 303e 44a1 593d
000002b0: 2739 193d 54fe 053e 93db f8bb d2a0 bdbb
000002c0: 77f4 33bc 0000 0000 0000 0000 1100 e23d
000002d0: 7fab 643a b633 993d a7ff 81bb 0f90 80bb
000002e0: 66a3 ee3d 0000 0000 c741 533d e7e7 7f3d
000002f0: 49fe f6bb a6d2 353b 899c ffba c767 20bb
00000300: 5b70 27bb 523c 913c 16af 133d db9e 95ba
00000310: 6737 da3d bb8e 203e 225d ec3c b394 033e
00000320: 8248 e83c f725 02bb ab88 ce3c 7352 23bb
00000330: f701 e8bb bcb9 1b3e 2eac f83c 3109 463d
00000340: ddab d03b 1224 423d 2815 0b3d df28 eb3c
00000350: 8c0b 1b3e cd33 383d 9a98 da3d 8397 b8bb
00000360: d4fd 023d 8d94 2b3e 88d4 163e 0000 0000
00000370: a2d0 453c c895 d8bb eb81 0e3e 43f1 13bb
00000380: 34a1 0a3e 7996 013e 68c2 713d d9e7 2cbc
00000390: 4170 ab3d 3227 b93d c35a e83c e80c 613d
000003a0: 6396 de3d 7f3d 0c3e 4df4 c43c 477d 5f3c
000003b0: c81b 163e b8aa cd3c dd52 c23d 7696 6a3b
000003c0: b101 073e c5d1 b23d 1156 403e e5ee 9a3d
000003d0: 7204 d33c ce96 5ebc ccf8 ae3d 6f1f 043d
000003e0: 4962 1a3e 3df9 a13d 2a86 b43d 2ea7 323d
000003f0: 8dad 0e3e 2bec 403e 7f26 0fbb 012d 4e3d
0.12604533 0.018732214 0.02333765 0.04562042 0.1310491 0.047123786 -0.007093108 -0.0082028005
0.13591324 0.018837547 -0.00550113 0.05427679 0.13590962 0.05405019 0.15542428 0.11931185
-0.0016659729 0.048329845 0.034313735 0.14176042 0.11643684 0.07520056 0.039353922 0.045999322
0.025054729 0.06593295 -0.00084266823 0.11900159 0.08350152 -0.0045736646 0.05917964 -0.0040854155
0.056870304 0.039134435 0.026763609 0.02490993 0.080008656 0.13126051 -0.006783311 0.0
0.063267455 0.14453003 0.12322783 0.12580661 0.0 0.056903753 -0.0045827236 0.011152273
0.13318887 -0.004008906 0.045058884 0.037860475 0.16985086 0.10913356 0.0 -0.0028333075
0.12338274 0.018681534 0.057962786 0.06726828 0.030872488 0.12702894 -0.01028634 -0.004875229
0.1746447 0.14053409 0.07559798 0.1723451 0.052903812 0.03494948 0.043926284 0.0025148732
0.025581472 -0.00849209 0.0022778034 0.08067852 0.08351625 0.036832646 0.0033838563 -0.004135971
0.07203975 -0.0098070465 0.017609704 0.043704342 -0.0011260222 0.08471017 -0.0028529232 -0.00027864845
-0.009848891 0.069458224 0.13169193 0.13303424 0.1382272 0.101019576 -0.00055538974 0.017228805
0.08059166 0.058934424 0.062041756 0.0 0.053734675 0.009492797 -0.0041033174 0.017422374
0.13690554 -0.0048600286 0.19137618 0.033228755 0.039804358 -0.009403147 0.04341846 -0.0026787166
0.15014334 -0.0016702309 0.051425766 0.119964674 0.10501979 0.07904416 -0.0014557479 0.11037621
0.10674927 0.12935026 0.037435 -0.0020171858 0.0786911 0.12777461 0.0048161866 0.14678206
0.03906513 -0.00052109413 0.119238004 0.017976291 -0.0048706015 -0.0066375406 0.06604296 -0.0055846362
0.12976953 0.17043692 0.146964 0.07126738 0.0 0.16218571 0.15240495 0.1367759
0.060807332 0.05183864 0.1093655 0.08971053 0.0 0.046083745 0.05386714 0.04003217
-0.00071745616 0.094698176 0.0020985717 -0.008246365 0.16281883 0.117384635 0.07887376 0.041318562
-0.0014259232 0.120488085 0.15218785 0.10826964 0.11729402 0.05473381 0.03334143 0.0009667328
-0.0005554055 0.051001802 0.17272776 0.05313231 0.03740802 0.130853 -0.0075945347 -0.0057869935
-0.010983578 0.0 0.0 0.11035169 0.00087230647 0.07480566 -0.0039672437 -0.003923423
0.116522595 0.0 0.051576402 0.06247702 -0.0075376374 0.0027743964 -0.0019501607 -0.0024475919
-0.0025549147 0.017728958 0.036055647 -0.001141514 0.106550984 0.15679447 0.028853003 0.12849693
0.028354887 -0.0019859055 0.025211653 -0.002492097 -0.0070803124 0.15207571 0.03035554 0.04834861
0.006368144 0.04739768 0.033955723 0.028706012 0.15141124 0.044971276 0.10673638 -0.005633296
0.03198035 0.16755886 0.14729512 0.0 0.012073668 -0.006609652 0.13916747 -0.0022574223
0.13538057 0.12655057 0.05902329 -0.010553324 0.0837102 0.09040679 0.028363591 0.05494395
0.10868528 0.13695334 0.024042273 0.013640708 0.14659035 0.02510582 0.09488461 0.0035795248
0.13184239 0.087314166 0.18782832 0.07565097 0.025758956 -0.013585759 0.08543548 0.03225654
0.15076555 0.079088666 0.08814652 0.043616466 0.13933392 0.18840091 -0.0021843014 0.050335888

final_linear.weight f4 [50, 256]
00000000: 3d72 6cbd 8d1c c4bc 3ada c8bb a904 873d
00000010: fba0 5fbd 2907 b13d 2a56 603d fd8c 9cb9
00000020: 3f79 613d ce97 9a3e 679b 243d 23fe f63d
00000030: 0737 6dbc 4d48 1c3e 0a08 063d fdea e03c
00000040: f54d 98bd 7642 2c3d 0d42 ed3d 9b42 5bbd
00000050: 4bce 893d c577 48be cfdc 4b3e c9e5 7a3e
00000060: 49b6 c1bd b318 6cbd 3440 44be e825 cabd
00000070: cbf2 4abc 5524 633d 0150 75be 984d f1bc
00000080: 6060 183c ae2d 463e c31c 6abd d86e a6bc
00000090: 130a 36be a2a7 473d 6196 93bd 1e2c 083e
000000a0: 03f7 a2bd 690b 313d a4af 13be 6080 923c
000000b0: 5651 583d 06e6 10be f6ef d73c 8462 80be
000000c0: 3687 dd3d ed37 6b3d a408 a03e 1cd1 533e
000000d0: 7550 a7bd d6cb 883c 69cd 2fbb 744f 253c
000000e0: 8a7b 483d 49c5 2abe f8bf e93d 2937 a4bd
000000f0: 244c 7c3d a439 843d af43 f2bd d3a6 5ebd
00000100: a68f 31bd 17e3 f9bc 198c 2cbc 63e1 f9bd
00000110: 86eb 5dbc aef0 153e b9c4 ff3d a94d ddbe
00000120: ae29 ac3e 3755 7dbe d780 abbd e543 b9bc
00000130: b330 f7bd c271 59bd e5cf 213e 2484 b1bd
00000140: a9a7 17bd fc17 c73d d92e 843d 1518 9b3d
00000150: e581 3c3d b01e 3dbd e8e6 1bbd 624e 523d
00000160: c305 98be d801 47bd 350e c8bd 4f47 193e
00000170: 14ab 2cbd 4444 a3bd 1fbf 153e 0269 173e
00000180: 9975 763d 736f 003d 6a6c a4bd f2db 26bd
00000190: 63d9 06be 2c2d d0bd 6efe 5a3a ef86 a03d
000001a0: a4a6 bebc b97c 2f3d 77e3 3c3d 9c68 853e
000001b0: 6d9b b93d d727 f23c d2a4 863e 4669 c9bd
000001c0: 202a 363c 1438 233b 5f27 183d 81bd 7fbc
000001d0: 2475 2cbe 1830 bd3c d45c c9b6 7a9d 60bb
000001e0: c41d 703d bf00 afbd a526 e4ba 1837 58bd
000001f0: 53fc 20be afb8 cabd 47dd de3d eb5b 80bd
00000200: 8991 5d3d 934e d83c 383d 89bd ffdc 2e3e
00000210: 5aba ba3c 6704 b23d b121 6ebd a822 1fbe
00000220: 7bbf f6bd 7c6c d7bd 9923 e33c d136 ac3d
00000230: dd12 aa3b d570 f23d 394c 82bd 4a07 dabd
00000240: 031f 003e 5161 603e 72ee cfbd 1557 00bd
00000250: f540 083e 7198 203e 7805 163e 51a6 253d
00000260: c774 e2bc bf4c 5ebd 6e3f 003e 3e9f d1bc
00000270: b559 2cbd 6c34 bfbd 1c04 81be 5d0f c43d
00000280: 9f65 2b3d c1b4 0f3e 25bf f0bd 7d57 07bd
00000290: 02a8 0fbe 208e 32be 91ee 0cbd 6ae4 0abe
000002a0: 88e0 b9bd ab8c a9bd 7c2b 69bd fb9e 3e3d
000002b0: 0404 e9bd 40fe 7fbd ccfa 233d 489c 81bd
000002c0: d0ba 8d3d a342 b73d 42a3 023e f3a5 8f3a
000002d0: 13ab 9ebc 8a12 5e3d f75e b63d bf01 a6bd
000002e0: 2492 e1bc 6cfe e5bc fba6 513e 9095 0ebc
000002f0: 7f3a 46be c851 95bd d534 9a3c c789 afbd
00000300: cbe6 6e3c c8f9 583d 9f15 5f3e 9c56 f03a
00000310: b202 a1bc 4413 dbbd c298 6dbd 5579 efbd
00000320: 6fd8 903e d5a9 00be f2a3 4cbe c4e0 cdbd
00000330: 4865 523c 8ee6 e0bc f178 c3bd 5052 5d3e
00000340: c01c 853e 2548 61bd aa60 33bd ded5 a03c
00000350: 9dfc cb3c 24ba 663d 2352 23bd fb63 64bc
00000360: 0542 6cbe a389 933b 85f9 1e3d ba60 5dbc
00000370: 93aa da3d 6b47 3cbd 2424 afbd 5c83 4e3d
00000380: 3d4f 923d f9b2 85bc a5e3 253e 23d9 05bd
00000390: 4c2b 003c 7f10 b23b bb4b e23c 343c 8f3e
000003a0: eae7 9538 e701 203d 9c34 7e3c 2fac e23d
000003b0: ea5e 40bd 574c 853e 46dd 9abd 46f6 af3d
000003c0: b8c9 0cbe 3db4 593d 5caa e9bd 9956 62bd
000003d0: e4e0 483e ab40 193e f91e 393d 7175 1cbe
000003e0: 5103 fcbd 01c4 29bc 7323 5fbe 5253 c93d
000003f0: 2a7a a8bd 5c82 35be cc2a 3b3d 49f9 42be
-0.057726134 -0.023939395 -0.0061295303 0.06592686 -0.054596882 0.08643944 0.054769672 -0.00029859683
0.05504727 0.30193943 0.040187266 0.120601915 -0.014478452 0.15261956 0.03272251 0.027455801
-0.07436744 0.04205557 0.11584864 -0.053530317 0.067288004 -0.19576938 0.1990845 0.24501719
-0.09458596 -0.057640743 -0.19165117 -0.09870511 -0.012386988 0.05545457 -0.239563 -0.029455945
0.009300321 0.19353363 -0.057156336 -0.020316526 -0.1777728 0.04874385 -0.07206417 0.1329808
-0.0795727 0.043223772 -0.1442247 0.01788348 0.052811943 -0.14150247 0.02635954 -0.2507516
0.10816805 0.05742638 0.31256592 0.20685238 -0.08169643 0.016698759 -0.0026825315 0.010089744
0.04894594 -0.16676821 0.11413568 -0.080183335 0.06159605 0.064563066 -0.11829316 -0.054358315
-0.043349884 -0.030503793 -0.010531449 -0.12201192 -0.013544923 0.14642593 0.12488694 -0.43223312
0.3362555 -0.24739538 -0.083741836 -0.022615382 -0.120698355 -0.053087004 0.15801962 -0.08667782
-0.037025128 0.097213715 0.06454248 0.07572953 0.046022315 -0.046171844 -0.038062006 0.051344283
-0.29691896 -0.048585743 -0.09768335 0.14968608 -0.04215534 -0.07972005 0.14623688 0.14786151
0.060170744 0.031356286 -0.08028491 -0.0407371 -0.13168864 -0.10164866 0.0008353953 0.078382365
-0.02327282 0.042843554 0.046115365 0.26056373 0.09062848 0.029560013 0.26297623 -0.098345324
0.011118442 0.0024905251 0.037146922 -0.015609146 -0.1684156 0.023094222 -6.0010734e-06 -0.003427355
0.058622137 -0.08545064 -0.0017406536 -0.052786916 -0.15721254 -0.09898507 0.10882049 -0.06267532
0.05409387 0.026404655 -0.0670113 0.17076491 0.022793937 0.08692246 -0.0581376 -0.15540564
-0.12048241 -0.105187386 0.027726935 0.08408893 0.005190237 0.11837927 -0.063621946 -0.106459215
0.1251183 0.21912123 -0.10152902 -0.031333048 0.13306029 0.15683152 0.14650524 0.040441815
-0.027643574 -0.05427241 0.12524197 -0.025588628 -0.04207774 -0.093361706 -0.25198448 0.09573243
0.04184496 0.14033796 -0.11755208 -0.03304242 -0.14028934 -0.17437029 -0.034407202 -0.13563696
-0.09076029 -0.082787834 -0.056926236 0.046538334 -0.11377719 -0.06249833 0.0400341 -0.063286364
0.06920397 0.08948257 0.1275759 0.0010959491 -0.019368684 0.0542169 0.08904832 -0.08105802
-0.027535506 -0.02807542 0.20473854 -0.008702651 -0.19358252 -0.07290989 0.01882402 -0.08571201
0.0145813925 0.052972585 0.21785592 0.0018336358 -0.019654606 -0.10697034 -0.05800701 -0.11693064
0.28290126 -0.12564786 -0.19984415 -0.10052636 0.01284153 -0.027453687 -0.09544552 0.21613431
0.25998497 -0.055000443 -0.043793358 0.01963323 0.024900729 0.05632986 -0.039873254 -0.013939853
-0.2307206 0.0045024916 0.03881218 -0.013511831 0.10677066 -0.045966547 -0.08551815 0.050418243
0.0714402 -0.016320692 0.16200121 -0.03267778 0.007822823 0.0054340954 0.027624002 0.2797562
7.148071e-05 0.039064314 0.015515473 0.11067998 -0.046965517 0.26034805 -0.07561736 0.08591895
-0.13748825 0.053150404 -0.114094466 -0.055258367 0.19617039 0.14966075 0.045195553 -0.15279175
-0.1230532 -0.010361672 -0.21790867 0.09830345 -0.08226426 -0.1772551 0.04569511 -0.19040407

final_linear.bias f4 [50]
00000000: 539c 953d 8d15 a8bc 265c c5bc b0a7 25bd
00000010: a814 25bd 742c 8bbc 8fc6 33bd 44b2 12bd
00000020: 9296 e1bc cfee 6bbb 247f cebc ae43 0bbd
00000030: 88d5 17bd 1b9a 253b 4052 20bd f85f 42bd
00000040: fba7 65bc 72b7 a1bc 61e9 19bd 289a 8abc
00000050: 7a90 58bc 97fd 48bd 2b98 30bd d517 96bc
00000060: 1986 c0bc 9e3f e03b 6f2f b3bc ccd0 6cbc
00000070: e812 97bb 7430 30bc 3fc4 d0bc 2e5d 28bc
00000080: 5ca9 02bd 2978 71bc 8535 39bd 4f8f abbc
00000090: da26 27bd 093f 9bbc d5f6 98bc 2737 32bc
000000a0: 9265 b6bc c90b 55bc 1da9 a5bc ab72 3dbc
000000b0: 39c5 0bbd daa8 38bd c475 c4bc b042 12bd
000000c0: 33e4 edbc d54b f8bc
0.07305207 -0.020518089 -0.024091791 -0.040443122 -0.040302902 -0.01698897 -0.043890532 -0.03581454
-0.027537618 -0.0036000495 -0.02520711 -0.03400009 -0.037068874 0.0025268856 -0.03914094 -0.047454804
-0.0140171 -0.019740794 -0.037576083 -0.01691921 -0.01321804 -0.049069967 -0.04311387 -0.01832191
-0.023501443 0.0068435213 -0.021873204 -0.014454078 -0.004610408 -0.01075374 -0.025484202 -0.010276122
-0.031899795 -0.014738121 -0.045217056 -0.020942358 -0.040808536 -0.018950956 -0.018672386 -0.010877407
-0.02226523 -0.013003298 -0.020222241 -0.0115629835 -0.034123633 -0.045082904 -0.023981936 -0.03570813
-0.029039478 -0.030309597
