option_hedging/hyperparameters/dqn_hyperparameters/double/year/0.0/dqn_model.pth (torch, 163736 bytes, 8 tensors)

linear1.weight f4 [128, 3]
00000000: 96f1 efbe cb26 c8be db00 343e cbda cabe
00000010: dbc2 0bbf 6842 2d3e 95e1 223e d6f7 0a3f
00000020: 7f3d 813d 4bfa e83e 257e 343f 0ae9 dcbd
00000030: 9887 a13d 268c e8be 5e68 25bf 6031 5e3e
00000040: 0dab 9f3e 0edb 3f3e 2e7e be3d f08a 16bf
00000050: 179c a43c 60e3 86bd 3589 d3bd 94fb 703c
00000060: 333e 1f3f d05a 463f b29b 6cbd 22ac 7e3e
00000070: fc1d eabe e4f7 dbbd 82e8 6bbd cae4 cfbe
00000080: f7e5 f53c c4fe ca3e 35ae 463f a6bb 08bd
00000090: 05eb 3b3e dcce b83e d7a3 3e3d fb3d e6bb
000000a0: c0ec b9bd 79a3 a8be 402d 863e 7859 393f
000000b0: 3184 473d 88cf f73c 67d6 8cbe 30ec 58bf
000000c0: e2d0 4a3e 8ca6 4a3f 6bcb 8f3d 6835 0c3f
000000d0: 6222 133f abe2 6e3e 6c48 de3d 42e9 4b3f
000000e0: f356 453e 770a 9bbd c4c8 093e 2d65 c1bc
000000f0: 7f17 7f3e ef72 1f3f 9cf7 993d 68fc 86bd
00000100: a9e7 43bf 6661 ae3d 3322 273e a859 febe
00000110: 3c88 67bc dadf ab3e ebc1 583f 53bd 8e3d
00000120: cea5 6e3c 5d89 f8be 8dc9 8dbd 6f6c 0b3f
00000130: 7c7c 1d3f 6feb 253e e85e 913e 1f25 563f
00000140: 97dc db3c 62d8 073d a7f2 a1be ea10 52bf
00000150: 2add a23e 5b32 debe 9f62 46be 32ee 8a3e
00000160: a779 153f fbf5 6f3d 49a5 783e 9ff0 d33e
00000170: 4a6a ce3d 3f80 933e f650 f13e 955d c73d
00000180: a846 a93e 9a3f 063f c90b 613c de82 acbe
00000190: 7a3d 23bf b5de 683e 3b8b ee3e 5286 cd3e
000001a0: c094 29bd 5319 fabc d0ae 84be 92fa 47bf
000001b0: 0775 573e 429e 4b3f f79f af3d 23af d93e
000001c0: eee0 043f be89 b3bd 2c62 633e 600b 263f
000001d0: ebf2 3f3d c916 c5bd 6848 30bd c2da dc3a
000001e0: 9e80 7f3e a096 303f 2026 683d b61a 803e
000001f0: 80c7 32be 4065 2ebe c8e5 5f3e 40ed 153f
00000200: 4601 3a3d 98be b63e 0bd8 633f 1674 9b3d
00000210: 0945 a83d cfbf 223f 6deb fc3d 3ad4 103e
00000220: bbab 99be c544 003a 2682 25bd b0c5 b9be
00000230: 8e8d 3abf dc20 b6bc 19a7 4f3d 8db9 00bc
00000240: 9120 9e3e 6515 193f e0b8 a93d 5d23 db3d
00000250: f1af 08bf 98f4 28bc 9278 8d3e 408a 003f
00000260: ed14 6cbb efac afbd ea03 49bf efb8 ce3d
00000270: 63b6 2b3e 7f4b f33e 121a 303e 6e40 f8bd
00000280: 66d3 333f 9db6 c03d 835d 083f e087 3a3f
00000290: b9ac 38bc 2e3b d53d 095f dbbe 6d4c 85bd
000002a0: f731 053f 2d96 b13e 6eca 373d 53e6 debe
000002b0: cdbd 26bf 2d1b 403e 5c90 d13d 2b42 bdbd
000002c0: 782c 3fbf 12ee cd3c 2bde 9fbe 7d29 53bf
000002d0: 69a0 aa3e b30b 493f 94bc 5a3d cfde a53e
000002e0: 720b 213f cb92 f03d 5130 fd3e c126 4b3f
000002f0: 5c57 f8bd dc88 d03e 2a26 bb3d 972f b9be
00000300: 50e9 483e 71f8 20bf 79e5 d0bd 0169 db3e
00000310: d0c9 523f 758d bf3d f4c1 333e 358e 223f
00000320: ff03 ae3d 5f23 4abd d596 0e3d 4855 19bb
00000330: a415 be3d bf38 273f 1567 a73d db9c b63e
00000340: 036b bbbc 00f7 9ebe b976 b7bc 7718 4abf
00000350: 3de1 a23d 93bf 7b3e b3c0 f63e 6434 643d
00000360: cef9 543e 0489 203f a805 ad3d ae84 293e
00000370: 511a b4be d951 99be e50d b53e 162d 123f
00000380: bcd8 3b3d 09ab 0dbc 8f74 193d 2930 23bc
00000390: ceb6 d33e f0d0 fb3e 5b07 033e 7e01 1dbe
000003a0: d0c9 cfbd c03f 503e edbf 4d3e fcab 1b3f
000003b0: 21d9 ce3d b1e3 8f3c 3ab9 d0be cec1 27bf
000003c0: 27fd e9be 7a16 51bf 453b 533e 96f2 afbd
000003d0: 3dc2 e73b 3047 1ebc c3cc 9b3e e171 203f
000003e0: 2f84 763d 0aaa bf3d 4cad 7bbe 39ae 5bbf
000003f0: 5307 803c 9f10 0cbf f2e4 233d 3687 cebd
-0.46864003 -0.39092097 0.17578451 -0.3962005 -0.545942 0.16919863 0.15906365 0.5428442
0.063105576 0.45503458 0.7050498 -0.10786636 0.078871906 -0.45419425 -0.64612377 0.21698523
0.3118519 0.18735906 0.093014106 -0.5880575 0.02009396 -0.06586337 -0.103289045 0.014708418
0.62204283 0.7748232 -0.05776567 0.24870351 -0.45726 -0.10740641 -0.057594784 -0.4060424
0.030016882 0.39647496 0.7760957 -0.03338208 0.18351372 0.3609532 0.04654297 -0.0070264316
-0.090783596 -0.3293722 0.26206398 0.72402143 0.048710052 0.030250326 -0.27507326 -0.84735394
0.19806245 0.7916038 0.07021221 0.5476899 0.5747434 0.23328654 0.10853657 0.796528
0.1927145 -0.075703554 0.13455492 -0.023607815 0.24911307 0.6228475 0.07517931 -0.065911114
-0.7652536 0.08514671 0.1632164 -0.49677777 -0.014131602 0.33569223 0.84670895 0.069697045
0.014565898 -0.485423 -0.069232084 0.5446233 0.61518073 0.16203092 0.2839272 0.8365039
0.026838584 0.033165343 -0.31630442 -0.8205706 0.3180936 -0.43397793 -0.19373558 0.27134854
0.5838875 0.058584195 0.24281801 0.41394517 0.10078867 0.28808782 0.4713208 0.09734646
0.3306172 0.524408 0.01373572 -0.33693594 -0.6376568 0.22741206 0.465906 0.4014154
-0.041401625 -0.030529654 -0.2591462 -0.78116715 0.21040736 0.7953836 0.08575433 0.4251643
0.51905715 -0.087665066 0.22205418 0.64861107 0.046862524 -0.096234865 -0.043037802 0.0016849863
0.24951407 0.68979836 0.056676984 0.2502038 -0.17458916 -0.17030811 0.21864998 0.5856514
0.04541137 0.35692286 0.8900153 0.07590501 0.082162924 0.63573927 0.123495914 0.14143458
-0.30013832 0.000489306 -0.040407322 -0.36283636 -0.72872245 -0.022232465 0.050696466 -0.007856739
0.3088422 0.5979827 0.08287215 0.107001044 -0.53393465 -0.010312222 0.2763105 0.5021095
-0.0036023215 -0.08577906 -0.785216 0.10093867 0.16768794 0.47518536 0.17197445 -0.12121664
0.70244443 0.09409831 0.5326769 0.7286358 -0.011271649 0.10411678 -0.42845944 -0.06508718
0.52029365 0.34684888 0.044870786 -0.43535098 -0.65133363 0.18760367 0.102326125 -0.09241136
-0.7467723 0.025137935 -0.31224188 -0.8248518 0.33325508 0.78533477 0.0534025 0.32396552
0.6290809 0.117467485 0.49450925 0.7935601 -0.121260375 0.40729415 0.091381386 -0.3616912
0.19620252 -0.6287909 -0.102000184 0.4285355 0.8233919 0.09353153 0.17554456 0.6349824
0.08496856 -0.04935014 0.034811813 -0.002339678 0.09281471 0.6532096 0.08173958 0.35666546
-0.022878176 -0.3104782 -0.022395479 -0.7894358 0.07953117 0.24584799 0.48193893 0.055714026
0.20798418 0.6270907 0.084483445 0.1655452 -0.35176328 -0.29945257 0.35362163 0.57100046
0.04586099 -0.008646735 0.037464675 -0.009960213 0.41350406 0.49182844 0.12795775 -0.153326
-0.101459146 0.20336819 0.20092745 0.608093 0.10100008 0.017564626 -0.40766317 -0.655301
-0.45700952 -0.8167492 0.20628078 -0.085911915 0.0070727156 -0.009660527 0.30429658 0.62673765
0.060184654 0.09358604 -0.24577826 -0.8581272 0.015628492 -0.5471286 0.04001326 -0.10084383

linear1.bias f4 [128]
00000000: 0fe5 d83e 3dac a23e f1be 25be a6fe 0bbe
00000010: 4e4f e0bd 9d78 88bd 56d1 ab3e 2183 0abd
00000020: 8371 b9bd 7c69 c13e 0385 fe3e 4624 fcbd
00000030: 1a66 1ebe 1d8f 7e3e 9109 bdbd c998 18bd
00000040: 48e4 e2bd adce bcbd b11d b7bd 0000 0000
00000050: b21a 37be 59ec a53e af34 fc3e 89b7 febd
00000060: e4f8 f23e a8ec d8bd 634e f8bd 812c 6ebd
00000070: 5f07 ba3e fc14 2cbe af0b 0abe 6ef8 b3bd
00000080: 8ed0 19be af5b 7a3e 2ebc ebbd 47f2 f7bc
00000090: c0d9 00be 94dd e3bd 52a9 3dbe ab3d 77bc
000000a0: 05e7 0abe 6ac1 403e 5818 f0bd 7de2 19be
000000b0: 45c1 f9bd 0f7f ab3e 6b4e 12bd 3244 81bc
000000c0: ca50 c7bd 29b8 893e 5ddf 1fbe a25c 953e
000000d0: b868 acbd 6b28 81bd 2418 a4bd 4c5e b03e
000000e0: 9cd7 88bd 290a b73e c62b fcbd 8563 5dbd
000000f0: b487 e5bd c3dc d7bd 0425 bebd 7dde 6d3e
00000100: 8d43 ca3e c631 19be 59c9 d6bd dd4b cbbc
00000110: a964 c3bd 235f 763e 43b8 a03e 9cfc 0ebe
00000120: 3d85 efbd 347b 8a3e c2be 8fbd 2b18 17bd
00000130: 797a e4bd c72d 3e3c 62d6 dcbd 75eb 95bd
00000140: 41dd c93e f3e6 42bc 0fd7 cebd e96b acbd
00000150: 1a7a 893e 18a0 02bd 203b 6abd 1995 943e
00000160: d31f 5fbe 236f a33e 98c0 13be d955 a8bd
00000170: 3fb4 7ebd 827c e63e 7712 58bc db46 97bd
00000180: 0114 0cbd 9ecd e23e 4238 79bd d1a6 feba
00000190: 1e77 e03e 53b1 d9bd 70cc 09be f7c2 f3bd
000001a0: d71e c9bd 9f23 703e 4709 06be 9e1f 463e
000001b0: afe4 bebd 1235 2cbd afaa 953e 6459 a13e
000001c0: cba4 2fbe 14a9 99bd ad41 d03e 4a02 d13e
000001d0: a92a f4bd 64b4 efbc 788f 8d3e d6d6 793e
000001e0: 5004 f0bd a835 683e ec25 8e3e 7f80 e3bd
000001f0: 9435 03be b174 d53e d7a7 cbbd 3b0f edbd
0.42362258 0.31772032 -0.1618612 -0.1367136 -0.10952626 -0.0666363 0.33558148 -0.03381646
-0.09054854 0.3777579 0.49710855 -0.12311606 -0.15468636 0.24859281 -0.0923034 -0.037255082
-0.110786974 -0.09219108 -0.0894121 0.0 -0.17881277 0.3240688 0.49258944 -0.1243735
0.47455513 -0.105920136 -0.12124326 -0.05814791 0.3633375 -0.1680488 -0.1348102 -0.087876186
-0.15020964 0.24449037 -0.11510502 -0.030266894 -0.12583065 -0.11126247 -0.18521622 -0.015090386
-0.1356469 0.18823782 -0.11723393 -0.15027805 -0.12195066 0.33495376 -0.035719316 -0.015779588
-0.09732206 0.26898316 -0.1561255 0.29172236 -0.08418411 -0.06306537 -0.08012417 0.34446943
-0.06681749 0.3574994 -0.123130366 -0.054049987 -0.11207524 -0.10540154 -0.09284404 0.23229404
0.39504662 -0.14960393 -0.10487623 -0.024816448 -0.09540684 0.2405973 0.3139058 -0.1396355
-0.11695335 0.27047122 -0.07018806 -0.036888283 -0.11156172 0.011607594 -0.10783078 -0.073203005
0.39426616 -0.011895883 -0.10099613 -0.0841902 0.2685097 -0.03189096 -0.057185292 0.29020002
-0.21789484 0.31920728 -0.14428937 -0.08219499 -0.062183615 0.45016867 -0.013187996 -0.073865615
-0.034198765 0.44297498 -0.060844667 -0.0019428377 0.4384088 -0.10629525 -0.13456893 -0.11902421
-0.09820335 0.23451088 -0.13089477 0.19347998 -0.09320962 -0.0420428 0.29231784 0.31513512
-0.17152707 -0.07502952 0.40675107 0.4082206 -0.11922199 -0.029260822 0.2764852 0.2439836
-0.117195725 0.22676718 0.27763307 -0.11108493 -0.12813407 0.4169059 -0.09944122 -0.115751706

linears.0.weight f4 [128, 128]
00000000: b311 e2bc 7476 e33d b6b8 0b3b 3df3 623d
00000010: 9ea2 dfbd 7dec 4fbd 406f 053d 738f a13d
00000020: b14b 57bd f7b9 9cbd b72b 77bd 821d c33d
00000030: 95fa 5ebc 61df 88bd d36e 23be 8873 87bb
00000040: da07 863c 7df7 90bd c991 76bd 7263 f03b
00000050: d499 b63d b833 02bb a4e7 9b3d 6f31 ae3d
00000060: 6548 6b3c 70c2 efbc 979a 76bd 5f6b 5e3c
00000070: 78b2 b7bd 42b6 4ebe 55c1 dfbc d135 0cbd
00000080: b15e 09bc 2873 95bd 9a2e 56be c88f f93d
00000090: 3581 4f3d 3fcd 203c 8dea 553d 62ac 5dbc
000000a0: 041e acbc f7c9 78bd c706 5d3d 7633 07bd
000000b0: e0d6 1bbd 17f4 f93a 8db8 a2bc 4c04 5d3e
000000c0: 4a1a dc3d 722d 793b de0a 48bd eadd 60bd
000000d0: c06d 273e 06a7 993c 8f39 3ebc 2f10 c1bc
000000e0: 6d38 f1bc 5473 35bd 4703 4ebd 1a95 67be
000000f0: 0d04 103c 2c07 d2bd 0324 273d 4e2a 9e3d
00000100: 9bd5 aebd c698 8fbd 02fb 003e 9e23 933d
00000110: a8c6 a5bd f129 36bd 9573 46be 7309 173e
00000120: f959 b93d 8848 933b e91e 19bd 4f46 7e3c
00000130: be1e 77bd bead 563c 1124 8d3c e674 89bd
00000140: 046d 98bd 200f b63d 3f67 0c3c cfda 48be
00000150: a55d d53c 3641 263c 0d31 e7bd 792f 653d
00000160: 028d 89bb 7a28 c73d bd31 c2bc 833f f43c
00000170: 32d8 8ebd 28fd 553d cc27 0ebd f2ec 1c3e
00000180: 2bd3 e4bd 8f3d 363d cdfc ea3c 382f 693d
00000190: c619 3c3d e267 ddbc 8166 abbc 1903 873d
000001a0: 51de 25be 5774 27be 4255 ce3b 23a5 1fbd
000001b0: 95dd 0fbe a1b6 fabc 5609 b2bd dea0 b0bd
000001c0: 941f d73d 203d 753c 0e3e bb3c 0a62 80bd
000001d0: cefd 01be 1f29 f33c f541 1f3d 6668 713e
000001e0: 88c3 213e f3f3 0a3d 8c59 463e 3d94 2ebd
000001f0: 6454 00be f420 b93b 946c 993d f520 debc
00000200: 9153 82bb f57f 7e3d 1fc0 1e3e dca7 7bbd
00000210: c07d bc3d a8ed 383d 74bb 87bd fa04 6ebc
00000220: 1ee4 483d 162c 04be 4108 a8bb 62a9 7fbb
00000230: bdc3 873b 8ec1 94bd 2419 acbd 9058 00bd
00000240: 1c18 b7bd 8962 82bd 490c 383e 674f 763d
00000250: 7dae 95bc b423 c93d c11f 23bd 8fec e6bd
00000260: 24ad c5bd ca9e 8bbd 7f20 9fbd 3cfe b83d
00000270: 7275 99bd 609b c2bd 0b75 933d f500 d23c
00000280: 144a a23d d7f9 903c 99ef 113d dfcc 993d
00000290: 8b0c 67bd 019e 9fbd 3566 9c3d 5ddd 91bc
000002a0: 7563 8cbd fc4a 73bd 8505 efbd 6a8b b5bd
000002b0: e2f3 c3bd db60 413d 92e0 b2bd 5f36 763e
000002c0: 104d 903d bcf3 bbbc 9610 b2bc 15de b93d
000002d0: e7fc 633d 5221 e63d bf05 0d3d f80d c83c
000002e0: e363 90bd 4db8 c539 2771 603d 9826 bdbb
000002f0: f143 0c3e f6d0 1f3a 9107 c3bc bef7 18bd
00000300: 4221 0bbd 33b4 da3c 2658 d4bb 923a d93c
00000310: 7a7c 50bd f31c 83bd d5ff 3fbd 0c06 c7bc
00000320: 76ab 59be 1f10 323e c398 83bd fb3a 533d
00000330: bc81 3fbd 3895 4f3d 2bdb a6bc eaa8 05bd
00000340: 0610 a0bd aadd babd da4d 813d bfda 75bd
00000350: 6919 2f3d 5c83 a9bd 21d5 acbc d18d e9bc
00000360: 4585 8b3d e25c 163c 6327 dfbd 97ac 6fbd
00000370: d0b5 393c fd4d 2fbc 2aa7 f13c 6fc4 f8bc
00000380: f5f9 62bd 0285 903c 09bf 96bd eab3 01be
00000390: 9fa5 96bd a76b 963d 9c27 79bd 7a7e a33a
000003a0: a8a9 9ebc cc8b 25bd 5390 ab3d d7e3 84bc
000003b0: f9d3 0f3d 7b15 083d 928f 803c c18b e73c
000003c0: 12d3 1f3e 026c d2bd ed5f 1e3e 72f6 e9bd
000003d0: 3f17 bf3d 472a c83d 1469 cebd 383b 683d
000003e0: 838a eabc 06ed d33d 0b11 403c 8697 b4bd
000003f0: cead 063b 800b 4bbd 6c0c 9cbc 47e1 0f3d
-0.02759633 0.111065775 0.0021319813 0.05540775 -0.10919689 -0.050762642 0.0325768 0.07888689
-0.05256242 -0.076526575 -0.060344424 0.095271125 -0.013609548 -0.06683231 -0.15960245 -0.0041336454
0.016361166 -0.07078455 -0.060197625 0.0073360736 0.08916059 -0.0019867253 0.07612541 0.085055225
0.014360522 -0.02926752 -0.060206022 0.013575404 -0.08969587 -0.20186713 -0.027313868 -0.03423101
-0.008384393 -0.07297355 -0.20916215 0.12185627 0.05066033 0.0098145595 0.05222564 -0.013529869
-0.021010406 -0.060739484 0.05396154 -0.03300806 -0.038046718 0.0019069937 -0.019863391 0.2158367
0.10747202 0.0038021472 -0.04883849 -0.054899134 0.1635046 0.0187564 -0.011610403 -0.023567287
-0.029445851 -0.04429944 -0.050296094 -0.22615471 0.008790028 -0.10255274 0.040805828 0.07722913
-0.08536836 -0.07011561 0.12595752 0.07184528 -0.08094531 -0.044473592 -0.19380029 0.14749698
0.09050364 0.0044947304 -0.037382994 0.015519693 -0.060332052 0.013102947 0.017229112 -0.0671175
-0.07442668 0.088896036 0.008569538 -0.19614719 0.02604563 0.010147383 -0.112886526 0.055953477
-0.0041977176 0.09724517 -0.023705358 0.029815441 -0.0697483 0.05224338 -0.034705922 0.15324762
-0.111730896 0.0444923 0.028684998 0.056929797 0.045923017 -0.027027074 -0.020922901 0.06592388
-0.16198088 -0.16352974 0.0062967846 -0.038975846 -0.1404937 -0.030604662 -0.08693187 -0.08624433
0.1050407 0.014968187 0.022856738 -0.062686995 -0.12694475 0.029682694 0.03888126 0.23574981
0.15797246 0.033924054 0.19370097 -0.04262184 -0.12532192 0.0056496803 0.07491413 -0.027115325
-0.003977247 0.062133748 0.15502976 -0.06143938 0.092036724 0.04514852 -0.06627551 -0.014527554
0.049045675 -0.12907442 -0.005127937 -0.0039010872 0.004143207 -0.0726348 -0.08403233 -0.03133446
-0.089401454 -0.0636645 0.17973436 0.060134318 -0.018271679 0.09821263 -0.039825205 -0.11275589
-0.096521646 -0.06817396 -0.0776987 0.09032866 -0.07493104 -0.09502292 0.072000585 0.025635222
0.079242855 0.017697258 0.03562889 0.07509779 -0.056408446 -0.07793809 0.07636682 -0.01780575
-0.068549074 -0.059397683 -0.11670975 -0.08864482 -0.09568001 0.04721151 -0.0873424 0.24044178
0.070459485 -0.02294337 -0.021736424 0.09075562 0.05566111 0.11236824 0.034429308 0.024420723
-0.07050302 0.00037712083 0.05479541 -0.005772423 0.13697793 0.0006096506 -0.023807319 -0.03734564
-0.033967264 0.026697254 -0.0064802347 0.026517186 -0.05089996 -0.06402006 -0.04687484 -0.024294876
-0.21256813 0.17388962 -0.06425621 0.05156992 -0.046754584 0.050679415 -0.02036818 -0.032631792
-0.07815556 -0.0912431 0.06313677 -0.060023066 0.042748842 -0.08277008 -0.021097722 -0.028510006
0.068125285 0.009177418 -0.10896184 -0.058514204 0.011334851 -0.010699746 0.029498655 -0.030367104
-0.05541416 0.017641548 -0.07360656 -0.12666288 -0.073558085 0.07344752 -0.06082879 0.0012473606
-0.019368008 -0.040416524 0.08377137 -0.016221924 0.035114262 0.03322361 0.01569346 0.028264882
0.1560786 -0.10274507 0.1546628 -0.11423959 0.09330606 0.09773689 -0.10078636 0.0566971
-0.0286305 0.10347943 0.011722813 -0.08817963 0.0020550373 -0.049571514 -0.019048892 0.03512695

linears.0.bias f4 [128]
00000000: 0000 0000 8bcd 23bc b59d aabd 9183 b6bc
00000010: 1df9 42be 0f8e d13e 1ffc c7bc 5857 15be
00000020: a1a3 c53e 32ee c4bd db6e f2bd fe33 eebc
00000030: 0431 b2bc 21d9 9a3e aae0 cebb e8a0 f2bc
00000040: 1ac9 0bbd 19a4 58bc 9706 72bd 19b5 15be
00000050: 1974 0cbd bb56 07be 6561 8dbd ff82 0ebd
00000060: cb64 c9bc 6716 593e 493e b43a ac66 83bd
00000070: f0ef bebd 2fd8 38bd 940e 1ebc dc3d 20be
00000080: 8808 c5bc 1d7d d3bd daa4 4bbe daa1 68bc
00000090: 919a c7bc d383 28be b518 0cbd e224 68be
000000a0: 116c 2abe e595 63bd 87c7 083e 3061 c2bc
000000b0: 96ea 05be 0000 0000 465f 92bd 8400 90bc
000000c0: 9497 cfbc c86a 63be 5fa3 03be 93f9 623e
000000d0: 17b8 5dbd 56d0 9e3e 3ebf a73e 3a9d a3bc
000000e0: f915 ca3c cab8 80bd a0de 95bc fc4b e0bd
000000f0: f615 7c3e 8a60 22bd 6483 18be 32e0 cb3e
00000100: 3d87 e73e 7d82 1dbc f0b9 723e 623b 8d3e
00000110: 4e5b 62bd 53c0 2ebd 726c b6bd e8af a0bc
00000120: bd4d d4bd 60d0 f4bd 2eb5 32be 1694 093d
00000130: 0804 29be 6b00 d1bd fdf8 cfbd faf3 903e
00000140: 5302 3fbe 974e 07bd da68 afbc b30d 95bc
00000150: 2728 a5bd 8523 babd bc71 7ebd 41ca 13be
00000160: 48be e8bd 97c4 e1bd 6d90 48bc a1fc eebd
00000170: ec1d b43d 60c0 c23e c387 06be d7b0 d0bd
00000180: 155d 633e a9c0 d6bc 25ec f03e db2f 983e
00000190: 3031 08be e7d3 b2bc 31f5 d0bd f141 6bbe
000001a0: 3828 aa3e 0e0d d3bd 1a80 f4bd c5ca b1bc
000001b0: 2b06 30bd 4eaf 07be e36e f9bb 2ce5 08bd
000001c0: a3fd a23e 296c 14bd 5da9 53bd 78b0 713e
000001d0: f3e1 0fbc 05a2 9abd 12d2 b43e 365d 183f
000001e0: b8cb c7bd 3c6c 81bc 1d87 d2bc 0000 0000
000001f0: 368c 17be 068b dabc d59b 41bd 8451 9ebc
0.0 -0.009997736 -0.083308615 -0.022279533 -0.19040342 0.40928695 -0.024412213 -0.145841
0.386014 -0.09615745 -0.1183755 -0.029077526 -0.021751888 0.3024378 -0.006313403 -0.029617742
-0.034127332 -0.013222718 -0.059088316 -0.14619865 -0.034290407 -0.13216679 -0.06903342 -0.034792896
-0.024584195 0.21199952 0.0013751473 -0.064160675 -0.09323108 -0.045128044 -0.00964703 -0.15648597
-0.02405192 -0.10326598 -0.19887105 -0.014198745 -0.024365695 -0.16456537 -0.03420325 -0.2267032
-0.16642787 -0.055562872 0.13357364 -0.023727983 -0.13077769 0.0 -0.07147078 -0.01757837
-0.025340833 -0.22208703 -0.1285529 0.22165518 -0.05413064 0.31018323 0.32763094 -0.019972432
0.02466868 -0.06285246 -0.018294632 -0.10951993 0.24617752 -0.039642848 -0.14893872 0.39819485
0.45220366 -0.00961363 0.23703742 0.27584368 -0.055262856 -0.042663883 -0.08907403 -0.019615129
-0.1036639 -0.11953807 -0.17451927 0.03358849 -0.16505444 -0.10205158 -0.101549126 0.2831114
-0.1865323 -0.033033933 -0.021412302 -0.018195009 -0.08064299 -0.09088806 -0.062120184 -0.14432622
-0.11364418 -0.11023825 -0.012241465 -0.11669279 0.0879477 0.38037395 -0.13137726 -0.101899795
0.22203477 -0.026214914 0.47055164 0.2972401 -0.13300014 -0.021829559 -0.102030165 -0.22974373
0.3323381 -0.10305224 -0.11938496 -0.021703133 -0.042974632 -0.13250467 -0.0076120957 -0.03342168
0.31834134 -0.036235962 -0.05167519 0.23602474 -0.008781898 -0.07550434 0.3531652 0.5951723
-0.09755653 -0.01579868 -0.025699193 0.0 -0.1479958 -0.02667762 -0.047267754 -0.019325979

linears.1.weight f4 [128, 128]
00000000: 32cf 01be 531b 5d3d 6f85 4dbe 31f2 69be
00000010: c97f 483e b696 4a3e dc5c d5bd fce7 233d
00000020: b6f3 bd3e e24a 10be 8495 c33d 7790 f8bd
00000030: 49d8 8ebd 52e6 4d3e 1047 01be 2ff2 093d
00000040: 09af 353d 3a55 0b3d a003 25be 5734 0e3e
00000050: 537a e1bd 6790 e6bc d2d5 ccbd a7ed d13d
00000060: 5ffa 91bc 433a afbd 344d c2bd 2f01 72be
00000070: 7ceb d33d 2cd0 9a3d 47ec 423d e723 0e3e
00000080: d343 68bc 63ea 81bd c1ab 443e 8f7d c4bd
00000090: ae46 af3d 6abb 773d 91ee e0bd 1906 a23e
000000a0: 0afe 7c3e 2622 62be cffa 6c3e a458 68bd
000000b0: 19cd a53d cece 03bd 34fb ddbd b2e9 023e
000000c0: 5529 32bd 1126 253e c275 993e 3181 f9bc
000000d0: 107e 05bd ac18 c73d ecb9 553e 22ee 95be
000000e0: 59e7 4d3d 5052 55be 3776 f3bc 6c5a 9cbd
000000f0: 02db 7a3d f2dd 213e ac48 e2bc f905 983e
00000100: 1dff c73e 3d9d 943c 1460 fc3d 0ef3 88bd
00000110: 4464 813d aa74 843d 0502 0dbd 0177 823d
00000120: 1db9 6fbe 1dd0 fc3d 236d b13e fc9a f13d
00000130: e234 b53d 2ba4 47be 8c2e bfbd 42cd 62be
00000140: e18a 693d f30c 5d3c d2ac 1cbc c192 fbbd
00000150: ce85 09be 8ade 11be 7cfc 90be 9fd0 973d
00000160: bff8 443e feaf da3d 0d6d ed3b e080 40be
00000170: 330b 703e d2c9 b63e 9a8a e53d ef6a babd
00000180: 12c6 623e 1377 993d 1548 e33e 730b d13d
00000190: 4bfd 0bbe 84e5 a43c b754 57bd b838 6a3e
000001a0: 1ed9 c83e d091 edbd 4d77 d3bd e0e9 58be
000001b0: a857 583c aa4e 933d 4750 cd3c 7072 593d
000001c0: 561b 963e 6ed1 d83d 0b1f 623c 893e 803e
000001d0: e812 90bc 56bc 64bd 0754 ed3e 8c08 a83d
000001e0: bf12 f7bd 09a3 713d 50bb 6cbd 022e 233d
000001f0: 37f3 18bd 3fb9 0b3e 1c11 963b 1cea 1abe
00000200: 8f93 453d 359e 59bd 3f97 ee3d a8df 3ebd
00000210: af94 043d b73c 79be 7ff3 e83d d177 10bd
00000220: 5719 b6be f857 1b3d 832d fb3c 167e b63b
00000230: 8edc 86bd 6063 9cbe 83e3 a73b 8777 ddbc
00000240: dee7 77bb f99b 6e3e 6666 ff3d 1dd9 123e
00000250: b0c2 8e3e 7221 c3bc 678d bf3e 0a63 e6bd
00000260: fffa 28be 3e26 c23c d1bb 08bb f047 56bd
00000270: 7d0d 173c 1a28 693e 3add 65bd 795b 88be
00000280: bfe2 4e3e a6f1 b63d b5df a0bd f955 3dbd
00000290: 9861 573d a514 c93c bc5f b8bd 0478 823a
000002a0: 73ef 763b eca8 213e 8a54 863d fdd0 013e
000002b0: 4002 823d a2ce 0d3e ea9f 7b3d 87ac 833d
000002c0: 56d4 063d 137e 233e 4899 23bc 5cb0 e83e
000002d0: 6edc 35bd 4cb5 b8be 3098 67be 2d25 403e
000002e0: 16d6 3ebd c78e bc3d f818 5fbd 1581 023d
000002f0: 9310 493e 3218 7a3d cb25 9e3d 2516 82be
00000300: 39d3 bbbe b8d6 d23d e957 5d3e 4d08 f4be
00000310: 509d ef3d 83c4 6abd a2d2 b3bd 653f 923d
00000320: 839f e33d 5198 1dbe 7070 76bd 43ee 9cbe
00000330: 9ef0 3d3d d950 003e 4d0c 523e eabd 1f3f
00000340: 9055 34bd 44de 5f3d 7660 7f3c 5d58 2abd
00000350: 9844 ad3e ee4a d43d 4b42 903e 149a 0bbe
00000360: 2e80 8f3d d188 b93d eb3d a1bc a864 093e
00000370: 2ba2 253e f066 c1bc aca0 e13d 57ef 3b3e
00000380: 39fb 7e3e 6bf3 283d a750 8dbe 7e8f efbd
00000390: e9d1 eb3d 55fe 1bbc 6b44 17bb b18c c63b
000003a0: 1c76 83bc f9b5 3d3e c5ab 4dbe 9168 c63d
000003b0: 0fff 033d d70e 8ebd 6ed7 24be 9213 ca3d
000003c0: 4982 62be b945 fe3d b3b3 9fbd d20a e4bd
000003d0: a061 f9ba 5d53 193d 4dfb a9bd e52d bbbd
000003e0: 7edd ea3d 3d2d d1bd 2ffe 0d3d fd4f fc3c
000003f0: 315a 5a3e f52d 103e 8be6 213e 7108 5c3e
-0.12676695 0.053981137 -0.20070432 -0.22846295 0.19579996 0.19784054 -0.10418102 0.04001616
0.371 -0.14091066 0.09550002 -0.121369295 -0.06974847 0.20107391 -0.12624764 0.03367823
0.04435638 0.034016825 -0.16114664 0.13887154 -0.110096596 -0.028145028 -0.100017205 0.10250407
-0.017819582 -0.085560344 -0.094873816 -0.23633264 0.103476495 0.07559237 0.047588613 0.13880883
-0.014176327 -0.06343534 0.19206144 -0.09594261 0.08558403 0.060481466 -0.10983003 0.31645277
0.24706283 -0.22083339 0.23142551 -0.05672516 0.0809576 -0.032179646 -0.10838929 0.1278446
-0.04349645 0.16127802 0.29972655 -0.030457111 -0.032590926 0.09721503 0.20871705 -0.29283243
0.05026946 -0.20832181 -0.029719455 -0.07634434 0.06124402 0.15807322 -0.027622543 0.29692057
0.39061823 0.018141383 0.12323013 -0.06686984 0.06317952 0.064675644 -0.034425754 0.063703544
-0.23410459 0.12344382 0.34653577 0.11797139 0.08847977 -0.19496219 -0.0933505 -0.22148612
0.05701721 0.013491857 -0.009562688 -0.122838505 -0.13429949 -0.14245048 -0.2831763 0.07412838
0.19235514 0.10678099 0.007245666 -0.18799162 0.23441772 0.35700852 0.11208077 -0.09102427
0.2214587 0.07493415 0.44390932 0.10207262 -0.13670842 0.020128973 -0.052571025 0.22873199
0.39228147 -0.11600077 -0.10325489 -0.21182966 0.013204493 0.07192738 0.025062693 0.05308765
0.2931773 0.105868205 0.0138013465 0.2504771 -0.01758714 -0.055843674 0.4635317 0.08204755
-0.120641224 0.058993373 -0.057795823 0.0398388 -0.037341323 0.13644885 0.0045796763 -0.15128368
0.048236426 -0.053129394 0.11649942 -0.046600014 0.03236836 -0.24339567 0.11374568 -0.035270516
-0.35566208 0.03792569 0.03066135 0.00556923 -0.06585036 -0.30544567 0.005123557 -0.027034534
-0.0037827413 0.23301686 0.12470703 0.14340635 0.2788291 -0.023819659 0.3741257 -0.11249359
-0.16501997 0.023699876 -0.00208639 -0.0523147 0.009219524 0.22769204 -0.05611918 -0.26632288
0.20203684 0.089328095 -0.07855169 -0.046224568 0.052583307 0.024545977 -0.09002635 0.000995398
0.0037679344 0.15787095 0.06559093 0.12677379 0.063480854 0.13848355 0.061431803 0.06429391
0.032917343 0.15966062 -0.009985276 0.45447052 -0.04439967 -0.3607582 -0.22616649 0.18764181
-0.046590887 0.0920692 -0.05446717 0.031861383 0.19635229 0.06105823 0.07722052 -0.2540752
-0.36684588 0.102948606 0.21615566 -0.47662583 0.11699927 -0.057316314 -0.087804094 0.07140998
0.11114409 -0.15390135 -0.060165823 -0.3065053 0.04637205 0.12530841 0.20512505 0.6239916
-0.04402691 0.05465533 0.015586963 -0.041588176 0.33841395 0.10365854 0.28175578 -0.13632995
0.0700687 0.09059299 -0.019682845 0.13417304 0.16175143 -0.023608655 0.11016974 0.1835302
0.24900521 0.041247766 -0.27600595 -0.11697291 0.115146466 -0.009521087 -0.0023081552 0.006059252
-0.01604753 0.18526448 -0.20085056 0.09687913 0.032225665 -0.06936424 -0.16097805 0.09867014
-0.22120012 0.12415642 -0.07797947 -0.11134876 -0.0019026287 0.037433017 -0.08299885 -0.09139613
0.114680275 -0.10213707 0.034666236 0.03079986 0.21323468 0.14080031 0.15810601 0.21487595

linears.1.bias f4 [128]
00000000: 52a4 463e 9840 c33b 4e87 3b3e de93 e33d
00000010: 226a e5bc 9574 debc cc26 ad3e bb1d d0bc
00000020: 4282 1e3e 0000 0000 4539 50bc 31a3 963e
00000030: 248a 753e b1e3 68bd 7bb2 3c3e e557 a5bc
00000040: 551a a3bc 0000 0000 1d4e d9bb 71bf 503c
00000050: a2a9 173d 29aa dcbb 9dd7 1dbc b1d8 69be
00000060: 70e3 963e ef32 2fbc 6a74 81bd d837 453e
00000070: e444 d73d 82d0 babb a951 06bd 180d a93e
00000080: c8d2 14bd 97fe 253e 9493 38bc a04d 94bc
00000090: 26a6 0e3e 25a8 c43b 751c 683e f759 c73d
000000a0: 8e0f fa3d 9fbe 023c 215c 1dbc be01 543c
000000b0: fad5 38bd 7b2c 603e e2b0 afbc 78db 33bc
000000c0: e290 82bc c10e 73bc 2599 b03d 9d89 dcbc
000000d0: 748c 4b3e 0db3 0abc 9f88 9cbc f7d9 f1bc
000000e0: f3a8 273d 3d1b 8bbd 3e73 9c3c b696 a9bc
000000f0: aba3 62bd c208 46bc 5fcb 103d 9d7c fd3c
00000100: 3da6 e8bc f265 31bd e572 d9bc b37b 8cbc
00000110: c8f5 a3bc f78f 5e3d 5339 d13d ae60 cabd
00000120: add7 c4bc 7cfe 2fbd 5250 b5bc f2c6 dcbc
00000130: 35f5 37bc f3c5 acbc 7090 91bd 4c0b 163e
00000140: 8e5c fcbd 1d1a 1c3e c4ce dfbd e259 a73e
00000150: dfee 93bc 2d03 bebb 7e7b 1c3e 42fa 3fbe
00000160: 18b5 f13d 93a1 803d 95b8 d1bc c0a4 ae3c
00000170: 33d0 4cbb fc90 abbd 5d82 923e dc6c 5dbc
00000180: 3bb7 073d 63a9 003c 22e1 8dbc a8ac 963e
00000190: 748a 3ebb 70a4 333e 84a0 1d3e 743a a9bc
000001a0: 0000 0000 5632 bf3b 6da9 073e 5354 04bb
000001b0: e0a2 253e fc31 ec3e 94b8 b63d 3793 02bc
000001c0: 37d8 bfb9 8edc 5dbc 702d 19bc 0000 0000
000001d0: ea9d 2f3e 8327 13bd f02d 83bc 4910 8bbc
000001e0: afb5 4fbc ce79 dfbc 1581 7f3d b592 b83e
000001f0: df70 3abd 0000 0000 09e8 94bc 28c0 39bd
0.1939862 0.005958628 0.18313333 0.11112188 -0.02800471 -0.0271552 0.33818662 -0.025404802
0.15479377 0.0 -0.012708967 0.2942138 0.23978478 -0.05685777 0.1842746 -0.020183513
-0.019910017 0.0 -0.0066316263 0.012740956 0.03702701 -0.006734152 -0.009633926 -0.22836567
0.29470396 -0.010693296 -0.06321032 0.19259584 0.10511187 -0.0057011256 -0.03279272 0.33017802
-0.03633383 0.162104 -0.011265654 -0.01810342 0.13930568 0.0060014897 0.22667105 0.09733956
0.12209998 0.007980018 -0.009604485 0.0129398685 -0.04512594 0.21891968 -0.021446649 -0.010977618
-0.015938226 -0.014835061 0.0862296 -0.026921088 0.19877797 -0.008465541 -0.019108115 -0.029522879
0.040932607 -0.06792305 0.01909792 -0.020701747 -0.055331867 -0.012087049 0.0353502 0.03094321
-0.028399581 -0.043310113 -0.026544044 -0.017148828 -0.020014659 0.054336514 0.10216012 -0.098817214
-0.024028623 -0.042967305 -0.022133026 -0.026950333 -0.0112278955 -0.021090483 -0.071076274 0.14652747
-0.12322341 0.15244336 -0.10928109 0.32685763 -0.018058239 -0.0057987184 0.15281484 -0.1874781
0.11802119 0.06280818 -0.02560071 0.021318793 -0.0031252026 -0.08377263 0.28615084 -0.013514724
0.033133727 0.007852885 -0.017319266 0.294286 -0.0029074224 0.17543197 0.15393263 -0.020657755
0.0 0.005834858 0.13248225 -0.0020191863 0.16175413 0.46131885 0.08921924 -0.007969669
-0.00036591451 -0.013541354 -0.009349212 0.0 0.17150083 -0.035926353 -0.016013116 -0.016975539
-0.012677594 -0.02727976 0.06237896 0.3604943 -0.0455178 0.0 -0.01817705 -0.04534927

final_linear.weight f4 [51, 128]
00000000: ee06 37be dd50 923e 44b1 fabb 3a56 073e
00000010: 6a8b 403e 86c1 c13c 91e7 6c3e a116 04be
00000020: 4844 983d 864f 77bc 07a1 243e 07ab 99be
00000030: 0288 fa3d 74a6 043e 455d 89be 0da9 073e
00000040: e8be cabc c244 b13c 6b1a 25bd c9d6 ca3d
00000050: db2d 233e e915 f7bd 1490 a53c 1c39 9ebc
00000060: 3c2a 90bd aba2 01bc 3790 773d 3323 9d3c
00000070: f4ec fb3d c3bf de3d 7f88 5ebe 8599 af3d
00000080: 0fe8 9cbd 8d45 c6bd 8d8d 0c3c ca31 56be
00000090: 385f 90bc 2bff 12be ed13 413d bba1 39be
000000a0: 4b6f 8fbe 1087 2cbd 9c51 9abc c2ba 18be
000000b0: 3a73 893d 7409 9a3c 7061 ad3d 6ab6 6ebc
000000c0: 60ac 953b 12b0 abbc 623f bdbc 7e59 033a
000000d0: d202 983d 8035 dcbd b462 eeba efde 153e
000000e0: 6662 2c3e 46ec 9e3d 81a0 003f 4523 f3bd
000000f0: db2c ec3d 4c7f 8dbd 2d35 97bd cf7c 4fbe
00000100: 140d 5abe 90fb bd3e fdeb 87be ffcb ef3d
00000110: 015d 043e f12b 14be 806f f8bd ae6c eabd
00000120: c850 f9bd 8d5b 773d b0b3 cd3b df3d e5bd
00000130: c19b 033e b213 e1bb 293f febd 1d0a 1dbe
00000140: dae5 913d e444 143e d44a 073e 4190 4ebe
00000150: e641 ff3d 77c4 6cbd 4020 3fbe c119 c8bd
00000160: 612c 83bd a732 31be 84ce c83d bf8d 973e
00000170: 6eb8 a8bd 1811 9dbd eb48 a2bc 3d11 e2ba
00000180: 0d05 fcbd 6e36 a73d b0e4 0f3e ab51 433e
00000190: 967d 303e 4ce9 5bbe bd71 273e 47df 1d3d
000001a0: e849 a5bd 5c46 273d 9027 9b3d 0688 3fba
000001b0: 54d6 113d 4ac5 193e d476 313e bf0b 513d
000001c0: a30c a23c 6934 44bd 6369 d63d e893 723d
000001d0: edba 2fbd 866e 8ebd 17f9 4f3d c4dd 23bd
000001e0: 02e4 1abe 4e8e 9d3d f8b4 36be 369b bc3d
000001f0: ff97 1bbe cb56 fabc 18e6 ac3e 454d 97bd
00000200: 2365 bc3d 5b38 8cbb 0cff 113e dcf8 f9bc
00000210: b966 653c b9fb 0f3d 4744 90b9 4706 30bc
00000220: 79d7 f93d 9afe 4e3d 19d6 ac3b ca1b 00be
00000230: 3078 643d efe1 eebd f424 b9bd 916b a7bd
00000240: dbe1 7bbb 73b4 b3bd 930b 9dbd 10c9 1d3d
00000250: c4e7 02be 5477 cebd 856b 183e 8ed4 04bd
00000260: 9244 7dbc 7e7b 20be 730d 2abe 9953 543e
00000270: 3b66 1abc 2ec0 c2bd 6708 debd 810c a53e
00000280: 7e56 2cbe 60d0 ca3d 07f3 6bbe d3ea 21ba
00000290: 6527 5c3b c171 83bd 213e 0d3e 0eee 70bc
000002a0: fc76 f0bd 234c d8bd 2cf7 63bc 18e1 a1bc
000002b0: 6a0d 84bd d9a1 2ebe 30b9 003e 0f95 693c
000002c0: e3c6 7bbc 277f cbbc 0d30 863c 7572 453e
000002d0: f09d 47be 32d0 b4bc 4b86 c33d d8b5 743d
000002e0: 967f b83d 5394 c43d e9c2 c03e babe 34be
000002f0: 120f 11be b932 693d 805e ca3b a667 95bd
00000300: a019 53bd b946 643e 56ee 973d a1da 30bd
00000310: 87a8 70bd 5cf3 af3d 8154 7fbe 98af 0bbe
00000320: b1d0 4f3d 4dac db3d cda5 b63d 9fa9 d13d
00000330: 9f82 fe3d 6e09 b0bd ea5b d2bd 242f 0ebe
00000340: d101 fdbd 1f37 7dbd 7b25 063f 7680 a93c
00000350: b4f3 2a3d 90af c53d ff45 25bd cc1c 09be
00000360: c8b1 72bc 00fd 9ebe 545f 2fbd 507a 31bc
00000370: 4443 f83d a413 b33d 1a2f a53d 5d43 003d
00000380: b0af 0dbe 7bb9 543e f3ce b4bd cd38 d63d
00000390: 45d1 0b3b e3cd 083e 44f2 e5bd 1ffd 393e
000003a0: 14d5 be3c 5267 89bd 56bf 9a3e 3d51 2cbe
000003b0: 53b3 e4bd fe02 8fbc 887b a13e 577a 463d
000003c0: e733 ba3c ad2b e7bd c79a 59bd ebc0 173e
000003d0: 35ee 1fbe 2689 093e 430b e23c 5306 243d
000003e0: 9de7 ef3c 2e1c c5bc 6c74 7cbe ad73 dcbd
000003f0: 7998 07bd ae76 97bd 8493 003e 6457 0d3e
-0.17873737 0.2857732 -0.0076505262 0.13216487 0.18803182 0.02365185 0.2313521 -0.12899257
0.074348986 -0.015094643 0.16077052 -0.30013296 0.12232973 0.12954122 -0.26828972 0.13248082
-0.024749234 0.021639232 -0.040308397 0.09904248 0.15935461 -0.12064726 0.020210303 -0.019314341
-0.070393056 -0.007912318 0.06044027 0.019181823 0.123010546 0.108764194 -0.21731757 0.085742034
-0.07661449 -0.096812345 0.00857867 -0.2091743 -0.017623529 -0.14355151 0.047138143 -0.18128102
-0.28014597 -0.042120993 -0.018837743 -0.14914992 0.06711431 0.018803336 0.0846585 -0.014569858
0.004567668 -0.02095798 -0.023101512 0.0005010589 0.07422413 -0.10752392 -0.0018187375 0.14635824
0.16834411 0.07759909 0.5024491 -0.118719615 0.11531993 -0.069090456 -0.07383189 -0.20262454
-0.21294051 0.3710599 -0.26547232 0.11708831 0.12926103 -0.14469887 -0.12130642 -0.1144651
-0.12173611 0.060390044 0.006277524 -0.111934416 0.12852384 -0.006868803 -0.124143906 -0.15335889
0.07123919 0.14479405 0.13212138 -0.20172216 0.12463741 -0.05780455 -0.18664646 -0.09770537
-0.06404949 -0.17304479 0.09805015 0.2960033 -0.08238302 -0.07669276 -0.01981016 -0.0017247569
-0.12305651 0.081646785 0.14052081 0.19074123 0.17235407 -0.21475714 0.16351981 0.038543012
-0.08070737 0.040838584 0.07575905 -0.0007306341 0.03560479 0.15016666 0.17330486 0.051036593
0.019781416 -0.047901545 0.1046932 0.059223086 -0.042902876 -0.069546744 0.05077466 -0.040006414
-0.1512604 0.07693158 -0.17842472 0.09209292 -0.151947 -0.030558964 0.33769298 -0.07387785
0.09198978 -0.004279179 0.14257449 -0.030514173 0.014001542 0.03515217 -0.0002751669 -0.010743684
0.12199301 0.050535776 0.005274546 -0.125106 0.055778682 -0.11664187 -0.090402514 -0.081748135
-0.003843418 -0.08774652 -0.07668223 0.038521826 -0.12783724 -0.10081354 0.14884765 -0.03242927
-0.015458243 -0.15672109 -0.16606693 0.20735015 -0.009423788 -0.095093116 -0.10841446 0.32236102
-0.16829869 0.099030256 -0.23041926 -0.0006176654 0.0033592817 -0.06418181 0.13793232 -0.014705194
-0.117414445 -0.10561397 -0.013913911 -0.019760653 -0.06447871 -0.17053927 0.12570643 0.01425673
-0.0153672425 -0.024840904 0.016380334 0.19281943 -0.19493842 -0.022071932 0.09547099 0.059743732
0.0900871 0.09598603 0.37648705 -0.17650881 -0.14165905 0.05693314 0.006175816 -0.0729516
-0.05153811 0.22292604 0.07418506 -0.04317725 -0.05875447 0.08591339 -0.2493458 -0.13641202
0.050736133 0.10726223 0.08918343 0.10237431 0.12427258 -0.085955486 -0.102714375 -0.1388517
-0.12353862 -0.061820146 0.5240094 0.020691138 0.04173632 0.096526265 -0.040349957 -0.13389891
-0.014812894 -0.310524 -0.04281552 -0.010832384 0.12122205 0.087439805 0.080656245 0.031314243
-0.1383655 0.2077388 -0.08828535 0.10460053 0.002133445 0.1335979 -0.11227849 0.18162964
0.023294963 -0.0670916 0.30224103 -0.16827865 -0.11167016 -0.017457481 0.3153956 0.048456516
0.022729827 -0.11287627 -0.053126123 0.14819686 -0.15618213 0.13431224 0.02759326 0.040045094
0.029285247 -0.024061289 -0.24653786 -0.10764251 -0.033104394 -0.07395683 0.12556273 0.13802868

final_linear.bias f4 [51]
00000000: 4270 bbbd f090 bc3d ec0d a2bd 0a8b 42bd
00000010: 4d5f b8bd c2d3 62bd dc1b 40bd 18ae 9dbd
00000020: 43f9 2dbe d2d0 7fba d8c8 01bc 539e 24bb
00000030: 6776 423d 4a98 173c 3639 b4bb ff2a 14be
00000040: bccc 2bbe ed69 513d ba03 8dbd 17fd 60bd
00000050: fd17 563c a966 fabc 7a6a 1abd 751d 513c
00000060: d0c6 a0bd 7a1a 8f3d a134 07bd 6f22 6fbc
00000070: 7967 503e 9d8b 153d ab88 213c 78d6 1a3e
00000080: 516a 383d 6d56 413d 6132 35bd b611 dc3c
00000090: 3eb2 113e 1403 c83c fc71 063d 2f75 823b
000000a0: 82a2 853d f205 633d bcba ea3d df0e e13c
000000b0: eb29 313e 0ffb 33bd 7d63 59bc c795 163d
000000c0: 6125 9ebd 1cdc 313d 7106 abbd
-0.09152271 0.09207332 -0.07912812 -0.04749588 -0.09002552 -0.05537773 -0.04690157 -0.076992214
-0.16989617 -0.00097585947 -0.00792142 -0.0025118783 0.0474762 0.009252617 -0.005499984 -0.14469527
-0.16777319 0.05112641 -0.068854764 -0.054928865 0.013067243 -0.03056653 -0.0376992 0.012763371
-0.078504205 0.06987472 -0.033009175 -0.014595612 0.20351972 0.0365101 0.009859244 0.15120876
0.045023266 0.047201563 -0.0442375 0.026863914 0.1422815 0.02441553 0.032823548 0.0039812545
0.065251365 0.05542559 0.11461398 0.027472911 0.17301147 -0.0439406 -0.013268349 0.036763933
-0.07721973 0.043422803 -0.08350838
