option_hedging/hyperparameters/pg_hyperparameters/year/0.0/best_pg_model.pth (torch, 138056 bytes, 7 tensors)

linear1.weight f4 [128, 3]
0	0xbde5e232	-0.11224784
1	0xbd30cdd0	-0.043165028
2	0xbea93c21	-0.33053687
3	0x3cec825e	0.028870758
4	0xbd357c5f	-0.044308063
5	0xbd89c46d	-0.06726918
6	0xbda013b5	-0.07816259
7	0xbd18f96d	-0.037347246
8	0xbe07f0b1	-0.1327541
9	0xbd6c883a	-0.057747103
10	0xbe813504	-0.2523576
11	0x3e8a0ade	0.26961416
12	0x3d3de84d	0.046364117
13	0x3d6a12d9	0.05714688
14	0x3e27c357	0.1638311
15	0x3e168281	0.14698221
16	0xbd9d9ff3	-0.076965235
17	0x3e1bb3fa	0.15205374
18	0x3e41ba1a	0.18918648
19	0x3e44ab09	0.1920587
20	0xbd3c3941	-0.04595304
21	0xbe36dccc	-0.17857665
22	0xbdc3ecf9	-0.09566683
23	0xbe24e316	-0.16102251
24	0x3c68a935	0.014200498
25	0x3daf6fcb	0.08566245
26	0x3e6f85fa	0.23390952
27	0x3dbccae5	0.092183866
28	0xbd1bf930	-0.03807944
29	0xbdccad2d	-0.09993968
30	0x3e294789	0.16531195
31	0x3bd4ab25	0.0064901286
32	0xbd911a22	-0.070850626
33	0xbc520950	-0.012819603
34	0xbe1f6c15	-0.15568574
35	0xbde0bd5d	-0.10973618
36	0xbdb14a4d	-0.0865675
37	0x3d0a63b6	0.033786498
38	0x3d936422	0.07196833
39	0x3e3d399a	0.18479005
40	0x3d8966bf	0.067090504
41	0x3d66436f	0.056216653
42	0x3e59d6d7	0.21273361
43	0x3dda074b	0.10645922
44	0xbcb75687	-0.022380127
45	0x3e147a63	0.14499812
46	0xbe5f7843	-0.2182322
47	0xbd8d4515	-0.06897942
48	0xbc6a288c	-0.014291894
49	0x3da61825	0.08110074
50	0x3d36f419	0.044666383
51	0x3ad27806	0.0016057498
52	0x3df710cd	0.12063751
53	0xbe0e6b0d	-0.13908024
54	0x3c8e6077	0.017379982
55	0x3d97d3cf	0.07413446
56	0xbd7b95dd	-0.061422218
57	0xbd1e91e2	-0.038713343
58	0xbdf78739	-0.120863385
59	0x3ddeeeb3	0.10885372
60	0x3d409189	0.047013793
61	0xbd1f866d	-0.038946558
62	0x3d6f4b93	0.058421683
63	0xbe06c788	-0.13162053
64	0xbc499876	-0.012304416
65	0xbdfbcca7	-0.12294894
66	0x3dfd7f8e	0.12377845
67	0xbe33b785	-0.17550476
68	0xbde052db	-0.109533034
69	0x3cb4bc7a	0.022062529
70	0x3de6ae39	0.11263699
71	0xbd09a7b8	-0.033607215
72	0xbdad3433	-0.08457222
73	0xbdc1e960	-0.09468341
74	0x3db0afb0	0.0862726
75	0xbe4453de	-0.19172618
76	0x3d422123	0.047394883
77	0xbba3ac1a	-0.0049948813
78	0x3d78bba8	0.060725838
79	0xbd7fe823	-0.062477242
80	0xbc2466d2	-0.01003428
81	0x3dcd9ea6	0.100400254
82	0xbedf5386	-0.4361841
83	0x3d3733e8	0.044727236
84	0x3c93f3ef	0.018060653
85	0x3e7f3679	0.24923123
86	0xba413c67	-0.00073713664
87	0x3c629ed1	0.01383181
88	0x3d3a2b13	0.045451235
89	0xbcc97e15	-0.024596253
90	0x3dd0ae02	0.10189439
91	0x3e9dd8f7	0.30829594
92	0x3c0c6108	0.008568056
93	0x3d8d3b5a	0.06896086
94	0x3e0e2a20	0.13883257
95	0xbdfdf41d	-0.124000765
96	0xbc73b18e	-0.014873875
97	0xbe44bede	-0.19213435
98	0xbdd7b49c	-0.105324954
99	0xbd64faa8	-0.055903107
100	0x3c05f5f0	0.008176312
101	0xbb9b6577	-0.00474232
102	0x3db6531a	0.08902569
103	0x3df871db	0.12131091
104	0xbe461578	-0.19344127
105	0x3d4f5267	0.050615694
106	0x3ddd0913	0.107927464
107	0xbdc8d8a9	-0.0980695
108	0x3dbdd175	0.092684664
109	0xbd655493	-0.05598886
110	0xbe751312	-0.23933056
111	0x3beba924	0.007191794
112	0x3e9b9865	0.30389705
113	0x3d86ce67	0.06582337
114	0x3e1da12d	0.15393515
115	0xbe4a3b52	-0.19749191
116	0xbc0ada13	-0.0084748445
117	0xbe33da16	-0.17563662
118	0x3e47da13	0.19516782
119	0xb982885e	-0.00024897134
120	0x3e88c8f2	0.2671581
121	0xbe19ed5a	-0.15031949
122	0x3e57b9bb	0.21066944
123	0xbced641e	-0.028978404
124	0xbdf38c48	-0.11891991
125	0xbc03b34b	-0.008038352
126	0xbd225004	-0.03962709
127	0xbca64943	-0.020298606
128	0xbe1324d7	-0.14369522
129	0xbd982c3b	-0.07430311
130	0x3c50378b	0.012708555
131	0x3e800dd1	0.2501054
132	0xbe3bb574	-0.18330938
133	0x3e23c87b	0.15994446
134	0xbe850ae6	-0.25984877
135	0xbddf64d4	-0.10907903
136	0x3d020c7c	0.031750187
137	0xbdc3ee9a	-0.09566994
138	0xbccb1ca5	-0.024793932
139	0xbc7fa4fc	-0.0156033
140	0x3d24c403	0.040225994
141	0xbc3814d3	-0.011235434
142	0x3d3a8312	0.045535155
143	0xbe000992	-0.12503651
144	0xbd27f731	-0.041007224
145	0x3dc5e8fd	0.096635796
146	0x3c17e65d	0.0092712315
147	0x3e4aaa7d	0.19791599
148	0xbc20cd51	-0.009814576
149	0xbcbb9cd2	-0.022901926
150	0xbb76ded1	-0.003766943
151	0x3cc939ef	0.024563758
152	0x3c656cea	0.014003018
153	0xbe37c4ff	-0.17946242
154	0x3af4901e	0.0018658673
155	0xbcc1277c	-0.023578398
156	0x3e095254	0.13410312
157	0x3e550265	0.20801695
158	0x3dc3a5ef	0.09553134
159	0xbdd2d167	-0.102938466
160	0x3d2d902c	0.04237382
161	0xbd84924d	-0.06473217
162	0xbdf990c1	-0.12185813
163	0x3e0312cf	0.12800144
164	0x3d34abfa	0.044109322
165	0xbd32cd32	-0.04365272
166	0xbe6ef8ac	-0.23337048
167	0x3e07646f	0.13221906
168	0xbd9684be	-0.07349537
169	0x3d02cfd1	0.03193647
170	0xbd15ada0	-0.036542535
171	0x3cb75278	0.022378191
172	0xbe9f3f5b	-0.31103024
173	0x3d8e07d1	0.069350846
174	0xbe1560c9	-0.14587702
175	0x3e5962f5	0.21229155
176	0x3ca006c4	0.019534476
177	0xbd5378db	-0.05162893
178	0x3d91b100	0.07113838
179	0x3ca20fbf	0.019782899
180	0xbe27d9c4	-0.16391665
181	0x3e6e8c3f	0.23295687
182	0xbe0d9246	-0.1382533
183	0x3d302e5c	0.04301296
184	0xbdc2ce4d	-0.09512005
185	0x3dc52bd9	0.09627504
186	0xbde6eb7f	-0.11275386
187	0xbc10330b	-0.008801232
188	0x3cb7eabb	0.022450795
189	0x3c7a427b	0.015274639
190	0xbd8793ee	-0.06620012
191	0xbd5d916c	-0.054093763
192	0x3b4ffd40	0.0031736642
193	0xbe3c6147	-0.18396483
194	0xbde0a4bf	-0.10968923
195	0xbd82c7e1	-0.0638578
196	0x3d3a5451	0.045490567
197	0x3ca1abeb	0.019735297
198	0xbe2bae0f	-0.16765617
199	0xbd7c941b	-0.061664682
200	0xbd54bf0b	-0.051940005
201	0xbe3a1b73	-0.18174534
202	0xbe169d8f	-0.14708541
203	0xbd1c87f4	-0.038215593
204	0xbd972ee9	-0.07381994
205	0xbe910751	-0.28325894
206	0xbd33f8bb	-0.04393838
207	0x3c45110f	0.012027993
208	0x3d8461e4	0.06463984
209	0x3e18c79d	0.14919896
210	0x3c478be8	0.012179352
211	0x3cd8eef0	0.026481122
212	0xbe27333a	-0.16328135
213	0x3e53cd3f	0.20683764
214	0x3dbc6a7e	0.09199999
215	0xbe1b13de	-0.15144297
216	0xbe594a75	-0.2121981
217	0x3df0c10d	0.117555715
218	0xbce42af2	-0.02785251
219	0xbd8b397e	-0.06798075
220	0x3d113a06	0.035455726
221	0xbd793d9c	-0.06084977
222	0x3e928bb1	0.286222
223	0x3e09340a	0.13398758
224	0x3df7173a	0.12064977
225	0x3d36b17b	0.044602852
226	0xbeb4f095	-0.353398
227	0x3d711a09	0.05886272
228	0x3e0495b6	0.12947735
229	0x3df7d6d4	0.12101522
230	0x3d1cee1b	0.038313013
231	0x3e2acb96	0.16679224
232	0xbc23e68a	-0.010003695
233	0xbe7bf24a	-0.24604145
234	0x3da3d222	0.07999064
235	0x3da49707	0.08036619
236	0x3dcefe93	0.1010715
237	0x3d07b5af	0.03313225
238	0xbdb49695	-0.08817784
239	0xb81c2e25	-3.7236274e-05
240	0xbe9176e5	-0.28411022
241	0x3d64d4f3	0.055867147
242	0x3d62c4ca	0.055363454
243	0xbc9996d4	-0.018748678
244	0x3d19fc6b	0.03759424
245	0xbe997f22	-0.29979807
246	0x3c45b4ec	0.012067061
247	0xbe9eedcb	-0.31040797
248	0x3e120e7e	0.14263341
249	0xbd424ccf	-0.04743653
250	0x3e23e057	0.16003548
251	0xbe617dbf	-0.22020625
252	0xbe0602e0	-0.13087034
253	0x3e77472c	0.24148244
254	0x3ed0fdf4	0.4081875
255	0xbdcdeabe	-0.10054539

linear1.bias f4 [128]
0	0x3c1a4446	0.009415692
1	0xbc31b899	-0.010847234
2	0x3b728442	0.0037005101
3	0x3c26b45f	0.01017484
4	0x3c6dc62f	0.014512583
5	0xbca69920	-0.020336688
6	0x3cb4b718	0.022059962
7	0xbb1b8fbb	-0.0023736793
8	0x3b071354	0.0020610886
9	0xbc6781fc	-0.014130112
10	0xbc3b0c44	-0.011416499
11	0x3b3d6555	0.002889951
12	0x3c83f190	0.016106397
13	0x3ccd5bf3	0.025068259
14	0xbc17cf5f	-0.00926575
15	0x3b94db6e	0.0045427596
16	0x3d09987d	0.03359269
17	0x3cbecea3	0.023291891
18	0x3c7f6d69	0.01559005
19	0xbc161238	-0.009159617
20	0xbc7fd033	-0.015613603
21	0x3b2f9413	0.002679114
22	0xbbd972a9	-0.006635983
23	0x3ccae9e1	0.024769725
24	0xbc32caf8	-0.010912649
25	0x39c3e5cc	0.0003736451
26	0x3be92e99	0.0071161506
27	0xbc952cba	-0.018209804
28	0x3ced145b	0.02894037
29	0x3bc420f8	0.0059853755
30	0xbcabd373	-0.02097485
31	0xbb319df6	-0.0027102209
32	0x3c491877	0.012273899
33	0x00000000	0.0
34	0x3cbedda0	0.023299038
35	0x3c206652	0.00979002
36	0xbbc706f2	-0.006073826
37	0x3d018d47	0.031628873
38	0x3c896dac	0.016775928
39	0xbb75aade	-0.0037485878
40	0xbc776453	-0.015099603
41	0x3cc7ddec	0.024397813
42	0xbab27353	-0.0013614692
43	0xbcb6740c	-0.022272132
44	0xbbe6a38e	-0.00703854
45	0xb83142af	-4.2262192e-05
46	0x3d0a6420	0.033786893
47	0x3c73be8a	0.014876971
48	0x3c933d6c	0.017973624
49	0x3cfb0cde	0.030645784
50	0xbd29e3b0	-0.041476905
51	0xbbb02cf1	-0.005376451
52	0x3cb4a210	0.022049934
53	0x3b2b0ab9	0.002609892
54	0x3ce07c21	0.02740294
55	0x3c15527d	0.009113905
56	0xb9c20b26	-0.0003701087
57	0x3cf629d3	0.03004924
58	0x3cd4e887	0.025989784
59	0x3cb974f2	0.022638772
60	0x3b8a95aa	0.004229267
61	0x3c1068e9	0.008814075
62	0x3d043c25	0.03228392
63	0x3c81bd40	0.015837312
64	0x3b547745	0.0032419723
65	0xbb34a6df	-0.0027565283
66	0xbb99a3d6	-0.00468872
67	0x3b685aa5	0.003545442
68	0x3cd40a34	0.025883771
69	0x3cc28480	0.023744822
70	0x3c098736	0.008394053
71	0x3bcde674	0.0062835757
72	0x00000000	0.0
73	0x386035d5	5.3455897e-05
74	0xbcf9ef8e	-0.030509736
75	0x3c65ea3c	0.014032897
76	0x3bf0a6b9	0.0073440936
77	0xbc2221e7	-0.009895778
78	0x3cae8939	0.021305667
79	0x3c7f661a	0.015588308
80	0x3d0c1bcd	0.0342062
81	0x3b97690b	0.0046206764
82	0x3c8e1c9c	0.017347626
83	0x3ca0646d	0.019579137
84	0x3b179232	0.002312791
85	0xbce27d03	-0.0276475
86	0x3bbcd260	0.0057623833
87	0x3cabc88a	0.020969648
88	0x3cb7a838	0.02241908
89	0x3b4920ee	0.0030689794
90	0x3cd2de77	0.025740845
91	0xbcc91b86	-0.024549257
92	0x3bc967f7	0.006146427
93	0x3a9c84d9	0.0011941447
94	0xbbf0b5a2	-0.007345871
95	0x3cbf7e96	0.02337579
96	0xbc75c9b0	-0.015001699
97	0x3bd91925	0.006625312
98	0x3cb38490	0.021913797
99	0x3c45a815	0.012064
100	0xbc90adcf	-0.017661003
101	0x3d0042be	0.03131365
102	0xbbe346d5	-0.006935934
103	0x3be416d7	0.0069607305
104	0x3c735c4d	0.014853549
105	0x3c71e20a	0.014763365
106	0x3c8a3939	0.016872989
107	0x3ca8e236	0.020615678
108	0xbbc89eb0	-0.0061224326
109	0x3c811220	0.015755713
110	0xbc44cabe	-0.012011228
111	0x3c8dfab3	0.017331457
112	0x3a1145bd	0.0005541703
113	0x3a4e87ba	0.0007878501
114	0x3cd2a551	0.025713595
115	0x3d0e82c0	0.03479266
116	0x3c0406f6	0.0080583
117	0xbb1330ff	-0.0022459624
118	0xbc91191c	-0.017712168
119	0xbb91f9d9	-0.004454833
120	0x3cf07fbd	0.029357785
121	0xbc8f11b3	-0.017464494
122	0xb8c50eea	-9.39647e-05
123	0x3ceb3bb3	0.02871499
124	0xbb07846f	-0.0020678302
125	0x3c48201c	0.012214687
126	0xbb6552da	-0.003499201
127	0x3cb178fb	0.021664133

linears.0.weight f4 [128, 128]
0	0x3c89072c	0.016727053
1	0xbd6d1121	-0.057877664
2	0x3da63891	0.08116258
3	0xbd9bb3e7	-0.07602673
4	0x3df95f4f	0.12176382
5	0x3d8cc4b8	0.068734586
6	0x3cd8dbf7	0.026472075
7	0xbda83ca7	-0.082146935
8	0x3d91fcd2	0.071283
9	0x3d94c57b	0.07264229
10	0xbdb6abc4	-0.089194804
11	0xbd137f31	-0.03600997
12	0x3d34a187	0.044099357
13	0x3d224389	0.039615188
14	0xbd5d237e	-0.053988926
15	0xbc78f922	-0.015196117
16	0xbc8061ae	-0.015671577
17	0x3e2ced52	0.16887406
18	0xbd7b72c7	-0.061388757
19	0x3e0a9a45	0.13535412
20	0x3cc60277	0.024171097
21	0xbd37f726	-0.044913433
22	0x3c30512e	0.010761542
23	0x3ca5c7e8	0.020236924
24	0xbd05c820	-0.032661557
25	0xbd8bc3eb	-0.06824478
26	0x3db9410f	0.09045612
27	0xbd948dbb	-0.072535954
28	0x3e05e291	0.1307471
29	0x3d88c98c	0.06679067
30	0x3e4ac02a	0.19799867
31	0x3d00adde	0.031415813
32	0xbce9cd16	-0.028540175
33	0xbd4b5375	-0.049640138
34	0x3e89a9de	0.2688741
35	0x3a60a28b	0.00085691427
36	0xbd2b87d9	-0.0418776
37	0x3c8415e0	0.016123712
38	0x3e2e192d	0.17001791
39	0x3e39ec51	0.18156554
40	0xbd607a99	-0.05480442
41	0xba060af6	-0.00051133276
42	0x3bb4c0bb	0.0055161393
43	0xbcf84074	-0.030304171
44	0x3e501e15	0.20323975
45	0x3c500639	0.012696796
46	0xb9fa5fdf	-0.00047755145
47	0x3d2a4572	0.041570134
48	0xbdf4454a	-0.11927278
49	0xbd9cc9b3	-0.076556586
50	0x3df398e8	0.11894399
51	0x3cd9541e	0.026529368
52	0xbe1eb5da	-0.15499058
53	0x3e6f06f5	0.23342498
54	0x3dc67516	0.09690301
55	0xbe3c4c3f	-0.1838846
56	0xbd90af80	-0.07064724
57	0xbd141b63	-0.03615893
58	0x3e0263af	0.12733339
59	0xbbadd20d	-0.005304581
60	0xbd84f869	-0.06492693
61	0x3d578827	0.05262008
62	0x3d797271	0.060900155
63	0x3cd16be2	0.025564138
64	0x3e330cc5	0.1748534
65	0xbde40bea	-0.11135085
66	0xbc128d74	-0.008944858
67	0xbc69e96f	-0.014276846
68	0x3ca204bd	0.01977765
69	0xbd41b93b	-0.04729579
70	0xbdfa7c32	-0.122307196
71	0x3d708f4b	0.058730405
72	0xbb26cc71	-0.0025451446
73	0x3da53559	0.08066816
74	0xbdef8715	-0.11695687
75	0xbd91d0d6	-0.071199104
76	0x3df60149	0.12011964
77	0xbe20e571	-0.15712525
78	0x3cb8a4c0	0.022539496
79	0xbcc41e65	-0.023940274
80	0xbd8cb880	-0.06871128
81	0x3ce69879	0.028148877
82	0xbc129ac7	-0.008948035
83	0x3d907251	0.07053054
84	0x3dc6db44	0.0970979
85	0x3d3d9377	0.04628321
86	0xbd1b0fb7	-0.037856784
87	0x3d61800c	0.055053756
88	0x3ccd321d	0.02504831
89	0x3dc8de2b	0.09808
90	0xbbbd2954	-0.005772749
91	0xbd5cadc6	-0.05387666
92	0x3d201bf5	0.039089162
93	0xbb2866f8	-0.002569614
94	0x3e310c89	0.17289938
95	0xbd800db0	-0.06252611
96	0xbde2ed24	-0.11080387
97	0x3d24424a	0.04010228
98	0xbd4aacc7	-0.04948118
99	0xbc424165	-0.011856412
100	0x3d2fbb59	0.042903278
101	0xbd17cc3f	-0.03706002
102	0x3cf4f41b	0.029901555
103	0xbd92860b	-0.07154473
104	0xbd3ab382	-0.04558135
105	0x3c83f029	0.016105728
106	0x3d9a5556	0.07535808
107	0xbca0aa69	-0.019612508
108	0xbdaf5559	-0.08561201
109	0xbd88c300	-0.06677818
110	0xbe0e8b89	-0.13920416
111	0xbd423d9c	-0.047422037
112	0xbda2dbf1	-0.07952107
113	0xbd14fb3f	-0.03637242
114	0x3de58ac1	0.11208106
115	0xbe051e75	-0.129999
116	0x3d78a678	0.060705632
117	0xbde9655a	-0.113962844
118	0x3c3a9086	0.011386996
119	0x3d47f169	0.04881421
120	0x3d9aeff3	0.07565298
121	0xbd7a4222	-0.061098225
122	0x3d104cd8	0.035229534
123	0x3e229170	0.15875793
124	0x3cb2b2a4	0.021813698
125	0x3c5b4cea	0.013385037
126	0x3ded1872	0.11576928
127	0xbbc38775	-0.0059670755
128	0x3d3807ca	0.044929303
129	0x3dec252d	0.11530528
130	0xbdba366b	-0.09092411
131	0x3e0bd8f4	0.1365698
132	0xbe02f0ae	-0.12787125
133	0x3d953573	0.07285585
134	0xbc28b3d7	-0.010296783
135	0xbd20e9ed	-0.03928559
136	0x3de4aaac	0.111653656
137	0x3db5f2a1	0.088841684
138	0xbd917d17	-0.07103937
139	0x3e0ea8c6	0.1393157
140	0xbdad98e8	-0.0847643
141	0x3dfcc352	0.12341942
142	0x3e4e5114	0.20148116
143	0x3dcf2d05	0.10116009
144	0x3da620b2	0.08111705
145	0xbdfe352c	-0.124124855
146	0xbdaade13	-0.083431385
147	0xbbef1625	-0.007296341
148	0xbd57ffd5	-0.052734215
149	0x3dc57525	0.09641484
150	0x3c4cd306	0.012501484
151	0xbe50d29f	-0.20392846
152	0xbd50fd2d	-0.051022697
153	0xbd389e12	-0.045072623
154	0xbd8e0c50	-0.06935942
155	0x3d617b96	0.0550495
156	0xbd1adc79	-0.037807915
157	0xbbf314bf	-0.0074182446
158	0xbd1707e7	-0.03687277
159	0xbd512147	-0.051057126
160	0xbd2b7d13	-0.041867327
161	0x3cb35f30	0.021895975
162	0xbe2a9315	-0.1665767
163	0x3e38b93b	0.1803941
164	0xbd012076	-0.031525098
165	0xbc864f0b	-0.016395112
166	0x3dba49d8	0.09096116
167	0x3ce267af	0.02763733
168	0x3d941239	0.07230038
169	0xbcef371b	-0.029201081
170	0xbe0007c5	-0.12502964
171	0x3df50be3	0.11965158
172	0xbb2ea854	-0.0026650624
173	0x3dc7a145	0.097475566
174	0x3d851293	0.064976834
175	0xbdec5781	-0.115401275
176	0x3e714976	0.2356318
177	0xbd6726be	-0.05643343
178	0x3c57a159	0.013161027
179	0x3d9ad998	0.07561034
180	0x3baa3a4d	0.0051949383
181	0x3d1ebd57	0.038754787
182	0x3defc2e4	0.11707094
183	0xbdb686da	-0.0891244
184	0xbd15de3b	-0.03658889
185	0x3d03bb2d	0.032160927
186	0xbd84a7e8	-0.06477338
187	0x3c97ec14	0.018545188
188	0x3a935f92	0.0011243692
189	0x3aa8c4f0	0.0012876075
190	0xbd5a1880	-0.05324602
191	0x3d96245f	0.07331156
192	0x3db06693	0.086133145
193	0xbdcc653d	-0.09980247
194	0x3d8c2f66	0.06844978
195	0xbd98d272	-0.07462014
196	0xbd200485	-0.03906681
197	0x3d164ecc	0.03669624
198	0x3dc5ad39	0.0965218
199	0x3d87d0e6	0.06631641
200	0x3d56cfb4	0.052444175
201	0x3e189436	0.14900288
202	0xbd4286dc	-0.047491893
203	0x3dffa292	0.1248218
204	0x3d0bd698	0.0341402
205	0x3c707e98	0.01467862
206	0xbded8a62	-0.1159866
207	0xbd7e7559	-0.06212363
208	0x3c8372ed	0.016046012
209	0x3dd1bf6b	0.10241588
210	0xbd21adc3	-0.039472353
211	0x3d2c1144	0.042008653
212	0xbd7fe0e4	-0.06247033
213	0xbe1b35d8	-0.15157259
214	0xbe27ede7	-0.16399346
215	0xbd6d56ae	-0.057943992
216	0x3de122f9	0.10992999
217	0x3d423d49	0.047421727
218	0x3ce7b5a7	0.02828486
219	0xbca7667b	-0.020434609
220	0xbb5d38b3	-0.003375572
221	0xbd37b6c2	-0.044852026
222	0xbd976871	-0.073929675
223	0xbb40b4d8	-0.0029404666
224	0x3dd4d2f8	0.103918016
225	0xbca809f6	-0.020512562
226	0x3d8ed1c0	0.069736004
227	0xbc64303e	-0.013927517
228	0xbc2a6d35	-0.010402014
229	0x3dbbd06e	0.09170614
230	0xbdfdc24d	-0.123905756
231	0xbddbe2f6	-0.10736649
232	0xbda59f72	-0.080870524
233	0xbd7979b7	-0.060907092
234	0xbd44cab4	-0.048044875
235	0xbdd663e1	-0.10468269
236	0xbe1dcb2f	-0.1540954
237	0x3ddee4dd	0.10883496
238	0x3dbdf057	0.09274357
239	0x3b0329f3	0.0020014017
240	0x3d3160a4	0.043305054
241	0x3e0db355	0.13837941
242	0xbd1eec13	-0.038799357
243	0x3de2fa64	0.110829145
244	0xbd83357c	-0.06406686
245	0x3cfdba94	0.030972756
246	0x3db7768b	0.08958157
247	0x3db9a394	0.09064403
248	0xbdd50c80	-0.10402775
249	0xbb07c0fc	-0.0020714393
250	0x3cc60760	0.024173439
251	0xbdd1d11b	-0.10244962
252	0xbdb1d86c	-0.08683857
253	0x3c3959dd	0.011312929
254	0xbe260a28	-0.16214812
255	0xbba05c80	-0.0048938394

linears.0.bias f4 [128]
0	0x3c8c5d35	0.017134288
1	0xbc1ceb8b	-0.009577642
2	0x3c09a4f1	0.0084011415
3	0x3bdbcfa0	0.0067081004
4	0xbc63f08b	-0.01391233
5	0xbc5215aa	-0.012822548
6	0x3c6e2ad9	0.014536583
7	0x3cc79713	0.02436403
8	0xbc6938fc	-0.014234778
9	0x3cc6b3dc	0.024255686
10	0x3b8eb892	0.0043554986
11	0x3b1cdae3	0.0023934178
12	0x3cdba2b8	0.026810989
13	0x3b6e3240	0.003634587
14	0xbbc71665	-0.0060756677
15	0x3cebff7e	0.028808352
16	0xbb86bc95	-0.004111836
17	0x3ca91f56	0.020644825
18	0x3c5b50c7	0.013385958
19	0xbbddd3b3	-0.0067696213
20	0x3c7b3e50	0.015334681
21	0x3c8530e6	0.016258668
22	0x3cf95590	0.030436307
23	0x3c3943bd	0.011307654
24	0xbb65770d	-0.0035013587
25	0xbcedc30c	-0.02902367
26	0xba0ef4ba	-0.0005453337
27	0x3d03fd81	0.032224182
28	0x3c0dee12	0.008662717
29	0xbc9133ab	-0.017724833
30	0xbb036ee2	-0.0020055105
31	0xbcae47b9	-0.021274434
32	0x3c7079f1	0.014677511
33	0x3c8327a1	0.016010107
34	0x3c8b0f18	0.01697497
35	0x3a513cc7	0.0007981774
36	0x3c8040d4	0.015655912
37	0xbc490fbf	-0.012271821
38	0x3c863c88	0.016386285
39	0x3d11517c	0.0354781
40	0xbc952103	-0.018204218
41	0x3c6b72e1	0.014370651
42	0x3ba8be0e	0.0051496094
43	0x3ce92749	0.028461115
44	0xbcaedf06	-0.02134658
45	0xbd0d0817	-0.034431543
46	0xbbff6d54	-0.0077950153
47	0xba2c3158	-0.0006568632
48	0x3c95ee65	0.018302152
49	0x3b819282	0.0039542327
50	0x3cb4a4b6	0.022051197
51	0x3c87aad3	0.016560948
52	0x3c1e7bf5	0.009673108
53	0xbc92547d	-0.017862553
54	0x00000000	0.0
55	0x3cf83d4e	0.03030267
56	0xbcb32f41	-0.021873118
57	0x3bb45630	0.0055034384
58	0xbc94798d	-0.018124366
59	0xbbb2c268	-0.005455304
60	0xbaf295d1	-0.0018507784
61	0x3bc9cfbd	0.0061587975
62	0x3c137b4a	0.009001562
63	0x3a6b0080	0.0008964613
64	0x3c559310	0.013035551
65	0x3c91681e	0.017749842
66	0x3cb105a3	0.021609133
67	0xb9e05689	-0.00042789083
68	0x3cce17f9	0.025157915
69	0xba9c01d5	-0.0011902401
70	0x3c8ec181	0.017426254
71	0x3b2931c8	0.0025817025
72	0x3cad7951	0.021176012
73	0xba82a0cb	-0.0009966133
74	0xbc114a73	-0.008867848
75	0xbac0cb27	-0.0014708982
76	0x3bb9284b	0.0056505552
77	0xbaa6c9ae	-0.00127249
78	0x3c1d64b1	0.009606526
79	0x3cb55585	0.022135505
80	0x3c91dab6	0.017804485
81	0x3c23c201	0.009994985
82	0x3bed2ca6	0.0072379885
83	0x3c92d4ef	0.0179238
84	0x3c9c707a	0.019096602
85	0x00000000	0.0
86	0xbb67669c	-0.0035308963
87	0xbbb9c1d7	-0.0056688595
88	0xbb624700	-0.0034527183
89	0xbb555f6f	-0.0032558104
90	0xbcba9be6	-0.022779416
91	0x3b7abf45	0.0038260978
92	0xbb569654	-0.003274341
93	0xbc07d711	-0.008291022
94	0x3bb653e7	0.005564201
95	0x3c6ce388	0.014458545
96	0x3c68bb34	0.014204789
97	0x3c606814	0.013696689
98	0x3b987675	0.004652793
99	0xbacfc724	-0.0015852195
100	0xbd0f5e99	-0.035002325
101	0xba20e991	-0.000613832
102	0x3c634caf	0.013873263
103	0x3cc33838	0.023830518
104	0xbd045f75	-0.032317597
105	0x3cdefa85	0.027219066
106	0xbba10036	-0.004913355
107	0x3cbab5b5	0.022791723
108	0xbd088f59	-0.033339832
109	0x3c82bb0a	0.015958328
110	0xbd0596e6	-0.03261461
111	0xbc05a885	-0.008157854
112	0x3c9be5c6	0.019030463
113	0x3b8c99a2	0.0042907754
114	0x3a916227	0.0011091874
115	0x3c774eb5	0.015094449
116	0x3cb1b6d6	0.021693628
117	0xbc2f2c12	-0.0106916595
118	0x3c01f886	0.007932788
119	0x3c08250f	0.008309617
120	0x3c0f51a3	0.008747491
121	0xbb40f2ed	-0.002944167
122	0xbc4f2ca8	-0.012644924
123	0x3c4f1957	0.012640319
124	0x3a819a61	0.0009887927
125	0x3cd10a53	0.025517618
126	0x00000000	0.0
127	0xba182a01	-0.0005804599

linears.1.weight f4 [128, 128]
0	0x3e7d1f83	0.24719052
1	0xbd88a2a3	-0.066716455
2	0xbd05796a	-0.032586493
3	0x3c95e72e	0.018298712
4	0xbbb3d524	-0.005488055
5	0xbd54fea3	-0.052000653
6	0x3de684c6	0.11255793
7	0x3dae0cda	0.08498545
8	0xbd831be3	-0.06401803
9	0x3cbc0faa	0.022956688
10	0x3dda4c7f	0.10659122
11	0xbc76a919	-0.015054964
12	0xbc2d55ba	-0.010579521
13	0xbc6c1ec1	-0.014411629
14	0x3e309f4f	0.17248271
15	0xbe17bf83	-0.1481915
16	0xbcbebb87	-0.02328278
17	0x3d1af24c	0.03782873
18	0xbdb8e3ca	-0.09027822
19	0x3d58067f	0.05274057
20	0x3d9074c8	0.07053524
21	0x3ca053e5	0.019571254
22	0xbdf9b89d	-0.12193415
23	0x3dd74070	0.10510337
24	0x3df3389e	0.11876033
25	0xbdb5e1bb	-0.08880945
26	0x3dae8db0	0.085231185
27	0xbd829fc9	-0.06378133
28	0x3d446ca8	0.047955185
29	0xbd53526c	-0.051592276
30	0xbd731929	-0.059350166
31	0x3e451e3b	0.19249813
32	0x3e1dfb81	0.15427972
33	0xbce06c83	-0.027395492
34	0xbcd0de5d	-0.025496656
35	0x3e2bcc6f	0.16777204
36	0x3c8b06e7	0.016971065
37	0xbd7e4ac5	-0.062083025
38	0xbc82de3f	-0.015975116
39	0xbcb81687	-0.02247168
40	0xbcec0a21	-0.028813424
41	0x3de531bc	0.11191127
42	0x3df3c4b8	0.119027555
43	0x3d3dc01e	0.046325795
44	0x3e03bb61	0.12864448
45	0xbd91992f	-0.071092956
46	0x3d99ae5a	0.07503958
47	0xb9a4f0be	-0.00031459884
48	0xbd276d09	-0.04087547
49	0x3dd26348	0.10272843
50	0x3db081f6	0.08618538
51	0xbd25b8da	-0.04045949
52	0xbdb879b3	-0.09007587
53	0x3e05c265	0.13062437
54	0x3d80d00a	0.0628968
55	0x3d8d718f	0.06906425
56	0x3de3f640	0.11130953
57	0xbcb19d78	-0.021681532
58	0x3db3a130	0.087709785
59	0xbde04cdb	-0.10952159
60	0x3df0af98	0.11752242
61	0x3e03d4d2	0.12874153
62	0x3c6ed1a3	0.0145763485
63	0x3dc22b64	0.09480932
64	0xbdd1f7d8	-0.102523506
65	0xbd2137b3	-0.03935976
66	0xbe9cacac	-0.30600488
67	0x3e09e6fd	0.13467021
68	0x3c157f92	0.009124653
69	0xbd88fc1d	-0.06688712
70	0x3d192a08	0.0373936
71	0xbda7a7b0	-0.08186281
72	0xbca7a5d0	-0.020464808
73	0x3da1f487	0.07907968
74	0xbe2cc69a	-0.16872635
75	0x3c313742	0.010816397
76	0x3d926722	0.07148577
77	0x3d6fefea	0.05857841
78	0xbdd68160	-0.10473895
79	0xbd979062	-0.07400586
80	0x3e32f8db	0.17477743
81	0xbda26b5f	-0.07930636
82	0x3cc0124d	0.023446226
83	0x3e1cfb59	0.15330257
84	0xbe0995c2	-0.13436034
85	0x3d71442a	0.058902897
86	0x3d82a7d9	0.06379671
87	0xbdd766c0	-0.10517645
88	0x3db33c6d	0.0875176
89	0xbe306492	-0.17225865
90	0x3e46d70e	0.19417974
91	0xbdb91e7c	-0.090390176
92	0xbc097cb0	-0.008391544
93	0xbdbd1b3f	-0.092337124
94	0xbce0567b	-0.027384987
95	0xbd88cab8	-0.066792905
96	0x3d144885	0.036201973
97	0x3e316936	0.17325291
98	0xbe1ebf5b	-0.15502684
99	0xbe24ae5c	-0.16082138
100	0x3cd5dc05	0.02610589
101	0x3d82beae	0.063840255
102	0x3d6e2e54	0.05814965
103	0x3d376adb	0.04477964
104	0x3d6786ad	0.05652492
105	0xbda47edc	-0.08032009
106	0x3be921e2	0.007114635
107	0xbe232c31	-0.15934826
108	0x3d0c8075	0.034302194
109	0xbb8c79e8	-0.0042869933
110	0xbd000b98	-0.031261057
111	0x3c0d3204	0.008617882
112	0xbd041fea	-0.032256998
113	0x3d9178fb	0.07103153
114	0xbc34291d	-0.01099613
115	0x3e23dc14	0.16001922
116	0x3da0e79c	0.07856676
117	0xbcd6316b	-0.026146611
118	0xbd1a25a9	-0.03763357
119	0xbdb1814f	-0.08667242
120	0x3bca5d40	0.006175667
121	0x3c057a3b	0.008146818
122	0x3e279ead	0.16369124
123	0x3e380876	0.17971978
124	0x3e187ddb	0.1489176
125	0xbc3600ce	-0.01110859
126	0x3df9e3b6	0.122016355
127	0x3d6372c8	0.055529386
128	0x3d2423d1	0.04007322
129	0x3d81c327	0.063360505
130	0x3d153b77	0.036433663
131	0x3dea8fbb	0.11453196
132	0x3e33eeb4	0.17571527
133	0xbd135f3d	-0.0359795
134	0x3cd6a959	0.026203798
135	0xbe475d15	-0.19469102
136	0xbdc62aa7	-0.09676104
137	0x3e0887d2	0.13333061
138	0x3da9aa7f	0.08284473
139	0xbd51c0b9	-0.051209185
140	0xbe036346	-0.12830839
141	0x3d32302b	0.043502968
142	0x3de19b68	0.110159695
143	0x3d943e45	0.072384395
144	0x3bdbe3dc	0.0067105126
145	0x3db5cb6a	0.08876689
146	0xbe5cfe85	-0.21581466
147	0xbc22947a	-0.009923095
148	0x3e059a85	0.13047226
149	0x3d1e6ef0	0.038680017
150	0x3b26b5fa	0.0025438056
151	0x3e1ce42a	0.15321413
152	0xbd479406	-0.04872515
153	0xbd336056	-0.043793045
154	0x3c65ea1f	0.01403287
155	0xbd706dc6	-0.058698438
156	0x3e4aa160	0.19788122
157	0xbcb79782	-0.022411112
158	0x3e37a408	0.17933667
159	0xbddd8bab	-0.10817655
160	0xbd542b14	-0.051798895
161	0xbd022cba	-0.031780936
162	0xbd42ff08	-0.047606498
163	0x3df74154	0.12073007
164	0xbd485a70	-0.048914373
165	0x3e6fe6e1	0.23427917
166	0x3bc25351	0.0059303422
167	0x3e01d528	0.12678969
168	0xbb0646ce	-0.002048898
169	0x3df1beeb	0.11803993
170	0x3db0aeea	0.08627112
171	0x3e0fd4a6	0.14045963
172	0x3d61ae5d	0.055097926
173	0xbd074dab	-0.033033054
174	0xbd99984c	-0.074997514
175	0xbd9c4337	-0.07630008
176	0xbd2964fb	-0.041356068
177	0x3e38823b	0.18018429
178	0xbde0d198	-0.10977477
179	0xbdda31de	-0.10654043
180	0x3c21fc44	0.009886805
181	0xbd01fe28	-0.031736523
182	0xbe193dd5	-0.14964993
183	0x3d90261a	0.07038517
184	0xbd9fc322	-0.078008905
185	0xbe149e2b	-0.14513461
186	0xbd17fd02	-0.03710652
187	0x3be903f7	0.0071110683
188	0xbd826d78	-0.06368536
189	0x3d0ed1e6	0.034868143
190	0xbd86dfb7	-0.06585639
191	0xbc13b5d6	-0.009015521
192	0xbe5dc869	-0.21658482
193	0x3cea917a	0.028633822
194	0x3cf17de8	0.029478982
195	0xbddd6fa9	-0.10812313
196	0x3d524f03	0.051344883
197	0x3e436dfc	0.19084924
198	0x3cef8255	0.029236952
199	0xbbbeb522	-0.0058199326
200	0xbd2c2b71	-0.042033616
201	0x3e25ed2f	0.1620376
202	0xbd2c4137	-0.04205438
203	0xbdde0bed	-0.108421184
204	0x3db097e3	0.0862272
205	0xbcc68063	-0.024231141
206	0x3cfb9875	0.030712346
207	0x3d5d466a	0.05402223
208	0xbc385183	-0.011249903
209	0x3d3d2270	0.04617542
210	0xbd91803c	-0.07104537
211	0x3d4122e6	0.047152422
212	0x3b7d7ab7	0.003867788
213	0xbd5aac98	-0.053387254
214	0xbd4cefba	-0.05003331
215	0x3d926420	0.071480036
216	0x3d1bebc8	0.038066655
217	0xbdc77077	-0.09738248
218	0x3dad49cd	0.08461342
219	0x3c707cc1	0.014678181
220	0xbdd6d846	-0.1049047
221	0x3d904d41	0.07045985
222	0x3cc050ec	0.023476087
223	0xbcc75c21	-0.024335923
224	0x3d65a704	0.05606748
225	0xbdecd2af	-0.11563622
226	0xbc8a7e61	-0.016905965
227	0xbc982401	-0.018571856
228	0x3e91bc1e	0.28463835
229	0x3d56df2d	0.05245893
230	0x3d83ca4b	0.06435069
231	0x3d1a0471	0.037601892
232	0x3db6d757	0.089277916
233	0xbe1f61f2	-0.15564707
234	0x3cedd1ae	0.029030647
235	0xbbb1c369	-0.005424906
236	0x3d022a12	0.031778403
237	0xbd5743b1	-0.05255479
238	0xbcb57b65	-0.022153566
239	0x3dfb3c47	0.12267356
240	0x3dc07d90	0.09398949
241	0x3e378e9a	0.17925492
242	0xbd758797	-0.05994376
243	0x3b94c608	0.0045402087
244	0xbd61b671	-0.05510563
245	0xbcfed18a	-0.031105775
246	0x3cb9ea1c	0.02269464
247	0x3db5bac7	0.088735156
248	0x3c083aab	0.008314769
249	0xbdae1e2c	-0.085018486
250	0xbd2a5d47	-0.041592862
251	0xbe09b872	-0.13449267
252	0x3bf838b5	0.0075751194
253	0x3cd74827	0.026279522
254	0x3c9b6851	0.01897064
255	0x3cbb85b2	0.0228909

linears.1.bias f4 [128]
0	0x3c0c6195	0.008568187
1	0xbb457c29	-0.003013382
2	0x3b89065c	0.0041816663
3	0x3c597202	0.0132718105
4	0x3b50aadc	0.0031840121
5	0xbb13c06f	-0.002254512
6	0xbc6c1a76	-0.014410606
7	0x3cbb89e9	0.02289291
8	0xbc3ad3c8	-0.011403032
9	0xbc168cf6	-0.009188881
10	0xbc17786f	-0.009245022
11	0x3c57945a	0.013157928
12	0x3b4b4d46	0.00310214
13	0x3c56f083	0.013118866
14	0xbbe3e38f	-0.0069546173
15	0xbc93b93c	-0.018032663
16	0x3c58039e	0.013184456
17	0xbaa666cd	-0.0012695432
18	0xbbf194c8	-0.0073724724
19	0x3b5cec08	0.0033710022
20	0xbbac3893	-0.0052557676
21	0x3c58985f	0.013219922
22	0x3c80a319	0.015702771
23	0x00000000	0.0
24	0xbbcafad2	-0.006194451
25	0xbbf3118e	-0.007417864
26	0x3b9b68d8	0.004742723
27	0x3c231f65	0.0099562155
28	0x3c605ac2	0.013693513
29	0x3c745737	0.014913372
30	0xbc372b39	-0.011179739
31	0x3c94f109	0.01818134
32	0x3c85e069	0.016342359
33	0x3c6cbbe5	0.014449094
34	0x3bff7275	0.0077956268
35	0x3960d02f	0.00021439859
36	0x3c9ce778	0.019153342
37	0xbc2b3e51	-0.010451869
38	0xbc45e2ed	-0.012078029
39	0xbc40f08a	-0.011776099
40	0xbb8723d6	-0.004124145
41	0x3c569c9c	0.013098862
42	0xbcfc35ba	-0.030787338
43	0x3ba76573	0.0051085292
44	0xbbedd674	-0.007258231
45	0x00000000	0.0
46	0xbba3b88d	-0.0049963654
47	0xb88c4a34	-6.6895416e-05
48	0x3c910c57	0.01770608
49	0x3c614a5b	0.013750638
50	0x3c846697	0.0161622
51	0xbc0c6d01	-0.00857091
52	0x3c79bb39	0.015242391
53	0xba9270f8	-0.0011172583
54	0x3a9e9fe5	0.0012102096
55	0x3c57b6f5	0.013166179
56	0x3ab24ee8	0.0013603838
57	0xbc5fef17	-0.013667843
58	0xbbcd138e	-0.0062584346
59	0x3cf3e2ec	0.02977129
60	0x3c25aaaa	0.01011149
61	0x3c56318e	0.013073338
62	0xb8d807c7	-0.00010301131
63	0x3c9f4e44	0.0194465
64	0x3c54bffa	0.012985224
65	0x3c5ff72f	0.013669773
66	0xbb65fe8c	-0.0035094349
67	0x3a60fc55	0.0008582522
68	0xbbacf588	-0.005278293
69	0x3cb9b61d	0.022669846
70	0xbb4dc62c	-0.0031398637
71	0xbb97426b	-0.004616072
72	0x3c5aa609	0.01334525
73	0xbb133eb7	-0.00224678
74	0xbb13ba5b	-0.0022541496
75	0xbc80dd37	-0.015730483
76	0x00000000	0.0
77	0xbc2c14b4	-0.010502983
78	0x3c9fa19f	0.019486247
79	0x3c856315	0.016282598
80	0x3c55b355	0.013043244
81	0x3c80fc43	0.015745288
82	0x3c564793	0.013078588
83	0xbc2d7b0d	-0.01058842
84	0x3cb058c6	0.021526705
85	0x3c8645b9	0.016390668
86	0x3ae881ae	0.0017738843
87	0xbb8ece4d	-0.004358089
88	0x3c5036b2	0.012708353
89	0x3c6a298e	0.014292134
90	0xbc1293eb	-0.008946399
91	0xb9fbe9fc	-0.00048048783
92	0xba5bdc91	-0.0008387054
93	0xbc80077c	-0.015628569
94	0xba9c2afd	-0.0011914667
95	0x3c5689ae	0.013094349
96	0xbc0aee6f	-0.008479699
97	0x3c5620ec	0.013069373
98	0x00000000	0.0
99	0x3b90d6a4	0.0044201184
100	0x3c7ec2ae	0.015549345
101	0xbc82072f	-0.015872566
102	0x3c8ec37c	0.017427199
103	0x3c80346b	0.015649995
104	0x39a51d9c	0.00031493313
105	0xbb9c1849	-0.004763637
106	0x3c929909	0.017895238
107	0xbb08765f	-0.0020822508
108	0x3ce47a28	0.02789028
109	0x3ca3f5c8	0.020014659
110	0x3c3cd0fe	0.011524437
111	0x3c560df8	0.013064854
112	0x3c5598fd	0.0130369635
113	0x3c4b1d37	0.012397102
114	0x3a4e7691	0.0007875944
115	0x3c42f6cc	0.011899661
116	0x3c86a0d6	0.016434114
117	0x3be21a5a	0.006900114
118	0x3c55d401	0.013051034
119	0x3b06f120	0.00205905
120	0x3a17450b	0.0005770481
121	0xbb6c2649	-0.0036033562
122	0x3ca49b7e	0.020093676
123	0x3c639a1f	0.013891726
124	0x3b226382	0.002477855
125	0x3caa04e6	0.020754289
126	0xbbd7d3c0	-0.006586522
127	0x3a92dbfa	0.0011204474

final_linear.weight f4 [1, 128]
0	0x3d57a7f9	0.052650426
1	0xbe43f5d7	-0.19136749
2	0xbdd80293	-0.10547366
3	0x3d4947c3	0.049140703
4	0xbdea2e76	-0.11434643
5	0x3dc7e5c3	0.097606204
6	0xbd8e91ec	-0.06961426
7	0x3d70b97e	0.05877065
8	0xbd25b7b9	-0.040458415
9	0xbd246b86	-0.040141605
10	0xbe284748	-0.16433442
11	0x3dbc3248	0.09189278
12	0xbdca14f0	-0.09867275
13	0x3dec3a97	0.115346126
14	0xbe03f4da	-0.12886372
15	0x3d8c5ee6	0.06854038
16	0x3e0df60f	0.13863395
17	0x3e1c159c	0.15242618
18	0xbda2b767	-0.079451375
19	0xbe1fea37	-0.1561669
20	0x3e08a698	0.133448
21	0x3d2b9304	0.041888252
22	0x3e0a28bf	0.13492106
23	0xbcefa560	-0.029253662
24	0xbeb53cec	-0.35398042
25	0x3da7fee6	0.08202915
26	0xbe9fc7fe	-0.3120727
27	0x3e0e6d06	0.13908777
28	0x3e11ad2d	0.14226218
29	0x3da0a05c	0.07843086
30	0xbd56aa3f	-0.052408453
31	0x3e848106	0.25879687
32	0x3d84bd1e	0.06481384
33	0x3d8a6b02	0.06758691
34	0x3eb4cd19	0.35312727
35	0xbe2600c2	-0.16211227
36	0x3d1c311f	0.038132783
37	0xbea046fd	-0.3130416
38	0xbd809047	-0.06277519
39	0xbd4345ce	-0.047673993
40	0xbcc34b26	-0.023839545
41	0x3de6c163	0.11267354
42	0xbe120ccd	-0.14262696
43	0xbe40dd8a	-0.1883451
44	0xbe386abb	-0.18009464
45	0x3c6ddcc8	0.01451797
46	0xbe39c952	-0.18143204
47	0xbe3969d2	-0.18106773
48	0x3e24a3c7	0.16078101
49	0x3e2ec602	0.17067721
50	0x3dee61cd	0.11639748
51	0x3dd42452	0.1035849
52	0x3e82dda1	0.25559714
53	0xbef54e78	-0.4791143
54	0x3d55c93b	0.05219386
55	0x3d0ccdcb	0.034375947
56	0xbdd4d543	-0.10392239
57	0xbe50ecd6	-0.20402846
58	0xbd411f26	-0.047148846
59	0x3ef4e80d	0.4783329
60	0x3d03b56b	0.032155436
61	0x3df393d1	0.11893428
62	0xbdfb43f7	-0.12268823
63	0x3e47a968	0.19498217
64	0x3e7e5925	0.24838693
65	0x3df92743	0.12165692
66	0xbd49c244	-0.04925753
67	0xbe49fec3	-0.1972609
68	0x3d0cca3a	0.034372546
69	0x3c891d9d	0.016737754
70	0xbe1afbaa	-0.15135065
71	0xbd0b9c74	-0.034084752
72	0x3cbfe65d	0.023425275
73	0xbe343b19	-0.17600669
74	0xbd5af17a	-0.053452946
75	0x3d58f332	0.052966304
76	0x3df3e8d5	0.119096436
77	0x3e57f295	0.21088631
78	0x3db8544b	0.090004526
79	0x3ea56151	0.3230081
80	0x3e0649f5	0.1311415
81	0x3e6ab5d2	0.22920921
82	0x3e34d29a	0.17658463
83	0x3dd700ae	0.104981765
84	0x3da181cb	0.07886084
85	0x3e1f148b	0.1553518
86	0x3da07c0d	0.07836161
87	0x3e033ce3	0.12816195
88	0x3d9a5ec6	0.07537608
89	0x3e0d62d3	0.1380723
90	0xbdee561c	-0.11637518
91	0x3d8b5752	0.068037644
92	0xbcaffb61	-0.021482171
93	0x3dec9175	0.11551181
94	0x3e1e87e0	0.1548152
95	0x3e2717db	0.16317694
96	0xbe40c3e2	-0.18824723
97	0x3e2fa7b0	0.17153811
98	0xbd147b19	-0.036250208
99	0xbdcd570a	-0.10026367
100	0x3d4887ce	0.04895764
101	0xbe62b095	-0.22137673
102	0x3e5577fd	0.20846553
103	0x3e21830a	0.15772644
104	0xbdd1c4de	-0.102426276
105	0x3e4cab37	0.19987188
106	0x3d67e857	0.05661806
107	0x3d98d8f9	0.07463259
108	0x3d9cd701	0.07658196
109	0x3e7b6d68	0.24553454
110	0x3da9c664	0.08289793
111	0x3e2aef17	0.16692768
112	0x3e5bd490	0.21467805
113	0x3d5f6999	0.054544065
114	0xbce7b0f2	-0.028282616
115	0x3db99537	0.090616636
116	0x3e97a985	0.2962152
117	0x3e953c1b	0.2914742
118	0x3dff2c02	0.12459566
119	0x3e43b59f	0.19112252
120	0xbd9774a2	-0.07395293
121	0xbded4e80	-0.11587238
122	0x3d9913f1	0.07474507
123	0x3dc97cc4	0.0983825
124	0xbbf5ce51	-0.0075014015
125	0x3e24fa5e	0.16111133
126	0x3df7dd96	0.12102811
127	0xbdae0a8a	-0.08498104
