option_hedging/hyperparameters/pg_hyperparameters/year/0.0/pg_model.pth (torch, 534732 bytes, 7 tensors)

linear1.weight f4 [256, 3]
000000 e4 ed 80 3d 5c 5b 22 3d 34 eb 03 be 2e 84 20 be
       0.06295374 0.03963791 -0.12882692 -0.15675423
000010 86 9c 92 ba 11 a7 a8 3d 39 e1 e7 bd 98 62 1a 3e
       -0.0011185564 0.082349904 -0.11322255 0.15076673
000020 db a3 2a 3d 08 0b d5 bb fb 3c d0 3d 99 cd bc 3d
       0.04166017 -0.006501559 0.10167881 0.09218902
000030 f9 ff 98 3d 65 b5 b2 bd c1 dd 8e bc 54 64 1d bd
       0.07470698 -0.087260045 -0.017439725 -0.03842576
000040 17 75 d0 bd f3 ab fd bc 2d a0 28 3d 70 3f 56 bd
       -0.10178583 -0.03096578 0.04116838 -0.052306592
000050 a0 1c 92 3c 4b c6 be bd ff 9f a1 bc 76 64 00 be
       0.017835915 -0.09315165 -0.019729612 -0.12538323
000060 ff e2 99 3d 03 b9 c8 bc 03 8b 04 be 1f b6 18 3d
       0.07513999 -0.024502283 -0.12943654 0.03728306
000070 b4 3e bd 3d 1b 23 16 3e 04 88 d5 bc fe 52 f1 3c
       0.09240475 0.14661829 -0.026065834 0.02945852
000080 53 15 91 bd 24 b4 d7 bd b8 a3 c4 3d 79 c8 55 be
       -0.070841454 -0.10532406 0.096015394 -0.20877255
000090 94 ee e7 bc 9f a3 6e bd a0 39 77 bd f9 e3 39 bd
       -0.028312005 -0.05826151 -0.06035769 -0.045383427
0000a0 50 aa 32 bd df d8 85 3c 94 01 a4 bd 9a ea 05 be
       -0.043619454 0.016338764 -0.080081135 -0.13077775
0000b0 9d b9 02 bd eb 19 62 3d 21 e0 b2 3c 3a 28 a7 3d
       -0.031915296 0.0552005 0.021835389 0.081619695
0000c0 31 2c 96 3c 98 a0 52 3e 34 b1 e2 bc d4 ff ce bd
       0.018331619 0.20569074 -0.027672388 -0.10107389
0000d0 f1 aa f7 bc d1 a3 c7 bc de a5 98 3d bf 67 b9 bc
       -0.030232878 -0.024370106 0.07453512 -0.022632478
0000e0 0d 7a 91 bd ef 85 06 be e8 f8 f7 bd b3 42 75 bc
       -0.071033575 -0.13137029 -0.12108022 -0.014969516
0000f0 98 f6 47 be 60 3a 65 bc 02 8a 04 bd 9f 12 cd 3d
       -0.19527662 -0.0139909685 -0.032358177 0.10013317
000100 d2 e5 98 bd 7a df 22 3d 29 6f 36 bd 3b 94 67 3e
       -0.0746571 0.039763905 -0.044539604 0.22615139
000110 e5 7b 07 3e b7 9c 0e 3e 0c e8 48 be 52 7b 15 3e
       0.13230856 0.1392697 -0.19619769 0.14597824
000120 b1 40 93 3d 5d ae 02 3c 87 52 8b 3d 46 12 8b bd
       0.07190073 0.007976142 0.0680285 -0.06790595
000130 b8 92 95 bd 82 77 4f bd ea a5 5d be 6e 21 ae bd
       -0.07303375 -0.05065108 -0.21645322 -0.0850247
000140 a1 1d 7e be 69 24 ab bb 20 4c 34 3d 64 fc 87 3c
       -0.2481599 -0.0052228463 0.04401791 0.016599841
000150 60 b6 ce 3d 34 5e 1d 3e b9 32 dd 3d 2c e3 f8 bc
       0.10093379 0.15367967 0.1080069 -0.030381761
000160 b0 33 63 3c 9e 59 36 3c 20 72 26 3d e7 18 2e 3d
       0.013867304 0.011129765 0.04063618 0.042504217
000170 6b d9 7c bd eb d1 84 3d 74 d3 17 3c 0c 1a c6 bd
       -0.061730783 0.06485351 0.009266723 -0.09672937
000180 72 03 84 3c 78 0b e1 3c 91 6a 41 3d 98 45 a0 bd
       0.016114924 0.027471289 0.04722077 -0.07825774
000190 45 1e a2 3d bd 8a 96 bd 49 93 3a 3d 9c 0c b3 3c
       0.0791593 -0.07350681 0.04555062 0.021856599
0001a0 63 6a 22 bd d9 46 2d bd d1 8a ad 3d 29 40 cc 3d
       -0.03965224 -0.042303894 0.08473743 0.09973175
0001b0 a8 78 09 bd d1 7f 94 3d 3c 2f a4 3d 8e 4a 17 3d
       -0.033562332 0.072509415 0.08016822 0.036936335
0001c0 6f 0e 2b 3c ee 57 39 be c4 be e4 3d 9b e1 ce 3b
       0.010440453 -0.18099949 0.11169198 0.0063135154
0001d0 85 4a f6 3c c9 80 b8 bc 03 4a 86 3d b4 fa 5d 3d
       0.03006483 -0.022522347 0.06557085 0.054194167
0001e0 44 b7 bb bc b0 ef 56 bd 11 e5 56 bd 98 c8 8c 3c
       -0.022914536 -0.052474678 -0.05246455 0.017185494
0001f0 2c 75 46 3d 8e cc 2f bd 6a 67 e6 3d 2f f5 6c bd
       0.048451588 -0.042919688 0.112501934 -0.057851013
000200 66 e6 56 bd 82 55 18 3c 81 74 9a 3c 94 ca c9 bd
       -0.05246582 0.00929773 0.018854382 -0.09853092
000210 96 93 07 3d 69 57 ba 3d 17 87 05 be 94 07 c8 3c
       0.033099733 0.090987034 -0.13039814 0.024417676
000220 71 c7 d0 bd 2b 0e 6c 3d fe 1f 67 bd d8 2a c0 bd
       -0.101942904 0.0576307 -0.056426995 -0.09383172
000230 1d f3 da 3d 71 48 96 3c a1 e5 10 3e 55 d9 54 3d
       0.106909014 0.01834509 0.14150096 0.051965076
000240 c1 de 98 3d ab 46 e4 3b b9 b9 53 be c1 7b ac 3d
       0.07464362 0.006966432 -0.20676316 0.08422042
000250 9c 77 67 bd 55 61 e6 bc d8 cb b4 3b e6 4d 9b bd
       -0.056510553 -0.028122583 0.005517464 -0.07583217
000260 ee 82 1e bc 2a 32 a9 bc 69 fe c8 3d 8f 13 1c bd
       -0.009674771 -0.020653803 0.0981415 -0.03810459
000270 81 1b 6d 3d bc 75 71 3d e2 cb 8c bc e8 58 f3 3c
       0.057887558 0.05895017 -0.017187063 0.02970548
000280 63 5d d5 bd c4 b1 f5 3a 67 33 ab 3d 34 c7 8d 3a
       -0.10418203 0.0018744995 0.083594136 0.0010816813
000290 8b 57 98 bc cf 88 49 3d e8 86 e5 3c b1 99 01 bd
       -0.018596431 0.049202736 0.02801843 -0.031640712
0002a0 e1 fd f5 3d d3 80 21 bc d0 6d f8 3d c1 7b 98 bc
       0.12011314 -0.009857374 0.1213032 -0.018613698
0002b0 21 cf ad 3a e6 55 df 3c 72 d6 08 3d 02 1c 8f ba
       0.0013260582 0.02726264 0.033407636 -0.0010918381
0002c0 7e 5c 9a 3c 5c 73 16 be a6 e8 5e be 53 b3 48 be
       0.018842932 -0.14692444 -0.21768436 -0.19599657
0002d0 3a b3 b8 3d 59 53 3b 3d dc 11 82 bd f9 6f 26 3d
       0.0901856 0.045733783 -0.06351063 0.04063413
0002e0 18 df b7 bc 29 e6 23 bd f0 d1 de ba 22 02 8f bb
       -0.022445247 -0.04001442 -0.0016999822 -0.004364268
0002f0 17 c1 76 bd d3 7f eb bc 70 9a e7 bd 36 d9 51 3d
       -0.06024274 -0.028747475 -0.113087535 0.05123254
000300 35 e6 a4 3d ac ab 7c bd 7a 94 fc bd ab ce 00 3d
       0.08051721 -0.061687157 -0.12333007 0.031447094
000310 1c a3 e3 3d 16 96 df bd 28 54 0f be bf 82 89 bc
       0.11115095 -0.109172985 -0.13996947 -0.016785977
000320 61 c9 44 bd e6 87 e0 bd f3 50 41 bd 60 67 53 be
       -0.048043612 -0.109634206 -0.04719634 -0.20644903
000330 0f 23 ab bc 06 43 f2 3c 44 89 af 3b 9b d2 cd 3c
       -0.02089074 0.029572975 0.0053569395 0.025124839
000340 31 b9 02 bd 63 9c 5c 3d eb 5c 83 bb ad ff 48 bc
       -0.031914894 0.05386008 -0.0040088794 -0.012267989
000350 05 6c 66 3d 03 b7 a7 bd eb 1a bd bd f8 11 8c 3c
       0.05625536 -0.081892036 -0.0923365 0.017098412
000360 c1 96 b8 3c 13 c8 08 be a7 76 29 bd 2c 09 61 3d
       0.022532823 -0.13357572 -0.04137292 0.054940388
000370 a6 64 d0 3b b8 e7 14 bd 31 9e ce bd 76 d5 67 3e
       0.0063596545 -0.036353797 -0.10088766 0.22640023
000380 91 90 7d 3d 0e d6 08 bc 07 dc 99 3c c8 66 95 bc
       0.061905447 -0.008351816 0.018781675 -0.018237486
000390 98 9a 34 3e 27 8c 2f 3e fd f8 86 bd d1 47 fb 3c
       0.17637098 0.17143308 -0.065904595 0.030673893
0003a0 c4 8a 0c be da 7f 74 3d 46 43 ad 3b ec 2e e1 3c
       -0.1372481 0.05969224 0.0052875606 0.027488194
0003b0 a6 5b 1c bd 9e f3 0a bd 5f 9a 41 3c 1d c1 73 3d
       -0.03817334 -0.033923738 0.01181659 0.05951034
0003c0 0f 08 8a 3c 98 36 2e bd 54 ff d5 bd 41 f5 76 3d
       0.016849546 -0.042532533 -0.104490906 0.060292486
0003d0 13 9e ce bd 48 e1 09 bd c6 3d 96 bb 49 bd 1a bb
       -0.10088744 -0.03366211 -0.0045850007 -0.0023611358
0003e0 8d 34 39 3d 48 95 08 be 40 49 92 3c 56 7b 47 bd
       0.045216132 -0.13338196 0.017857194 -0.048701607
0003f0 fc ec 0d bd 54 e7 0a 3e cd 7c 12 3c da 45 63 3e
       -0.034649834 0.13564807 0.008940888 0.22194615

linear1.bias f4 [256]
000000 9c 92 af bc 33 f8 72 3c 1b b7 97 3c 0d d8 df ba
       -0.021432213 0.014829683 0.018519929 -0.0017077938
000010 37 98 80 bc 8a 3e 18 3c ec f9 50 3b 28 50 b6 bb
       -0.015697582 0.009292254 0.0031887246 -0.0055637546
000020 e1 b2 c1 ba a9 67 2a 3c ce 4b dc bb 09 9d aa bb
       -0.0014778042 0.010400691 -0.006722904 -0.0052067083
000030 eb 73 38 3c fa be 8d 3b 47 3e 58 3c 34 52 bd 3b
       0.011258106 0.0043257447 0.013198442 0.0057776216
000040 8b dc e2 3c 0a c8 be bb b1 a1 64 bc 4f b3 b5 3b
       0.027693054 -0.0058221864 -0.013954566 0.005545057
000050 55 31 ce bb 63 eb ce bb a5 78 56 3c 43 a6 ec bb
       -0.006292502 -0.0063146814 0.013090287 -0.0072219684
000060 7e ad 29 3c 52 09 0f 3c 22 7c ab bb 5a fe bd 3b
       0.010356305 0.0087302495 -0.0052333036 0.0057981433
000070 f1 28 96 3b ab eb 62 bc cf 73 36 bc 74 d8 8c bb
       0.0045825173 -0.013850133 -0.011136009 -0.004298264
000080 eb 43 2e 3c 84 b5 8a 3c 57 c0 83 bc 21 06 27 3c
       0.01063631 0.016932257 -0.016082926 0.010194332
000090 b5 be 18 3c c7 82 fa bb 4e cf 14 3c 00 f6 e3 3b
       0.009322812 -0.0076449844 0.009082628 0.0069568157
0000a0 95 b0 35 bb 39 6b 46 3c de 86 89 bb 7e 70 34 3c
       -0.002772366 0.012110525 -0.0041969856 0.011013148
0000b0 98 ab 35 bc 54 23 0f bc 05 1d 2f 3c 76 b3 24 3c
       -0.011088274 -0.00873645 0.010688071 0.010052552
0000c0 25 a4 87 bc 2e ea e4 3b f3 83 28 bc 8d 6b 1b bc
       -0.016557762 0.006985924 -0.010285365 -0.009486091
0000d0 59 af a0 3b ee 97 a8 3b 24 5a 12 bc ad cc 9b 3b
       0.0049037156 0.0051450646 -0.008932624 0.004754624
0000e0 92 7d b0 3b 9a d3 9e bb f7 02 5a bc 3f 68 8b 3c
       0.005386063 -0.004847002 -0.013306371 0.017017482
0000f0 0e 31 09 3c b5 49 18 bb 2c 54 b6 bb bb 05 71 3b
       0.008373512 -0.0023237292 -0.0055642333 0.0036777097
000100 a1 0d 85 bb 68 b4 7b 3c 05 de 8e 3c c3 8a 8b 3c
       -0.0040604626 0.015362836 0.017439852 0.01703394
000110 86 b7 2f bc aa af 21 bc 74 48 09 bc ad d1 98 3b
       -0.010724908 -0.009868542 -0.008379091 0.004663667
000120 ad c1 1f 3c 4d ae 86 bc 8e fa a9 3c 2f 83 8e 3c
       0.009750766 -0.016440535 0.020749357 0.017396538
000130 48 a9 62 3c 93 82 31 bc 49 84 a8 bb 8c f1 1e 3c
       0.013834305 -0.010834354 -0.0051427227 0.009701144
000140 b9 7a 6e bc 42 00 0d bc ef 4a 14 bc 35 e8 c6 bb
       -0.014555627 -0.0086060185 -0.009051069 -0.0060701617
000150 44 b6 cd 3c 2f a0 35 3b 52 7c 39 3c 48 af 92 3b
       0.025111325 0.0027713885 0.011321144 0.0044764616
000160 7e 52 87 bb 9c 77 64 3c d4 d9 33 3c 04 3c cf 3c
       -0.004129707 0.013944533 0.010977227 0.025297172
000170 f7 7e 41 3c 69 12 5b 3b 72 c4 f2 3b 0b f3 84 bb
       0.011810056 0.0033427721 0.007408672 -0.0040572933
000180 72 ed ed 3a 7f 5a cc bb 3a cb 0f bc 5f 7a 85 bb
       0.0018152429 -0.006236374 -0.00877648 -0.0040734257
000190 0a 37 39 3c 20 60 73 bb 64 82 db ba 68 6b 8b 3c
       0.011304626 -0.0037136152 -0.0016747233 0.017018989
0001a0 2a 54 b6 bb 03 e6 f2 39 cd 66 85 3c 73 39 93 3c
       -0.0055642324 0.0004632921 0.01628437 0.01797173
0001b0 2d d9 8c ba 6e 1a 62 bc 7a c7 22 3c 36 b2 e6 3b
       -0.0010745876 -0.013800247 0.009935254 0.0070402874
0001c0 9b 27 32 3c 7f a8 31 bc b1 53 b6 3c 59 59 81 3a
       0.0108737005 -0.010843395 0.022256704 0.0009868547
0001d0 4c 5b 73 bb c7 68 a3 bb 6f be 05 bc 11 de 84 bc
       -0.0037133275 -0.0049868557 -0.008163079 -0.01621917
0001e0 07 c6 9b bc a9 36 67 bc ca 2a 61 bb 46 1d ca 3b
       -0.019015325 -0.014112153 -0.003435778 0.0061680404
0001f0 a7 fd a2 bb f4 e8 a6 3b d4 6f 28 3a 81 8a 85 3c
       -0.0049740854 0.005093688 0.0006425355 0.016301395
000200 c6 74 13 bc 94 b9 d0 3a f6 b7 16 3c e6 e1 96 bb
       -0.009000009 0.0015924447 0.009199133 -0.004604566
000210 0e 1d 8f 3c 01 bf 69 3c ff 7b 90 3c d1 1c 1e 3c
       0.017469909 0.01426673 0.017637251 0.009650425
000220 00 2c b0 3b cf 59 01 bb 20 15 43 3c 04 4c 90 3b
       0.005376339 -0.0019737368 0.011906892 0.004403593
000230 90 22 be 3c 55 67 64 bb f0 21 24 b9 ca c8 32 bc
       0.02320984 -0.003485163 -0.00015652901 -0.01091213
000240 62 24 04 bc 76 f3 09 3c fa 24 3f 3c af ce 83 3c
       -0.008065315 0.008419862 0.011666531 0.016089765
000250 05 46 35 3c 0c 51 78 bb 43 23 c0 bb 0f 83 bc 3b
       0.011064057 -0.0037890105 -0.0058635785 0.005752928
000260 ec f1 14 bc d8 26 cb bc 6b 0f 8f 3c b0 40 61 3c
       -0.009090882 -0.024798796 0.017463407 0.013748333
000270 75 c9 0a 3c 51 67 f1 3b 1c 88 1f 3a d3 3e e9 bb
       0.008470883 0.0073670526 0.00060856505 -0.007118085
000280 f9 14 9c 39 df 68 f0 bb da 53 b6 bb 47 cd 27 bb
       0.00029770265 -0.0073367204 -0.005564195 -0.0025604533
000290 6a 72 3a bc e7 b9 55 bc 54 30 bc 3b f5 6a ed 3b
       -0.0113798175 -0.013044811 0.005743066 0.0072454163
0002a0 ad c1 86 3c 71 24 6e bc 30 6d ba bc 7d 89 17 3c
       0.016449774 -0.0145350555 -0.022757143 0.009249088
0002b0 ff 5b b5 bc 5a 2b d4 3b f4 93 fe 3b 0b 52 6d bc
       -0.022138594 0.0064748945 0.007769102 -0.014484893
0002c0 cf b3 ed 3b 3d 3b 68 3c 2b 85 e7 3b 5d 01 b5 3b
       0.007254101 0.01417428 0.0070654354 0.005523844
0002d0 34 a3 6e bc 3a 37 eb bb 4e 19 00 3c 78 0b 61 39
       -0.014565278 -0.0071782144 0.007818533 0.00021461945
0002e0 ab 2c 1c ba b5 53 b6 bb 22 1c 87 3c 02 0f d3 3c
       -0.0005957584 -0.005564178 0.016492907 0.025763992
0002f0 59 51 34 3c f8 98 40 3b c9 7f 64 bb 60 6b 91 3c
       0.011005723 0.0029388051 -0.0034866205 0.017751396
000300 f9 fb 94 3c 08 f3 19 3c aa c4 31 3a 33 9b ce bb
       0.018186556 0.009396322 0.00067813194 -0.0063051223
000310 29 54 b6 bb 23 f5 1d 3c ed a1 00 3b 4c e7 11 3c
       -0.005564232 0.009640965 0.0019627765 0.008905243
000320 07 67 3b 3a d0 6e aa 3b 6e db e5 3a 11 b3 dd 3c
       0.0007148836 0.005201198 0.0017536709 0.027062925
000330 35 72 61 3c d3 58 c4 bb 00 41 8e 3c f4 4f 20 bc
       0.013760139 -0.005992034 0.017364979 -0.009784687
000340 73 9e b2 3b 79 28 93 3b c6 c5 40 bc 4d 4f db bb
       0.0054510175 0.0044909087 -0.011765903 -0.006692803
000350 42 9f 06 bc cb 4f 8a 3c e7 a6 ec ba bc e1 fd 3b
       -0.008216681 0.016883751 -0.0018055112 0.007747857
000360 90 ae c6 3b 4e 4a 26 3c a6 51 c0 bb 52 2f 9c 3c
       0.00606329 0.010149552 -0.0058691083 0.019065533
000370 c6 67 8b 3b c4 66 39 bb 8d 49 89 3c b9 dc 58 bb
       0.004254314 -0.0028290013 0.016758705 -0.0033090545
000380 6d 3d 6d 3b 11 6e 73 bc 07 f0 44 bb b1 f8 40 bc
       0.0036199943 -0.014857785 -0.0030050294 -0.011778043
000390 5a 35 95 3c 4f 21 2f 3a 15 8b 46 ba 94 b4 ab 3a
       0.018213917 0.00066806836 -0.00075738254 0.0013100081
0003a0 5b 94 09 3c 2a b6 15 bc 39 29 16 bc 5e f3 8e bb
       0.008397187 -0.00913767 -0.009165102 -0.0043625077
0003b0 f6 66 69 3c 8b 5b 1f 3c bf c1 a3 3b ae 66 31 3c
       0.014245739 0.009726415 0.0049974616 0.010827703
0003c0 59 e9 43 3b 0a f7 91 3c 79 9d 1b 3c 85 09 06 3c
       0.0029893725 0.017817993 0.009497994 0.008180981
0003d0 1c 0d e2 3b d6 32 0e bc 79 e5 52 bc 66 90 ca bb
       0.0068985354 -0.008679112 -0.012872093 -0.0061817644
0003e0 f8 19 87 bb b5 08 ac 3b 84 c5 a2 3b 4e a4 88 bc
       -0.0041229688 0.0052500614 0.0049673934 -0.01667991
0003f0 6e 07 a2 bc fb 43 90 3c 1c 54 b6 bb 34 54 b6 bb
       -0.019778933 0.01761054 -0.005564226 -0.005564237

linears.0.weight f4 [256, 256]
000000 2b eb 88 bd de 6a d3 3a 29 1f 0c 3b 5d 6c ba 3d
       -0.0668548 0.0016129871 0.0021380878 0.091027
000010 35 2a 5d bc dd f3 cb bb fa 92 d4 3d 9a e3 b5 bd
       -0.0134988325 -0.006224139 0.10379596 -0.08881302
000020 b3 be 67 bc 33 4d ae 3c 90 ac 90 bd 58 23 43 bc
       -0.014144587 0.021277046 -0.07064164 -0.011910282
000030 fa a5 9f bc 9e 8d 80 3d 16 8b ed 3c be 61 95 3d
       -0.019488323 0.06277011 0.028996985 0.072940335
000040 a4 12 a5 3d 1d 45 85 3d 03 49 7d 3d ae 71 db 3c
       0.08060196 0.06507323 0.061837208 0.026787605
000050 f0 3a 8c bd 8d 4a 20 bc 29 e4 80 3c 29 fc da ba
       -0.06847179 -0.009783399 0.015733795 -0.001670723
000060 e0 e9 54 3c a9 83 bf 3c 66 82 0f 3c 5f f5 58 bd
       0.012995213 0.02337821 0.008759117 -0.05296838
000070 f0 61 0f bd 28 e7 ba 3d 36 b7 05 3d 69 53 f6 bb
       -0.03500551 0.09126121 0.032645427 -0.0075172675
000080 20 3c d1 3d 6f 7e cf 3d bf a5 7f 3d 19 d7 90 3d
       0.10216546 0.10131537 0.062413927 0.070722766
000090 9e 42 0b 3d 1f 70 ad bd b7 9f 8e 3c 95 34 b2 3d
       0.033999078 -0.08468651 0.017410142 0.087014355
0000a0 82 81 3a 3d 70 e5 7e bd 06 60 10 3d 99 8a 24 3d
       0.045533665 -0.062230527 0.035247825 0.04017124
0000b0 07 56 37 bd 86 55 b5 3d d0 d9 b0 3c 6d 3c 9f 3d
       -0.044759776 0.08854203 0.021588236 0.07775197
0000c0 5a a2 3e 3d e7 93 86 bc 82 28 8e 3d d6 cf 92 3d
       0.04654155 -0.016427947 0.0694132 0.07168548
0000d0 2b db 7f bd c6 36 d4 bd e5 59 20 b9 9f 61 72 3c
       -0.062464874 -0.1036201 -0.00015292277 0.0147937825
0000e0 47 eb 56 bc 14 69 96 3b 23 34 1c 3d 81 10 61 bb
       -0.013117618 0.004590163 0.03813566 -0.0034342112
0000f0 d7 9d eb 3c 1e dd aa 3c ac 18 1d bd e1 bf 55 3b
       0.028761787 0.02085739 -0.038353607 0.003261559
000100 02 f2 e1 3c 4b 48 d7 bc 1e d9 0c be b0 e9 de 3b
       0.027581219 -0.02627959 -0.13754699 0.00680276
000110 6a dc c2 3c cc 6b 47 ba 03 aa 93 bb ee ee 85 3d
       0.023786742 -0.00076073105 -0.004506351 0.06539713
000120 28 bd d9 3c d7 95 44 bc 2e c1 ad 3d 36 48 84 bd
       0.026579455 -0.011998615 0.08484112 -0.06459086
000130 60 eb 94 bd fd df 82 bd 40 62 0e bd 38 25 8a bd
       -0.07271457 -0.063903786 -0.034761667 -0.0674538
000140 96 3e 2c 3d 1c 5f e2 bc 31 0e 51 3c c1 dc 9f 3d
       0.042051874 -0.027633242 0.012759731 0.07805777
000150 44 fa 6a bd a2 5f a5 3d f8 3a 11 be 09 f1 83 bd
       -0.05736758 0.08074881 -0.14182651 -0.06442458
000160 99 55 3a 3b af 9c 87 bc 13 b3 a3 bd 39 22 79 bd
       0.0028432368 -0.016554205 -0.0799314 -0.060823653
000170 cd f8 d2 bd a2 06 5c bd e9 dc 77 bd 1c 8e 07 bd
       -0.10301361 -0.053717263 -0.06051341 -0.03309451
000180 34 d9 ca 3d 8e 5e 03 bd 79 41 5d bc 06 ff 31 3d
       0.099047095 -0.032072596 -0.013504379 0.0434561
000190 7a 19 f6 3c 89 ad b0 3d c0 08 f6 bd 51 24 2c bc
       0.030041445 0.08626849 -0.12013388 -0.010506705
0001a0 94 c7 49 bc 34 6b ab bd f3 48 84 3d 5e dd b4 3d
       -0.01231565 -0.08370057 0.064592265 0.08831285
0001b0 a3 59 c9 3c 0f c2 b2 3d 17 39 16 bc 76 7e a6 3d
       0.024578875 0.0872842 -0.009168885 0.08129589
0001c0 50 52 aa 3c d9 ee 6b bc 8b 74 6e bd df 12 32 bd
       0.020791203 -0.014400207 -0.058216613 -0.043475028
0001d0 fe a8 8b bd bb 25 05 3d ed 3b a9 bd a8 ed a9 bd
       -0.06819342 0.032506686 -0.08263383 -0.082972825
0001e0 22 7c b6 bd 8c 4a 97 3d 6c dd 83 bb 6e 13 24 3d
       -0.08910395 0.073872656 -0.0040241983 0.040057592
0001f0 70 5f a3 bd ac 08 52 39 49 ed 54 bd 5c c9 4b 3c
       -0.07977188 0.00020030391 -0.051984105 0.012438145
000200 81 42 ba bd 75 ec 0e 3c 52 06 a3 3d 54 92 3b bc
       -0.09094716 0.008723368 0.0796019 -0.011448462
000210 86 f6 c5 bc 30 56 dd 3c 24 72 10 3e 5a 43 13 3c
       -0.024165403 0.027018636 0.14106041 0.008988226
000220 34 5f 02 bd 2d ee 50 bd 7f aa 94 3c 99 f4 a3 3d
       -0.031829074 -0.051008392 0.018147705 0.08005638
000230 a0 02 83 3c 8b 23 8c bd 14 e8 27 3d 3d 4a 65 3d
       0.015992463 -0.06842717 0.04099281 0.055979002
000240 ec cc 13 bd 72 2c 31 3d bf 0f 1b 3d 45 1b b8 bd
       -0.0360841 0.043255277 0.037856814 -0.08989576
000250 3f 26 88 bd f4 51 ce 3a bf 9c 12 3d d7 1d 3c 3c
       -0.0664792 0.0015740977 0.035794016 0.011481724
000260 2d ca 59 3d 6b 8b eb bb 82 b1 7f bd c1 fd 17 bd
       0.053171325 -0.007188251 -0.062425144 -0.037107233
000270 02 3a 54 3c ea 98 f1 3d 22 c9 88 bc 12 af d9 3d
       0.012953283 0.11796744 -0.01669747 0.10629095
000280 24 39 0c 3c ea 8e 22 3e bf ba 93 bd 53 b6 0e bd
       0.008558545 0.1587483 -0.07213353 -0.034841847
000290 ce 36 b2 bc 1f be 50 3d 38 b2 8e 3d 5c ec cc 3d
       -0.021754649 0.050962564 0.06967586 0.100060195
0002a0 63 9c b4 3d 7f 74 a4 3d bd f2 ef bc 56 31 5a bb
       0.08818891 0.08030032 -0.029290551 -0.0033293567
0002b0 68 8f 7a bd c1 d6 68 bc f3 b2 fa 3d 09 1c 84 3d
       -0.06117192 -0.014211358 0.12241163 0.0645066
0002c0 0c 3d 18 bd 3c e7 d1 3c 86 a1 da 3d 29 45 eb 3c
       -0.037167594 0.025622956 0.106753394 0.028719502
0002d0 c0 4b 13 3d 7d 8a 3d bd 3c 70 49 3e c3 0e 2f 3d
       0.035960913 -0.04627465 0.1967172 0.042738687
0002e0 08 90 8a 3d a7 69 8c bd 3d 77 65 bd 36 02 0b 3d
       0.06765753 -0.06856089 -0.056021918 0.033937655
0002f0 16 e7 9b 3d 94 b2 9b bc dd e8 b6 3c cb 06 37 bc
       0.076124355 -0.019006051 0.022327835 -0.011171053
000300 67 ef 97 3d 5a 42 9f 3d a4 96 7a bc b8 48 9a 3c
       0.07418709 0.077763274 -0.015294705 0.018833503
000310 c7 f4 57 bd b7 74 7a bd d0 51 4d 3d 55 50 38 3b
       -0.052723672 -0.061146464 0.05012685 0.0028124053
000320 9e a6 33 bd 2c 83 a0 bc 26 2a e1 3d ee 76 f0 3c
       -0.04386007 -0.019593798 0.10994367 0.029353585
000330 dc 22 05 bd 26 98 79 3c f9 03 a4 3d cc e1 7b bd
       -0.032503948 0.015234029 0.0800857 -0.061494634
000340 e1 1a 96 bd f2 60 05 bd 12 de 99 3b 96 a1 f7 bd
       -0.073293455 -0.032563157 0.0046956623 -0.12091367
000350 d2 60 23 3d f5 d3 c5 3d 27 ac b0 3d 7f e8 08 3e
       0.039887257 0.09659568 0.086265855 0.1336994
000360 93 ae 1c 3e 93 45 72 3d 36 42 06 3b 38 e7 8c bd
       0.1530097 0.059148382 0.0020486242 -0.06880039
000370 4e 33 52 bc fd ce 42 3c 60 f7 16 3d a7 f7 61 bb
       -0.012829615 0.01189017 0.03685701 -0.0034479888
000380 e9 e5 dc 3b bc 40 0e bb 4b 13 07 3e 72 56 38 bd
       0.0067412746 -0.0021706065 0.13190953 -0.045004316
000390 ed a9 0d 3e 7f f8 6f 3c e7 c5 12 3d a0 1b e6 3c
       0.13834353 0.014646648 0.035833266 0.028089345
0003a0 87 11 77 bb f4 66 5e bd c1 aa 0c bd 33 4d 93 bb
       -0.0037699656 -0.054297403 -0.03434253 -0.004495287
0003b0 1e a9 0f 3e 3b 54 dd 3c d9 34 e9 bd ad 2e 9e bd
       0.14029357 0.027017703 -0.11387033 -0.077237464
0003c0 5b 8d 02 bc 73 e7 d8 3d ad c7 51 bd 59 39 a4 bc
       -0.007968272 0.105910204 -0.051215816 -0.020046877
0003d0 8f dd 58 bd ac 90 3e 3d 47 da b3 bd 25 4f 4c bd
       -0.05294567 0.04652469 -0.087818675 -0.049880166
0003e0 a1 d6 91 3d d2 41 83 3d 80 43 a0 bc 0a 7e 27 bd
       0.07121015 0.064090386 -0.019563437 -0.040891685
0003f0 b8 30 56 bd 3e 35 9f 3c fc 1f 3f 3d ee 65 8d 3d
       -0.052292556 0.019434568 0.046661362 0.06904207

linears.0.bias f4 [256]
000000 c1 e9 e9 3b d9 24 73 3b e5 86 a1 3b 8c ec 95 3b
       0.0071384613 0.003710082 0.0049294108 0.0045753177
000010 61 0c 20 3c 64 ec 19 3c 8e 96 87 bb 72 00 0e 3c
       0.009768576 0.009394739 -0.0041378206 0.008667098
000020 37 94 c6 3b 5c cd 02 3c 0d 42 fb 3b fd 76 02 3c
       0.006060149 0.007983532 0.007667786 0.007962939
000030 09 88 d7 3b 7b 40 80 b6 74 f9 e1 3b 89 39 1a 3c
       0.006577496 -3.822204e-06 0.006896192 0.0094131315
000040 17 62 24 3c 39 cb 02 bc 2c 5a 84 3b 0d ba 4f 3c
       0.010033152 -0.007983022 0.0040390696 0.012678635
000050 f0 45 10 bc cd 13 15 3b 0c 61 d2 3b f6 4d eb bb
       -0.008805737 0.0022747398 0.0064202603 -0.0071809245
000060 4f 1f 92 3b 2f 66 9a bb 15 ed c6 3b a9 ee 18 bc
       0.0044592987 -0.0047118883 0.006070743 -0.009334245
000070 5e d9 15 3c ea 37 4c 3c f9 2b 65 3c b5 e1 4f ba
       0.009146063 0.012464503 0.013987535 -0.00079300563
000080 7a 92 15 3c ab ef 16 3b 73 81 be bb 1b 9f 9f 3b
       0.009129161 0.0023031037 -0.0058137714 0.004871262
000090 3a d7 b0 ba 39 0d 21 3c 1a 33 14 3c b5 8c 5c 3c
       -0.0013491877 0.009829813 0.009045387 0.013461282
0000a0 f6 eb c2 bb 46 07 c9 3b 85 d5 57 3b b9 e4 16 3c
       -0.005948539 0.0061349003 0.0032933664 0.009209805
0000b0 e0 f2 08 3c fe 4a 29 bc 7d b0 1a 3c 50 77 a3 bb
       0.008358687 -0.010332821 0.009441492 -0.0049885884
0000c0 bb de 46 3c 62 73 c5 bb d4 95 27 bc 1c 7e 04 3c
       0.012138064 -0.0060257176 -0.010228593 0.008086707
0000d0 8e 2a 02 3c 00 09 00 bc c0 3b 94 bb 65 ac f2 bb
       0.007944716 -0.007814646 -0.0045237243 -0.007405805
0000e0 3c c9 05 3c e2 a9 9d 3b 37 54 b6 bb 08 f3 16 3c
       0.008165654 0.0048115114 -0.0055642384 0.009213217
0000f0 06 5e 88 3b 68 33 53 bb 7a 89 f9 3b d0 44 e9 bb
       0.004161599 -0.0032226685 0.0076152654 -0.007118799
000100 ca cd 13 bc a5 9a 59 3c 16 3d f9 3b ab af d7 bb
       -0.009021232 0.013281499 0.007606159 -0.0065822206
000110 9b ce 52 3b 85 8f 63 ba 4a 2a 0d 3c 42 38 98 bb
       0.0032166603 -0.0008680749 0.0086160395 -0.0046453783
000120 1a 01 03 3c 58 f3 d5 bb 3f e6 0a 3c 19 be ce bb
       0.007995868 -0.006529253 0.0084777465 -0.0063092825
000130 56 9a 66 3c 2a 04 3b bc da ca 3f bc ea dd 07 3c
       0.0140748825 -0.011414567 -0.011706078 0.0082926545
000140 79 12 1d 3c f1 bd d0 bb 1b e5 10 3c ba f6 41 bc
       0.009586924 -0.006370299 0.0088436855 -0.011838609
000150 70 16 00 bc dd 97 8e bb fa 77 6f 3c 11 fe c0 bb
       -0.0078178495 -0.0043515996 0.014616007 -0.005889662
000160 10 47 1d 3c a8 18 e9 3b 70 87 30 bc 47 78 32 bc
       0.009599462 0.007113535 -0.010774478 -0.010892934
000170 88 b5 f7 ba cd 17 f1 3b c4 1b 02 bc ac 91 f2 3b
       -0.0018898705 0.0073575736 -0.00794119 0.0074026193
000180 3d 8f 14 3c ef f1 a7 38 31 1e b1 bb c9 b4 a6 ba
       0.009067354 8.008244e-05 -0.0054052104 -0.0012718673
000190 41 e5 01 3c 63 86 9a 3b 39 54 b6 bb f3 23 7e 3c
       0.007928194 0.004715727 -0.0055642393 0.015511501
0001a0 50 bf 80 3c d6 84 91 3c 2f a5 6b 3c ff 2c 12 3c
       0.015716225 0.017763536 0.014382645 0.008921861
0001b0 66 ed 93 3c 33 26 38 bc fb f6 ee bb 4a a5 f3 bb
       0.018057536 -0.011239576 -0.007292626 -0.0074354755
0001c0 ff 06 b7 bb 05 0c fd bb 96 28 0c 3c 41 11 50 bc
       -0.005585551 -0.00772238 0.008554598 -0.012699426
0001d0 82 3b 04 3c 39 54 b6 bb 72 40 13 3c 37 86 94 bb
       0.008070828 -0.0055642393 0.008987533 -0.004532601
0001e0 33 7b c8 ba 1d 04 24 3c da 1f 05 3c ea 00 9e ba
       -0.0015295505 0.010010746 0.00812527 -0.0012054716
0001f0 dc c0 e5 bb a7 21 0c 3c c3 d0 45 bc d1 a7 1b 3c
       -0.007011516 0.008552945 -0.012073698 0.00950046
000200 0b 88 9c 3b 28 f5 9c 3b f9 72 44 3c 14 a6 00 3b
       0.00477696 0.004789967 0.011990302 0.001963024
000210 a1 cd 88 bb bc 3a 8d 3b 9b 30 4e bb 0c 86 36 bb
       -0.0041749035 0.00430998 -0.0031462077 -0.0027850894
000220 8e 18 a6 bb 06 8f b4 3b 93 d8 ff 3b 8f 34 b6 bb
       -0.005068845 0.005510214 0.0078078 -0.0055604647
000230 0b 16 03 bc 00 00 00 00 bf 49 0b 3c ee f6 64 3c
       -0.008000861 0.0 0.008501469 0.013974888
000240 d8 bf 5a bb ef 66 5d 3c 22 94 db 3b e2 ff 0a 3c
       -0.0033378508 0.013513311 0.0067010084 0.008483859
000250 88 cc 07 3c af 28 35 3c 29 48 0a 3c 09 69 bf ba
       0.00828851 0.011057063 0.008440056 -0.0014603446
000260 5a 9f 9d bb d8 42 37 bc 39 54 b6 bb a8 0d aa 3b
       -0.004810256 -0.01118537 -0.0055642393 0.0051896162
000270 6d 56 d5 bb f1 01 1e bc 91 40 8c 3b 6f 06 1d 3c
       -0.006510547 -0.009644018 0.004280158 0.009584053
000280 6b 5f 23 3c 98 bc da 3b ca 3e e5 bb 22 74 93 39
       0.00997148 0.006675314 -0.0069960104 0.0002812455
000290 9c 66 24 3b 13 55 61 3b 00 00 00 00 ba a8 f4 bb
       0.0025085574 0.0034382984 0.0 -0.007466403
0002a0 24 d9 42 bc d7 87 c0 bb 0a 0c 13 3c 80 72 95 3a
       -0.011892591 -0.0058755684 0.008975038 0.0011401922
0002b0 ba ed 1e bc 00 00 00 00 2b 1a 38 3c d8 79 1a 3c
       -0.009700233 0.0 0.011236708 0.009428464
0002c0 8f e4 db 3b 07 0e 01 3c 4a c5 fd 3b 45 d1 8b 3b
       0.006710596 0.00787688 0.007744466 0.00426689
0002d0 a9 d6 ca bb 00 00 00 00 00 00 00 00 fe cd 0b 3c
       -0.0061901403 0.0 0.0 0.008532999
0002e0 14 92 0e 3c 7d 84 db bb 37 f8 22 3c 7e c9 a9 3b
       0.00870182 -0.0066991434 0.009946874 0.0051814904
0002f0 c7 a5 d6 bb a5 2f 08 3c cd 76 13 3c f4 62 fe ba
       -0.006550524 0.008312141 0.009000492 -0.0019408152
000300 78 53 27 bb 8d 06 92 3b 70 72 df 3b 77 9b 05 bb
       -0.002553193 0.0044563473 0.006819062 -0.0020386854
000310 ae 26 ab 3b 00 00 00 00 68 c4 cd bb 00 00 00 00
       0.005223117 0.0 -0.006279517 0.0
000320 96 87 b7 bb 9c 3e e1 3b 0a c6 a8 bb 6f 5f 74 3c
       -0.00560088 0.0068739187 -0.005150561 0.014915331
000330 7d 35 19 3c 40 5f 1e 3c a5 87 2e bc 20 f0 4b 3c
       0.0093511315 0.009666264 -0.010652457 0.012447387
000340 b5 54 c9 bb 2c d0 a5 3b 2e e2 91 b9 3c 54 b6 bb
       -0.006144131 0.0050602164 -0.00027825072 -0.0055642407
000350 c2 14 8c 3b fa 3c a3 bb b6 a6 18 bc 14 26 b9 bb
       0.0042749355 -0.004981634 -0.009317091 -0.005650291
000360 d3 37 30 3c 92 47 69 3b 15 53 22 bc 9b d7 7e bb
       0.010755497 0.0035595638 -0.009907504 -0.0038885835
000370 3b da 13 3c 6a 18 a6 bb 6b 8f 91 3c 95 6f 2c 3c
       0.009024198 -0.0050688284 0.017768582 0.01052465
000380 00 00 00 00 d7 39 19 3c 31 57 b5 3a 95 70 de bb
       0.0 0.009352169 0.0013835189 -0.006788323
000390 a7 fd 8a 3c 64 6a 98 b9 95 8a 2e 3c c2 5c 00 3c
       0.016966654 -0.00029070966 0.010653158 0.007834615
0003a0 a4 aa 1e 3c 81 69 1b bc 65 76 22 3c 8d 32 14 bc
       0.009684239 -0.009485603 0.009915923 -0.009045255
0003b0 af b8 19 3c 00 00 00 00 30 54 b6 bb 7c 25 78 3c
       0.009382411 0.0 -0.005564235 0.015145656
0003c0 b7 5d d1 bb 00 00 00 00 1a 98 1b 3c 97 00 b9 3b
       -0.0063893455 0.0 0.009496713 0.0056458223
0003d0 42 43 51 bb c1 21 18 3c 3c 0c 48 3c 2d 75 ba bb
       -0.0031930958 0.009285391 0.012209948 -0.005690238
0003e0 6d 3f d5 3b 85 e4 c2 3a 0a 4d 6d bb 97 84 ce bb
       0.006507805 0.001486913 -0.003620925 -0.006302427
0003f0 00 49 fd 3b e9 cb 14 bb 00 93 1f 3c 71 62 f2 3b
       0.0077296495 -0.0022704548 0.009739637 0.007396989

linears.1.weight f4 [256, 256]
000000 60 4c 42 3c eb dc d9 bd b9 13 80 3a b7 30 ea 3c
       0.0118590295 -0.1063784 0.0009771503 0.028587682
000010 03 dd 4e 3e 6a 24 1d bc 5c da 63 3c 65 41 dd 3d
       0.20201497 -0.009591201 0.013907041 0.10803489
000020 61 fe 7e 3d 95 0f 70 3c 4a 05 77 bc f8 a8 29 bd
       0.062254313 0.014652153 -0.015076945 -0.041420907
000030 e1 81 3d bd ba f1 cf bc 13 3d 43 be 2d 6e b2 bc
       -0.04626644 -0.025383819 -0.19066267 -0.021781052
000040 fd 86 67 bd a4 76 a4 3d 30 09 8f bd c7 d4 55 3d
       -0.05652522 0.080304414 -0.06984174 0.052204873
000050 fd d4 33 3c 2c de 8e 3d 9a 3e ec bb 25 15 b9 3c
       0.010976073 0.0697597 -0.007209611 0.02259309
000060 88 81 5a bd ce bd 80 3d 34 f6 f0 bc 85 db 80 3d
       -0.053346187 0.06286202 -0.029414274 0.0629187
000070 db 76 8f 3d 42 18 1c 3c 5b d7 9e bb 38 e7 a1 3c
       0.07005092 0.009527268 -0.0048474497 0.019763574
000080 a6 01 d9 bc aa c1 1e 3d 5d 19 c2 bc 75 89 0e bd
       -0.026490044 0.03875891 -0.023693735 -0.034799058
000090 33 c9 67 3d 07 f7 e5 bb c8 bb d0 bd 41 00 a2 bd
       0.056588363 -0.0070179733 -0.101920664 -0.07910205
0000a0 74 d5 bf 3c e1 35 a5 bd 70 1f 74 be 61 30 3d be
       0.023417212 -0.08066917 -0.23840117 -0.18475486
0000b0 5e 5b eb 3c b8 ec 65 3d a5 29 ce bc d5 d2 00 3d
       0.02873009 0.056133956 -0.025166342 0.031451065
0000c0 1c 09 b2 bd c6 45 92 3d 17 80 81 bc 24 6f 7b bd
       -0.08693144 0.071422145 -0.015808148 -0.06138529
0000d0 cb 25 44 3d 3b c0 ba 3c a3 1a 6d bb a8 5d 7f bd
       0.047887605 0.02279674 -0.0036179207 -0.062345177
0000e0 d4 e7 3f ba d5 15 1b bd 6f 50 ee ba f9 18 8d 3c
       -0.0007320617 -0.037862618 -0.001818193 0.017223822
0000f0 a4 dc 22 3d 26 93 97 bd 37 2b cb 3d 4c 4e 14 3d
       0.0397612 -0.07401113 0.09920352 0.036207482
000100 31 40 02 3e 23 2a 6e bc e7 3e b7 3c 84 25 39 3d
       0.127198 -0.014536413 0.022368861 0.045201793
000110 89 c8 0a 3d e9 31 cc bc b4 99 0d 3d 7f 5b 78 bd
       0.03388265 -0.024926143 0.03457041 -0.060634132
000120 19 d0 9b bd 9d 3b 28 3d 74 40 26 3c 88 90 90 3d
       -0.07608051 0.041072477 0.010147203 0.07058817
000130 5a 4f 3d 3c d9 8d f7 3d e7 1a 1f be 31 92 fe bc
       0.011554563 0.12087602 -0.15537606 -0.031075569
000140 5e e7 ad bd cd f7 8d bd d8 8e 7d bd 9b 6f 85 3c
       -0.084913954 -0.0693203 -0.061903805 0.01628857
000150 30 07 0e 3e e1 fa 00 bc f0 c4 eb 3c d2 bf 32 3d
       0.1386993 -0.007872314 0.02878043 0.043639965
000160 97 ae 70 3d b6 65 b5 bd 3d 92 24 bd ca 80 8f bc
       0.05876025 -0.088572904 -0.040178526 -0.017517466
000170 e8 85 ae 3d 49 5d 47 3d 25 d5 ea 3b f8 8b e7 3c
       0.08521634 0.048672948 0.007166522 0.028264984
000180 10 06 b0 bc da 82 10 bd 69 2d d3 3d 6b 70 e9 bd
       -0.021487266 -0.03528104 0.10311396 -0.11398395
000190 6d b8 01 3d 2b 55 01 3c 06 dc df ba 2e 62 c8 bc
       0.031670023 0.007893841 -0.0017079122 -0.024460878
0001a0 50 83 5c 3c 75 c2 6b 3c cf d2 d6 bd a2 21 ca 3d
       0.013459042 0.014389624 -0.10489427 0.09869696
0001b0 f2 02 c9 bc 03 4a 09 bd 9f 85 02 3e 37 df 88 3d
       -0.024537537 -0.03351785 0.12746285 0.066832
0001c0 45 82 56 bc 1a 05 39 3c 72 73 41 bd bc b4 b3 bb
       -0.013092582 0.01129272 -0.047229238 -0.0054841917
0001d0 80 65 9f bd 61 e6 94 3d 90 b9 60 ba 17 ab 93 3d
       -0.077830315 0.07270504 -0.0008572573 0.07210367
0001e0 b7 ae ee 3c db 34 60 bd 9c d1 c4 3b 8b 60 8d bb
       0.029136045 -0.054737907 0.0060064327 -0.0043144873
0001f0 fa 4c 76 3c 60 2d 1c bc 66 18 cc 3d 7d 75 e6 bd
       0.015033001 -0.009532303 0.09965591 -0.11252878
000200 51 fc 61 bc e6 46 76 bd 6d df 8f bd 86 79 d3 bc
       -0.013793067 -0.060126208 -0.07025037 -0.025814783
000210 37 0e 40 bd 13 cb 36 3c 21 e6 82 bd 51 22 b4 bc
       -0.046888556 0.011156815 -0.0639155 -0.02198902
000220 cd e0 b2 bc da 12 34 3d e5 10 bb 3c bd c3 91 bc
       -0.021835709 0.04396329 0.022835204 -0.01779353
000230 f1 c8 20 bd 21 fe dc 3d ca e7 81 3d 5b eb 35 3d
       -0.039254133 0.10790659 0.063430384 0.044413906
000240 2c 73 36 bc a0 7a 14 bd 81 ee fc bd 66 e2 a7 3c
       -0.011135858 -0.036249757 -0.123501785 0.020493697
000250 b3 5c 89 3c 7c 90 21 3d a5 44 5c bd 71 f0 3f 3b
       0.016767835 0.03944443 -0.053776402 0.0029287601
000260 46 34 56 bc 71 ef e5 bd 64 f9 0d bd 12 75 db 3c
       -0.013073986 -0.112273104 -0.034661666 0.026789222
000270 a8 29 44 bb f4 c2 a2 3d e0 30 17 3d da 21 ce 3c
       -0.0029932056 0.079473406 0.036911845 0.025162626
000280 e8 05 72 3c e7 5b f5 3d a2 7b 14 bd 17 57 8e 3d
       0.014771916 0.119804196 -0.036250718 0.06950205
000290 76 d9 37 3c b0 e3 85 3d fe cd a2 bd a8 e5 ab 3d
       0.01122128 0.065375686 -0.07949446 0.08393413
0002a0 4c 63 12 3d a8 3d 74 bd d3 d2 16 bd d8 99 f2 3c
       0.035739228 -0.059629112 -0.03682215 0.029614374
0002b0 ab cc 96 bc ba 13 d1 bd 73 0a c8 3d 61 3e 88 3c
       -0.01840814 -0.10208841 0.09767618 0.016631307
0002c0 fd c4 74 3d c3 60 0d 3c cf f0 f0 bc 19 c7 d6 bc
       0.059758175 0.008629027 -0.029411701 -0.026217984
0002d0 5b d6 43 3c bd 45 ec 3d 5a 9a f3 3c fc d5 79 bd
       0.011952962 0.11536739 0.029736686 -0.060995087
0002e0 bc 08 4c bd bf 17 ef 3d 6d 4e bb bd 25 22 66 bd
       -0.049813017 0.11674451 -0.09145818 -0.056184907
0002f0 fc a4 39 3d 88 d6 c5 3d 35 cc 9d 3d 09 3d 96 bd
       0.045323357 0.09660059 0.07704965 -0.0733586
000300 74 8b 70 3d be 36 c6 3b 5e a8 a1 bd d3 01 a4 3b
       0.058726743 0.0060490062 -0.078934416 0.0050051003
000310 d7 38 e0 bd 60 fe 99 3d c5 84 c4 3d 24 4a 46 3c
       -0.10948341 0.07519221 0.09595636 0.012102637
000320 10 2c 6d bd 36 80 c4 bc 82 63 16 bd a6 2e 98 3c
       -0.05790335 -0.023986917 -0.03671599 0.018576931
000330 1b 1b 16 bd f6 35 0a bd a7 4e 17 bd 9d e7 1f 3d
       -0.036646944 -0.033742867 -0.036940243 0.039039243
000340 fb 06 35 3d 5e a7 89 3d c2 4d d3 bd d4 00 2e 3d
       0.04419611 0.06721376 -0.103175655 0.04248126
000350 80 e1 a2 3d a3 98 ab bd 90 ae a0 3c bd 7b d0 bd
       0.07953167 -0.083787225 0.019614488 -0.10179851
000360 ca 62 e2 bc d2 ca 8c 3c 99 4d 23 bd 07 42 e4 bd
       -0.027634997 0.017186556 -0.039868925 -0.11145406
000370 57 b9 5f bc 55 65 a9 3c e2 68 f7 3c 22 af 62 3d
       -0.013655028 0.020678202 0.03020138 0.0553428
000380 8e 9f 8e bc 6e a6 09 bd 80 1c 6a 3d eb 42 a6 3d
       -0.017410066 -0.033605985 0.057156086 0.08118232
000390 92 5b 38 bc 23 bb 37 3d 09 50 42 bd e3 10 1c be
       -0.011252301 0.0448562 -0.04743961 -0.15240817
0003a0 3d 6a bc bd d3 a5 55 3c 8d 1b 03 bb 82 47 90 3d
       -0.09199951 0.013040024 -0.0020005435 0.07044889
0003b0 dd 45 83 bc 85 46 b4 bc 01 ae 73 bd 40 fd b8 3c
       -0.016024524 -0.022006283 -0.059492115 0.022581697
0003c0 ea 1c 1e 3c e4 71 03 3e 80 f5 f4 bd c7 51 1f bd
       0.009650448 0.12836415 -0.11960888 -0.03889635
0003d0 10 c4 3f 3d 97 10 64 bc 8c 93 38 bd 8a 05 8a bd
       0.04681784 -0.013919971 -0.045062587 -0.06739338
0003e0 04 d2 ee 3c e8 ee 14 3d 98 d5 06 3e 10 84 2a bd
       0.029152878 0.03636065 0.13167417 -0.04162985
0003f0 e3 ff 9e 3d 79 54 66 bd a5 b3 d4 3d 2c 05 86 bc
       0.0776365 -0.056232903 0.10385827 -0.016359888

linears.1.bias f4 [256]
000000 3b 54 b6 bb 08 0c c2 bb b0 1f 20 3c a1 26 d1 bb
       -0.0055642403 -0.0059218444 0.00977318 -0.0063827788
000010 e5 ca 4a bc 7a 7f f0 bb 8b c2 1b bc 06 48 00 3c
       -0.012377475 -0.007339415 -0.009506832 0.007829672
000020 3c 54 b6 bb fd 85 24 3c b5 f2 15 bc 55 07 17 bc
       -0.0055642407 0.010041711 -0.009152104 -0.009218057
000030 f0 30 78 3c 00 00 00 00 00 00 00 00 85 28 db bb
       0.015148386 0.0 0.0 -0.00668818
000040 64 61 24 bc d3 b3 2f 3c 17 28 1b bc f2 91 27 3c
       -0.010032985 0.010724026 -0.009470007 0.010227667
000050 00 00 00 00 1f 75 ec bb af 11 86 3a b8 5c 06 bc
       0.0 -0.0072161104 0.0010228659 -0.008200817
000060 50 5a 0d bc 0d a3 18 3c 35 61 1f 3c 5d 02 26 3c
       -0.008627489 0.009316218 0.009727766 0.010132399
000070 88 18 a6 bb 70 4a 23 3c c5 c2 29 3c 4c 5c 36 bc
       -0.0050688423 0.009966478 0.010361378 -0.011130404
000080 8b 28 3b 3c 25 97 1c bc 4e c2 1c 3c 37 54 b6 bb
       0.01142324 -0.00955752 0.00956781 -0.0055642384
000090 dd d7 2c 3c 3d 54 b6 bb 57 66 26 3c fd ba 25 3c
       0.010549513 -0.005564241 0.010156236 0.010115382
0000a0 f2 2d 1d 3c 95 b9 e7 bb fa a2 de bb 8f 0f 9e 3b
       0.009593474 -0.0070716836 -0.0067943307 0.004823632
0000b0 55 c6 1a bc f1 93 e6 bb af ca 42 bc 98 2c f5 bb
       -0.0094467 -0.007036679 -0.011889144 -0.0074821226
0000c0 6f 14 47 bc 2f 54 b6 bb ce ea 53 bc 1f a5 c2 bb
       -0.012150868 -0.0055642347 -0.0129344 -0.005940094
0000d0 9e 6b 02 3c 03 6b 32 bc 6a 4c 28 3c bd a1 86 3a
       0.007960228 -0.010889771 0.010272125 0.001027159
0000e0 4d 24 2a 3c 9b 32 1f 3c a3 a6 eb bb 00 00 00 00
       0.010384631 0.009716655 -0.0071914955 0.0
0000f0 03 20 4a 3c 3b 4d 11 3c c0 4f 28 3c 00 00 00 00
       0.012336734 0.008868511 0.01027292 0.0
000100 49 69 16 bc 01 42 1c bc ab cf 2a bc fa e6 16 3c
       -0.009180375 -0.009537221 -0.010425488 0.009210343
000110 bf d3 d1 bb e6 f2 25 3c 00 00 00 00 00 00 00 00
       -0.006403416 0.010128712 0.0 0.0
000120 8d 40 fe bb 22 1d 07 3c 2b 8d 37 bc 00 00 00 00
       -0.00775916 0.008246692 -0.011203091 0.0
000130 87 f6 b8 bb 45 f3 24 3c ab a1 1d 3c 29 54 b6 bb
       -0.0056446227 0.010067766 0.009621064 -0.005564232
000140 6e 57 28 3c 91 bf 31 bc 41 25 02 bc 99 5c b3 bb
       0.010274751 -0.010848896 -0.007943452 -0.005473685
000150 16 8b 11 bc e3 20 27 3c 3f 73 28 3c b6 ab bb bb
       -0.008883258 0.010200712 0.010281383 -0.0057272566
000160 00 00 00 00 00 00 00 00 08 5e 04 bc ef a1 5f bc
       0.0 0.0 -0.008079059 -0.013649448
000170 bb aa c3 bb d6 4b 23 3c 29 54 b6 bb 28 e4 f4 bb
       -0.0059712804 0.009966811 -0.005564232 -0.0074734874
000180 d5 27 1f 3c 00 00 00 00 06 67 25 3c 0a 63 25 3c
       0.009714087 0.0 0.0100953635 0.0100944135
000190 6c 52 af 3b 14 4f 6b 3c 26 a6 c7 bb 6b 67 25 3c
       0.0053504016 0.014362115 -0.0060928045 0.010095458
0001a0 61 69 28 3c 9d 03 2c 3c 65 ec c6 bb 8d 42 e1 bb
       0.010279031 0.010498908 -0.006070661 -0.0068743885
0001b0 b5 ba 54 bc 26 a3 be bb 65 46 30 bc ef f1 29 3c
       -0.012983968 -0.0058177887 -0.010758971 0.010372623
0001c0 d5 97 2c bc 69 c8 33 3c 47 36 f5 bb 4f 30 3d bb
       -0.010534246 0.0109730745 -0.007483277 -0.0028867905
0001d0 c6 c1 26 3c 98 47 1b bc 8c f0 e9 bb a3 4c 28 3c
       0.010178035 -0.0094775185 -0.007139271 0.010272178
0001e0 00 00 00 00 08 13 1a bc 12 b6 27 3c ed a5 2f 3c
       0.0 -0.0094039515 0.01023628 0.010720712
0001f0 a7 93 c3 3a e8 a4 d3 3b a7 c1 14 bc f7 c9 1b 3c
       0.0014921323 0.0064588673 -0.009079373 0.009508601
000200 f8 1f e4 3b 72 e1 25 3c 00 00 00 00 3d 54 b6 bb
       0.006961819 0.010124551 0.0 -0.005564241
000210 cf dd cc bb 63 ba 21 3c 00 00 00 00 2f 54 b6 bb
       -0.0062520276 0.009871098 0.0 -0.0055642347
000220 2a e9 15 bb b5 53 b6 bb 7d ec 3a bc 84 df 6a bb
       -0.0022874572 -0.005564178 -0.011408922 -0.0035838792
000230 04 a9 12 bc ca fb 11 3c c7 c8 26 3c 63 8f a8 bb
       -0.008951429 0.008910129 0.010179705 -0.005144046
000240 96 db e1 3b 40 b3 26 3c 2d f5 73 3c a5 22 14 3a
       0.0068926318 0.0101745725 0.014889997 0.00056509144
000250 ff 98 23 3c 91 4a 28 3c fa ba 10 bc a2 54 25 3c
       0.009985208 0.010271684 -0.008833641 0.010090979
000260 40 f3 ee bb 39 54 b6 bb 91 95 39 3c 3c 54 b6 bb
       -0.0072921813 -0.0055642393 0.011327163 -0.0055642407
000270 00 00 00 00 d0 02 f6 3b 35 de 27 3c 03 96 27 3c
       0.0 0.0075076595 0.010245849 0.010228637
000280 68 6d eb 3b b7 3f 08 3c 3c 7e 7c bb 1a fa 58 3c
       0.007184673 0.008315972 -0.003852739 0.013243223
000290 87 fd 28 3c 97 44 30 bc 4f 81 31 3c 77 db 1f 3c
       0.010314352 -0.010758541 0.010834052 0.009756914
0002a0 63 1d 5d ba a5 53 27 3c db a9 83 bb 3d 54 b6 bb
       -0.000843486 0.0102128135 -0.004018051 -0.005564241
0002b0 3d 54 b6 bb 05 c9 1e 3c 26 af 42 3c 26 25 27 3c
       -0.005564241 0.0096914815 0.011882579 0.010201728
0002c0 d8 74 56 3c 8f 77 88 bb c1 1a e3 bb 9e d2 15 3c
       0.013089381 -0.004164643 -0.0069306795 0.009144453
0002d0 21 7a 3c bc 02 8f d7 bb f2 c1 2c bc 0f 66 6d bb
       -0.011503727 -0.006578327 -0.010544287 -0.0036224162
0002e0 42 62 07 bc 00 36 12 3c 61 d2 23 3c 3c 54 b6 bb
       -0.008263173 0.008924007 0.009998889 -0.0055642407
0002f0 cb 5d 00 3c 4a 10 28 3c b0 e6 3c 3c 00 00 00 00
       0.007834862 0.01025779 0.01152961 0.0
000300 19 26 32 3c 74 77 13 3c 19 44 4a bc 70 06 27 3b
       0.010873341 0.009000648 -0.012345337 0.0025486015
000310 91 6f 1c 3c 75 42 22 3c 3c 54 b6 bb ca ac 24 3c
       0.009548084 0.00990354 -0.0055642407 0.010050962
000320 00 00 00 00 39 da ce bb a3 80 24 3c 3c b5 16 3c
       0.0 -0.0063126353 0.010040435 0.009198483
000330 f6 0b bd ba 00 00 00 00 00 00 00 00 7a fd 44 bc
       -0.001442312 0.0 0.0 -0.012023324
000340 56 b8 cd bb 37 e4 25 3c d9 6b 4d bc 81 8c c4 3b
       -0.006278078 0.010125211 -0.01253792 0.0059981947
000350 e5 18 42 3c d4 d9 26 3c 91 96 cf bb c0 78 6a 3c
       0.011846756 0.01018377 -0.0063350876 0.014311016
000360 46 41 ce ba cd e4 27 3c 0d 2e 58 bc 3c 54 b6 bb
       -0.0015736006 0.010247421 -0.013194573 -0.0055642407
000370 fe 48 24 3c bd 47 27 3c 02 1c 03 3c 31 30 55 3c
       0.010027168 0.010209975 0.008002283 0.013011978
000380 d7 ee 10 bc f5 ce 21 3c 7a b7 12 bc 28 0e d9 39
       -0.008846006 0.009876003 -0.008954877 0.00041400013
000390 4d 66 1d bc 6d bf 3f bc c9 33 27 3c d7 74 1d bc
       -0.00960691 -0.011703354 0.010205218 -0.009610376
0003a0 a5 c1 7f 3c a0 08 4e bc 4b 39 37 bc 14 95 3b bc
       0.015610133 -0.012575299 -0.011183093 -0.011449117
0003b0 48 33 4c 3c 00 00 00 00 3d 54 b6 bb 00 00 00 00
       0.012463398 0.0 -0.005564241 0.0
0003c0 25 8d 24 3c 14 54 b6 bb 9f 24 fb bb 85 39 4b bc
       0.010043417 -0.005564222 -0.0076642777 -0.01240385
0003d0 60 18 a6 bb b7 bc 15 3c 2f 25 4f 3c 3c 54 b6 bb
       -0.0050688237 0.009139231 0.012643143 -0.0055642407
0003e0 3c c7 01 3c 10 17 05 3c a6 c4 5a bc f7 de 2f bc
       0.007921036 0.008123174 -0.013352549 -0.010734311
0003f0 75 c0 6e 3c 62 24 c0 bb cf 19 6b bb 55 89 0e bc
       0.0145722525 -0.005863712 -0.0035873537 -0.008699735

final_linear.weight f4 [1, 256]
000000 e7 65 bd bd a8 52 93 bd f3 e4 a9 3c 8e 9c 80 bc
       -0.09247952 -0.071935 0.020739054 -0.015699651
000010 8c 40 0b bd 2f 5d e4 bc 01 5b 6c bd 0d 49 af 3d
       -0.033997104 -0.027876465 -0.057703976 0.08558855
000020 79 3c bd bd 5f e7 10 3e 23 fc 87 bc ab 89 ca bd
       -0.0924005 0.14150761 -0.01659972 -0.09889539
000030 f2 57 89 3d 67 19 c2 3b 6b 49 04 be 4c ea e5 bd
       0.06706227 0.0059234384 -0.12918632 -0.11226329
000040 93 57 66 bd 07 a4 0b 3e 20 f6 7d bd e0 fd e7 3d
       -0.05623586 0.1363679 -0.0620023 0.1132772
000050 6a fc 0f bd 66 61 9c bc df 1b 25 be cd 87 8f 3a
       -0.03515283 -0.019089412 -0.16123913 0.0010950506
000060 60 fa 97 bb 03 60 c7 3d d9 43 86 3c 23 37 5a 3d
       -0.0046380013 0.0973511 0.016389774 0.05327524
000070 e8 e5 78 bd db d3 f1 3c 45 1d 74 3e de 94 f1 bc
       -0.06076613 0.029519966 0.2383929 -0.02948993
000080 96 74 83 3d c9 86 16 3b 54 e1 56 3c d9 04 6d be
       0.064187214 0.0022968522 0.013115246 -0.2314638
000090 2e d8 57 3d 0e 44 fc bd 06 d6 88 3d e2 15 48 3d
       0.0526964 -0.12317668 0.06681447 0.048848994
0000a0 85 50 e7 3d 23 b1 14 3c d4 0e 90 3b c0 45 05 bd
       0.11294655 0.009075436 0.004396299 -0.032537222
0000b0 71 f6 64 bd 32 c7 8e bd 3c f8 aa bd 1e f3 4e bd
       -0.055899087 -0.06971587 -0.08348128 -0.050524823
0000c0 bf ef c0 bc 5f 29 47 bd 07 af 3a bd 9f 85 48 bd
       -0.02355182 -0.04862344 -0.045577075 -0.048955556
0000d0 44 ba 08 3d 07 cc d2 bd b9 e9 2a 3e bb 52 84 3e
       0.03338076 -0.102928214 0.1669072 0.25844368
0000e0 99 22 67 3c 4c 28 3a 3d 99 3c 97 bb 4d e7 67 3d
       0.01410737 0.045448586 -0.004615378 0.05661707
0000f0 cd dc 2b 3d 2a f4 8c 3d 37 62 22 3e 45 9d e8 bb
       0.04195862 0.06882508 0.15857778 -0.007098826
000100 46 1e 78 bd 03 cf 9e bd 5f 82 30 be 9b 1a 3d 3d
       -0.060575746 -0.07754328 -0.17237233 0.04616795
000110 62 08 94 bc 6a 38 ab 3d b2 bf 96 bd 48 8c e6 bd
       -0.018070403 0.083603695 -0.07360782 -0.11257225
000120 35 32 1b be 13 eb de 3d a0 33 c3 bc 70 db ca bd
       -0.15155871 0.108846806 -0.023828328 -0.09905136
000130 84 aa 1f be 68 eb 05 3e 72 2e 75 3c 04 79 c4 bd
       -0.1559239 0.13078082 0.014964687 -0.095933944
000140 be 2e 2a 3e 2e 53 05 be de 48 a3 bc 70 16 76 bd
       0.16619393 -0.13020012 -0.019932207 -0.06007999
000150 65 91 8c bd 7b fd b3 3d 8f 24 47 3e 90 6e 2c bd
       -0.06863669 0.08788582 0.1944754 -0.042097628
000160 e9 4e 14 bd 8c 28 90 3c a7 a9 ca bd d4 f0 2e be
       -0.036208067 0.01759746 -0.0989564 -0.17084056
000170 57 bc 8d bc d9 78 29 3e f2 4d 9c bc 1f f4 01 bd
       -0.017301721 0.16550006 -0.019080136 -0.031726953
000180 5f e3 0c 3e 39 76 04 3d 03 9d d1 3d 54 1b 38 3d
       0.1375861 0.03233931 0.10235026 0.044947937
000190 e2 de 80 3d a1 8e 7e 3d 9d ed 81 bd 47 55 23 3d
       0.062925115 0.06214774 -0.06344149 0.03987625
0001a0 1f 08 31 3e 28 cc 1e 3e 6b ac f0 bc 37 de 8b bd
       0.17288254 0.15507567 -0.02937909 -0.068294935
0001b0 e7 b2 60 bc f4 fe 53 bd 06 d0 ac bd 93 bf 6c 3d
       -0.013714529 -0.051756814 -0.08438115 0.057799887
0001c0 2c 07 5b bd d2 28 ba 3d c2 6d 6e bd 0a 1b c2 3c
       -0.053473637 0.09089817 -0.058210142 0.023694534
0001d0 a4 22 07 3e 27 f7 5f bd 0b fd 3e bd a9 c2 32 3e
       0.13196808 -0.054679062 -0.04662804 0.1745707
0001e0 07 ab 21 ba 1a 8a d6 bc 67 3e fa 3d f8 42 0c 3e
       -0.00061671477 -0.026188899 0.122189336 0.13697422
0001f0 b7 c2 ce 39 4f a3 a9 3d 9a 7d 8d bd f4 cf c1 3c
       0.00039436456 0.08283102 -0.06908722 0.02365873
000200 07 fe 1b 3d 54 71 66 3d 4e 81 35 3d 6b 29 da bd
       0.038084056 0.056260422 0.044312768 -0.10652431
000210 64 ca 7f bd 5f 5d de 3c 79 01 58 3d 48 58 1a be
       -0.062448874 0.027144132 0.05273578 -0.15072739
000220 7c 3d e8 3d 31 4f 5a ba 33 50 04 bd 4d c4 e1 bd
       0.11339852 -0.00083278405 -0.032303046 -0.110237695
000230 01 48 b5 bb 44 cd 21 3d 96 f4 93 3d 18 c4 28 bd
       -0.005532265 0.039502397 0.072243854 -0.041202635
000240 d9 3f 82 b9 d3 7a 93 3d fc 49 db 3d 61 a5 ce bd
       -0.00024843102 0.07201161 0.10707471 -0.10090137
000250 4f ec 10 3d 02 ca 40 3e 0f 48 0f bd 90 ef 31 3d
       0.03538161 0.1882706 -0.03498083 0.043441355
000260 62 c4 c3 bd 2b 05 99 bd 08 6a e3 3d 90 3a 16 be
       -0.095589414 -0.07471689 0.11104208 -0.14670777
000270 bc f9 3e 3d 61 6d 3c 3d c9 ec 02 3e 7e 83 a8 3d
       0.046624884 0.04600275 0.12785639 0.08228205
000280 23 37 0c 3c 93 47 17 3e cc 14 a2 bd 63 08 3a 3e
       0.0085580675 0.14773397 -0.07914123 0.18167262
000290 16 0d ee 3d 95 8e b7 3b 94 44 41 3d b8 2c 49 3c
       0.1162359 0.005601714 0.04718454 0.012278728
0002a0 bb 07 01 bd 47 ed c8 3d bd 8e 4c 3c 5f 49 a5 bd
       -0.031501513 0.09810882 0.012485203 -0.08070635
0002b0 2d f5 12 be dc cd b0 3d 20 5c 42 3e c2 15 78 3d
       -0.1435134 0.086330146 0.18980455 0.060567625
0002c0 60 0a 1b 3d db ca 53 3d 00 70 d6 bc 3d c3 83 3d
       0.03785169 0.05170713 -0.026176453 0.06433723
0002d0 e8 2b 33 bd 19 75 a9 bd 33 1e ca bd 2c 43 39 3d
       -0.043743044 -0.08274288 -0.09869041 0.045230076
0002e0 29 35 08 bd 62 3b 95 3c 9a 2d 52 3d 6a af ce bc
       -0.033253822 0.018216792 0.05131302 -0.025230128
0002f0 70 1b 07 3e 83 a3 40 3e 34 b3 00 3d 84 90 c0 bc
       0.1319406 0.18812375 0.0314209 -0.02350641
000300 1e be 64 3d 37 e7 d0 3b 85 9f 44 bd 8d 77 86 3b
       0.055845372 0.006375219 -0.048003692 0.004103607
000310 51 dd a6 3d ee 11 e9 3c cf 52 e9 bd 31 6d 25 3d
       0.081476815 0.028450932 -0.113927476 0.040387336
000320 20 b2 31 3e 66 17 1a bd 65 ef 18 3d 95 06 aa 3c
       0.17353106 -0.03761997 0.03733768 0.020755092
000330 55 1d f7 bc a4 60 86 bd 35 35 6e bd 6e a7 8b bc
       -0.030165354 -0.065614015 -0.05815621 -0.01704761
000340 4a 98 01 be ba 0a 3d 3d 88 66 e1 bb 88 86 31 3d
       -0.1265575 0.046152808 -0.0068786778 0.04334119
000350 d9 af 53 3d 2c b1 8d 3d 4b 41 9a be 6d 80 a4 3d
       0.051681373 0.069185585 -0.3012794 0.08032308
000360 df 99 ac bd 5f 8f e8 3d 20 e4 af bb 2f 9e b1 bb
       -0.08427786 0.11355471 -0.005367771 -0.0054204683
000370 80 0a fa 3d 54 26 c2 3d 8c 51 a7 3c 9f 6d 99 3d
       0.12209034 0.09479967 0.020424627 0.07491612
000380 0f f6 3f bd 3d 31 13 3e 4e bc a4 bd 58 39 42 bd
       -0.04686552 0.14374252 -0.08043729 -0.04741797
000390 d1 a1 ab bb de 4f cd 3b 9d 80 8f 3d 2e 34 9d bd
       -0.005237796 0.0062656244 0.07006953 -0.07675968
0003a0 68 ed eb 3c 1e ba f4 bd ec bc 44 bd f6 47 42 bd
       0.028799728 -0.119495615 -0.048031732 -0.04743191
0003b0 c6 38 9a 3d c7 0d e5 3a 28 75 ce bd 79 52 91 3b
       0.0753036 0.001747542 -0.100809395 0.0044348803
0003c0 ca dc 46 3d 6e f3 0f bc 97 25 52 bc 17 e6 41 bc
       0.048550405 -0.0087860655 -0.012826345 -0.011834643
0003d0 79 68 72 bd 13 88 93 3c ce 09 04 3d 66 19 cf bd
       -0.059181664 0.018009221 0.032235913 -0.10112266
0003e0 af a6 8e 3b 1f e7 8f 3d fc ff 13 bd 37 e4 db bc
       0.0043533663 0.07026505 -0.036132798 -0.02684222
0003f0 42 a0 9c 3d 4d bc 38 3c 4a af 92 ba d2 c2 2f b8
       0.07647754 0.011275363 -0.0011191156 -4.1904692e-05
