option_hedging/hyperparameters/pg_hyperparameters/year/0.0/pg_model.pth (torch, 137932 bytes, 7 tensors)

linear1.weight f4 [128, 3]
0	0x3dad4527	0.084604554
1	0xbd73afa7	-0.059493687
2	0xbdb520d0	-0.08844149
3	0xbe05ea1f	-0.13077591
4	0x3e0f4739	0.13992013
5	0xbe1da32f	-0.15394281
6	0x3b2e37c5	0.0026583534
7	0xbca49868	-0.020092204
8	0xbdfb5a22	-0.12273051
9	0x3cd1d18a	0.025612611
10	0x3e77957e	0.2417812
11	0xbc606d76	-0.0136979725
12	0x3d9872f3	0.074438
13	0x3a24f133	0.0006292045
14	0xbd0f5d7b	-0.03500126
15	0xbcffcfdf	-0.03122705
16	0x3d8a5d0f	0.06756031
17	0x3da9803b	0.08276411
18	0xbd5c0643	-0.05371691
19	0xbe1c1b2d	-0.15244742
20	0xbddcfd84	-0.10790542
21	0x3db05134	0.08609238
22	0xbd588953	-0.052865338
23	0xbe0b78e4	-0.13620335
24	0xbcf04c9c	-0.029333405
25	0x3e263ccd	0.16234131
26	0xbe6e5147	-0.23273192
27	0xbe393567	-0.18086778
28	0xbcc7e759	-0.024402307
29	0xbd974670	-0.07386482
30	0x3d1ce651	0.038305584
31	0x3e57b5fe	0.21065518
32	0x3d94e4d1	0.07270206
33	0xbd5bc1f5	-0.05365177
34	0x3d2c76ea	0.042105593
35	0x3e8bc164	0.27295983
36	0x3db33523	0.087503694
37	0x3dbb2de4	0.09139612
38	0x3e24df1f	0.16100739
39	0x3d263464	0.040577307
40	0x3d961def	0.07329928
41	0x3e85e31f	0.26149842
42	0x3e4d6953	0.20059709
43	0x38e6aa47	0.00010998971
44	0xbd1c9a56	-0.038233124
45	0x3e0e711e	0.13910338
46	0xbc5ece50	-0.013598993
47	0x3b7a2f27	0.0038175078
48	0x3cde4848	0.027134076
49	0xbdc72fdd	-0.09725926
50	0x3d139db0	0.036039054
51	0xbe17ab04	-0.14811331
52	0xbda8b446	-0.082375094
53	0xbdc03b2f	-0.093862884
54	0xbe001075	-0.12506278
55	0xbe1011cc	-0.14069289
56	0xbe0e2d18	-0.1388439
57	0xbc9ae309	-0.018907087
58	0xbdf9271c	-0.12165663
59	0x3dd8e0c2	0.10589744
60	0x3da28c6d	0.0793694
61	0x3d8926d8	0.06696862
62	0x3c50708c	0.012722146
63	0x3e8c568a	0.27409774
64	0x3e1d3954	0.153539
65	0x3e492b01	0.19645311
66	0x3e0dfabe	0.13865182
67	0x3d15c6df	0.03656661
68	0xbd245028	-0.040115505
69	0x3d920b21	0.07131029
70	0x3e8182cc	0.25295103
71	0x3e234eaf	0.15947984
72	0xbe73bfa9	-0.23803581
73	0x3d7beca3	0.06150497
74	0x3eb6bad8	0.35689425
75	0xbd4ae295	-0.04953249
76	0xbcae7b85	-0.021299133
77	0x3d4d1cb9	0.05007622
78	0x3d87a6c2	0.066236034
79	0x3d3edf49	0.04659966
80	0x3e1303d3	0.14356928
81	0xbe66639c	-0.22498935
82	0x3ca74802	0.020420078
83	0xbe0d7e3b	-0.13817684
84	0xbdf873dc	-0.121314734
85	0x3cb561cd	0.022141362
86	0x3d9750a6	0.07388429
87	0xbd6655d9	-0.056234214
88	0x3c67d5f4	0.0141501315
89	0xbc8f1b83	-0.017469173
90	0xbd50cfd5	-0.050979454
91	0xbd45380c	-0.048149154
92	0x3df2f42c	0.11862978
93	0xbd5f414a	-0.054505624
94	0xbe36b267	-0.17841493
95	0x3cdc4cec	0.026892148
96	0x3df02f2a	0.11727746
97	0xbbff02ee	-0.0077823317
98	0xbc829015	-0.015937844
99	0x3d7f0d31	0.06226844
100	0xbd3d998d	-0.046289016
101	0xbe1aaedb	-0.15105765
102	0x3d2d4651	0.042303387
103	0xbd82b9c9	-0.06383092
104	0x3e3c1a37	0.18369375
105	0x3d676162	0.056489356
106	0xbd4787fe	-0.048713677
107	0xbe0bc0c8	-0.13647759
108	0x3dc0e8d2	0.09419407
109	0x3e66b42b	0.22529666
110	0x3df24361	0.11829258
111	0x3d3eeac7	0.04661062
112	0xbe042383	-0.12904172
113	0xbe4deff6	-0.20111069
114	0x3dfe091b	0.124040805
115	0xbe258a01	-0.16165926
116	0x3e59b5fb	0.21260826
117	0x38c27e56	9.274173e-05
118	0xbe11c320	-0.1423459
119	0xbdefc703	-0.1170788
120	0x3cba4bfe	0.022741314
121	0xbb85461f	-0.004067197
122	0xbdc078e4	-0.09398058
123	0x3dd07540	0.10178614
124	0xbd7b69a1	-0.061380032
125	0xbcaece82	-0.021338705
126	0x3e04675e	0.12930056
127	0x3bec97f5	0.007220263
128	0x3d8c25b9	0.068431325
129	0xbc6699a4	-0.014074717
130	0xbe0985e0	-0.13429976
131	0xbea8011c	-0.32813346
132	0x3c251738	0.010076337
133	0xbe7919ce	-0.2432625
134	0x3e2ba4c2	0.16762069
135	0xbcd7b74f	-0.026332526
136	0x3d558dc7	0.052137163
137	0x3dd3dec3	0.10345223
138	0x3dc61160	0.09671283
139	0xbea1395a	-0.31489068
140	0x3c01149d	0.00787845
141	0x3dec1935	0.11528245
142	0xbdcdecc3	-0.10054924
143	0x3d67dfa6	0.056609772
144	0x3d673866	0.05645027
145	0x3bd82ac0	0.006596893
146	0xbe21e7bb	-0.15811054
147	0xbd41d7a2	-0.047324784
148	0xbe191eb9	-0.14953126
149	0xbc8d4f49	-0.01724972
150	0x3df57e51	0.119869836
151	0xbc38dc06	-0.011282926
152	0xbcc08776	-0.023502093
153	0xbda421e0	-0.08014274
154	0x36ffcba3	7.6232986e-06
155	0xbbf53e33	-0.0074842214
156	0x3e3ee480	0.18641853
157	0x3df9091b	0.1215994
158	0xbdd563d8	-0.10419434
159	0x3e02e4d3	0.12782602
160	0xbeaa853e	-0.3330478
161	0x3d4fcc76	0.0507321
162	0x3dfd7c0c	0.12377176
163	0xbdb17ab9	-0.086659856
164	0xbe82d74e	-0.2555489
165	0x3bcddfd3	0.0062827854
166	0xbe0bac58	-0.13639963
167	0x3d35c8e9	0.044381056
168	0x3e60e5d6	0.21962675
169	0x3d9d9541	0.076944835
170	0xbdd3ec9c	-0.10347864
171	0xbd5a54aa	-0.0533034
172	0x3def4692	0.11683382
173	0x3e12ced6	0.14336714
174	0xbe006a48	-0.12540543
175	0xbe5994b7	-0.21248136
176	0x3d491fed	0.049102712
177	0xbddc6d79	-0.10763068
178	0x3d8b6be5	0.068076886
179	0xbcc95a07	-0.024579061
180	0x3e114e20	0.14189959
181	0x3e52439e	0.20533606
182	0x3d7418da	0.059594013
183	0x3d05114b	0.032487195
184	0x3e18f63e	0.14937684
185	0xbc5011c9	-0.012699553
186	0x3e379efa	0.17931738
187	0xbdb307eb	-0.087417446
188	0xbe65ff43	-0.22460656
189	0x3e9891fb	0.29798874
190	0x3dc2f9e4	0.09520319
191	0xbe78d142	-0.24298576
192	0x3e5243d5	0.20533688
193	0x3d21d361	0.039508227
194	0x3d0d3f0d	0.034483958
195	0xbce1784b	-0.02752318
196	0x3e4131d8	0.1886667
197	0x3be9f1c6	0.0071394173
198	0xbe5531cf	-0.20819782
199	0x3d2e5525	0.04256167
200	0xbd87e7ca	-0.06636007
201	0x3d810dd6	0.06301467
202	0x3e7932d4	0.24335796
203	0x3d266eab	0.040632885
204	0xbda12b63	-0.078696035
205	0xbdc9e7aa	-0.098586395
206	0x3d6523ca	0.055942334
207	0x3dd26787	0.102736525
208	0xbdd5575e	-0.104170546
209	0xbe85fac4	-0.2616788
210	0x3da0137c	0.07816216
211	0xbe428ecb	-0.18999784
212	0xbe32e134	-0.1746872
213	0x3df30457	0.11866062
214	0x3dc3b837	0.095566206
215	0xbe5d156a	-0.215902
216	0xbc3bc2f4	-0.011460055
217	0xbe805599	-0.25065306
218	0x3e22c1c1	0.15894224
219	0xbe3dfdf3	-0.18553905
220	0x3e1704f8	0.14747989
221	0x3dc0d5ed	0.09415803
222	0xbb2992cb	-0.002587485
223	0x3e8b22c7	0.2717497
224	0x3d50880c	0.050910994
225	0x3d94fa6b	0.07274326
226	0xbea7a687	-0.32744238
227	0xbe88d569	-0.2672532
228	0xbe166601	-0.14687349
229	0x3c34ab90	0.011027232
230	0xbd157d8f	-0.036496695
231	0x3cabb1ae	0.020958748
232	0xbdd40cc4	-0.10353997
233	0x3d28ef6e	0.041243963
234	0x3e83acb8	0.2571771
235	0x3bc64c0a	0.006051545
236	0x3e9d0043	0.30664262
237	0x3eaff64f	0.34367606
238	0x3e10b99a	0.14133301
239	0xbcbbc59d	-0.022921378
240	0xbdfdb862	-0.12388684
241	0x3d0571c4	0.0325792
242	0x3d8042f7	0.062627725
243	0x3d938dc2	0.072047725
244	0xbe0aa690	-0.13540101
245	0x3cfe2be3	0.031026786
246	0x3d11669d	0.03549825
247	0xbe9f8f16	-0.31163853
248	0x3eb44737	0.35210583
249	0x3e3115d5	0.17293485
250	0xbd418888	-0.047249347
251	0x3d79466b	0.06085817
252	0xbdda1384	-0.106482536
253	0x3e343b69	0.17600788
254	0x3d7b5823	0.06136335
255	0xbe34f755	-0.17672475

linear1.bias f4 [128]
0	0xbc2f121f	-0.010685473
1	0xba66f30c	-0.00088100205
2	0x3cbc3ce7	0.02297826
3	0x3c7a0db7	0.015262059
4	0xbb83f623	-0.0040271445
5	0x3bce6310	0.0062984303
6	0xbb957177	-0.004560645
7	0x3c75f4f1	0.015012012
8	0x3cc12159	0.023575472
9	0xba849beb	-0.0010117268
10	0x3cebc0cf	0.028778462
11	0xbbcb6704	-0.006207349
12	0x3b59c961	0.0033231603
13	0x3b2b47ce	0.0026135328
14	0x3cca42b6	0.024690013
15	0xbaefce00	-0.0018295646
16	0xbbfc6a66	-0.0077031134
17	0x3c0b0744	0.008485619
18	0xbb9ed41f	-0.004847064
19	0x3c19301b	0.009349848
20	0x3ce1fc4d	0.027586127
21	0x3c8aec2c	0.016958319
22	0x3ba86ca0	0.0051399022
23	0xbca5d295	-0.020242015
24	0xbd237043	-0.039901983
25	0xbcb8eaa2	-0.02257282
26	0x3c883651	0.016627463
27	0xbb8a4d22	-0.0042206207
28	0x3c844db4	0.016150333
29	0xbaa2adbe	-0.0012411398
30	0xbc99fdc4	-0.018797763
31	0x3d410724	0.04712595
32	0x3d180de0	0.037122607
33	0x3bbb2b1c	0.005711926
34	0x3c86dfb4	0.016464092
35	0xbc52ab51	-0.012858228
36	0x3c33243c	0.010933932
37	0x3c82c2cd	0.015962029
38	0x3cac0f00	0.021003246
39	0xbae2c69b	-0.0017301621
40	0xbb8707f0	-0.0041208193
41	0xbc560d25	-0.013064657
42	0x3c9796fa	0.018504608
43	0xbc1ca539	-0.0095608765
44	0x3c71e22a	0.014763394
45	0x3d07656a	0.0330557
46	0x3b5d3b60	0.0033757314
47	0xbcb2f706	-0.021846306
48	0xbc152fac	-0.009105604
49	0x3d0a84c4	0.03381802
50	0xbbf01df3	-0.007327789
51	0x3a9ebf56	0.0012111466
52	0x3c1689b7	0.009188107
53	0x3c262f63	0.010143134
54	0xbc02f203	-0.00799227
55	0xbbacdc43	-0.0052752807
56	0x3cf6204c	0.030044697
57	0x3c8fb480	0.017542124
58	0xbbef5971	-0.0073043634
59	0x3b0bd94a	0.0021339231
60	0x3c8856b5	0.016642908
61	0x3c9f22a9	0.019425707
62	0xbc893498	-0.016748711
63	0x3c341705	0.010991816
64	0x3cc6b3d7	0.024255676
65	0x3c9284fd	0.01788568
66	0xbb53b850	-0.0032305904
67	0x3c182c67	0.00928793
68	0xbc9e77ae	-0.019344177
69	0x3c988993	0.018620288
70	0xbc52048d	-0.012818468
71	0x3c18bd72	0.009322511
72	0x3c27bc7c	0.010237809
73	0xbc31e2bb	-0.010857279
74	0x3ad88c1d	0.0016521249
75	0xbae06a50	-0.0017121527
76	0xbac43cd9	-0.0014971747
77	0x3bc1fd3f	0.005920082
78	0xbd001b4f	-0.031276044
79	0x3c8a46ed	0.016879523
80	0x3c869d25	0.016432354
81	0xbca61419	-0.020273255
82	0x3cca2553	0.024676
83	0xbcbe8368	-0.023256019
84	0xbcfea245	-0.031083236
85	0x3b2a3c1c	0.002597577
86	0xbd1547c0	-0.03644538
87	0x3cb5847f	0.022157906
88	0x3c13cba3	0.009020719
89	0xbcd8fb09	-0.02648689
90	0x3d0e02ce	0.034670644
91	0x3c0335dd	0.0080084475
92	0x3cabf1ba	0.020989288
93	0x3ac6486f	0.0015127788
94	0x00000000	0.0
95	0x00000000	0.0
96	0xbd2def53	-0.042464565
97	0x3be869da	0.0070926966
98	0x3c81f24c	0.015862606
99	0xbc8e391a	-0.017361213
100	0x3cb00736	0.021487813
101	0x3ca632be	0.020287868
102	0x3ce6f7d2	0.028194342
103	0x3d49a5ff	0.04923057
104	0x3cd9b9b9	0.026577817
105	0x3cda51d2	0.026650343
106	0x3c819f8d	0.01582315
107	0xbce3c7ea	-0.027805287
108	0xbcf97c32	-0.030454729
109	0x3d3fb186	0.04680016
110	0xbb2c8fdb	-0.0026330862
111	0x39dbf240	0.00041951425
112	0x3d12ba89	0.035822425
113	0xbcd3e56d	-0.025866235
114	0x3cb973ce	0.022638228
115	0x3d3443e7	0.04401007
116	0xbad7f298	-0.0016475497
117	0x3cefcfd5	0.029273907
118	0xbb1a5c7e	-0.0023553665
119	0xbc4994f8	-0.012303583
120	0xba70c868	-0.00091851363
121	0xbbab1541	-0.0052210395
122	0x3b9bdab5	0.0047562965
123	0xbce0f058	-0.027458355
124	0x3d15141f	0.036396142
125	0xbaf5d169	-0.0018754426
126	0x3c392bcd	0.011301947
127	0xbad9e140	-0.0016622916

linears.0.weight f4 [128, 128]
0	0xbdf2c079	-0.118531175
1	0x3d69c075	0.057068307
2	0x3a954f3a	0.0011391409
3	0xbcb622cf	-0.022233395
4	0xbe4c06c0	-0.1992445
5	0x3dfed0ba	0.12442155
6	0xbb2ac363	-0.00260564
7	0x3e46baa1	0.19407131
8	0x3d7b1c67	0.061306383
9	0xbd74632b	-0.059664886
10	0x3e002293	0.12513189
11	0x3d48c3ae	0.04901474
12	0x3daf58ad	0.085618354
13	0xbdcbb209	-0.09946067
14	0x3d8f9635	0.070110716
15	0x3dec5243	0.11539128
16	0xbd425555	-0.04744466
17	0x3d41c940	0.047311068
18	0xbe4046b8	-0.18776977
19	0x3dc564b6	0.0963835
20	0x3e192c66	0.14958343
21	0x3dbabaab	0.09117635
22	0x3d98cbb3	0.074607275
23	0xbc907780	-0.017635107
24	0xba10e91e	-0.0005527901
25	0xbe50cb29	-0.2039
26	0xbcbeada5	-0.02327616
27	0xbc647ac4	-0.013945285
28	0x3d3d3e3c	0.04620193
29	0x3ce154a9	0.02750619
30	0xbc00c689	-0.0078598345
31	0x3bbea073	0.005817467
32	0x3dac34d4	0.08408514
33	0xbd0637a3	-0.032767903
34	0x3e3bab50	0.1832707
35	0xbdea3e9b	-0.11437722
36	0x3d6914a6	0.056904458
37	0x3e1078c0	0.14108562
38	0x3e233b28	0.15940535
39	0x3d825572	0.06363954
40	0x3da5b973	0.08092012
41	0x3c88b26a	0.016686637
42	0xbdecd31d	-0.11563704
43	0x3e2fa12e	0.17151329
44	0x3db42b79	0.08797354
45	0x3d439e80	0.04775858
46	0xbdaed396	-0.085364506
47	0xbdab01a6	-0.08349924
48	0x3c2cf8b8	0.010557346
49	0x3db6860d	0.08912287
50	0xbcf03a12	-0.029324565
51	0xbd467f6a	-0.048461355
52	0x3dcba5f9	0.09943766
53	0x3d3d2808	0.046180755
54	0x3d206116	0.03915509
55	0xbd547e6a	-0.05187837
56	0x3e3c5acd	0.18394013
57	0x3d884950	0.06654608
58	0xbe1f86a6	-0.15578708
59	0xbc07b58a	-0.008283028
60	0xbe104caf	-0.14091752
61	0x3e16d05b	0.14727919
62	0x3d2c1087	0.04200795
63	0x3c8df72d	0.017329777
64	0x3e45d11f	0.19318055
65	0x3ded25f6	0.11579506
66	0xbe6c6517	-0.23085438
67	0xbe07ac31	-0.1324928
68	0xbc912914	-0.017719783
69	0x3dff6135	0.12469713
70	0xbb543a56	-0.0032383404
71	0xbcaad22b	-0.020852169
72	0x3d4894aa	0.048969902
73	0x3c9f07be	0.019412871
74	0xbe0d9daf	-0.13829683
75	0xbe020097	-0.12695538
76	0x3e1bec31	0.15226819
77	0xbe2f45fe	-0.17116544
78	0xbcec9282	-0.028878454
79	0x3e367fb9	0.1782216
80	0xbe43bb83	-0.19114499
81	0x3dfbbe1a	0.12292118
82	0xbbaf8590	-0.005356498
83	0xbba78c17	-0.0051131356
84	0xbd30c2b7	-0.043154445
85	0xbe1378f1	-0.14401604
86	0xbd26b563	-0.040700328
87	0x3cc3b5c1	0.023890378
88	0xbdf69391	-0.12039865
89	0x3df6e13e	0.1205468
90	0x3d4c5136	0.049882136
91	0xbd91fb28	-0.071279824
92	0x3cc77ed4	0.024352469
93	0xbda65183	-0.08121016
94	0xbde43e7e	-0.11144732
95	0xbdb0f0f0	-0.08639705
96	0x3c993471	0.018701764
97	0xbb1267b4	-0.0022339644
98	0x3d5f519c	0.05452119
99	0xbc4b5e35	-0.012412597
100	0x3d264a0c	0.04059796
101	0x3db03fe5	0.08605937
102	0xbca82332	-0.020524595
103	0xbc0aef69	-0.008479931
104	0x3d965580	0.073405266
105	0xbe35282b	-0.17691104
106	0xbd81199c	-0.06303713
107	0xbd5dcfc2	-0.05415321
108	0xbe028e1e	-0.12749526
109	0xbca01bb2	-0.019544456
110	0xbce0e958	-0.027455017
111	0xbdd9bc8b	-0.10631665
112	0x3e3d8611	0.18508174
113	0x3ca51cb3	0.020155286
114	0x3db49988	0.08818346
115	0x3cbe65ed	0.023241961
116	0xbdce29c4	-0.1006656
117	0x3e3f39a5	0.18674333
118	0xbe1a5a22	-0.15073445
119	0xbcdb95f0	-0.026804894
120	0x3d0ea6ed	0.03482716
121	0xbd898e0d	-0.06716547
122	0x3d613e8b	0.054991286
123	0xbe0af751	-0.13570906
124	0xbd90a537	-0.07062762
125	0xbcaebe81	-0.021331074
126	0x3e120762	0.14260629
127	0x3b0adf07	0.0021190064
128	0x3d71d01e	0.059036367
129	0x3d879230	0.0661968
130	0x3c86e199	0.016464995
131	0x3dec32ee	0.115331516
132	0x3dccddbe	0.100032315
133	0x3b6596f7	0.003503261
134	0x3d00060d	0.03125577
135	0xbda33278	-0.079686105
136	0xbdcfcf1f	-0.10146927
137	0x3d23b234	0.03996487
138	0x3da2e8b6	0.07954542
139	0x3d109fdb	0.0353087
140	0x3d767dfe	0.06017875
141	0x3d1d72a9	0.038439427
142	0xbd733736	-0.059378825
143	0x3d6399ff	0.055566784
144	0x3d64b54e	0.055836968
145	0x3d2f9e94	0.04287584
146	0xbd0b8476	-0.03406187
147	0x3c950eac	0.018195473
148	0x3d4141f8	0.047182053
149	0x3c162902	0.00916505
150	0xbd4632df	-0.04838836
151	0xbd486edd	-0.048933852
152	0x3be8d255	0.0071051517
153	0xbdd60b3f	-0.10451364
154	0x3d45ebf3	0.04832072
155	0x3e6e8c0c	0.23295611
156	0x3d787947	0.060662534
157	0xbd17d03a	-0.037063815
158	0x3d803d26	0.06261663
159	0x3df09d3b	0.11748739
160	0x3e009297	0.1255592
161	0xbd9633c1	-0.0733409
162	0x3ddc4ca7	0.10756808
163	0x3e1794c7	0.14802848
164	0xbc18a86b	-0.009317498
165	0x3dae80a9	0.08520634
166	0x3d953c7e	0.072869286
167	0x3e210f47	0.15728484
168	0xbca2bc4a	-0.019865174
169	0x3e55c2bf	0.20875071
170	0x3dbadd92	0.091242924
171	0xbddf391c	-0.108995646
172	0x3ca669b8	0.020314083
173	0x3cf00512	0.029299293
174	0xbca93d72	-0.020659182
175	0xbe231300	-0.15925217
176	0x3cae2931	0.021259876
177	0xbc7ce182	-0.015434625
178	0xbc8fb3f9	-0.017541872
179	0xbca4228e	-0.020036008
180	0x3dc75b86	0.097342536
181	0x3d8c17c8	0.068404734
182	0xbdabc8d9	-0.08387918
183	0x3dc736d1	0.09727252
184	0xbddaefc6	-0.106902644
185	0x3d97f31c	0.07419416
186	0xbe165946	-0.14682493
187	0x3c8fd46f	0.01755735
188	0x3dafb88b	0.08580121
189	0x3d8e6bad	0.06954131
190	0x3cdb7845	0.026790747
191	0x3d1f8a38	0.038950175
192	0x3e0f2876	0.13980278
193	0x3de0d377	0.10977834
194	0x3b6fd2a3	0.0036594055
195	0x3dc32b03	0.09529688
196	0xbd0f2284	-0.034945026
197	0x3db186a2	0.08668257
198	0xbd18588a	-0.037193812
199	0xbdd429f6	-0.10359566
200	0x3d3b32bf	0.045702692
201	0xbdc4b41d	-0.096046664
202	0x3dad9e84	0.084775
203	0x3d1d34e1	0.038380507
204	0x3c0614f3	0.008183706
205	0xbe175497	-0.14778362
206	0x3e132a42	0.14371589
207	0xbd0b4eaf	-0.034010585
208	0xbe1c80ac	-0.1528346
209	0x3dc3ebfd	0.095664956
210	0x3d906bd2	0.07051815
211	0xbdfa317c	-0.1221647
212	0x3dbb54ae	0.09147011
213	0x3d262d06	0.04057028
214	0xbe33ea33	-0.17569809
215	0xbd103bf8	-0.03521344
216	0xbd98eac7	-0.07466655
217	0xbd891c6e	-0.06694876
218	0xbd925ce4	-0.07146624
219	0x3cd25980	0.025677443
220	0x3dc3a7cf	0.09553491
221	0x3dfafc3a	0.1225514
222	0xbc038de8	-0.008029439
223	0x3d82bd6d	0.06383786
224	0x3d63e7ab	0.055640858
225	0x3e02fa56	0.12790808
226	0xbbf08965	-0.0073405975
227	0xbba3f46d	-0.005003503
228	0xbd7fd9f0	-0.0624637
229	0xbca88095	-0.020569125
230	0xbda98d5f	-0.082789175
231	0x3e2ba4b4	0.16762048
232	0xbe131080	-0.14361763
233	0x3d7bb8dc	0.061455593
234	0x3c2d30e6	0.01057074
235	0x3dfcb9cc	0.123401254
236	0xbdd9e803	-0.10639956
237	0xbc503ffe	-0.012710569
238	0xbd990345	-0.07471327
239	0xbd8d1e54	-0.0689055
240	0x3e1bde62	0.15221551
241	0xbe31d2f4	-0.17365628
242	0x3e121dd6	0.14269194
243	0xbd02a6dd	-0.031897414
244	0xbd134927	-0.035958435
245	0xbb8a94e8	-0.004229177
246	0xbd32275c	-0.043494567
247	0xbd89900f	-0.0671693
248	0xbdc41119	-0.095735736
249	0xbe03688c	-0.1283285
250	0xbd95f8f9	-0.073228784
251	0xbd788dbf	-0.060682055
252	0x3e5d5d9d	0.21617742
253	0x3aa4fd79	0.0012587748
254	0x3e13dc4d	0.14439507
255	0xbd5912bb	-0.05299638

linears.0.bias f4 [128]
0	0x3cc1c74d	0.023654604
1	0x3c2cbfb8	0.010543756
2	0xbba72ddb	-0.005101902
3	0x3c546fbb	0.012966092
4	0x3cac6acb	0.021047017
5	0xbcb5186c	-0.022106372
6	0x3c8f239f	0.01747304
7	0x3ce09eaa	0.027419407
8	0x3cbd3999	0.023098754
9	0x00000000	0.0
10	0x3be34e72	0.0069368416
11	0x3cd6620d	0.026169801
12	0xbab35a32	-0.0013683497
13	0xbcb5fd18	-0.022215411
14	0xbbbc7045	-0.0057506883
15	0xbbc0965e	-0.0058773
16	0x3c2656c7	0.010152525
17	0xbc5259ac	-0.012838762
18	0xbc7bad24	-0.015361104
19	0xbc5a799e	-0.01333466
20	0xbbbd254c	-0.0057722684
21	0x3ca6a538	0.020342454
22	0xbbce2d59	-0.006292027
23	0x00000000	0.0
24	0xbd04d149	-0.032426152
25	0xbc5a4dd8	-0.013324223
26	0xbc8c2abe	-0.017110225
27	0xbd083fb5	-0.03326388
28	0x00000000	0.0
29	0x3c7c93df	0.015416115
30	0xbaf5bfb9	-0.0018749154
31	0xbbaf30fe	-0.0053464165
32	0x3c27d8ec	0.010244589
33	0xbb1082e2	-0.0022050668
34	0x3ccedcc5	0.025251755
35	0x3cf9a411	0.03047374
36	0x3c93a9a7	0.018025232
37	0x3c9e1842	0.019298676
38	0x3c6f67d9	0.014612162
39	0x3ce25c38	0.027631864
40	0x3cb80df3	0.022467589
41	0xbb8e0203	-0.004333736
42	0xbc8a5005	-0.01688386
43	0x3c93721c	0.017998748
44	0x3c8cb0fe	0.01717424
45	0xbc22799d	-0.00991669
46	0x3c84d93b	0.016216865
47	0x3d4a067d	0.049322594
48	0x3c87ed0c	0.016592525
49	0x3c80b935	0.015713314
50	0xbb8f319e	-0.0043699285
51	0xbc40be3c	-0.011764105
52	0xbcaaa768	-0.020831779
53	0xbb42c3db	-0.002971879
54	0xbd1b181f	-0.0378648
55	0xbbf60b18	-0.0075086467
56	0x3cbf1e28	0.02332981
57	0xbb733521	-0.0037110525
58	0xbc8cd881	-0.01719308
59	0xbc3b400b	-0.011428843
60	0x3ce155a0	0.02750665
61	0xbc053f98	-0.008132838
62	0x3be8f075	0.007108743
63	0x3c34abbd	0.011027274
64	0xbd05847d	-0.032597054
65	0x3ca39456	0.019968193
66	0x3d0d1153	0.03444035
67	0xbb4ef343	-0.00315781
68	0x00000000	0.0
69	0xbc8cd184	-0.017189749
70	0xbd16a455	-0.036777813
71	0x3bff8522	0.007797853
72	0x397e69bf	0.00024262721
73	0x3d01bca4	0.031674042
74	0x3c0c61dc	0.008568253
75	0xbc0ff8c2	-0.008787336
76	0x3ce5fec9	0.028075593
77	0xb9ebe755	-0.0004499505
78	0x3bd68539	0.006546643
79	0x3c72c73d	0.01481801
80	0x3ca15ece	0.019698527
81	0x3d025d8e	0.031827502
82	0x3cd711ed	0.026253665
83	0x00000000	0.0
84	0x3cd7f72a	0.026362974
85	0xbc01c856	-0.007921299
86	0x00000000	0.0
87	0x3c3f19c0	0.011663854
88	0x3cd22cc2	0.025656108
89	0x3d13775f	0.036002513
90	0x3b599b9e	0.0033204327
91	0x3d112fbf	0.035445925
92	0x3cb278e1	0.021786155
93	0x3c89d105	0.016823301
94	0x3ccd8088	0.025085703
95	0x3bbb819f	0.005722239
96	0x3c4cc717	0.012498639
97	0x3c52ef0c	0.012874376
98	0x3b5eb6f8	0.003398357
99	0xbc0c2ca8	-0.008555569
100	0xbb822f12	-0.0039728964
101	0xbbdb1827	-0.006686229
102	0x3c904f5e	0.01761597
103	0x3cc6b4e5	0.02425618
104	0xbc705b42	-0.014670195
105	0xbc0c226c	-0.008553129
106	0x3c89e831	0.01683435
107	0xb9b30340	-0.00034143962
108	0x3c4abcff	0.012374162
109	0x3cb26d09	0.021780508
110	0xbb21dcf0	-0.002469834
111	0xbc5e012c	-0.013550084
112	0xbc9cbaa1	-0.01913196
113	0x3ca88972	0.020573352
114	0x3b96c13e	0.004600673
115	0x3c808d8c	0.015692495
116	0x3cbc9bc4	0.023023494
117	0x3bab39b1	0.005225383
118	0x3bc58796	0.006028126
119	0x3c83716c	0.016045295
120	0xb8b53a35	-8.6415945e-05
121	0x3cb21111	0.021736654
122	0xbca8b757	-0.020595236
123	0x3cacd78a	0.02109887
124	0xb97b9109	-0.00023991255
125	0x3abe5254	0.0014520385
126	0x00000000	0.0
127	0x39ce5e63	0.00039361705

linears.1.weight f4 [128, 128]
0	0x3d39a8c6	0.04532697
1	0x3de68d84	0.11257461
2	0x3d02deec	0.031950876
3	0x3d6a2c0d	0.057170916
4	0xbcbf1f6b	-0.023330411
5	0x3de1646e	0.110054836
6	0x3d5ff3a7	0.054675724
7	0xbcedba73	-0.02901957
8	0xbe0760e0	-0.13220549
9	0x3cdb4091	0.026764186
10	0x3d09f9a8	0.033685356
11	0xbd23cd9f	-0.039991017
12	0xbc0b627f	-0.00850737
13	0x3cd6358e	0.026148584
14	0xbd827166	-0.06369285
15	0x3d851ac3	0.06499245
16	0x3be0101a	0.006837857
17	0xbd4afbb3	-0.049556445
18	0xbcda4c94	-0.026647843
19	0xbd33790d	-0.043816615
20	0xbcd75d7a	-0.02628969
21	0xbdb81966	-0.08989219
22	0xbdbb68d9	-0.091508575
23	0x3d7bb12f	0.061448272
24	0xbdb2bddd	-0.0872762
25	0xbe250ca8	-0.16118109
26	0xbdbd7942	-0.09251644
27	0xbe6a9531	-0.22908475
28	0x3dd57d0d	0.10424242
29	0x3d33e4f4	0.04391952
30	0xbac3d378	-0.0014940342
31	0x3e2069c1	0.15665342
32	0xbe6b901c	-0.23004192
33	0x3ddc7fb7	0.10766547
34	0x3d50efa6	0.051009797
35	0xbe19ba33	-0.15012436
36	0xbdc52362	-0.09625889
37	0xbe212df0	-0.1574018
38	0x3d0b71e0	0.034044147
39	0xbe83323c	-0.25624263
40	0x3e3da040	0.18518162
41	0xbe2f9718	-0.17147481
42	0xbcfb0c10	-0.0306454
43	0xbd0ce11d	-0.034394372
44	0xbcf07e42	-0.02935708
45	0x3d9e2b86	0.07723145
46	0xbb0aa397	-0.0021154636
47	0xbe179831	-0.1480415
48	0xbddf84a6	-0.109139726
49	0x3c89d017	0.016822858
50	0x3db3ca9b	0.08778878
51	0x3c4bf822	0.012449296
52	0xbc5ee830	-0.0136051625
53	0xbe01e62b	-0.12685458
54	0x3df42ef4	0.11923018
55	0x3e0cba3a	0.13742915
56	0xbdec7eec	-0.11547646
57	0xbcdef097	-0.027214332
58	0xbdadb0a0	-0.08480954
59	0xbe39dade	-0.18149897
60	0x3ccf7d7d	0.025328392
61	0x3e142622	0.14467672
62	0x3d29dd7a	0.041470982
63	0x3d22645f	0.039646503
64	0xbd157ea5	-0.03649773
65	0xbe74724d	-0.23871727
66	0xbb3b937d	-0.0028621845
67	0xbe351705	-0.17684563
68	0xbca155de	-0.019694265
69	0xbe2b84be	-0.16749856
70	0x3de90ba5	0.11379174
71	0xbd362891	-0.04447228
72	0x3c14f75a	0.009092176
73	0x3dc0ce3a	0.094143346
74	0x3a50a8a0	0.00079596974
75	0xbba65094	-0.0050755236
76	0xbcc2f01e	-0.023796137
77	0xbe23e787	-0.1600629
78	0xbddfffbf	-0.109374516
79	0x3ddb87fb	0.107192956
80	0x3d98d1d5	0.07461897
81	0x3db33f64	0.08752325
82	0x3c767b27	0.01504401
83	0x3dee089c	0.11622736
84	0x3dd6e809	0.10493476
85	0xbd645ab4	-0.055750564
86	0xbd2ec56d	-0.04266875
87	0xbc8c0b7d	-0.017095322
88	0x3de625fb	0.11237713
89	0xbcc635c2	-0.024195556
90	0xbd4d5302	-0.05012799
91	0x3d8ba598	0.06818694
92	0xbdac85b6	-0.08423941
93	0x3ce5a33d	0.02803194
94	0xbc6e0933	-0.01452856
95	0xbdda982f	-0.10673558
96	0x3e1211dd	0.14264627
97	0xbddca876	-0.10774319
98	0x3dc717a2	0.097213045
99	0x3dc4dbd4	0.096122414
100	0xbd25ff3d	-0.040526617
101	0xbd98d7e3	-0.07463052
102	0x3bc52ba2	0.0060171643
103	0x3de7aaee	0.11311899
104	0x3df70ef6	0.120634004
105	0xbd848339	-0.06470341
106	0xbd9256d4	-0.071454674
107	0xbd8a5863	-0.0675514
108	0x3b5a321b	0.0033294025
109	0x3cd8bf5f	0.02645844
110	0xbdc5fa43	-0.09666874
111	0x3df83971	0.12120331
112	0x3ceca46d	0.028886998
113	0x3d5b46a8	0.05353418
114	0x3d52cce4	0.05146493
115	0x3e05ac6f	0.1305406
116	0xbdf6fc9a	-0.12059899
117	0x3d6d15e5	0.05788221
118	0x3d00d66d	0.031454492
119	0x3d133ce3	0.035946738
120	0xbdc9adf7	-0.09847634
121	0xbd791c47	-0.060817983
122	0xbd9c2a14	-0.07625213
123	0xbc8e324f	-0.017357973
124	0x3e019cb3	0.12657432
125	0x3e01460b	0.12624376
126	0x3da060cf	0.07830965
127	0x3b86dc95	0.004115651
128	0xbdd5bfad	-0.1043695
129	0xbccb3441	-0.02480519
130	0xbd56b90d	-0.052422572
131	0xbca5205c	-0.020157032
132	0x3e0bb6a4	0.1364389
133	0x3d5f5139	0.05452082
134	0xbda168fd	-0.07881353
135	0xbbb1b5e6	-0.0054232953
136	0x3da8abce	0.08235894
137	0xbdd03d60	-0.10167956
138	0xbd933ae4	-0.07188967
139	0x3d2d379d	0.042289365
140	0xbd9d062f	-0.07667195
141	0xbddb1a08	-0.106983244
142	0xbd989f70	-0.07452285
143	0xbdb94d9f	-0.09048008
144	0x3db260bb	0.08709856
145	0xbd5d1527	-0.05397525
146	0xbd979616	-0.074016735
147	0x3c9218c3	0.017834073
148	0x3d040dd0	0.032239735
149	0xbc8e9d45	-0.017408976
150	0xbdb16cad	-0.086633064
151	0x3d679068	0.0565342
152	0xbceff0a3	-0.02928955
153	0xbd7c9f7d	-0.061675537
154	0x3be2675d	0.0069092945
155	0x3e16c714	0.1472438
156	0x3e01ae9d	0.12664266
157	0x3ca0a137	0.019608123
158	0x3d16a68e	0.036779933
159	0x3e2ba657	0.16762672
160	0xbe842650	-0.2581048
161	0x3dbcf114	0.092256695
162	0x3b67ac49	0.0035350493
163	0x3d7ba0fa	0.061432816
164	0x3de981d9	0.114017196
165	0xbd8c5eb0	-0.06853998
166	0x3d11cbf3	0.03559489
167	0x3ccabf15	0.024749318
168	0x3e2a68f0	0.16641593
169	0x3deac11c	0.11462614
170	0x3e215ebd	0.15758796
171	0x3c9648eb	0.018345317
172	0xbcea539d	-0.028604323
173	0x3e0c10f2	0.13678339
174	0xbe00512e	-0.12530968
175	0xbe4300b9	-0.19043244
176	0x3ddc4f06	0.1075726
177	0xbd79e5fd	-0.06101035
178	0x3d10227b	0.035189133
179	0x3d966edb	0.07345363
180	0x3db01524	0.08597782
181	0xbdb6a66d	-0.08918462
182	0x3d8f0eb8	0.06985229
183	0x3db6f014	0.0893251
184	0xbd61e68b	-0.055151504
185	0x3d4a47eb	0.049384993
186	0xbc67caf4	-0.014147509
187	0x3dc51720	0.09623551
188	0x3da283ea	0.07935317
189	0xbd74fe3e	-0.059812777
190	0xbdcff837	-0.10154765
191	0xbda66b72	-0.08125962
192	0xbe052491	-0.1300223
193	0xbe0809ed	-0.13285036
194	0xbd8ad722	-0.067793146
195	0xbd4423d7	-0.047885742
196	0xbd6d55fa	-0.05794332
197	0xbd9c42bc	-0.07629916
198	0xbbae4acd	-0.0053189755
199	0xbdef9d7d	-0.116999604
200	0x3ddda12b	0.10821756
201	0x3e0ecdd1	0.139457
202	0xbd8b217b	-0.06793495
203	0xbd1c287a	-0.03812454
204	0x3d6056fb	0.05477045
205	0x3dd6379a	0.10459824
206	0xbe013911	-0.12619425
207	0x3d4ed750	0.050498307
208	0x3e0ae6d2	0.13564613
209	0xbbf93ee7	-0.0076063755
210	0x3e2bf465	0.16792448
211	0xbb28ae35	-0.00257386
212	0xbc7ca3f3	-0.015419948
213	0x3dda84a0	0.106698275
214	0xbdd49409	-0.10379798
215	0x3dd8188b	0.10551556
216	0x3d27888b	0.040901702
217	0x3d479a36	0.04873105
218	0xbda5f94b	-0.081041895
219	0xbd55acbe	-0.052166693
220	0xbd004b49	-0.031321798
221	0xbd30e6df	-0.043188926
222	0x3d607536	0.05479928
223	0x3d265380	0.040606976
224	0x3d8bb13c	0.06820914
225	0xbcf1f0bf	-0.029533742
226	0xbd8dc757	-0.06922787
227	0x3d7d1dd0	0.06179601
228	0xbe8ed6d1	-0.27898267
229	0x3df82566	0.12116508
230	0xbd0378ed	-0.032097746
231	0xbdab27b6	-0.08357184
232	0xbd7acf62	-0.061232932
233	0xbd3d4ebf	-0.046217676
234	0xbd864353	-0.0655581
235	0x3e1dda23	0.15415244
236	0xbbec3cb8	-0.0072093867
237	0x3d8d4a44	0.06898931
238	0xbdfed3f2	-0.12442769
239	0xbd4954aa	-0.049153008
240	0x3e29bf71	0.16576935
241	0x3d230271	0.03979725
242	0x3e3a8a11	0.1821673
243	0x3d43ce23	0.04780401
244	0xbd36c4b9	-0.044621203
245	0x3dea2afa	0.114339784
246	0xbe02ef9d	-0.12786718
247	0x3e04bdd6	0.12963042
248	0xbd1ab918	-0.037774175
249	0x3d92df0d	0.0717145
250	0x3cb1b4ec	0.021692716
251	0x3e02fdd9	0.12792148
252	0xbdda7112	-0.10666098
253	0x3d0f6225	0.035005707
254	0xbc128baf	-0.008944436
255	0xbe197a9a	-0.14988175

linears.1.bias f4 [128]
0	0xbbbb4304	-0.005714776
1	0x3ca31dec	0.019911729
2	0x3ceb047c	0.028688662
3	0xbbcb44c1	-0.0062032645
4	0x3b56c418	0.003277069
5	0xbc0452c8	-0.008076377
6	0xbad676ae	-0.0016362274
7	0x3c9362d8	0.017991468
8	0x3c8b87d7	0.017032547
9	0x3c9fd802	0.01951218
10	0xbb2fdfc9	-0.0026836267
11	0xbc85ce92	-0.016333852
12	0xbbb4f320	-0.005522147
13	0x3c8a21bc	0.016861789
14	0xba377855	-0.0006998827
15	0x3c972833	0.018451786
16	0xbc7e2231	-0.015511082
17	0x3b9865bb	0.004650799
18	0x3bfe262e	0.007756016
19	0x3c93ab1c	0.018025927
20	0xbc3dfa9e	-0.011595396
21	0x396cba8c	0.00022576208
22	0xbbf8e9a3	-0.007596211
23	0x3c8dd8e9	0.017315345
24	0x3b298e31	0.0025872106
25	0xbabe4a4b	-0.0014517991
26	0xbcb43357	-0.021997137
27	0xbc729a35	-0.014807274
28	0xbbe8d32a	-0.007105251
29	0x3cabc7f3	0.020969367
30	0xbc331243	-0.010929647
31	0x3caa5071	0.02079031
32	0x3c96903d	0.018379325
33	0x3ca35d41	0.019941928
34	0x3c8d89fb	0.017277708
35	0xbad244db	-0.0016042249
36	0xbd3db03c	-0.04631065
37	0x3c6edcf5	0.014579047
38	0x3cc03c0e	0.023466136
39	0x3cac6102	0.02104235
40	0x3a92c308	0.001119704
41	0xbacfd6f2	-0.0015856905
42	0x3bb24f38	0.0054415725
43	0x3ca9f0dc	0.020744734
44	0x00000000	0.0
45	0x3cb2717d	0.021782631
46	0x3c9e6ff9	0.019340502
47	0xbad29417	-0.0016065863
48	0xbc0445a5	-0.008073245
49	0x3cb032dd	0.021508629
50	0xbc3fe9a9	-0.011713424
51	0xbb849e1e	-0.0040471694
52	0x3c9550e5	0.01822705
53	0xbb4870a6	-0.0030584722
54	0x00000000	0.0
55	0xbc0a6bba	-0.008448536
56	0xbcde548f	-0.02713993
57	0x3c8c8b21	0.017156186
58	0x00000000	0.0
59	0x3cd2f7ae	0.025752869
60	0x3c7c83bb	0.015412266
61	0x3c8a2e59	0.016867803
62	0x3c914d9f	0.017737208
63	0x3c915192	0.017739091
64	0x3c88d24b	0.016701838
65	0x3b0f1dda	0.0021837861
66	0x3c969ef9	0.018386351
67	0x3c7ea897	0.015543125
68	0x3c88a8cc	0.016682051
69	0x3cdf1ddf	0.027235923
70	0xba8f8ad7	-0.0010951412
71	0xbd09df0c	-0.03365998
72	0x00000000	0.0
73	0x3ce4b332	0.027917478
74	0x3c9f4df6	0.019446354
75	0xbb9831da	-0.0046446146
76	0x3c8c190e	0.01710179
77	0xbc4cf561	-0.012509675
78	0xbc875c8e	-0.016523626
79	0xbd1071f8	-0.03526494
80	0xbc108eb5	-0.0088230865
81	0xbc24e0b5	-0.01006334
82	0x3cdfa61d	0.027300889
83	0x3bc1a71e	0.0059098145
84	0xbadeac8b	-0.0016988678
85	0xba673c59	-0.0008820943
86	0xbc2d7b2b	-0.010588448
87	0x00000000	0.0
88	0x3c8dde42	0.017317895
89	0xbc7a9f8d	-0.015296829
90	0xbd0d2933	-0.03446312
91	0x3c906b2e	0.017629232
92	0xbcb9510a	-0.02262165
93	0x3c9d39ee	0.019192662
94	0x3ca5076f	0.020145146
95	0xbc079af9	-0.008276694
96	0xbc851e6f	-0.016249863
97	0x3a000a90	0.00048843864
98	0x3cb5e621	0.02220446
99	0x3ca1dd91	0.019758971
100	0xbd0a6219	-0.03378496
101	0xbac80787	-0.0015261032
102	0x3b3ad93b	0.0028510827
103	0x3caa9ff8	0.020828232
104	0x3c8b46f5	0.017001608
105	0x3c6bbe70	0.014388666
106	0xbd091aaa	-0.033472694
107	0x3c8b2c2b	0.016988834
108	0x3c9bc865	0.019016454
109	0x3d0abe0a	0.03387264
110	0xbb651868	-0.0034957174
111	0xbb9b029f	-0.004730537
112	0xbbf762d1	-0.0075496216
113	0xbcb7d498	-0.02244024
114	0x00000000	0.0
115	0x00000000	0.0
116	0x3cb54a9f	0.022130309
117	0xbc106a67	-0.008814431
118	0x00000000	0.0
119	0xbbe8c51f	-0.007103577
120	0x3ca466d0	0.020068556
121	0x3c8d2e60	0.017234027
122	0x3c92d152	0.017922077
123	0x00000000	0.0
124	0x3ccd0890	0.025028497
125	0x00000000	0.0
126	0x3c38d502	0.011281254
127	0x3c7904d0	0.015198901

final_linear.weight f4 [1, 128]
0	0xbd84c246	-0.06482367
1	0x3e0cdfdc	0.1375727
2	0x3e00db45	0.12583645
3	0xbe505a8c	-0.20347041
4	0xbcbe00a3	-0.023193663
5	0xbe54044a	-0.20704761
6	0x3d3d1e55	0.046171505
7	0x3ce4313b	0.027855506
8	0x3dd9c2b9	0.106328435
9	0x3d1016d0	0.035178006
10	0xbe94a9ce	-0.290358
11	0xbdeadc8a	-0.11467846
12	0xbd5d21cb	-0.053987306
13	0x3e4e287d	0.20132633
14	0xbc15dd90	-0.009147063
15	0x3cc37c6f	0.023863045
16	0xbdba8884	-0.091080695
17	0xbdc5d6b9	-0.09660096
18	0x3de2ba0e	0.11070643
19	0x3d330c84	0.043713108
20	0xbda4aca0	-0.08040738
21	0xbe005ef3	-0.1253622
22	0xbdae6718	-0.08515757
23	0x3d7c6c46	0.061626695
24	0xbdd96691	-0.10615266
25	0xbd66e012	-0.056366034
26	0xbdcbf5fe	-0.09959029
27	0x3b522746	0.0032066866
28	0xbd99d62a	-0.07511552
29	0x3e5a347f	0.21309088
30	0xbe3f1c7c	-0.1866321
31	0x3d5fcfbf	0.05464148
32	0x3dbf2a2b	0.09334215
33	0x3dda6e56	0.10665576
34	0x3d34ff92	0.044189043
35	0xbda7c7b5	-0.08192388
36	0xbd8e5580	-0.069499016
37	0xbe023677	-0.12716089
38	0x3cb3e8c2	0.021961574
39	0x3ca3bd25	0.019987652
40	0xbe5a82e2	-0.2133899
41	0xbd704bf1	-0.058666173
42	0xbe141c8b	-0.14464013
43	0x3e4803d3	0.19532709
44	0x3dc2faa0	0.09520459
45	0x3d89bba6	0.06725244
46	0x3db2d320	0.08731675
47	0xbddd8d22	-0.108179346
48	0xbd8c988a	-0.06865032
49	0x3e19b176	0.15009102
50	0xbc84c743	-0.016208297
51	0xbdd66258	-0.10467976
52	0x3e2a4405	0.1662751
53	0xbe0c5777	-0.1370524
54	0xbe0f5e69	-0.14000858
55	0xbe38e574	-0.1805628
56	0xbe0b4671	-0.1360109
57	0x3da3614a	0.07977541
58	0xbe241d83	-0.16026883
59	0x3e0d21cb	0.13782422
60	0x3df4ded8	0.119565666
61	0x3e2b412f	0.16724084
62	0x3e0780a4	0.13232666
63	0x3de27afe	0.11058615
64	0x3dcc0ba0	0.09963155
65	0xbdd79e47	-0.10528236
66	0x3da24a9d	0.079243876
67	0x3de4e8ef	0.11177241
68	0x3d856e2d	0.06515155
69	0x3e8b2a22	0.27180582
70	0x3e38a916	0.18033251
71	0xbe4b028f	-0.19825195
72	0xbe5737c8	-0.21017373
73	0x3d4bc687	0.049749877
74	0x3d973688	0.07383448
75	0xbcf37b26	-0.029721808
76	0x3da76bf0	0.08174884
77	0xbdc1cc48	-0.09462792
78	0xbe2cecb1	-0.16887166
79	0xbe037f1f	-0.12841462
80	0xbe78ba3b	-0.24289791
81	0x3e21cd59	0.1580099
82	0x3cb45931	0.022015186
83	0x3cb688e9	0.02228208
84	0x3e15c1b0	0.14624667
85	0xbd3e5385	-0.04646637
86	0xbe5b4db5	-0.21416362
87	0xbe278ddd	-0.1636271
88	0x3e495e9c	0.19664997
89	0xbe7c6435	-0.24647601
90	0xbdc5da52	-0.09660782
91	0x3da14181	0.07873822
92	0xbe0a21a2	-0.13489392
93	0x3d06b775	0.032889802
94	0x3ca23b2a	0.019803602
95	0x3c1c95ae	0.009557171
96	0xbd5f5600	-0.054525375
97	0xbd4304b9	-0.047611926
98	0x3d48c689	0.049017463
99	0x3d1c00e3	0.038086783
100	0xbdd6a331	-0.10480345
101	0xbe62c1af	-0.22144197
102	0xbe4bba81	-0.19895364
103	0x3e9010b6	0.2813775
104	0x3ddf35de	0.10898946
105	0x3e038383	0.12843136
106	0xbe9bc5e3	-0.30424413
107	0x3e0b6950	0.13614392
108	0x3cd577fa	0.026058186
109	0x3d14d153	0.03633244
110	0xbe134089	-0.14380087
111	0xbd293513	-0.04131038
112	0xbea94795	-0.33062425
113	0xbe95b895	-0.29242387
114	0xbd4467e3	-0.047950637
115	0x3d4cd512	0.050007887
116	0x3dee0a3e	0.11623047
117	0xbdd3b1c2	-0.10336639
118	0x3e96aabc	0.29427135
119	0xbe2cd1b1	-0.16876866
120	0x3e3a417f	0.18189047
121	0x3d782211	0.060579363
122	0x3cd5d4e0	0.026102483
123	0x3db0e107	0.086366706
124	0x3c899c6d	0.016798222
125	0xbc9bdcc1	-0.019026162
126	0xbe0f1461	-0.13972618
127	0x3e8344ad	0.25638333
