option_hedging/hyperparameters/dqn_hyperparameters/dueling_double/year/0.0/higher_batch_buffer/dqn_model.pth (torch, 164756 bytes, 9 tensors)

linear1.weight f4 [128, 4]
0.16510017 1.1130594 0.2780367 0.04758625 -0.053331375 -0.20111442 0.24705128 0.06371838
0.12663858 0.070551045 -0.17744015 -0.1678902 -0.046014596 -0.39721173 0.08537883 0.021108452
-0.019082403 0.6883755 0.06571295 0.1890221 0.008203923 -0.2106666 0.06215828 -0.26796734
0.023209626 0.21462142 -0.23370908 -0.044848662 -0.029253127 -0.2298303 0.1998798 -0.48028344
0.19740193 0.7296538 0.2826254 -0.05429269 -0.09249923 0.38080975 0.13720258 -0.12931976
0.21195449 -0.30706146 0.007601029 -0.5007269 -0.092056476 -0.3849038 0.027272137 0.249086
-0.10629899 -0.023701726 0.00097530213 -0.3350678 0.029721096 0.941734 -0.0017730189 -0.067569025
0.029201727 0.64841497 0.22169197 0.12922047 -0.107583836 -0.0090844 -0.028715376 -0.2654894
0.01598891 0.72110605 -0.10577448 0.11632631 0.16455077 0.67431396 -0.056476958 -0.13143043
0.09392961 0.32229152 0.00089433347 -0.14152151 -0.08879447 -0.37728614 0.09150804 0.010388099
0.0687259 -0.19085516 0.0722574 -0.32801446 0.19193414 -0.33822498 -0.17864028 0.010490187
0.013636522 -0.019841367 0.08112023 -0.24432452 0.026227454 -0.0018986014 0.12174758 -0.18932952
0.057265025 0.14135452 0.07320194 -0.14189582 0.14088549 -0.00019104678 0.109917164 -0.26211104
-0.031106222 -0.13680562 -0.29978198 -0.05319158 0.13416594 -0.02360707 -0.12877722 -0.14809473
-0.1462152 -0.5208207 0.05521954 -0.21322903 0.061004803 -0.008702239 0.058637332 -0.22670534
0.089249216 0.14316471 0.048532706 -0.34544948 0.06708189 0.0104000475 -0.15337238 -0.14628188
0.026123475 0.48722574 0.05872383 0.11118898 0.2072332 -0.47335026 -0.17359819 0.03715802
0.09308983 0.051091123 0.021283355 -0.15698855 0.18199514 0.02319691 0.031292316 -0.18323645
0.24105349 0.08947811 -9.279816e-05 -0.3271658 0.13852718 -0.050953135 -0.016918141 -0.3267942
0.21126325 -0.5217064 -0.0762603 0.1483639 -0.21082114 0.7838635 -0.10300291 0.13933563
-0.0054820185 0.18276444 0.011927937 -0.16694334 -0.053529803 -0.21187392 0.38898757 -0.32852155
-0.05450361 -0.5148583 0.08699288 0.023085322 0.4065655 -0.47345883 0.04599358 0.23775327
0.21789347 0.6409849 0.14534584 0.21489406 0.16650014 0.6294182 -0.13060008 0.07676639
0.075223275 -0.46391156 0.33640128 0.10237852 0.23495398 -0.5073439 0.15334621 0.07027642
0.08395291 0.47883892 0.263668 -0.1886337 0.0737845 -0.11261204 0.12032571 -0.21146108
0.12231071 -0.38121706 -0.011898387 -0.10787782 -0.1920215 0.22535916 -0.18954684 -0.13221388
0.23827727 -0.5147262 0.18380453 -0.18358763 0.11434228 -0.4441131 -0.05067008 -0.082108326
-0.032102976 0.19176549 -0.07604407 -0.18963206 0.007728715 -0.24831727 0.12702277 -0.22038847
0.40316343 0.08655797 0.043128993 -0.019622777 -0.08668046 -0.38050765 0.13115545 -0.4632454
-0.08737952 0.7537889 0.19613108 0.18018351 0.19981316 -0.17404684 -0.14145233 -0.14867498
0.05814241 0.9049849 0.08268876 0.039941333 -0.005013201 0.4832338 0.24967909 -0.22857654
-0.042063177 -0.43303758 0.03707814 0.030050699 0.27754942 0.7959595 0.05651884 0.085632525
00000000: 0510 293e bb78 8e3f d45a 8e3e cde9 423d
00000010: 0072 5abd f0f0 4dbe 03fb 7c3e c87e 823d
00000020: 8bad 013e 117d 903d dfb2 35be 69eb 2bbe
00000030: cd79 3cbd 565f cbbe 19db ae3d a2eb ac3c
00000040: b352 9cbc 6039 303f 8394 863d 028f 413e
00000050: bf69 063c fcb8 57be ae99 7e3d 0433 89be
00000060: 1d22 be3c b8c5 5b3e 6f51 6fbe 3bb3 37bd
00000070: 41a4 efbc a258 6bbe 4aad 4c3e b6e7 f5be
00000080: bb23 4a3e 97ca 3a3f 47b4 903e 0362 5ebd
00000090: 3c70 bdbd 7ff9 c23e d57e 0c3e 666c 04be
000000a0: 990a 593e 2937 9dbe 0d12 f93b a32f 00bf
000000b0: 1b88 bcbd 1c12 c5be d169 df3c 6610 7f3e
000000c0: 49b3 d9bd 1f2a c2bc 6bab 7f3a 028e abbe
000000d0: a879 f33c 7b15 713f a464 e8ba a161 8abd
000000e0: 7638 ef3c 86fe 253f 3803 633e 5f52 043e
000000f0: ea54 dcbd bcd6 14bc 823c ebbc 3aee 87be
00000100: 2dfb 823c 689a 383f 4aa0 d8bd 7d3c ee3d
00000110: ff7f 283e d79f 2c3f 6254 67bd b395 06be
00000120: 2b5e c03d 6503 a53e b471 6a3a 04eb 10be
00000130: e0d9 b5bd a62b c1be 9168 bb3d d832 2a3c
00000140: 2ac0 8c3d 896f 43be b0fb 933d 83f1 a7be
00000150: 628a 443e d32b adbe 7aed 36be 09df 2b3c
00000160: b86b 5f3c 5d8a a2bc 5d22 a63d 3530 7abe
00000170: f5da d63c 7eda f8ba cc56 f93d 99df 41be
00000180: bb8e 6a3d 3dbf 103e e6ea 953d 234d 11be
00000190: 4944 103e bb53 48b9 401c e13d 6b33 86be
000001a0: 7ad2 febc c616 0cbe 067d 99be 6adf 59bd
000001b0: cc62 093e 9d63 c1bc 2dde 03be 25a6 17be
000001c0: 70b9 15be 8154 05bf e22d 623d b658 5abe
000001d0: 2ce0 793d d693 0ebc b32d 703d 7225 68be
000001e0: 4bc8 b63d c599 123e 3bca 463d c1de b0be
000001f0: 3b62 893d f664 2a3c a60d 1dbe ebca 15be
00000200: e600 d63c a775 f93e 6688 703d 0cb7 e33d
00000210: f134 543e f75a f2be b9c3 31be 0233 183d
00000220: e1a5 be3d ed44 513d 6e5a ae3c 9bc1 20be
00000230: ef5c 3a3e 7207 be3c 5f2c 003d 56a2 3bbe
00000240: bad6 763e 4d40 b73d a29c c2b8 4782 a7be
00000250: 12da 0d3e 3cb4 50bd ea97 8abc 9251 a7be
00000260: 6555 583e 8d8e 05bf 5c2e 9cbd b5ec 173e
00000270: 7fe1 57be 47ab 483f 31f3 d2bd 00ae 0e3e
00000280: 81a2 b3bb 9a26 3b3e 656d 433c 32f3 2abe
00000290: 1142 5bbd 7af5 58be 6129 c73e fa33 a8be
000002a0: 2d3f 5fbd c1cd 03bf 5329 b23d 6e1d bd3c
000002b0: 5a29 d03e 3269 f2be c463 3c3d 9875 733e
000002c0: 771f 5f3e 9617 243f 8ad5 143e 300d 5c3e
000002d0: 037f 2a3e 8d21 213f 07bc 05be b237 9d3d
000002e0: a90e 9a3d d185 edbe ca3c ac3e d4ab d13d
000002f0: c797 703e 4ae1 01bf ca06 1d3e 15ed 8f3d
00000300: 81ef ab3d 602a f53e 7eff 863e 3129 41be
00000310: 541c 973d 24a1 e6bd 536d f63d 4189 58be
00000320: 0a7e fa3d e22e c3be 74f1 42bc 0cef dcbd
00000330: 49a1 44be 8dc4 663e 9118 42be 1363 07be
00000340: f5fe 733e 19c5 03bf 4137 3c3e 65fe 3bbe
00000350: 492c ea3d cb62 e3be 6e8b 4fbd 6928 a8bd
00000360: 697e 03bd 2c5e 443e febc 9bbd e82e 42be
00000370: 2941 fd3b e246 7ebe 4212 023e 84ad 61be
00000380: 706b ce3e 4e45 b13d 07a8 303d f2bf a0bc
00000390: 8685 b1bd e6d1 c2be 9d4d 063e 802e edbe
000003a0: 09f4 b2bd 4ff8 403f 96d6 483e 0782 383e
000003b0: d29b 4c3e 5639 32be e1d8 10be 413e 18be
000003c0: bc26 6e3d 17ad 673f b958 a93d 8699 233d
000003d0: c745 a4bb 6c6a f73e e0ab 7f3e f80f 6abe
000003e0: 704a 2cbd 1ab7 ddbe 3fdf 173d e22c f63c
000003f0: f51a 8e3e 00c4 4b3f 4d80 673d 1b60 af3d

linear1.bias f4 [128]
0.16225795 0.23752841 -0.35589457 0.2701997 0.2994193 -0.17275143 -0.22981362 -0.04742771
-0.031858895 -0.2945368 -0.21821108 0.19699255 -0.25816005 -0.003256265 0.27888715 -0.3175785
0.35738662 -0.0479595 -0.07650785 0.29572564 -0.27260208 0.3352102 -0.093908325 -0.22262375
0.17753334 -0.15055248 0.27582082 -0.36258596 -0.14259236 0.26125363 -0.24971539 -0.3181988
0.42551532 0.32983422 0.18437193 0.15366682 -0.23657016 -0.27719933 0.166574 0.5400118
-0.31614223 0.028890524 0.31398025 0.09131155 0.5373101 0.40769312 0.2517123 0.32824844
-0.07337561 -0.015964763 -0.31358626 -0.40073028 0.45302477 -0.33170423 -0.36704418 0.012775071
0.29928026 0.27921864 0.49964756 -0.26195675 0.28824475 -0.04855642 0.30650967 0.32402498
0.25755358 0.2949779 0.20200484 0.08158603 -0.3363515 0.28842047 0.17411517 -0.35218933
0.08036007 -0.05545812 -0.064574786 0.19729933 -0.14550607 -0.025314435 -0.23117076 0.40128404
0.2795525 0.060005162 -0.099367194 -0.2336297 -0.31239906 0.41413558 0.24333048 0.18618175
0.3377656 0.24566558 0.27924323 -0.25680274 -0.21711138 0.20228623 0.07064357 0.28054237
-0.29043162 -0.20973754 -0.13885975 -0.35911736 0.24101207 -0.36588892 0.21574174 0.28721133
0.23840529 -0.11164589 -0.4438475 0.17007908 0.2678726 -0.05859084 -0.29623216 -0.17628048
0.25848976 0.29303405 0.2623095 -0.3682641 -0.24015145 -0.39086914 -0.33859566 -0.20487489
-0.2676919 0.0862946 0.22390822 0.0764755 -0.055327173 0.22927569 -0.13038039 0.2651628
00000000: f326 263e a63a 733e d037 b6be 9d57 8a3e
00000010: 7d4d 993e c0e5 30be 4354 6bbe 8f43 42bd
00000020: 797e 02bd 87cd 96be ba72 5fbe 6ab8 493e
00000030: 8e2d 84be 1067 55bb 4cca 8e3e a699 a2be
00000040: 61fb b63e 2e71 44bd 26b0 9cbd 5a69 973e
00000050: 8092 8bbe aca0 ab3e 0253 c0bd 7bf7 63be
00000060: 4dcb 353e 6e2a 1abe 6338 8d3e dea4 b9be
00000070: bb03 12be 09c3 853e 64b5 7fbe f4ea a2be
00000080: 25dd d93e 08e0 a83e ffcb 3c3e d65a 1d3e
00000090: 733f 72be 12ed 8dbe 6092 2a3e 373e 0a3f
000000a0: 65dd a1be d2ab ec3c 05c2 a03e 8d01 bb3d
000000b0: 288d 093f 27bd d03e 6fe0 803e 2e10 a83e
000000c0: f445 96bd 89c8 82bc 618e a0be 852c cdbe
000000d0: ddf2 e73e 23d5 a9be 37ed bbbe 884e 513c
000000e0: 433b 993e bff5 8e3e ced1 ff3e 321f 86be
000000f0: d194 933e 19e3 46bd d6ee 9c3e 9ae6 a53e
00000100: 10de 833e 5807 973e 5bda 4e3e 9416 a73d
00000110: 4436 acbe d9ab 933e 3f4b 323e 2952 b4be
00000120: d293 a43d 0e28 63bd c93f 84bd d608 4a3e
00000130: 8bff 14be 3860 cfbc 07b8 6cbe 1a75 cd3e
00000140: 8121 8f3e f9c7 753d 0781 cbbd a03c 6fbe
00000150: c5f2 9fbe 9409 d43e a02b 793e 6ea6 3e3e
00000160: 9def ac3e c28f 7b3e f8f8 8e3e a67b 83be
00000170: 7252 5ebe 1f24 4f3e 93ad 903d 40a3 8f3e
00000180: 74b3 94be 70c5 56be 4031 0ebe 3bde b7be
00000190: decb 763e cb55 bbbe 67eb 5c3e 5d0d 933e
000001a0: 8420 743e 9aa6 e4bd fb3f e3be 3629 2e3e
000001b0: 9926 893e f3fc 6fbd beab 97be df82 34be
000001c0: c558 843e 8f08 963e 6e4d 863e 1d8d bcbe
000001d0: 43ea 75be 0020 c8be 695c adbe b9ca 51be
000001e0: ea0e 89be 39bb b03d 3248 653e 309f 9c3d
000001f0: bf9e 62bd 3fc7 6a3e 7082 05be 6bc3 873e

linears.0.weight f4 [128, 128]
0.3784038 -0.30759597 -0.14491846 -0.40338406 0.13576579 0.008121005 0.24280825 0.09603831
0.18419272 0.19157232 0.06195387 -0.3291562 0.00038240422 0.47520098 0.15457103 0.11258932
0.19383815 0.6378362 0.108554594 -0.31405437 -0.11782395 -0.095126845 0.26925027 0.22696662
0.08148452 -0.06675791 -0.3123724 0.101813465 -0.025491243 -0.0013452482 0.08330298 -0.070863955
0.0972651 -0.4522507 0.0011325962 0.14192787 0.11067873 0.004823806 -0.23525777 0.20277926
0.21552205 0.01931529 -0.34608045 0.005663109 0.06571681 0.1359629 -0.19018592 -0.15244912
0.268321 0.17987 -0.07170627 0.29247823 0.049213223 -0.099057496 -0.08601342 0.102811106
0.23549268 -0.013376666 0.14561953 -0.07705097 0.2295252 0.24239987 -0.4758101 0.3013513
0.37733284 -0.3605919 -0.35394698 0.07338792 0.21723457 -0.11796988 0.00761122 0.18812977
-0.18857935 0.18426931 0.06552241 -0.14309077 0.17718987 0.3745612 -0.04581921 0.14735106
-0.3916396 -0.116568364 0.74001527 0.071718834 -0.064268224 0.04901112 0.44299197 -0.3503271
-0.30595672 0.34625426 -0.14341246 -0.0631272 0.15187564 -0.4272911 0.24300647 -0.2374911
0.47473025 0.76745236 0.06669936 -0.12357075 -0.24236642 -0.1489513 -0.32356206 -0.37083542
0.27075523 0.24750942 0.39586356 -0.1896649 0.27861646 0.5530602 -0.05386227 0.5386081
0.17602658 -0.3823756 -0.0895109 0.21404172 0.14900595 0.30046362 0.087327525 0.046816986
-0.0049363095 -0.031209746 -0.15649119 0.031691644 0.12617955 0.4889462 0.07837376 0.16423035
0.25311062 0.4174654 -0.13132271 0.24610177 0.2235809 -0.20696379 0.22401659 0.010787675
0.16981193 -0.09459625 -0.24899288 0.08446152 -0.16985327 0.9624492 0.41905805 -0.28664413
0.30464566 0.009461953 0.07752895 0.34065378 -0.28721255 0.5249006 0.05200514 -0.017507061
0.26230618 -0.08334439 0.3793949 0.03518352 0.022119118 0.19400945 0.1251195 0.11842029
0.36484307 0.4069572 0.20374359 0.14059871 -0.066574425 -0.15858929 -0.045957427 0.4056391
-0.08457394 0.1591985 0.32303503 0.31341326 0.29195204 0.1848136 0.24283545 0.3445924
0.050130192 0.023449095 -0.013911155 -0.45022005 0.18928327 -0.08647446 -0.2927102 0.20200907
0.29762155 0.2162811 0.31923428 0.05442413 0.27256182 0.20835221 0.29166716 0.16526704
0.5336223 0.22797827 0.07622902 0.16502592 -0.2827736 0.34082636 0.32343754 -0.05797705
0.19118842 0.12651604 -0.091630675 0.25495318 0.050651956 0.42738697 -0.06600017 0.2991783
0.26765233 0.17499535 0.21461013 -0.20213033 -0.2794391 0.41270477 0.3667422 0.21968994
0.33879104 0.2437855 0.5596976 -0.2840573 -0.07510451 0.16102506 0.18680394 0.30298817
-0.14848399 0.90161854 -0.07871147 -0.35024014 0.1834798 -0.18895987 0.17031537 0.19956161
0.28292704 -0.07399826 -0.6745836 0.3065835 0.34344637 0.08836187 0.16692701 0.040963393
0.38959643 0.33482724 -0.11672582 -0.048033524 0.0095409285 0.017451819 0.0400596 -0.14581904
-0.25387877 -0.31607762 0.07114335 0.16249377 -0.022394553 0.23336652 -0.16825773 0.1424045
00000000: 25be c13e 387d 9dbe 8165 14be 5b88 cebe
00000010: 3006 0b3e f70d 053c baa2 783e bcaf c43d
00000020: 049d 3c3e 892b 443e 57c3 7d3d 2987 a8be
00000030: 6d7d c839 8b4d f33e de47 1e3e 3b95 e63d
00000040: 827d 463e 3c49 233f df51 de3d bccb a0be
00000050: af4d f1bd ddd1 c2bd 2cdb 893e f069 683e
00000060: 5be1 a63d 5fb8 88bd 46ef 9fbe 9483 d03d
00000070: 03d3 d0bc 0a53 b0ba c19a aa3d 1f21 91bd
00000080: ed32 c73d 678d e7be 9f73 943a 8a55 113e
00000090: 88ab e23d 0511 9e3b 6ae7 70be 5ea5 4f3e
000000a0: d0b1 5c3e 193b 9e3c 7531 b1be 9a91 b93b
000000b0: 8996 863d dc39 0b3e 19c0 42be 9f1b 1cbe
000000c0: 5f61 893e d72f 383e bdda 92bd b5bf 953e
000000d0: ce93 493d a8de cabd ce27 b0bd a18e d23d
000000e0: fe24 713e ce29 5bbc 491d 153e e6cc 9dbd
000000f0: a708 6b3e ac37 783e 629d f3be b84a 9a3e
00000100: c531 c13e 809f b8be 8a38 b5be 684c 963d
00000110: bd72 5e3e 319a f1bd 8a67 f93b 17a5 403e
00000120: f21a 41be 18b1 3c3e 9d30 863d 6386 12be
00000130: 4371 353e 7cc6 bf3e edac 3bbd 32e3 163e
00000140: fc84 c8be 65bb eebd a471 3d3f 53e1 923d
00000150: 0f9f 83bd e2bf 483d d8cf e23e 135e b3be
00000160: 5ca6 9cbe 3d48 b13e b7da 12be d548 81bd
00000170: 4a85 1b3e e6c5 dabe b0d6 783e de30 73be
00000180: d80f f33e c277 443f ad99 883d a912 fdbd
00000190: e72e 78be b186 18be eda9 a5be 24de bdbe
000001a0: 6ea0 8a3e 1c73 7d3e a1ae ca3e 8437 42be
000001b0: d1a6 8e3e 5a95 0d3f af9e 5cbd 38e2 093f
000001c0: 5040 343e bcc6 c3be 7e51 b7bd c12d 5b3e
000001d0: 0495 183e 5ed6 993e c6d8 b23d 2bc3 3f3d
000001e0: c4c0 a1bb 95ab ffbc 3a3f 20be 19cf 013d
000001f0: 3635 013e 2857 fa3e 6c82 a03d 002c 283e
00000200: b797 813e 06be d53e 7679 06be 1a02 7c3e
00000210: 64f2 643e 51ee 53be 9b64 653e cabe 303c
00000220: 2ee3 2d3e aebb c1bd fdf7 7ebe 29fa ac3d
00000230: 04ee 2dbe 1263 763f c78e d63e 05c3 92be
00000240: 84fa 9b3e 4f06 1b3c 80c7 9e3d 2c6a ae3e
00000250: 860d 93be e35f 063f 5703 553d f86a 8fbc
00000260: ff4c 863e 77b0 aabd 0c40 c23e 981c 103d
00000270: 2733 b53c 6aaa 463e 541f 003e 5686 f23d
00000280: b6cc ba3e b25c d03e 29a2 503e 1cf9 0f3e
00000290: 2c58 88bd 3b65 22be db3d 3cbd eeaf cf3e
000002a0: 1a35 adbd ee04 233e d964 a53e b477 a03e
000002b0: bd7a 953e c73f 3d3e dba9 783e 6a6e b03e
000002c0: 5155 4d3d 5118 c03c 9deb 63bc 3e83 e6be
000002d0: 79d3 413e 8619 b1bd 1dde 95be 77db 4e3e
000002e0: da61 983e cb78 5d3e ad72 a33e d6eb 5e3d
000002f0: 398d 8b3e 485a 553e 6655 953e c33b 293e
00000300: 799b 083f 2373 693e f61d 9c3d 8efc 283e
00000310: b4c7 90be cb80 ae3e 9b99 a53e 5879 6dbd
00000320: e6c6 433e 6c8d 013e dda8 bbbd 3989 823e
00000330: 6d78 4f3d 77d2 da3e 192b 87bd e62d 993e
00000340: ba09 893e fb31 333e c2c2 5b3e 41fb 4ebe
00000350: a412 8fbe 0a4e d33e a2c5 bb3e 66f6 603e
00000360: 0576 ad3e e8a2 793e 5848 0f3f f56f 91be
00000370: 65d0 99bd c1e3 243e 8849 3f3e 4421 9b3e
00000380: 300c 18be 79d0 663f 7b33 a1bd ad52 b3be
00000390: 21e2 3b3e b27e 41be 2767 2e3e e159 4c3e
000003a0: d0db 903e 668c 97bd 83b1 2cbf 83f8 9c3e
000003b0: 34d8 af3e 11f7 b43d eaee 2a3e 3bc9 273d
000003c0: 2f79 c73e 7a6e ab3e f20d efbd cdbe 44bd
000003d0: 8e51 1c3c 1ef7 8e3c 8915 243d 9651 15be
000003e0: 66fc 81be edd4 a1be 9bb3 913d c464 263e
000003f0: c874 b7bc a2f7 6e3e c14b 2cbe 7cd2 113e

linears.0.bias f4 [128]
-0.09340977 0.41124696 0.07467589 -0.020670714 0.18131647 -0.024117496 -0.039443985 0.26867136
-0.22164303 0.23507835 0.27118504 -0.3834158 -0.27885827 -0.020233061 -0.2924999 -0.009352561
-0.053343434 -0.095313564 -0.07473837 -0.029871212 0.03865743 0.00059869944 0.26400495 -0.10391918
-0.012727538 -0.0006491173 -0.0036185626 -0.08302049 -0.038476925 0.32915023 0.25685623 -0.053553205
-0.017022397 -0.045303077 0.25060272 -0.26417643 0.27798396 -0.06168123 0.035236906 0.31282565
0.3449657 -0.2519286 -0.015403376 0.26684147 0.02515628 -0.0013243748 0.123892434 -0.33051673
-0.3759787 0.27031523 -0.2749701 0.026405936 0.042808574 -0.009487946 0.28135654 0.37580317
-0.0840168 0.034260705 -0.12949537 -0.008442178 0.21073346 0.0050939876 -0.012258313 0.24450362
0.2521146 -0.0026318831 -0.0128920525 0.26907906 -0.04289366 0.13371612 0.26044935 -0.049773753
-0.13990493 0.0029777472 0.008807487 0.04685504 -0.04045368 0.26769623 -0.12080668 0.027231468
0.24967055 0.25911447 0.22131386 -0.046252646 -0.09114037 0.09837103 -0.26236352 0.26344246
0.054479707 0.01777452 0.069437906 0.014660596 0.03624791 -0.075187005 0.2767524 -0.031094588
-0.061933685 -0.06907464 0.009721482 -0.08198039 0.26947516 -0.08544487 0.27111208 0.064009406
-0.08751697 0.24138013 0.07555818 -0.019712804 0.12236438 0.1563535 0.025269493 0.018793177
0.12583385 0.14623764 0.100688584 0.033901293 0.0034371035 0.25572792 -0.07659984 0.27051395
-0.07102412 0.25947037 -0.081199646 -0.0003787173 -0.01940112 -0.06703617 0.017618809 0.087228216
00000000: 9f4d bfbd f68e d23e acef 983d a155 a9bc
00000010: 06ab 393e 0e92 c5bc 0490 21bd 4b8f 893e
00000020: 64f6 62be 61b8 703e c4d8 8a3e 134f c4be
00000030: 83c6 8ebe cebf a5bc 8cc2 95be 7c3b 19bc
00000040: a57e 5abd c233 c3bd 6e10 99bd 79b4 f4bc
00000050: 4157 1e3d 0af2 1c3a a82b 873e 94d3 d4bd
00000060: 2a87 50bc 8629 2aba 6825 6dbb a606 aabd
00000070: fb99 1dbd 6186 a83e a982 833e 9b5a 5bbd
00000080: 8e72 8bbc b88f 39bd 004f 803e 2242 87be
00000090: ea53 8e3e 75a5 7cbd 9354 103d af2a a03e
000000a0: 589f b03e c9fc 80be 715e 7cbc 729f 883e
000000b0: 8b14 ce3c a596 adba 51bb fd3d 7d39 a9be
000000c0: 4880 c0be c266 8a3e e2c8 8cbe 4351 d83c
000000d0: 0b58 2f3d 5473 1bbc f70d 903e 4669 c03e
000000e0: 0011 acbd f454 0c3d 6f9a 04be 1051 0abc
000000f0: 83ca 573e 77eb a63b 17d7 48bc 285f 7a3e
00000100: 2a15 813e ac7b 2cbb 3039 53bc bbc4 893e
00000110: 43b1 2fbd e1ec 083e 9e59 853e 90df 4bbd
00000120: 3d43 0fbe 4f26 433b 474d 103c 12eb 3f3d
00000130: c2b2 25bd 7b0f 893e 7e69 f7bd 8714 df3c
00000140: a3a9 7f3e a7aa 843e 1aa0 623e 6a73 3dbd
00000150: cda7 babd c076 c93d 8354 86be eee1 863e
00000160: 1d26 5f3d df9b 913c 7635 8e3d ff32 703c
00000170: b078 143d a5fb 99bd 7eb2 8d3e 14ba febc
00000180: 2dae 7dbd 0177 8dbd da46 1f3c 56e5 a7bd
00000190: a6f8 893e b8fd aebd 34cf 8a3e 5d17 833d
000001a0: 193c b3bd 5a2c 773e 3fbe 9a3d bf7c a1bc
000001b0: 2d9a fa3d 221b 203e f801 cf3c 26f4 993c
000001c0: 97da 003e 52bf 153e d135 ce3d 15dc 0a3d
000001d0: 0741 613b c5ee 823e 60e0 9cbd ce80 8a3e
000001e0: 1875 91bd 4dd9 843e 004c a6bd 938e c6b9
000001f0: 19ef 9ebc 424a 89bd 5255 903c b5a4 b23d

linears.1.weight f4 [128, 128]
0.22603653 0.06293371 0.22993667 0.012411854 0.43099368 0.25098807 0.17368887 -0.027981248
0.34081456 -0.32363167 -0.0057145944 0.22033438 0.4696708 0.24696864 0.5856244 -0.04370115
0.45789996 0.17943236 0.22797322 0.08604121 0.1934911 0.13375936 -0.06754136 0.30682555
0.17107691 0.047070894 0.11008025 0.08948557 0.086833924 0.073809825 -0.2708859 0.40426838
0.32235345 0.13396901 -0.10710401 0.261999 -0.1593353 0.32730293 0.17641829 0.06721992
1.1583176 0.144554 0.08684365 -0.16284837 0.3593856 -0.078095585 0.05223464 0.7099204
0.41910872 -0.028236983 0.6214206 0.3443106 0.2640685 0.17938653 0.049312867 0.04594455
0.014446466 0.24867226 0.16649558 0.21926802 0.15183437 0.052444145 -0.00045835553 -0.3391449
-0.10258253 0.16469984 0.31643763 -0.11886613 0.37323958 0.26247865 -0.079032235 0.21427993
0.17546818 0.3018417 0.31782153 0.23545308 0.19582961 -0.016758097 0.5867203 0.21579763
-0.20322719 0.039685085 0.100404985 0.17485449 0.20035921 0.12999225 0.5722647 0.021392243
0.29595003 0.21727362 0.20246302 -0.0025674026 0.20097703 0.21792684 -0.0036480832 0.2725435
0.20575014 0.03507802 0.090157144 0.012955986 -0.11744619 0.32175612 -0.05549384 0.04132352
0.25936526 -0.1415366 0.29435438 0.30129144 0.7059912 0.22175804 0.062073432 0.24361795
0.3127334 0.16919863 0.08172293 0.19516915 0.17274578 -0.06221179 0.54401153 0.016459899
0.22717202 0.028618136 0.2403152 -0.07287239 0.3010329 0.18009014 0.22720324 0.20558117
0.25363573 -0.054041833 0.14736573 -0.0960093 -0.3714997 0.046715032 0.041054595 0.12263489
-0.17626439 0.3031677 0.3554381 -0.19122413 -0.31946573 -0.10082838 -0.20693158 -0.03935697
-0.30812362 -0.064591035 -0.046665177 -0.15331739 0.03148558 -0.0968855 0.2569133 -0.09862082
-0.06908662 0.024767332 -0.19097595 0.078242406 0.05682904 -0.08798666 0.3051839 0.09010089
-0.11106564 0.059946414 0.25641096 -0.096424334 0.15873459 -0.12906012 -0.054197747 0.3743761
-1.1717272 -0.07461477 0.07346243 0.46007887 0.03760507 0.06926746 0.13234513 -0.33575127
-0.28085867 0.30976394 -0.43284363 -0.09495168 0.05532941 -0.06086309 0.14832716 -0.040552545
-0.015608186 -0.021921404 -0.18054554 0.042407457 0.017710852 0.012045939 0.114194475 0.19230853
0.23007365 -0.031213524 -0.0808603 0.2855047 -0.047220685 0.04216245 0.06539473 0.038628913
-0.090603605 0.13593163 0.050343804 -0.012169822 -0.073684536 0.04711719 -0.3944793 -0.19712774
0.16725776 0.16520604 -0.0046076914 -0.08170899 -0.09507845 -0.057061188 -0.41188666 0.039355323
0.099516384 0.054600846 0.056027845 -0.044191383 0.10002175 0.096730076 0.104233965 -4.880033e-05
-0.06840628 -0.060452946 0.10544427 -0.051313877 0.1980104 -0.10029952 0.19375122 -0.027552871
0.05384119 0.2740441 0.23046136 -0.014051039 -0.7918284 0.060253795 0.254817 -0.06316824
0.08349398 0.14901711 0.09226919 -0.009267541 -0.06754678 0.14356543 -0.3281233 0.14127712
-0.20426504 0.28563598 0.036040965 0.07583133 -0.0019733997 -0.12941806 0.07331076 -0.14806318
00000000: 1f76 673e 64e3 803d 8574 6b3e 175b 4b3c
00000010: 34ab dc3e 8281 803e 7fdb 313e ee38 e5bc
00000020: 3f7f ae3e 0db3 a5be 7e41 bbbb 569f 613e
00000030: b178 f03e 59e5 7c3e 7beb 153f faff 32bd
00000040: dd71 ea3e 1ebd 373e d071 693e 6036 b03d
00000050: 8822 463e 37f8 083e 2053 8abd 3d18 9d3e
00000060: c92e 2f3e 69cd 403d c171 e13d 3644 b73d
00000070: fcd5 b13d 9b29 973d 8fb1 8abe 44fc ce3e
00000080: 830b a53e 2c2f 093e 5959 dbbd bc24 863e
00000090: cb28 23be 4094 a73e ffa6 343e 99aa 893d
000000a0: c043 943f f705 143e 15db b13d b9c1 26be
000000b0: 6401 b83e 94f0 9fbd fdf3 553d 58bd 353f
000000c0: 6b95 d63e 3f51 e7bc 6c15 1f3f 7b49 b03e
000000d0: fd33 873e 1ab1 373e 4afc 493d 5a30 3c3d
000000e0: dfb0 6c3c f1a3 7e3e d17d 2a3e cc87 603e
000000f0: 787a 1b3e accf 563d 704f f0b9 66a4 adbe
00000100: ca16 d2bd 13a7 283e 1d04 a23e 1670 f3bd
00000110: 4219 bf3e 9a63 863e a7db a1bd 336c 5b3e
00000120: eead 333e ff8a 9a3e 81b9 a23e 9d1a 713e
00000130: 8f87 483e 4748 89bc 4d33 163f 0efa 5c3e
00000140: ca1a 50be d48c 223d 21a1 cd3d 0e0d 333e
00000150: f72a 4d3e b01c 053e f07f 123f c93e af3c
00000160: c386 973e fa7c 5e3e 7752 4f3e de41 28bb
00000170: eccc 4d3e 3728 5f3e ae14 6fbb d28a 8b3e
00000180: 2ab0 523e f8ad 0f3d 4fa4 b83d 5845 543c
00000190: a187 f0bd 38bd a43e 824d 63bd da42 293d
000001a0: 86cb 843e f8ee 10be 9eb5 963e df42 9a3e
000001b0: d7bb 343f 8a14 633e b640 7e3d fc76 793e
000001c0: 981e a03e 6842 2d3e 5a5e a73d 6cda 473e
000001d0: 45e4 303e cad1 7ebd 5744 0b3f e9d6 863c
000001e0: c89f 683e 9570 ea3c 3015 763e 1f3e 95bd
000001f0: fc20 9a3e 8d69 383e f7a7 683e df83 523e
00000200: 8bdc 813e f85a 5dbd 0be7 163e 86a0 c4bd
00000210: 3535 bebe 4358 3f3d dd28 283d 0028 fb3d
00000220: a77e 34be cc38 9b3e fcfb b53e 42d0 43be
00000230: 0391 a3be 1c7f cebd dfe5 53be c634 21bd
00000240: 61c2 9dbe 4e48 84bd fc23 3fbd 3cff 1cbe
00000250: 06f7 003d e86b c6bd 248a 833e b6f9 c9bd
00000260: 497d 8dbd dce4 ca3c 338f 43be 8e3d a03d
00000270: 91c5 683d 5a32 b4bd 1041 9c3e d186 b83d
00000280: 6276 e3bd 5f8a 753d 4c48 833e 1f7a c5bd
00000290: 528b 223e 5628 04be 75fe 5dbd 39ae bf3e
000002a0: 28fb 95bf a1cf 98bd 7873 963d 758f eb3e
000002b0: c607 1a3d 19dc 8d3d 7b85 073e 97e7 abbe
000002c0: b5cc 8fbe 6199 9e3e ae9d ddbe 0776 c2bd
000002d0: 17a1 623d 934b 79bd 13e3 173e 6d1a 26bd
000002e0: 7ab9 7fbc 8494 b3bc eee0 38be 71b3 2d3d
000002f0: 5916 913c 555c 453c cbde e93d 87ec 443e
00000300: 6d98 6b3e 81b3 ffbc 169a a5bd ac2d 923e
00000310: 7a6a 41bd 88b2 2c3d aced 853d 5a39 1e3d
00000320: 628e b9bd a931 0b3e 4e35 4e3d ef63 47bc
00000330: ebe7 96bd f4fd 403d 31f9 c9be dbdb 49be
00000340: 9e45 2b3e c62b 293e 1efc 96bb 0b57 a7bd
00000350: 7eb8 c2bd feb8 69bd cfe2 d2be 0c33 213d
00000360: 3fcf cb3d 23a5 5f3d 747d 653d 0602 35bd
00000370: 34d8 cc3d 6b1a c63d 9e78 d53d f5ae 4cb8
00000380: 9718 8cbd 829d 77bd 2af3 d73d 802e 52bd
00000390: 3dc3 4a3e d669 cdbd b866 463e 8fb6 e1bc
000003a0: 9488 5c3d 824f 8c3e 10fe 6b3e 5436 66bc
000003b0: 44b5 4abf afcc 763d 6077 823e 5a5e 81bd
000003c0: e4fe aa3d f197 183e a1f7 bc3d e2d6 17bc
000003d0: f755 8abd d102 133e c7ff a7be f3aa 103e
000003e0: db2a 51be e13e 923e b19f 133d 754d 9b3d
000003f0: 2754 01bb 2b86 04be f423 963d e09d 17be

linears.1.bias f4 [128]
0.025583025 0.3037002 -0.0014522378 -0.0428404 -0.07794139 -0.04367762 0.28742954 -0.0028039182
-0.30298635 -0.026457537 -0.0825264 0.030331962 0.31260937 0.28318805 -0.2776166 -0.37107274
0.012622819 -0.23890097 -0.048334617 -0.39025542 -0.14969721 0.099706486 -0.029659364 -0.14708789
-0.015817063 -0.032489773 -0.038500972 -0.02021499 -0.06725476 0.2324844 0.19928204 -0.33373994
-0.005063144 0.004202676 -0.00637958 -0.4203769 -0.15318634 -0.045523133 0.14862743 0.15643609
-0.15279795 0.38249007 -0.0024739048 0.25258368 0.006461337 0.30373442 -0.0028773858 0.31710434
-0.044182345 -0.1677192 0.065207794 0.011058893 -0.18784033 0.19607368 -0.016060777 -0.012411637
0.06944996 -0.023406306 0.27763295 -0.15595397 -0.2976953 0.002784439 0.25414795 -0.0016269278
-0.35170993 -0.09067659 0.0033739388 -0.32318425 0.17978837 0.23511213 0.23640066 -0.053117707
0.24215539 -0.0008882034 0.045133512 0.025127321 0.31275716 -0.03229846 0.34524474 -0.025563715
-0.025431048 -0.0048088664 -0.0038149846 0.21855147 -0.1475981 0.34898585 -0.34818304 0.30017003
0.1483278 0.3193484 0.08893381 -0.048895556 0.2349738 0.0 -0.0821259 0.26547602
-0.2454801 -0.043277502 0.34061366 -0.29878485 0.12765074 -0.21574427 0.042936858 0.008469094
-0.3422854 -0.20655149 0.29816797 0.23370257 -0.07617997 0.0 0.109350085 0.044264346
-0.085695714 0.21189451 0.028940085 -0.019040102 -0.29806885 -0.03588217 0.07003015 0.0
-0.09198246 0.3337366 0.28705272 -0.16636615 -0.09215277 0.4415608 -0.016718255 -0.0038510049
00000000: 7e93 d13c 987e 9b3e 0459 beba 6a79 2fbd
00000010: bc9f 9fbd 4ee7 32bd f729 933e f1c1 37bb
00000020: 0721 9bbe 7abd d8bc 9a03 a9bd bc7a f83c
00000030: 560e a03e 06fe 903e c323 8ebe 3ffd bdbe
00000040: f1cf 4e3c 75a2 74be 85fa 45bd 8fcf c7be
00000050: 3a4a 19be ea32 cc3d 32f8 f2bc 359e 16be
00000060: c992 81bc ff13 05bd 32b3 1dbd e899 a5bc
00000070: ddbc 89bd 6410 6e3e 9710 4c3e f6df aabe
00000080: bbe8 a5bb 9ab6 893b cc0b d1bb a43b d7be
00000090: e1dc 1cbe 7776 3abd ca31 183e c830 203e
000000a0: 1177 1cbe bdd5 c33e 3c21 22bb a652 813e
000000b0: a0b9 d33b 1483 9b3e 8692 3cbb 805b a23e
000000c0: 8cf8 34bd 95be 2bbe aa8b 853d 5c30 353c
000000d0: 3759 40be 8ac7 483e e491 83bc 2e5a 4bbc
000000e0: c83b 8e3d 95be bfbc e825 8e3e 66b2 1fbe
000000f0: 856b 98be 227b 363b ae1f 823e a33e d5ba
00000100: 5313 b4be a6b4 b9bd 4d1d 5d3b 6878 a5be
00000110: 711a 383e 3cc1 703e 0413 723e f491 59bd
00000120: 95f7 773e 52d6 68ba ebdd 383d d0d7 cd3c
00000130: b521 a03e 644b 04bd ebc3 b03e ff6a d1bc
00000140: c654 d0bc b293 9dbb d204 7abb f5cb 5f3e
00000150: f523 17be 46ae b23e 0c45 b2be e3af 993e
00000160: 3ee3 173e a281 a33e ee22 b63d b546 48bd
00000170: f99c 703e 0000 0000 a031 a8bd 79ec 873e
00000180: 235f 7bbe c043 31bd ea64 ae3e 54fa 98be
00000190: e0b6 023e 11ec 5cbe 8fde 2f3d f4c1 0a3c
000001a0: 0840 afbe 3c82 53be 79a9 983e ba4f 6f3e
000001b0: 3e04 9cbd 0000 0000 f0f2 df3d 884e 353d
000001c0: 3c81 afbd e0fa 583e c213 ed3c fdf9 9bbc
000001d0: 7b9c 98be 2ff9 12bd f86b 8f3d 0000 0000
000001e0: 4d61 bcbd 86df aa3e 93f8 923e e35b 2abe
000001f0: 97ba bcbd 4214 e23e b9f4 88bc 2461 7cbb

V.weight f4 [1, 128]
-0.39256883 0.25137508 0.04737258 -0.279881 -0.54658085 -0.29527465 0.5294033 0.13052377
-0.31523296 -0.30046296 -0.3629898 -0.5595897 0.33916804 0.43335727 -0.31546342 -0.64250445
-0.40063182 -0.6076921 -0.47797427 -0.6919582 -0.38064155 0.31973502 -0.29595804 -0.42439684
-0.119022936 -0.37038282 -0.072122306 -0.5809711 -0.09476673 -1.1751596 0.51913923 -0.513117
0.07265574 -0.42181772 0.33447686 -0.48928866 -0.27158332 -0.44079527 0.51168257 -0.20945929
-0.5061454 0.36772856 0.13496438 0.15261996 -0.44728625 0.25681627 -0.33421722 0.39858004
-0.42846853 -0.9616525 0.13420814 0.08450901 -0.29692134 -0.15394628 -0.33221853 0.10281976
0.33694455 -0.48224583 0.4653406 -0.25412372 -0.3362668 0.08412936 0.30672702 0.08430238
-0.59429336 -0.31857768 0.18313836 -0.6480226 -0.35728884 0.27661663 0.5279908 -0.34756425
0.41705552 0.096072085 -0.45915413 -0.50481445 0.41677755 -0.22359294 0.3302649 -0.24877825
-0.44328508 0.07030408 0.05150324 0.52883506 -0.38249487 0.42410293 -0.44299757 0.38593453
-0.23554926 0.5060176 -0.94040394 -0.26506817 0.42325437 -0.010335438 -0.3297821 0.33208784
-0.45084333 -0.49944407 0.42526087 -0.4431511 0.43463707 -0.4191061 -0.47486785 -0.40204754
-0.6396529 -0.5793665 -1.2417605 0.12651283 -0.4596199 0.13429426 -1.1381855 -0.42230237
-0.36976147 0.43738145 -0.33037847 0.42076096 -0.5472065 0.43445 -0.56931967 0.1671228
-0.34742212 0.40726182 0.35603535 -0.16741318 -0.32967702 0.36999184 -0.3503244 -0.3371669
00000000: c8fe c8be 3cb4 803e c009 423d 904c 8fbe
00000010: b9ec 0bbf 3d2e 97be fa86 073f 06a8 053e
00000020: 3766 a1be 48d6 99be cdd9 b9be 4541 0fbf
00000030: 6fa7 ad3e 01e1 dd3e 6c84 a1be 2c7b 24bf
00000040: 9d1f cdbe b691 1bbf 0bb9 f4be 2c24 31bf
00000050: 73e3 c2be 4fb4 a33e d087 97be 8b4a d9be
00000060: 4cc2 f3bd d1a2 bdbe dcb4 93bd 86ba 14bf
00000070: 0f15 c2bd a16b 96bf 4fe6 043f a35b 03bf
00000080: 88cc 943d 7ef8 d7be 8d40 ab3e 0b84 fabe
00000090: f80c 8bbe ebaf e1be a1fd 023f 7f7c 56be
000000a0: bf92 01bf eb46 bc3e 1a34 0a3e 6848 1c3e
000000b0: b402 e5be 6c7d 833e 851e abbe af12 cc3e
000000c0: 3a60 dbbe dc2e 76bf dc6d 093e 0f13 ad3d
000000d0: 1306 98be 18a4 1dbe 8c18 aabe 2b93 d23d
000000e0: ff83 ac3e ede8 f6be 2041 ee3e 811c 82be
000000f0: 292b acbe 044c ac3d 530b 9d3e baa6 ac3d
00000100: 9c23 18bf 9d1c a3be 9f88 3b3e cfe4 25bf
00000110: 90ee b6be b2a0 8d3e 682a 073f f1f3 b1be
00000120: 4d88 d53e 71c1 c43d 4016 ebbe 853b 01bf
00000130: de63 d53e 8cf5 64be 7b18 a93e babf 7ebe
00000140: 43f6 e2be 96fb 8f3d 10f5 523d bc61 073f
00000150: 5ed6 c3be 0524 d93e 94d0 e2be 3699 c53e
00000160: d333 71be 5f8a 013f 50be 70bf 04b7 87be
00000170: ccb4 d83e f855 29bc 33d9 a8be 6b07 aa3e
00000180: f0d4 e6be 22b7 ffbe cbbb d93e b3e4 e2be
00000190: c088 de3e 1395 d6be e121 f3be 2dd9 cdbe
000001a0: 4bc0 23bf 5d51 14bf 02f2 9ebf 948c 013e
000001b0: 4d53 ebbe 6f84 093e 10b0 91bf 0438 d8be
000001c0: 6051 bdbe 76f0 df3e 5e27 a9be fb6d d73e
000001d0: ba15 0cbf 3b70 de3e efbe 11bf 3d22 2b3e
000001e0: 50e1 b1be 9f84 d03e 444a b63e 5c6e 2bbe
000001f0: 6dcb a8be 926f bd3e b85d b3be 24a1 acbe

A.weight f4 [50, 128]
0.15018632 -0.022899348 -0.024433784 0.07034207 0.112366945 0.13393047 -0.12126873 -0.029455792
0.20082529 0.22096047 0.17158513 -0.1108314 0.20960382 0.29687965 0.20095748 0.40955362
0.18626802 0.32721743 0.076260544 0.47206602 0.3292275 0.15504676 0.06328777 0.05742935
0.023292433 0.118312456 0.08854808 0.25306115 0.13372539 -0.0065571303 0.16233791 0.37929198
-0.1392868 -0.016486485 0.28512767 0.062658116 0.23493618 0.2935488 -0.08644943 0.27404705
0.20900811 0.10520964 0.00033133227 -0.025031189 -0.041144792 0.12636334 -0.057627726 0.17055458
-0.17800003 0.36225623 0.036855668 -0.03925663 0.034410015 0.2093343 0.050048936 -0.105946556
-0.13033509 0.18349479 0.15853797 0.055133108 0.16845904 0.4207141 -0.10517147 -0.12160407
0.5361469 0.17163967 0.114855625 0.303001 -0.22341096 0.12273187 0.04596901 0.33469692
-0.033739775 0.071206585 -0.017147824 0.031936217 0.15507084 -0.027484726 0.08351548 0.11746908
0.29638892 0.053801417 0.0321677 -0.031437926 0.16080008 0.18022501 0.37163067 -0.010040808
-0.036172707 0.07149486 -0.02214623 0.114070535 0.13927309 -0.13513038 0.21127754 -0.13188148
0.020376435 0.04863585 0.043411843 0.23538305 0.15209332 0.32065344 -0.16783983 0.15288757
0.30901572 0.28563687 0.018911855 0.04024468 -0.00016292164 0.060753524 0.23530367 0.3331379
-0.11170577 -0.3977191 -0.036961805 0.09600296 0.51487625 0.23180287 0.05821132 -0.020613573
0.21694034 -0.042336427 0.24729788 0.17461905 0.13631889 0.080463454 -0.00029360308 0.20426819
0.068678916 0.09595581 0.04331446 0.08495648 0.15354377 0.004375741 -0.09993779 -0.07503792
0.37922594 -0.049461517 0.036604192 0.16006738 0.20524451 0.22338998 0.11092053 0.65483767
0.23378894 0.3999004 0.08482328 0.42493957 0.04271676 0.2975917 0.2727451 0.45360583
0.051653184 0.059825342 0.0049872426 0.12437569 0.008789366 0.16885185 0.041329075 0.24385607
-0.051566392 0.011945057 0.00040710263 0.2197832 0.08858506 0.20637138 0.08416829 0.05638013
0.31841645 0.10074912 -0.19699675 0.22538847 0.1926565 0.046759933 0.2964422 -0.22300582
0.20482609 0.29090574 0.0914283 0.12431296 0.001295536 0.1350058 0.28563413 -0.09299022
-0.10463851 0.17304792 0.083881155 0.04155252 0.13946514 -0.057136297 0.17205268 -0.20594358
0.30035898 0.19639458 0.13766359 0.2782082 0.06759274 -0.21024427 0.013954968 0.04774008
0.053964335 -0.014422459 -0.012700997 -0.024028178 -0.10251853 0.0507257 -0.06100763 0.1491221
0.24879968 0.08708409 0.15360636 -0.12014671 0.16856556 0.08476822 0.28558448 -0.07063544
-0.069841765 -0.07573009 0.1663318 0.30401984 0.2575179 0.0062060365 0.062026553 -0.070021726
0.36635447 0.014581816 0.1433081 0.51279384 0.12640475 0.2722248 0.12418795 0.10097352
0.36856198 0.5577661 -0.11095145 0.14466183 0.09224182 0.24168569 0.26797548 0.23218708
0.2791226 0.15999912 0.28705058 0.10515191 0.4923282 0.24560857 0.17829168 0.046310645
0.35149384 0.12948771 -0.06392257 0.5040382 0.058547243 -0.26593167 0.0531293 -0.29848003
00000000: 71ca 193e 6a97 bbbc 5c29 c8bc 810f 903d
00000010: a420 e63d 1225 093e bd5b f8bd 464d f1bc
00000020: 25a5 4d3e 7643 623e 03b4 2f3e 93fb e2bd
00000030: 62a2 563e 9c00 983e ccc7 4d3e 03b1 d13e
00000040: 0bbd 3e3e 0b89 a73e 7d2e 9c3d a3b2 f13e
00000050: 8290 a83e 94c4 1e3e 059d 813d 0a3b 6b3d
00000060: c6cf be3c cd4d f23d b258 b53d 3b91 813e
00000070: 4fef 083e 32dd d6bb e93b 263e 8f32 c23e
00000080: 33a1 0ebe aa0e 87bc 41fc 913e e652 803d
00000090: 1c93 703e 074c 963e 660c b1bd e54f 8c3e
000000a0: 3906 563e 2778 d73d aab6 ad39 350e cdbc
000000b0: 7187 28bd 6465 013e 0d0b 6cbd dca5 2e3e
000000c0: a445 36be a679 b93e f8f5 163d 8fcb 20bd
000000d0: 84f1 0c3d bb5b 563e 1d00 4d3d 82fa d8bd
000000e0: 9076 05be 0fe6 3b3e c757 223e 41d3 613d
000000f0: 8780 2c3e d767 d73e 2464 d7bd 8e0b f9bd
00000100: ec40 093f 4fc2 2f3e 6d39 eb3d f222 9b3e
00000110: d8c5 64be d95a fb3d 004a 3c3d 655d ab3e
00000120: b832 0abd c2d4 913d 9879 8cbc 8dcf 023d
00000130: e4ca 1e3e a627 e1bc 2a0a ab3d a193 f03d
00000140: 4ac0 973e e05e 5c3d 47c2 033d 0ec5 00bd
00000150: c7a8 243e e88c 383e 6046 be3e 3382 24bc
00000160: d529 14bd e66b 923d 036c b5bc d09d e93d
00000170: 9b9d 0e3e 9e5f 0abe 2459 583e f00b 07be
00000180: 7bec a63c 6336 473d 9ed0 313d 4108 713e
00000190: 5abe 1b3e b02c a43e 34de 2bbe 8f8e 1c3e
000001a0: 4f37 9e3e ff3e 923e 09ed 9a3c 9bd7 243d
000001b0: f2d5 2ab9 b0d8 783d 72f3 703e 0d91 aa3e
000001c0: ffc5 e4bd d6a1 cbbe 4365 17bd 339d c43d
000001d0: eece 033f bb5d 6d3e fe6e 6e3d ccdd a8bc
000001e0: 9c25 5e3e f668 2dbd a83b 7d3e 56cf 323e
000001f0: 2e97 0b3e 06ca a43d bdee 99b9 ae2b 513e
00000200: 88a7 8c3d 7b84 c43d 816a 313d aafd ad3d
00000210: 943a 1d3e 6062 8f3b 2fac ccbd 7bad 99bd
00000220: e729 c23e 2998 4abd 47ee 153d b4e8 233e
00000230: 9e2b 523e 58c0 643e 4e2a e33d 71a3 273f
00000240: 5e66 6f3e bfbf cc3e d4b7 ad3d ae91 d93e
00000250: c5f7 2e3d f05d 983e 3fa5 8b3e 063f e83e
00000260: 4a92 533d 6b0b 753d 066c a33b afb8 fe3d
00000270: 4601 103c 80e7 2c3e ad48 293d 68b5 793e
00000280: 4837 53bd 33b5 433c 6470 d539 d90e 613e
00000290: 156c b53d 0553 533e 6d60 ac3d daee 663d
000002a0: 7b07 a33e 8e55 ce3d 84b9 49be 3ccc 663e
000002b0: bf47 453e 5887 3f3d 46c7 973e a35b 64be
000002c0: eebd 513e 99f1 943e c33e bb3d cb97 fe3d
000002d0: face a93a f63e 0a3e a33e 923e a871 bebd
000002e0: b74c d6bd 7933 313e e2c9 ab3d fa32 2a3d
000002f0: f3cf 0e3e c007 6abd 942e 303e e0e2 52be
00000300: a7c8 993e a91b 493e aff7 0c3e 4e71 8e3e
00000310: 106e 8a3d 464a 57be 61a3 643c 1a8b 433d
00000320: b509 5d3d 2d4c 6cbc d817 50bc bed6 c4bc
00000330: 3cf5 d1bd c0c5 4f3d 23e3 79bd 77b3 183e
00000340: 58c5 7e3e 2559 b23d fc4a 1d3e 7a0f f6bd
00000350: 739c 2c3e f69a ad3d 2138 923e 50a9 90bd
00000360: 3309 8fbd 6118 9bbd e252 2a3e 7da8 9b3e
00000370: 63d9 833e 025c cb3b 8e0f 7e3d 8d67 8fbd
00000380: d092 bb3e 92e8 6e3c 5cbf 123e 7546 033f
00000390: 3f70 013e 0d61 8b3e 4056 fe3d 34cb ce3d
000003a0: 28b4 bc3e c2c9 0e3f 843a e3bd 3b22 143e
000003b0: 48e9 bc3d 747c 773e 1534 893e 73c2 6d3e
000003c0: 28e9 8e3e cfd6 233e 4bf8 923e e259 d73d
000003d0: 7112 fc3e d080 7b3e 1892 363e 3bb0 3d3d
000003e0: 00f7 b33e 6d98 043e d6e9 82bd a608 013f
000003f0: 3ccf 6f3d 3228 88be 1c9e 593d 60d2 98be

A.bias f4 [50]
-0.16625223 -0.18028586 -0.34624785 -0.20378727 -0.21693441 -0.3031145 -0.16437288 -0.22853976
-0.24856146 -0.046046186 -0.11162308 -0.1100648 -0.1932338 -0.16438112 0.19414565 0.10742347
0.08963686 0.09863316 0.34547406 0.5321981 0.58818406 0.31882292 0.23199092 0.47212917
0.1692534 0.07356765 0.2825057 0.37408927 0.12809364 0.08553936 0.2974196 0.24857001
0.22270487 0.26691893 -0.01311267 0.040356267 0.116102144 0.17962 0.060982034 0.28335682
0.11960279 0.09689003 0.17981361 -0.11419893 -0.102699205 0.11903393 0.2551882 -0.014548839
0.214507 -0.15488398
00000000: 063e 2abe db9c 38be 6647 b1be 9cad 50be
00000010: 0e24 5ebe d331 9bbe 5d51 28be 5406 6abe
00000020: e586 7ebe ed9a 3cbd a49a e4bd a769 e1bd
00000030: 15df 45be 8653 28be 1ece 463e d600 dc3d
00000040: 8893 b73d 2f00 ca3d fae1 b03e 223e 083f
00000050: 3b93 163f c23c a33e 078f 6d3e eaba f13e
00000060: c350 2d3e a3aa 963d 96a4 903e a188 bf3e
00000070: fb2a 033e 432f af3d 6247 983e 2389 7e3e
00000080: bf0c 643e 99a9 883e 86d6 56bc 9d4c 253d
00000090: f6c6 ed3d 4eee 373e 4cc8 793d 2514 913e
000000a0: 4ff2 f43d 486e c63d 0f21 383e 21e1 e9bd
000000b0: f653 d2bd 10c8 f33d 07a8 823e 415e 6ebc
000000c0: b9a7 5b3e e899 1ebe
